api/data/models/BNB_USDT_1h_lstm.pth (torch, 211349 bytes, 9 tensors)

lstm.weight_ih_l0 f4 [256, 6]
00000000: 2598 2e3d 1229 973d fdbe 9f3d 8212 0fbd
00000010: 5a15 fd3d 5fe3 a53c 94f2 61bd d33a 1bbd
00000020: 2b26 c83d 123b ca3d 245d f93d e73b 153e
00000030: b120 ab3c 5d0b e63c c89c 283e 727f 113c
00000040: 07cf 2dbc 552d 5ebd b3fa fe3d 437d 76bd
00000050: 6aeb 89bd 704b 90bd d2cc abbc 5f6c 97bc
00000060: 2204 4bbd 7049 143b 7876 8b3d 0415 e8b8
00000070: 3e39 d8bc b81f bd3d 1b7b d43d 8ebd 05be
00000080: 7dde 8bbd 7c7f 6c3d aa47 08be f784 ac3d
00000090: ddbd 6fbb d884 e43d 2abb 5e3d ce25 f7bc
000000a0: 5e73 a8bd 099c 3e3d 74ec 1b3e afb4 b53d
000000b0: 0ada 153e c02d 5ebc b156 e7bc b029 103e
000000c0: 9e29 90bd c62d 0cbe ae8f 4abb 8c60 883c
000000d0: 86e8 69bc 8f21 8abc b2f6 cc3d c01d b8b7
000000e0: 8cca e2bd 2374 d63c 884a c23d e96a df3d
000000f0: 28ac 8cbd 489e ab3d 500a f8bd b362 123d
00000100: a05e 023d 6dd3 23bd 5562 d93c fe65 583d
00000110: 592b 09be 7f2b ab3d df98 233d b39e bc3d
00000120: 54a0 e23d 8345 6f3c 4a84 5a3d 0985 abbd
00000130: b6ad 693d 72a7 063d 994c 323e 2e23 27bd
00000140: e0fc d13d 5885 1b3d a042 af3d 2960 ee3c
00000150: 7a43 ea3d 5fda f13d 381b 40bc df0e b9bd
00000160: 84a3 803c e9f1 e3bd 87cd 083e 62e2 903d
00000170: fa79 b9bc 8c4f 5c3d b3c5 bebb e80f 6fbd
00000180: 4af6 aebd adae af3d 5075 c6bd d9a7 163e
00000190: 37da 8bbd c1ad bc3d 906d 20bd 2cfb 383d
000001a0: 9d44 213d 32bc 863d e3a7 013e 7720 23bd
000001b0: 1e8c e43d ce50 cebd 7b90 ab3d 6b27 1abd
000001c0: 4d78 893c ac31 d3bd a4e4 233d f50e 923d
000001d0: b29b 01bd 77e6 f13d 3ec8 5dbd 61c1 f23d
000001e0: b92f e5bc 2fdb 34bd 5f15 2b3d 51c6 8e3d
000001f0: 9ce3 0e3e 7b10 003e de49 663d 72a0 cc3d
00000200: 97a8 183d d2c0 e33d e106 803c 7c5c adbd
00000210: 0e46 d63d 74a1 64bd 460a ba3d c95f bfbd
00000220: 9012 e8bc ab43 d6bc ce4b b0bc 0c2b aebd
00000230: b4c8 48bd 50b9 62bd 28cd b13d 2fd5 043e
00000240: d81b d4bc a447 71bd e7d6 ac3d 4e0e 98bd
00000250: d2c5 da3b 5d79 023d 1551 f6bd 7fc3 523d
00000260: 2fbf e93d 9cbc a83d c8fa e93d 7ab9 f13d
00000270: 69f5 223d f466 f23c b072 3ebd ee50 583d
00000280: 095c 813d 0f13 d4bd d84e a3bd 5a3a abbd
00000290: beb8 9bbd d98b 043e c6cc e63d 96c7 213d
000002a0: 2e7a 2cbd b77e a43c c8b9 b23b 8509 da3d
000002b0: 82ae 073c 0e12 e53d 79c1 b73d 2baf 9c3d
000002c0: 0823 8abd 7575 1e3d 6e31 d1bc e29c 89bc
000002d0: afde 1e3d 9f72 043e 9b43 1d3e f541 30bd
000002e0: 484c b6bd bde3 81bc c921 dfbc 9bfd 0dbe
000002f0: 6a07 93bc 05c4 583b e951 78bd 438b 56bd
00000300: 21e1 163e 3edc 2d3e 0ef2 82bd f5d0 1cbc
00000310: add4 bf3d 6113 273e 4fef 723d 474a ec3b
00000320: f358 2d3d ee83 8e3d ac6c b33d 1e26 8f3d
00000330: 6f85 c43d e70e 343d 5fc8 bebd 13bd b1bc
00000340: 15c7 10be 05da 0dbd 7148 273e 9243 59bc
00000350: 1e2a b23b ef9b d8bd 42bc f6bc 8817 093d
00000360: d02f 183e 6752 dabd cec9 2f3e 8dde d13d
00000370: 0ba5 ca3d 99c5 37bd b2eb 453d 6f2b 96bd
00000380: 78c8 93bd 8984 183d 9efe dfbc 062e 5e3c
00000390: b2cb 853d 8edc 8e3c 2c0a 8bbd 31a8 aebd
000003a0: 5178 babd d8ee 403d 9a03 49bb d9e3 00be
000003b0: c4d1 51bc f940 1b3c beac 1ebd 6694 853c
000003c0: 51e8 ee3d c762 0f3e fd51 ec3d 4656 b9bb
000003d0: d557 463c 1a3c d23c 15ed 043e 054f edbd
000003e0: e672 5abd 94d0 f7bd 578d b2bd a45c ea3d
000003f0: 3be5 643d ec6a 55bd 5dd1 183c 1670 a23c
0.042625565 0.073808804 0.078001 -0.03492976 0.12357588 0.02025002 -0.05516298 -0.037897896
0.09772905 0.09874548 0.12175968 0.14573632 0.020889612 0.02808159 0.16466057 0.008880483
-0.010608441 -0.05424245 0.12450161 -0.060178053 -0.06734355 -0.070456386 -0.02097169 -0.018484293
-0.04956449 0.002262678 0.068097055 -0.000110665365 -0.026394483 0.092345655 0.10375043 -0.1306059
-0.06829546 0.057738766 -0.13308588 0.084237985 -0.0036581673 0.111581504 0.054377712 -0.030169394
-0.082251295 0.046535525 0.15226918 0.08872353 0.14633957 -0.013560712 -0.02823958 0.14078403
-0.07039188 -0.13689336 -0.0030908394 0.0166476 -0.014276629 -0.016861705 0.10007991 -2.1948363e-05
-0.11073789 0.026178425 0.09486872 0.10909063 -0.06868774 0.08379799 -0.12111342 0.03573866
0.031828523 -0.039996553 0.026536146 0.052831642 -0.13395442 0.083579056 0.03994071 0.09209957
0.110657364 0.014603975 0.053348817 -0.08374984 0.05705043 0.032874532 0.17412032 -0.040805034
0.1025331 0.037968963 0.085576296 0.029098587 0.114386514 0.11809229 -0.011725239 -0.090360396
0.01570297 -0.11130125 0.13359652 0.07074429 -0.02264117 0.0537868 -0.0058219074 -0.05836478
-0.0854307 0.08578239 -0.09690344 0.14712466 -0.068287306 0.092128284 -0.039166987 0.04516141
0.039372075 0.06578864 0.126617 -0.039825883 0.11159538 -0.10074006 0.08377167 -0.03763525
0.016780997 -0.103122085 0.04001297 0.07131759 -0.031642623 0.11811536 -0.054146044 0.1185329
-0.027976857 -0.044154342 0.041768428 0.069714196 0.13954014 0.12506287 0.05622279 0.0999154
0.037270155 0.11120762 0.01562828 -0.084649056 0.104625806 -0.055818036 0.09083991 -0.093444414
-0.028329164 -0.026155313 -0.021520521 -0.08504304 -0.04901953 -0.05535251 0.086817086 0.12971948
-0.025892183 -0.058906212 0.08439427 -0.074246034 0.006676414 0.031854022 -0.12027184 0.05145597
0.114134185 0.082390994 0.11424786 0.11802955 0.039784823 0.029590108 -0.046496093 0.052811556
0.063163824 -0.10355198 -0.079740226 -0.08360739 -0.07603596 0.12943973 0.11269526 0.03949698
-0.042108707 0.020079954 0.0054542758 0.10646347 0.008281352 0.11185084 0.08972449 0.07650598
-0.06744963 0.038686235 -0.025536265 -0.01679844 0.038786586 0.1293435 0.1535782 -0.04303165
-0.08901268 -0.015855664 -0.02723779 -0.13866274 -0.017947871 0.003307582 -0.06062499 -0.052378904
0.14734317 0.16978547 -0.063938245 -0.009571304 0.093667366 0.16315986 0.059310254 0.007211003
0.042321157 0.06958757 0.08760962 0.06989692 0.09595763 0.043959524 -0.093155615 -0.021696603
-0.14138444 -0.034631748 0.16336228 -0.013260739 0.0054371497 -0.10576617 -0.030119065 0.033469707
0.14861989 -0.10660248 0.17166826 0.10247526 0.09894761 -0.04486618 0.04832048 -0.07332503
-0.07215971 0.03723577 -0.02734309 0.0135607775 0.065329924 0.017439153 -0.067890495 -0.08528174
-0.0910498 0.04710278 -0.0030672313 -0.12586917 -0.01280636 0.00947594 -0.03873896 0.016306113
0.116654046 0.14002524 0.115390755 -0.0056560365 0.012105902 0.025663424 0.12981065 -0.115873374
-0.053332232 -0.1210033 -0.08718365 0.11443451 0.055882674 -0.05210392 0.00932726 0.019828837

lstm.weight_hh_l0 f4 [256, 64]
00000000: 294f f6bd 65ab 98bd fe1e 05bd 6277 e63c
00000010: d4fe 00be 4c45 8f3d 484f 483d 12dc 21bd
00000020: 7f76 bdbd 41e6 933d 3de1 6dbd ace8 423d
00000030: 4d57 cf3c 6354 b33d 78fe 75bd b8d9 e6bd
00000040: 5400 0ebe a01b 6cbc bbc1 3bbd d99b c93d
00000050: 2ac2 30bd 9de3 23bd 3cba f6bd decf 953c
00000060: 99a8 bbbd a492 ab3b 26eb a43d 9de7 163c
00000070: 401b debc 996e 13bd ac66 b73d 2c7d 513d
00000080: 4f74 253d 9533 aebd 1f3c bfbd 2793 fe3d
00000090: 2079 bd3d 6ed3 523d d0e1 ca3d 8995 bd3d
000000a0: e562 b63d cc62 b63c dbc2 fabd 80b2 753d
000000b0: 520a 09be d9ed 053e 6def 0ebd 3e7b e2bd
000000c0: 2a02 f43c dd22 533d e744 0fbd 547a b8bc
000000d0: 752f 003e 2d42 8e3d 5ff4 933c 2165 933d
000000e0: 5b70 dfbd 994f 743d 6fae 60bd 0e01 f93d
000000f0: 0a60 a2bc 4ca0 cdbd aa39 bcbd 1457 a3bd
00000100: af97 3abe a083 ec3c ec6b 883d 6167 8bbd
00000110: b2ea 6e3d 5662 72bc d89e 36be 7343 a3bd
00000120: 79ee d03d ff4a f4bd 898b f23c 9ee9 87bd
00000130: 13b6 00be fd9f 153e 5949 23be d468 8f3d
00000140: af26 743c 7ad1 48bd ca6b c93c 2b4f 4a3e
00000150: d54d 71bd e35f 4f3d 63b9 2fbe aa1e cb3c
00000160: bc4b dd3c 3a66 2cbc fb68 43bd 8c23 2cba
00000170: 8528 26bd 2f92 f4bd 5f25 293d 9841 063e
00000180: a571 87bd 0e6b c33d 3eb9 d83d 7eda 4cbe
00000190: 113d c9bd e5f1 4abe 350b 263e 12c7 263d
000001a0: 1202 6d3d 4bc5 16be b147 e8bd d45f 93bb
000001b0: c2d4 4bbd afef 09bd b8c7 d53c 06e5 323e
000001c0: 5036 b03d 76be 4d3e 8c0a 9dbd cbea 29be
000001d0: c0d0 1c3c 3e2c b3bc 6942 6cbd 2f4b 3abc
000001e0: e0cb a93d 4db7 39be 9878 84bd c15f 033d
000001f0: e216 303a ad78 a6bd 459d 9dbd 549b 1d3c
00000200: c732 99bc e3b6 c03d b2ff f13b 6ec1 26bd
00000210: 1c81 1dbd 2bda aebd 69f8 96bc c732 123d
00000220: d045 1b3c 4fa5 99bd 7e55 1c3c c3d2 db3d
00000230: 1aff 79bc 0446 0a3e b54a c7bd 79e1 c63d
00000240: 1b0c e8bd ed42 723d a6ef b13c 5184 8c3c
00000250: b811 05be 5d4e 103d 9908 ffbd 44c5 44bc
00000260: 3e18 fb3d 9236 9abc 84bc 25bd ed67 f4bd
00000270: a6cb 8d3d 7286 80bb 8cfb 34be 2e9f 1c3d
00000280: 1563 ba3d eb2b b93c f304 cbbc 0682 b03d
00000290: 401f 8a3d 1df0 f23d f070 ddbd b811 d73d
000002a0: f202 1b3d bcd8 afbd 763f 7c3d 77ba bc3d
000002b0: e32d a7bd 2ca3 a7bd 9b28 e73b 92db a53d
000002c0: ee06 c83c abd1 d13d 4e02 07be 44d7 a3bc
000002d0: 29c6 053e 307b 5e3c 1a83 153d 3961 8ebc
000002e0: 754a d5bd 7b3f 16bd 10bf 923d 4ef4 c83d
000002f0: 447c e73c 37fa 953d eb56 b93d eaf7 c4bd
00000300: 4d87 363d c50d 933d 3e07 c03c 755e e63d
00000310: 60e4 913d 88c9 b33d d944 cd3d df5a aebd
00000320: bb69 85bb 885c f8bd aa75 f2bd cacd d63d
00000330: 5155 b4bd 0afa e83d 08fe 83bd 45fa a6bd
00000340: 68c3 9fbd 879a b3bb 6754 1a3e d4d6 c73c
00000350: fdab dcbd 8f5d f2bd 8a55 263d 6c2b 993c
00000360: e50f 35bd 77fa aabd 8ae5 48bd 1d79 a43d
00000370: 1fae 953d db3a cfbd a138 99bd 20c8 cd3d
00000380: 8b80 f7bd bafe 143d 2ceb 8fbd 72e3 fdbd
00000390: 727e 57bb 76db 923c d8dc 083d 34e2 093e
000003a0: 4002 1ebd 0e10 bc3d 36b1 8b3d dcea 523d
000003b0: 1ce5 bfbd 41b3 18be dca0 a03d 4b5b 1e3d
000003c0: ead3 513c 08ea 943d c14a 01be 6633 37be
000003d0: 85b7 e53d 59be 643d 3c79 bc3d 3b01 30bd
000003e0: 43e8 b5bd 1628 eb3c 0ee1 f3bc 6c1e 65bd
000003f0: f440 ecbd 812e 14be 30da c93d 04a6 fa3d
-0.12026817 -0.07454566 -0.03250026 0.028133098 -0.12597209 0.06995639 0.048903733 -0.039516516
-0.09251117 0.07221652 -0.058076132 0.047585174 0.025310183 0.0875633 -0.060057133 -0.11271995
-0.13867313 -0.014410883 -0.045839053 0.09844179 -0.04315392 -0.04001199 -0.1204724 0.018287595
-0.09163017 0.005235987 0.080526635 0.009210494 -0.027112603 -0.035994146 0.0895513 0.051144764
0.040394124 -0.08505932 -0.09337639 0.12430411 0.092516184 0.051471166 0.099063516 0.09257037
0.089055814 0.022263907 -0.12244197 0.059984684 -0.13382843 0.13079013 -0.034896303 -0.11058663
0.029786188 0.05154692 -0.03497782 -0.022519268 0.12518103 0.06946216 0.018060861 0.07197023
-0.10910102 0.059646223 -0.054853853 0.12158404 -0.019821186 -0.1004034 -0.09190686 -0.07975593
-0.18221925 0.028871357 0.066612095 -0.06806827 0.05832929 -0.014793953 -0.17834032 -0.07971849
0.10201735 -0.11928367 0.029607551 -0.06636356 -0.12569456 0.14611812 -0.15945949 0.07002416
0.014901801 -0.049027897 0.02458753 0.19756763 -0.058912117 0.050628554 -0.17160563 0.024794895
0.027013652 -0.01052242 -0.04770754 -0.0006566576 -0.040565986 -0.11941945 0.041295405 0.1311096
-0.06613473 0.095419034 0.10582207 -0.20005223 -0.098261006 -0.19818838 0.16215213 0.040717192
0.057863303 -0.14723699 -0.11341799 -0.0044975076 -0.04976345 -0.033675846 0.02609621 0.17470178
0.08604109 0.20092186 -0.07668027 -0.16593473 0.009571254 -0.021871682 -0.05768052 -0.011370464
0.08290839 -0.1813633 -0.06468314 0.03207374 0.0006717277 -0.08128486 -0.076960124 0.009619553
-0.01870097 0.09409883 0.0073852176 -0.040711813 -0.038453206 -0.08537706 -0.018428998 0.035692956
0.009477094 -0.07502233 0.009541867 0.10733559 -0.015258575 0.13503271 -0.09731046 0.09710974
-0.11330434 0.059145857 0.021720719 0.017152937 -0.1299504 0.035230983 -0.12452812 -0.012009922
0.12260483 -0.01882485 -0.040462986 -0.11933885 0.069236085 -0.003922277 -0.17674083 0.038237743
0.0910093 0.02260395 -0.024782633 0.0861855 0.06744242 0.11862204 -0.10812557 0.105014265
0.037844606 -0.08586261 0.06158396 0.09215253 -0.08163049 -0.081854194 0.007054401 0.0809852
0.024417367 0.10245069 -0.13184473 -0.020000108 0.13063873 0.013579175 0.03650198 -0.017380344
-0.10414592 -0.036681633 0.071653485 0.098122224 0.028257497 0.07323115 0.090497814 -0.09617598
0.044562627 0.07180361 0.023440953 0.11248485 0.07123637 0.087786734 0.10022897 -0.08513426
-0.004071442 -0.12127024 -0.11838849 0.1048847 -0.08805335 0.11375816 -0.06444937 -0.08153204
-0.07800943 -0.0054810676 0.1507126 0.02439443 -0.10774992 -0.11834251 0.04060892 0.018697463
-0.04420461 -0.08348554 -0.04904703 0.08030913 0.073086016 -0.10118648 -0.07481504 0.100479364
-0.120850645 0.03637574 -0.07027277 -0.123968974 -0.0032881764 0.017926913 0.033413738 0.13465196
-0.038576365 0.0918275 0.0682091 0.05149351 -0.09369871 -0.1491213 0.078431815 0.038661283
0.012806872 0.072712004 -0.12626173 -0.178907 0.11216644 0.055845592 0.09202811 -0.042969923
-0.08882191 0.028705638 -0.0297704 -0.055937216 -0.11535826 -0.14470865 0.09856069 0.12238696

lstm.bias_ih_l0 f4 [256]
00000000: 3e60 923d 6534 3d3b c530 04bd 9db4 c03d
00000010: f853 9d3d c46f a8bd 531a a23b 7cac 1bbd
00000020: 3e6d abbd c9ff 96bd ccce 26bd 6e6e 06ba
00000030: d348 fe3d 9288 2a3d 12d4 0b3d 9976 a4bc
00000040: 2656 29bd d46c b4bc bb46 9bbb e9a2 8a3d
00000050: d13d 0f3e f0f4 263d f1b2 053e 8a99 713d
00000060: 02ff a43d c1e0 8c3d 0857 d6bc 3eac 8bbd
00000070: 3f89 733d f9fb 0dbd 248f e3bc 5805 d63d
00000080: f5ad 9bbd 9afa 1e3d 97e8 afbd 5c81 c638
00000090: df05 203d 1334 863d aa1d d9bd 4e0e 0a3b
000000a0: 93b6 a0bd 6207 003e 681c d5bb 3e7a 013e
000000b0: 0f98 78bd d701 59bc 8774 4bbd 0dce 65bd
000000c0: f5f6 f13d 6199 58bd 2d86 063e 7827 dd3d
000000d0: c868 1d3e 06a7 a8bd b688 01be 4106 7b3d
000000e0: ae08 81bd 506c f8b9 96dc e83d b900 b53c
000000f0: 34a6 58bd a8fc 2abc 388b 163d 9545 79bd
00000100: 3e47 c0bd b19c 1e3d 1cc3 02be d947 553d
00000110: 6fd8 d23d 87e1 e5bd cd20 d0bd b4ad b53d
00000120: f898 e4bc 53ab b03d 1120 f0bd 864d 133d
00000130: e427 013e 1ff3 cfbd d86b 033e a143 a1bd
00000140: f215 0b3d fea5 c3bd 30fb 23bd d120 583b
00000150: ce35 eebc 2b6d e23d b0e9 023d 6271 97bd
00000160: 74f1 f6bd 3a3a 273d 14eb 85bd 8787 333c
00000170: 5966 db3d 7a65 6ebd 1f6b 9d3d 92ab a23d
00000180: 0b27 073e 14ef 993b 832e 773d e55f 9e3d
00000190: b002 c0bb 288d d83d 5d58 14bc 879f 3bbd
000001a0: a6fa 84bc 1017 b4bd a8f9 bdbd d413 d0bd
000001b0: 4b64 ed3c 25e1 c3bd a0ec 8abc 7d4d c83c
000001c0: e73d e43d 210a c7bd f355 2fbd 5d92 263d
000001d0: 59b1 41bd 4572 f3bd bdd5 ab3d 7afa a0bd
000001e0: b09c 95bd 4c72 773c ce6e ea3d d6aa 0d3d
000001f0: f573 ee3c 56f8 91bd 74d9 a53c 9f29 cdbd
00000200: e362 a2bc 58a4 5a3d 7c38 883d 952f 0e3d
00000210: 2b4c ea3d d539 0c3d f2c1 92bd 8916 ba3d
00000220: 5d4c 13bd e2ad 05be fa25 ab3d 5a97 3d3c
00000230: 1d59 863c 1e71 203b 76f5 af3b 6e83 9f3d
00000240: 1451 023e 925e 5bbd 4ccc b83c 8b27 ae3d
00000250: d7f5 2d3d ceb0 163d 5228 83bc b4d1 cb3d
00000260: 2c2d 003e 09ce e5bd 9f91 a03c 886e dc3c
00000270: 24b8 883d e483 c13d 2084 1d3c 1126 b7bc
00000280: ea23 a6bd 1818 71bd 26d8 923d 4de8 b03c
00000290: 86f4 36bd 8aba e13d 0e72 d8bb d57d a1bd
000002a0: 0fff a4bd 97de 2a3b e650 00bc ff9c c43c
000002b0: fe5a 10bd 9d19 3e3d b248 a5bc b587 bb3d
000002c0: 89b0 eb3d 8a98 833d e02f 8d3b 7bb9 69bd
000002d0: bf63 16bd 5014 753a 00b0 023c 954d 98bd
000002e0: 7605 1d3d 58d3 183c 99ba ca3b dbb0 1bbd
000002f0: 11c7 993d dc2f 6abb f109 dbbd d9bb f5bd
00000300: cd64 d0bd 1b09 c6bc 1d6a 70bd 5df4 033e
00000310: ebb1 953d 1cec f13d afaf ec3a 865e bb3d
00000320: 6fa0 eb3d 52e3 a53d 8ded f2bd 8d2a 5d3d
00000330: 3e61 92bd 56ff 99bd 2b26 7e3d 7525 9c3b
00000340: fc5b c53d 290d 79bd d94c 5ebc b552 ecbb
00000350: 4d7e f63d f10e b9bc 0074 91bd 86b4 2bbd
00000360: c913 033d a49f da3d 4065 e1bd 40eb 52bc
00000370: dbd0 a7bd a8c8 ac3d 8466 1e3e 5e9d e03a
00000380: d100 113e d746 11bd 078d 9f3d 4b4c 12bd
00000390: 1fbe bfbd c96c f43d b099 983d 370a c93d
000003a0: 6326 13bd 0e8d f13c de9a c53d e7d0 043e
000003b0: 51ce 2dbc de7c 173e 48e4 8f3d 1a0d fa3d
000003c0: 2093 a63d 6a47 45bd 023d 883d a5e6 ef3d
000003d0: 83d7 b03d 6805 c13d 234e 693d e448 ac3c
000003e0: 052e f33c 2e32 ba3d b08f e03d 5b33 c43d
000003f0: a4e5 ac3d 6489 a4bd 07c6 b43d e126 e93d
0.07147263 0.002887034 -0.032273073 0.09409449 0.076820314 -0.082244426 0.0049469857 -0.03800629
-0.08370446 -0.07373006 -0.04072456 -0.00051281496 0.12416234 0.04163415 0.034137793 -0.020076083
-0.041341923 -0.02202455 -0.0047386563 0.06769354 0.13988425 0.040760934 0.13056542 0.058984317
0.080564514 0.06878806 -0.026164547 -0.06819962 0.05945706 -0.034664128 -0.027778216 0.10450238
-0.07601539 0.03881321 -0.08589285 9.465471e-05 0.0390681 0.06552901 -0.10601361 0.0021065655
-0.07847323 0.12502816 -0.0065036304 0.12644288 -0.06069189 -0.013245068 -0.049671676 -0.05610471
0.118146814 -0.05288065 0.13137121 0.10798544 0.15372002 -0.08234982 -0.12649807 0.06128526
-0.06300484 -0.00047382945 0.113701984 0.022095071 -0.05289288 -0.0104362145 0.036753863 -0.060857374
-0.09388588 0.03872365 -0.12769741 0.052070472 0.10295188 -0.112246566 -0.10162506 0.08871022
-0.027904972 0.086264275 -0.11724866 0.035962604 0.12612873 -0.101537935 0.12834108 -0.07874227
0.033956476 -0.09553145 -0.040034473 0.0032978544 -0.02907839 0.110559784 0.031961143 -0.07394673
-0.12057772 0.040827014 -0.06538978 0.010957605 0.10712881 -0.058202244 0.07686447 0.07942881
0.13198487 0.00469769 0.06034709 0.07733134 -0.0058596954 0.105737984 -0.009054271 -0.045806434
-0.0162328 -0.08793461 -0.09276134 -0.10160032 0.028978487 -0.09564427 -0.016958535 0.024451012
0.111446194 -0.09718729 -0.042806577 0.040666927 -0.047288273 -0.118870296 0.08390377 -0.078602746
-0.073052764 0.015102934 0.114469156 0.03458675 0.029108027 -0.071274444 0.020245291 -0.10017704
-0.019822543 0.053379387 0.066513985 0.034713347 0.11440309 0.03423484 -0.071658984 0.090863295
-0.035961498 -0.13054612 0.08356853 0.01157173 0.016399914 0.0024481486 0.0053698374 0.0778874
0.12726241 -0.053556986 0.022558354 0.08503636 0.04247078 0.036789708 -0.016010437 0.09952107
0.12517232 -0.11220939 0.019600688 0.026908174 0.06675747 0.09448984 0.009614021 -0.022357019
-0.08112319 -0.05886087 0.07170133 0.021595145 -0.04466679 0.11021908 -0.0066053933 -0.07885329
-0.08056461 0.0026072615 -0.007831788 0.024000643 -0.035243027 0.046411145 -0.020176265 0.091567434
0.11508281 0.06425579 0.0043086857 -0.057061654 -0.03671622 0.0009349035 0.007976532 -0.074366726
0.038335286 0.009327732 0.006186795 -0.03801046 0.07508672 -0.0035734093 -0.106952555 -0.1199872
-0.10175476 -0.024174264 -0.058694948 0.12886186 0.07309326 0.118126124 0.0018057729 0.09148888
0.1150521 0.080999985 -0.118617155 0.053995658 -0.07147454 -0.075194046 0.06204812 0.0047652074
0.09636685 -0.060803566 -0.013568127 -0.007212008 0.12035809 -0.022590132 -0.07102203 -0.041920207
0.03200129 0.1067498 -0.1100564 -0.012873471 -0.08194133 0.0843671 0.15468794 0.0017136743
0.14160468 -0.03546795 0.07790571 -0.03571729 -0.093624346 0.119348116 0.074511886 0.098164015
-0.03592528 0.029486205 0.09648679 0.12970315 -0.010608272 0.14793727 0.07025963 0.1220953
0.081335306 -0.04816381 0.06652261 0.11713914 0.086348556 0.09424859 0.056959283 0.02103085
0.02968503 0.09091602 0.10964906 0.09580108 0.08442238 -0.08034018 0.08826833 0.11384369

lstm.bias_hh_l0 f4 [256]
00000000: fefe d5bd 3749 b03d d147 3e3d 9829 143e
00000010: a13e fe3c b6a8 b63d 1f4f f93d 8eb8 1b3e
00000020: b6a0 bbbd 2ce6 d8ba d794 edbd 0165 ccbc
00000030: 6106 2abd 5814 e33d f0df d9bd 315d a2bc
00000040: e02e aabd b8c8 babd 5123 d23d 3f96 bfbd
00000050: 04b0 2b3c bcee 23bd fc30 473c 1082 cc3c
00000060: b4d0 003e ffdd 59bd 0212 66bd 218b c33c
00000070: 15f6 e5bc 7a0d 14bc 162a 853c 487a 793d
00000080: 81cf d4bc b4f2 ae3d bb25 81bd 1005 c83d
00000090: b68b 873d 592e 503d ecf0 d7bd d90a 723d
000000a0: b5ff 00bd 4edd b1bd e92c 7f3c 2b56 c03d
000000b0: 02bc f93d c161 943b 58b0 c93d 89de 3bbd
000000c0: 52dd 383b 90bb dabb dad7 2dbb ab4f 63bd
000000d0: a8a0 1f3e b0fe d43d 184b e43b bf8a 1c3e
000000e0: cf92 673d fca5 f53d 1d70 0a3e 68aa 8a3d
000000f0: 3ff9 c63d 4f92 553d ba6a 18bd a4cf 8abd
00000100: b0ad 503c 063c 0c3e b3f6 11be d10a 8d3d
00000110: cf65 813c ffb6 db3c 4925 1f3d 94fb e9bd
00000120: 324c 43bd 18e6 52bd 1f08 3c3d f12b 323d
00000130: 7635 d63b c1e6 a4bd d905 d0bd f884 693d
00000140: b166 e83d 4e0d b2bd f825 1b3d c8f6 e63d
00000150: 1908 043e a307 0b3e 2659 0cbd 4852 9dbd
00000160: ea46 d3bd fa45 bcbd 4683 22bd 9bf6 503d
00000170: b9cc 873d a3f7 983d e8f9 46bd da77 a63d
00000180: b1b6 63bc a9b3 80ba 6f0c a0bd 3ee6 4ebb
00000190: 1a88 403b 0460 0ebd 1b9a 7f3d 89c5 b0bd
000001a0: 67da 32bd 1ecb b63d 6a5c 43bd d69b 0ebd
000001b0: 7185 b03d ff36 bd3d 55e4 aebd 8a83 10bd
000001c0: b84e bd3c 4367 773d d6fe c8bb b5b9 313d
000001d0: ce61 603d c52a 653d 7777 0dbd 3cb7 b7bc
000001e0: 77cc 163d 3d02 8a3d b2a5 883d ec89 4d3c
000001f0: 909c abbd 1884 50bb 88f2 d4bc 272f abbd
00000200: 7dad e9bd 185e a4bd d6aa 863d ed11 aa3c
00000210: 095e f13d d117 463d 516f f5bd d3ba bd3d
00000220: 4266 073e cf93 23bd 4fc0 febc 03a5 a3bd
00000230: 0ac1 f7bb 5d5a d1bd 0c8b c0bd 00f9 46bc
00000240: 10a2 9fbc 7ae6 40bd f268 bf3d e500 b8bd
00000250: facf d53d db1f b83d 59af ed3d 7c87 05bd
00000260: e825 043e 947d 3fbd d072 40bc 0860 0f3d
00000270: d1b1 dfbc de34 d23d 7099 8ebd b10b 8ebd
00000280: 1585 413d e562 e43d 292f 0abc 4210 b1bd
00000290: 4f76 b7bd c447 65bd c119 d43d ed9d e63b
000002a0: 8e5c b13b 9db2 813d 4f2e f73c 0760 693d
000002b0: 9f09 fa3c 0906 11bd 8903 413d 8324 843d
000002c0: 3395 7d3d fc9f 2b3c 45bb 2d3b fd4c 16bd
000002d0: e22a cfbc 9d7d f0bd 60cc 14bd 74bd 4abb
000002e0: 667d a3bc f386 8f3d 842d cb3d 20c7 c2bd
000002f0: 59b6 cdbd ac8c 53bd c777 9abd e32c 2e3d
00000300: f64f c63c 42df 993c 58c9 a5bd c08e c4bd
00000310: ce76 85bd 38de f9bb 251e 6ebc 5008 ef3d
00000320: 5598 133c b8a5 cfbd bc14 ad3c 86ec e33d
00000330: f956 5a3d 2623 093e 14fd c5bc 4458 a53d
00000340: f13d 3b3d 4adb 5fbb 0fc5 05be 0374 653d
00000350: f137 cf3d c326 82bd 0733 deba b9cb b7bd
00000360: 980c 09bc 5b58 103e 314c 26bd 83df 0c3e
00000370: 3cd6 e7bb d6dd cebd 1592 173e f841 2bbc
00000380: 071d e13d 0823 073e e5e8 cabd cfbb 0c3d
00000390: 4c07 aa3d e515 43bd ade5 003e 75df 093e
000003a0: 209a aa3d feee cfbc fb16 793c ba58 6abd
000003b0: ed1f d0bc 7381 7bbd 1887 f3bd 58a8 83bd
000003c0: 0610 003e c069 a6bd 6c59 6dbc 5053 873d
000003d0: d2e0 0f3e a6af a9bd 4a08 d13d 83c4 053e
000003e0: 0e1b e33d 9a95 d3bd d268 d7bd c98e 98bd
000003f0: 6daf 293d 54be c83d 2715 12bd 2a27 28bd
-0.104490265 0.086077146 0.04645521 0.14468992 0.031035723 0.08918898 0.12173294 0.15207121
-0.091615126 -0.0016548089 -0.116006546 -0.024950506 -0.04150999 0.11087865 -0.10638416 -0.019819828
-0.08309722 -0.09120315 0.10260642 -0.09354829 0.010478977 -0.040022597 0.012157675 0.024964362
0.12579614 -0.053190228 -0.056169517 0.023870053 -0.028071443 -0.009036416 0.01625542 0.060907632
-0.025977852 0.08542386 -0.06306025 0.097665906 0.066184446 0.05082545 -0.10543999 0.059092376
-0.03149386 -0.08684789 0.015574672 0.09391435 0.12194063 0.0045282547 0.09848088 -0.045866523
0.002820809 -0.006675191 -0.0026526363 -0.0554959 0.15588629 0.1040014 0.0069669597 0.15287302
0.056536492 0.1199455 0.1351933 0.06770784 0.09715509 0.052141484 -0.037211157 -0.067778856
0.012736723 0.13694772 -0.14254265 0.06886829 0.015795616 0.026820658 0.038853917 -0.11424938
-0.047680087 -0.051488966 0.045906182 0.043498937 0.0065371348 -0.08051825 -0.10157365 0.057011575
0.11347712 -0.08693944 0.037878007 0.112775385 0.12893714 0.13577132 -0.034264706 -0.076817095
-0.1031626 -0.091930345 -0.039675973 0.05101643 0.066308446 0.07469108 -0.048578173 0.081283286
-0.0138985375 -0.0009819168 -0.078148715 -0.003157034 0.0029377998 -0.034759536 0.062402826 -0.08631427
-0.043665316 0.0892546 -0.047695555 -0.034816585 0.08619202 0.09239005 -0.08539645 -0.035281695
0.023108825 0.060401212 -0.0061338944 0.043389995 0.054780774 0.05594899 -0.03453776 -0.02242624
0.036816087 0.06738708 0.06672229 0.01254509 -0.08379471 -0.0031817015 -0.025994554 -0.08358603
-0.114100434 -0.080257595 0.06575553 0.0207605 0.11785514 0.048362557 -0.119841225 0.092641495
0.13222602 -0.039935883 -0.03109756 -0.07990458 -0.007560854 -0.102223136 -0.09401521 -0.012144327
-0.019486457 -0.0470948 0.093461886 -0.089845456 0.10440059 0.08990451 0.116057105 -0.03259991
0.12905085 -0.04675062 -0.011746123 0.035003692 -0.02730647 0.1026399 -0.0696286 -0.06935824
0.047246058 0.11151675 -0.008434095 -0.08645679 -0.089581124 -0.055976644 0.10356475 0.007037869
0.0054126447 0.06332896 0.030173449 0.056976344 0.030522166 -0.035406146 0.047122512 0.064522766
0.061909866 0.010475155 0.0026509326 -0.036694515 -0.025289003 -0.11742709 -0.03632772 -0.0030935677
-0.019957256 0.070081614 0.09920791 -0.09510636 -0.10044546 -0.051647827 -0.07542377 0.042523276
0.02420805 0.018783215 -0.08095044 -0.0959754 -0.06516801 -0.0076253675 -0.014533554 0.11671507
0.009008487 -0.1013903 0.021128051 0.11129098 0.0533056 0.13392314 -0.024168529 0.08073476
0.04571337 -0.0034157806 -0.13063453 0.05601884 0.10118092 -0.063550495 -0.0016952463 -0.08974404
-0.008364819 0.14096205 -0.040600006 0.13757138 -0.0070750993 -0.101009056 0.1480182 -0.01045274
0.10991865 0.13196957 -0.09907702 0.034358796 0.08302173 -0.047628302 0.12587614 0.13464148
0.08330178 -0.025382515 0.015203233 -0.057213522 -0.025405848 -0.06140275 -0.118910015 -0.064285934
0.12506112 -0.08125639 -0.014486652 0.066076875 0.14050606 -0.082854554 0.10206659 0.13063245
0.11089145 -0.103312686 -0.1051804 -0.07449109 0.041427065 0.09801927 -0.035664704 -0.041052975

lstm.weight_ih_l1 f4 [256, 64]
00000000: 4dbc e6bd aa1d 183d 4221 ce3d 1680 4ebd
00000010: 0ca6 9a3b 928f 043e c41b 67bd 73a4 9ebd
00000020: 1adf d2bc 1f4e dd3d 8353 543d d1df f53c
00000030: c9f6 8a3d 3761 193d 506c f53d 6478 773d
00000040: 1c43 af3d 3728 13bc 5522 c03d 4068 4c3c
00000050: 821c 793c 8352 9abc a64b efbd fa15 2d3d
00000060: b18b 9d3d 2489 c2bd f2c1 863d 53f0 8d3d
00000070: d387 1dbe 9595 b03c 18ad dfbd 4fbe 8d3b
00000080: e8b6 903d 4159 eebc c408 e83c 37d1 aeba
00000090: a71f c9bb e815 e93d f67e 93bd f8e3 d63d
000000a0: 6803 173c a2a3 c03d ca05 9a3d e2c9 5a3d
000000b0: ad48 36bd 9b01 043e 11cc bc3d 217d 2abd
000000c0: 5b6f 25bc 8c22 fb3d ca14 213d e36c 5dbc
000000d0: 5536 9cbd 0271 b9bd 5ca5 35bc 8d6d f33d
000000e0: 8535 e4bd d4db 8abd 71e1 233d 79cc a23d
000000f0: 17bd bbbc d646 5bbd 2981 0f3e 2440 473d
00000100: d5dc 48bd 4e10 863c f646 b63d 7f46 a43d
00000110: 1e9c c13c c5c2 4c3d 348d 17be 7c4f 34bd
00000120: 94a2 c5bc 2f4e 6a3d 63b4 053e a0e5 043d
00000130: fd90 dcbc 23d3 013e d1b9 6fbc cd2a 2f3d
00000140: f501 f93d cf1d 0ebe 809e b0bd ff3b 343c
00000150: 5a49 083d 939a 813c 8294 b4bd aa6c 1ebd
00000160: 9e37 75bd a40d a63d 9025 ac3c 1e6e dbbc
00000170: 6715 86bd a698 923d 3f2d 643c 430b 133d
00000180: 277a 383d 0394 11bd 1866 7dbd 911e 08bb
00000190: 695f 93bc 666f da3d 85ae f9bd e4ca 263e
000001a0: a8fc ecbd 30f4 de3b 7fb3 26be 0e8e ea3d
000001b0: 95e4 68bc 4ce6 c9bd 2677 8dbd a15e a83d
000001c0: c2da c63d 130f 5e3d ad2b 883d 98cb 9a3d
000001d0: 01ee 1a3e 3b19 ddbd adbe acbd 62ed c53d
000001e0: 0d8b c6bd e005 4c3c 2bee 023e ec07 aebd
000001f0: ec68 133e 0895 0cbe 4fca a93d 50a9 92bc
00000200: b226 ca3d 3e3a 5abc 3262 cd3d a040 d8bd
00000210: 785a a9bd 749a c93d b569 02be 9ac2 83bd
00000220: 7965 c3bd a07b 5ebd 1bae 483d 7004 d1bd
00000230: a04d b6ba 4757 f9bd a485 05bd 7686 d23d
00000240: 8097 173d ca1b 01be 9bdc 94bc fabb c6bd
00000250: c18b 143d 56bf 803d 41cf 4b3d b051 ac3c
00000260: 3169 203d db10 3ebe dd75 103c 5bb5 e43d
00000270: 7e67 34bd 3c43 a6bd f1bd 64bd ab17 143d
00000280: 111c 053d 6c41 3dbc 5220 0fbd 3647 2a3d
00000290: 79aa 47bd 6724 953b 9515 4f3d ddbc 82bc
000002a0: 14eb 943c 1d91 ccbd 3d7f b0bd 6f86 f93d
000002b0: 23f9 b33d 7889 35bd 4973 c23d a044 dabd
000002c0: ac4c bf3c e44e 01bd 66f7 a23d 1051 a03d
000002d0: adc9 a1bd 222b bfbd 0e2f d53d 0405 e43d
000002e0: 8bd6 a9bc 777b 193d 5909 1c3d cef1 4ebd
000002f0: 56b4 c7bd b05e 76bd 3c35 f1bd d763 a73c
00000300: 5a5f a7bd 9883 59bd d791 a33c 05a9 b9bd
00000310: 4504 c13a 0917 e5bd b287 883d 707d a4bc
00000320: 77ff c03d 137b 09bb 8c56 babd 9d21 453a
00000330: 91b3 aebd 5e8d 12be 348f b0bd 9e70 dbbc
00000340: 6ee3 bd3c c1ac 403d 7fa7 92bd 081c 133d
00000350: 3016 1a3e 04f2 af3d 464a cebb 987f 25be
00000360: 8c7c 6f3d bf68 30be 5c2e 1f3d 146e 85bd
00000370: 7867 e3bb f5a2 b73d efa9 813d 7be4 93bd
00000380: d8c2 5e3c 52b1 8fbd 2e08 08be 091d 5ebd
00000390: bc9b 9f3d c713 dbbb 833e 3b3c a810 d33c
000003a0: f30a 4dbc 640c 213d ff82 ed3d 4008 013e
000003b0: 29aa fc3d a4cd 133c 0b9d b5bd 68ab d6bb
000003c0: 837c e83d 8baa a0bd 343c 19bc adba bb3d
000003d0: 19a7 f2bd 8707 923d 2817 bdbd cb03 b9bc
000003e0: d9e7 8e3c 1b29 173e 7f23 e8bd 98c1 00be
000003f0: 2afc 3b3c 8b88 4e3c 7179 99bd d749 febd
-0.11266384 0.037137665 0.10064937 -0.05041512 0.0047195014 0.12945393 -0.056422964 -0.0774621
-0.025741149 0.10805916 0.051837455 0.03001395 0.06785352 0.037446227 0.119835496 0.060417548
0.08557722 -0.008981756 0.09381548 0.012476027 0.015204551 -0.018838173 -0.11684351 0.042257287
0.0769266 -0.09498814 0.06579961 0.06930604 -0.15383844 0.021555701 -0.10921687 0.004325665
0.070661366 -0.029095294 0.028324492 -0.0013337497 -0.0061378065 0.113811314 -0.0720195 0.104927
0.009217121 0.094062105 0.075206354 0.053415187 -0.044502903 0.12891237 0.0921861 -0.04162324
-0.01009735 0.12262449 0.039326467 -0.01351473 -0.076275505 -0.09054758 -0.011086788 0.118861295
-0.111430205 -0.0678021 0.04000992 0.07949156 -0.022917314 -0.05353435 0.14014114 0.048645154
-0.049038727 0.016365197 0.089002535 0.080212586 0.023634013 0.049990434 -0.14799958 -0.044021115
-0.024125375 0.057203468 0.13057093 0.03244555 -0.026924605 0.12678199 -0.014631704 0.042765427
0.121585764 -0.13878559 -0.086239815 0.011000632 0.03327308 0.015820777 -0.08817388 -0.03867785
-0.059867494 0.081080705 0.021014005 -0.026785906 -0.06547051 0.07158022 0.013926803 0.035899412
0.04503837 -0.035541546 -0.061864942 -0.0020770172 -0.017989831 0.10665779 -0.1219149 0.16288334
-0.11571628 0.0068040118 -0.1627941 0.11452876 -0.014214654 -0.09858379 -0.069074914 0.08221174
0.097096935 0.054213595 0.066489555 0.07558364 0.15129854 -0.10795828 -0.08434806 0.09664418
-0.096944906 0.012452573 0.12786166 -0.08497605 0.14395493 -0.13728726 0.082905404 -0.017903
0.09870662 -0.01331955 0.10028495 -0.10559201 -0.08269209 0.09843913 -0.12735637 -0.06433602
-0.09540839 -0.054317117 0.048994165 -0.102059245 -0.0013908632 -0.1217485 -0.032598153 0.10279553
0.037009716 -0.12608257 -0.0181716 -0.097038224 0.036266092 0.062864944 0.0497582 0.021035045
0.03916282 -0.18561117 0.008817163 0.11167403 -0.04404401 -0.08118293 -0.055845205 0.036155384
0.03249747 -0.011551242 -0.034942932 0.04157182 -0.04874656 0.0045514586 0.05055769 -0.015959198
0.0181785 -0.09988616 -0.08618019 0.12183844 0.087877534 -0.044320554 0.09494645 -0.106576204
0.02335199 -0.031569377 0.07957344 0.078279614 -0.07899795 -0.09334399 0.104093656 0.11133769
-0.020732185 0.03747126 0.038094852 -0.05052357 -0.09751193 -0.060148895 -0.11777732 0.02043335
-0.08172484 -0.053104013 0.019967003 -0.09065441 0.0014726004 -0.11186034 0.06666507 -0.020079345
0.09423726 -0.00209779 -0.09098539 0.00075199624 -0.08530343 -0.1431174 -0.08621064 -0.026787098
0.023179736 0.04703975 -0.071608536 0.035915405 0.15047526 0.08591083 -0.006295475 -0.16161954
0.058468387 -0.17227457 0.03886257 -0.06515136 -0.0069398247 0.089666285 0.063312404 -0.072213136
0.013596259 -0.07016243 -0.1328437 -0.05422691 0.07793376 -0.0066857073 0.011428478 0.025764778
-0.0125148175 0.039318457 0.11597251 0.12600803 0.12337143 0.0090211965 -0.08867844 -0.006551195
0.11351874 -0.078450285 -0.009352732 0.09166465 -0.118482776 0.07130342 -0.09232932 -0.022584816
0.017444538 0.14761774 -0.11334895 -0.1257385 0.011473695 0.012605797 -0.07493866 -0.124164276

lstm.weight_hh_l1 f4 [256, 64]
00000000: fc8f b9bc cd41 b1bc 0a90 243d 8a16 fe3c
00000010: 2dc1 77bd 901d bc3d db14 4c3c 1202 2ebd
00000020: d562 4cbd 75e2 62bd e7c6 043e fd67 0a3e
00000030: 9ab9 41bd e7c1 673c acc8 ba3d aee5 7a3d
00000040: 8687 c6bd 1499 6b3d 621b 1b3a 00d4 68bc
00000050: 1883 24bd 93dc 833d 1166 473d 0111 513d
00000060: 0932 693d 1e7b 113e 6397 e7bb 2b43 903d
00000070: 2370 993d c682 083e a6c3 823d ceb1 3cbd
00000080: 48bb 003e d48b 6bbc aa60 a43c b8d9 22bd
00000090: de1b d9bc 6c19 7ebc d72c 77bd 5afa 38bc
000000a0: 2af3 903d ef0a 95bd 3421 07bd fc58 523d
000000b0: 4d85 313d 88c4 efbd 3aa6 723c 2e5d 0bbe
000000c0: 4346 ca3d c911 f2bc ea4a aa3d 3639 d13d
000000d0: 1fab 0e3e 2f79 de3d 939c 18be 47a3 94bb
000000e0: 046d f13d e4ee a43d ab94 173d f963 90bd
000000f0: a31f a8bd f6a3 653d dfd9 0abe a9f7 c3bd
00000100: 8d5b 2cbd d3ba 6bbd 158b f73d 6581 0abe
00000110: 762d f03c 7f12 7f3d 5020 923d 2791 133e
00000120: 681d 863d 0667 40bd b36e 2fbc d22c 5abd
00000130: 5632 8f3d 9bf6 bb3c ddd5 83bd baac adba
00000140: ab5d 85bd fa05 a03a 4773 0c3e 3d63 d8bd
00000150: bfee 17be 23b9 48bb ab4f 353d dd98 823c
00000160: 4053 333c 4cee a63d f3dc 1bbd ca37 b9bc
00000170: 7d3e 7a3d df6b 6a3d 400b 893b 3092 143b
00000180: 79aa c7bd 37d1 67bd 1850 a53d 3320 15bd
00000190: 8527 b53d ec4d 03bd 970a f83c 629e da3d
000001a0: bde9 323d 8c87 53bc d933 173e 9e7d 01be
000001b0: 76af 723d bee8 323c b4a8 74bd 759f b1bd
000001c0: 4cd8 14bd 796f 493d f1d2 193e c333 d53d
000001d0: 7787 643d 40cc b63c d374 11be d4d1 7c3d
000001e0: 5f24 b43b a65d 8dbd f82b 553d cc51 dc3d
000001f0: ca2f d6bd 3929 cabc 149a 64bd 1efd a73d
00000200: e8fb 1dbc 1346 91bd 5f3e 053e 7e2c 673d
00000210: a377 2f3e 6a4f debb 0a67 1cbe 2664 ee3d
00000220: 96c9 26bd a96e d33c c15b a73c ca64 d0bd
00000230: 7b6e 62bd c4ec 7abd bdbe 303d 4738 4ebd
00000240: 0d95 4cbc d4a0 733c f06c e8bd 6eb4 bcbd
00000250: a0b6 753d 30c7 2fbd dd4f 8a3d 3677 d3bc
00000260: 3584 a6bd 51af 02bc 553d 20be eb1b 10bc
00000270: d1dc b63c 2c55 f53d 2cec 4e3d 1429 6ebd
00000280: 7896 19bd 97e4 0fbe 0b45 633c 92e4 e53c
00000290: ef5e 8e3d 9584 953d 5989 f63c aebc a93d
000002a0: 7ccc 673d 45f9 21bd 3364 173d 11ee 543d
000002b0: 0da6 203c cb11 973c b631 3b3c 3cbe 933d
000002c0: 163d 9bbd ef86 af3d 7b5b dc3d b71f 2f3d
000002d0: 7706 643c d1c6 d7bd f2b4 b8bd 4b17 dabd
000002e0: 5cff 113c e338 36bc 4dea 81bd da1f 6f3d
000002f0: 76ae 2b3c 4dce ea3c ed31 df3d 5afa 92bb
00000300: fcda dabd d174 9a3d b905 e1bd aa09 9b3d
00000310: 7df4 28bd 43ea d0bc 6de3 17bd 3e43 af3d
00000320: 112e 9b3d 2c5a 08be 73ac 4f3d 97a8 02bd
00000330: de6f 8f3d e409 63bd 5ef4 c4bd a994 a1bd
00000340: f124 e43d bf64 b1bd 7fe8 c53d 26da 963c
00000350: 8ce2 13be 04e7 64bd 2262 0a3d f53b b0bd
00000360: 9dd3 ef3c fa20 9fbd 4e47 693c f4c9 593d
00000370: dc0a 74bd 8231 34bd 4cbf d33c 412b 1b3d
00000380: 0f7e 9f3d ae39 8a3d bf43 97bd 2282 913d
00000390: 1ed8 b5bd 83ea c33d 0de0 9fbd d17c d83d
000003a0: 827c 9a3b 0101 d3bd efb3 08bd e09a c33d
000003b0: 5754 163d 280d ba3d f8e0 debc b783 db3a
000003c0: 076f e93d 8228 c93d d493 fcbc 99b5 8c3d
000003d0: 9d95 cd3c 2f7b 1cbd 07c3 d2bd 5489 7fbd
000003e0: c764 913d fb00 b0bd 8f17 a2bd 7520 213c
000003f0: 9ff6 e1bc c270 84bd f9f3 fe3b 2c0c a13d
-0.022651665 -0.021637822 0.04017643 0.031016607 -0.06048696 0.09185326 0.012456144 -0.042482443
-0.04989894 -0.055391748 0.129665 0.13516231 -0.047296144 0.014145351 0.091203064 0.061254196
-0.09693818 0.057519034 0.0005916861 -0.014210701 -0.040164083 0.064385556 0.048681322 0.051041607
0.056932483 0.14207122 -0.0070676073 0.07044061 0.074920915 0.13331136 0.06384973 -0.046068005
0.12571442 -0.014376599 0.020065624 -0.039758414 -0.026502546 -0.015508991 -0.060345497 -0.011290157
0.0707763 -0.07277476 -0.03299065 0.051354393 0.043340016 -0.11707407 0.014810139 -0.13609764
0.098766826 -0.029549496 0.0831507 0.1021599 0.13932465 0.10862958 -0.14903478 -0.0045360657
0.11788371 0.08053377 0.037007015 -0.07050318 -0.08209159 0.05606457 -0.13559674 -0.09568722
-0.042079497 -0.057551216 0.12087075 -0.13525923 0.029318552 0.0622735 0.07135069 0.1441084
0.065485775 -0.04697325 -0.010707545 -0.0532654 0.06992023 0.02294474 -0.064372756 -0.0013250329
-0.06512006 0.0012208812 0.1371585 -0.10565803 -0.14837168 -0.0030627928 0.04426543 0.015942032
0.010945141 0.0815092 -0.03805251 -0.02260961 0.06109475 0.05723178 0.0041822493 0.0022670142
-0.09749312 -0.056596007 0.08071917 -0.03640766 0.088454284 -0.032056734 0.030278487 0.106747404
0.04367994 -0.012910735 0.14765872 -0.12645575 0.059249364 0.010919748 -0.0597312 -0.08672992
-0.03633909 0.049178574 0.15021874 0.104102634 0.05579325 0.02231419 -0.14204721 0.061723545
0.0054975 -0.06902628 0.052043885 0.10757789 -0.10458334 -0.02467786 -0.055811003 0.08202575
-0.009642579 -0.07093444 0.13012074 0.056438915 0.17135482 -0.0067843692 -0.15273681 0.116401955
-0.04071959 0.025809603 0.020429494 -0.10175474 -0.055281144 -0.061260954 0.043150652 -0.05034664
-0.012486708 0.014869887 -0.11348903 -0.09214102 0.059988618 -0.04291457 0.06753514 -0.02581368
-0.08130685 -0.007976369 -0.15648396 -0.008795719 0.02232209 0.11979136 0.0505182 -0.058144644
-0.037497014 -0.14052044 0.013871442 0.028063092 0.06951701 0.07300679 0.03009479 0.08287941
0.056591496 -0.039544363 0.03696079 0.05198485 0.009805215 0.018441102 0.011425426 0.07214019
-0.075800106 0.085706584 0.10759636 0.042754855 0.013917557 -0.10535968 -0.090188876 -0.10648974
0.00891098 -0.011121961 -0.063435175 0.058379985 0.010478606 0.028662825 0.108981945 -0.0044854106
-0.10686299 0.07541812 -0.1098742 0.07570203 -0.041248787 -0.02550233 -0.037082125 0.08557747
0.07577146 -0.13315648 0.05070157 -0.03189906 0.07003759 -0.055429354 -0.09616922 -0.07889683
0.111398585 -0.08661794 0.09663486 0.018414568 -0.1444189 -0.055884376 0.033784993 -0.08605186
0.02927571 -0.07769962 0.014238192 0.053171113 -0.05958067 -0.043992527 0.025848053 0.037883047
0.07787716 0.06749283 -0.073859684 0.07104899 -0.08879112 0.09566214 -0.07806406 0.10570682
0.0047145495 -0.10302926 -0.033374723 0.095510244 0.036701526 0.090845406 -0.027206883 0.0016747628
0.1139813 0.098221794 -0.030832209 0.068705745 0.025095755 -0.038203415 -0.10291105 -0.062386826
0.070993 -0.08593937 -0.0791465 0.0098343985 -0.027583418 -0.06466819 0.0077805487 0.0786365

lstm.bias_ih_l1 f4 [256]
00000000: 69ed 233c 4a8a 093e b4bf 91bc cdd6 423d
00000010: 290a b0bd 9c2f c13c 7946 42bd e1af d73d
00000020: c311 f13d 0675 a23c 288d 213d 6add b53d
00000030: cc71 053e cb29 e53d 833f cb3d d7e8 3b3d
00000040: 241b 68bc e12b 99bc c707 f03d c714 253e
00000050: 592c b8bd 2b79 7cbd 3753 10bc 0910 a1bd
00000060: 64d2 ad3d f163 b8bd d938 203d 8f6e 4d3d
00000070: 1c31 c03d c7ca 633b 9584 033c 120c 79bd
00000080: 2a73 563d db27 7fbd 44d9 463d 8b20 cd3d
00000090: b033 a6bc a98a 4c3d f4dc a1bd 78b5 803d
000000a0: 6b5e 82bd 7d7f 0b3e 9727 7fbd 0b57 39bd
000000b0: 4147 de3c e43b a23d d0e3 acbd acdd 423d
000000c0: ce9b 323d 820c 28bd 3800 973d 31c3 883a
000000d0: 90de f13d f482 a7bd ce8b 173e f3a4 eabc
000000e0: 40bb 95bd e56e 093e 481e 95bc 281e cd3d
000000f0: 5d67 3fbd cf61 82bd 4b6d c8bd 7f4c bb3d
00000100: 39da cabd 5b21 153d 0350 083c e607 05be
00000110: a944 093e 6429 ccbd 87c1 e0bd 63aa 4a3d
00000120: d12c d2bc 8e31 043e 2bf9 3f3d 2549 593d
00000130: 5ba2 fc3c 96f8 083c e95a 8cbc bad9 e2bc
00000140: 025e c2bd edf0 afbc a511 77bc b3fc 0b3e
00000150: 3f59 713d 52ba 71bd 8a90 6f3d ff55 d83d
00000160: c951 b0bd 845b debd c0f8 d6bd 2f75 e9bc
00000170: 089c a33d bb06 6cbd c1d6 eb3d b508 cdbd
00000180: bdd8 61bd 193c d23d bd0c e5bc 0f45 d9bc
00000190: 3c74 c03d 4cf0 e03b 2f3b 60bc 108c ca3c
000001a0: aad4 b93c 32fd 90ba f309 663d 7d22 d6bc
000001b0: 766e aa3c ccd5 5dbd 4363 0b3e 9ccd 72bd
000001c0: af6a c6bd b24c 043d d7ef c53c 5846 bd3d
000001d0: b056 7ebc acc7 d53c 683e ff3b 930d a4bc
000001e0: 6b6a 4c3c d5ad 013e 9cd7 c5bd ea9f 843c
000001f0: 84d0 e8bd 8be2 39bd 2cb7 e93d 3bdd 7ebd
00000200: 8658 c73d eadc 9abd 4c40 2f3d e92c 0abd
00000210: 716c 51bc 0324 19bd a669 dbbd 488e e73d
00000220: 3245 12bc 057d 08bc 527b e13d a122 01bd
00000230: 785d 94bd d4f5 bdbd e663 bdbc e844 0ebd
00000240: 5bab a4bb fb47 bd3d 0538 583d 7999 b73d
00000250: 15f7 c5bd bc85 a3bc 7893 93bd 1b8b 803d
00000260: 1406 b23d 6812 9a3d 0758 b1bd e1aa d6bc
00000270: 84f9 b7bd b15c bc3d 64c3 12bd d289 ed3c
00000280: 6514 2e3d a9ff e4bc c43d 953d 6ebc 1f3d
00000290: 50e1 3fbd a55f 9e3c 03f3 b73d 2c2a fb3d
000002a0: f6ff c13d 3b9d 8a3d f5fc d0bc a675 513d
000002b0: 749c 0f3d 43ba 083d 6f3e c5bb ba61 023d
000002c0: f098 d53d 1dec ae3c b827 7e3d 8b74 a2bd
000002d0: 72a2 cb3d 134c fdbd 06aa f3bd 6480 e9bc
000002e0: d904 3a3d 4ece ef3d a245 903d 45e3 8c3c
000002f0: 2c19 b4bd 6001 8f3d 9704 83bd 317d 7ebd
00000300: bcec 0a3e ee8b 84bd 4c7e 0e3e b1b5 14bd
00000310: be93 b8bc 9b4d 843d 4584 78bd 9eef eb3d
00000320: 3d9e e0bd a818 763d f89e 75bd 4e9c ec3d
00000330: 1e2b af3d b943 aebd 05fa 53bd a798 e4bc
00000340: b33a 233d e9e8 0d3e 8b87 403c 8928 f0bc
00000350: ff12 4e3d 04b9 8fbd 5075 763c 0eca 4f3d
00000360: f85b 8d3d adf4 38bc 32d5 9fbd 55e0 c43d
00000370: 2a49 c0bd 09a0 92bd c782 ec3c 8258 87bb
00000380: 5a50 b2bd 11d3 dc3d 16dd a2bd b734 d73d
00000390: 69c9 7bbd 28bb a23d 1638 60bd e10a 3fbd
000003a0: ca11 1b3e 682c cb3d 2ab5 013e 191d a03d
000003b0: 38dd b2ba 18fa 11bd 7c71 883d cb22 a23c
000003c0: 87b7 073d 4d77 a6bd e947 fb3d 079b bf3d
000003d0: 3478 9bbd b668 eebc 715f 5c3d beef d7bc
000003e0: 7c3a 813d a481 fa3c ceb4 4a3d 1a1c 273e
000003f0: 901a cfbd 9b42 7dbd 5e18 a4bd 3825 8abd
0.010005333 0.1343166 -0.017791606 0.04756813 -0.08595688 0.023582272 -0.04743049 0.10531593
0.11770966 0.019831192 0.039441258 0.08880122 0.13031691 0.11189612 0.09924223 0.04587635
-0.014166627 -0.01869768 0.117202334 0.16121207 -0.08992834 -0.061638992 -0.008808902 -0.078643866
0.084873945 -0.09003437 0.039116714 0.050154265 0.09384367 0.0034758316 0.0080272155 -0.060802527
0.052355923 -0.06229387 0.048547044 0.10015973 -0.020288318 0.049936924 -0.079034716 0.062846124
-0.06365665 0.13622852 -0.062293615 -0.045249026 0.027133586 0.079215795 -0.08441889 0.047574684
0.04360562 -0.041027553 0.073730886 0.0010434148 0.118100286 -0.08179274 0.14799425 -0.028643107
-0.07311106 0.13421209 -0.018202916 0.100155175 -0.046729434 -0.06366312 -0.09786471 0.0914545
-0.09904904 0.036408763 0.0083198575 -0.12991294 0.13405098 -0.09968832 -0.109744124 0.0494789
-0.025656136 0.12909529 0.046868484 0.05304827 0.030839136 0.008360049 -0.017133193 -0.02769171
-0.09490587 -0.021477187 -0.01507989 0.13670616 0.058923002 -0.05901558 0.058487453 0.105632775
-0.08609349 -0.10857299 -0.10496664 -0.02849826 0.07988745 -0.057623606 0.115155704 -0.10011426
-0.05513834 0.10265369 -0.027960176 -0.026522188 0.0939717 0.006864583 -0.0136859855 0.02472499
0.022684414 -0.0011061786 0.056161832 -0.026139492 0.020804625 -0.05415897 0.13612084 -0.059278116
-0.09688317 0.032299705 0.024162216 0.09241933 -0.015523598 0.026096188 0.007789422 -0.020026004
0.012476544 0.12663968 -0.09660265 0.016189534 -0.11367896 -0.045382064 0.114118904 -0.0622227
0.097336814 -0.07561667 0.042785928 -0.033734236 -0.012782202 -0.03738786 -0.1071351 0.11306435
-0.00892763 -0.008330588 0.110098496 -0.031527165 -0.0724439 -0.092754036 -0.023118924 -0.034733683
-0.00502531 0.09242245 0.0527878 0.089648195 -0.09666268 -0.01996123 -0.07205862 0.06276532
0.086925656 0.07523042 -0.08659368 -0.026204528 -0.08983138 0.09197367 -0.03583087 0.028996382
0.04249992 -0.02795394 0.072871715 0.03899806 -0.046845734 0.019332716 0.08981898 0.12263903
0.09472649 0.067682706 -0.025511244 0.05113759 0.035061315 0.033380758 -0.0060194056 0.03183148
0.10429561 0.021352822 0.062049598 -0.07932385 0.09943093 -0.12368026 -0.11897664 -0.028503604
0.04541478 0.11709271 0.070445314 0.017198214 -0.08793864 0.06982684 -0.0639736 -0.06213111
0.1356687 -0.06472002 0.13915366 -0.036306087 -0.022531386 0.064601146 -0.060673017 0.11520313
-0.109676816 0.060082108 -0.059966058 0.1155325 0.08553146 -0.08509011 -0.05175211 -0.027904822
0.0398509 0.1385838 0.011751066 -0.029316204 0.050311085 -0.07017711 0.015042618 0.050729804
0.06902307 -0.011288804 -0.07804336 0.096131004 -0.09388955 -0.071594305 0.028870953 -0.004130424
-0.08706732 0.10782445 -0.07952325 0.105081014 -0.061471377 0.079458535 -0.054740988 -0.046641234
0.15143505 0.09920579 0.12666765 0.0781805 -0.0013646251 -0.0356389 0.066622704 0.019791981
0.03313401 -0.081282236 0.12269575 0.09355741 -0.07591286 -0.029102664 0.053801958 -0.026359435
0.06309983 0.030579396 0.049488835 0.16319314 -0.10112488 -0.061831098 -0.0801246 -0.0674538
