api/data/models/BTC_USDT_1h_lstm.pth (torch, 211349 bytes, 9 tensors)

lstm.weight_ih_l0 f4 [256, 6]
00000000: 02f0 123e d0c6 44be bb6b c73d b7a9 ca3d
00000010: f062 de3d 237e 5cbc 271a 2c3d 4d98 4c3e
00000020: b3f0 ca3d 1dc6 dc3d aae4 e7bd 56b6 1f3a
00000030: 927f 8b3d 3e0a 0cbe 8991 113e 3b16 67bd
00000040: d1f1 0e3e b3bd b03c 3794 b73d c213 ffbd
00000050: 60f5 8e3d 2ac5 f63d 65fd 913d 6194 91bd
00000060: 857e 183e 8cef a03d 8bcf a6bc 68ae 383d
00000070: a748 32bc 46cb c23d 2405 91bd c29a 273d
00000080: c907 d43d 29e9 04bd e4c3 f5bd 35f6 de3d
00000090: 7b8a aa3c 18d1 e3bd 9fde 343d 665a f23d
000000a0: 066b 60bd fd9a 38bd 0ca5 113d 46be 0d3e
000000b0: c829 cbbd 674b c03d 33ee efbd a3de 95bd
000000c0: f382 a5bd d030 a93d 05ca 2b3d 6589 c63c
000000d0: 1c0a eabc ca8b ca3d 9e79 253e a104 89bd
000000e0: 0493 5b3d 4e42 ef3d f36a 6ebb 5758 193e
000000f0: dea8 49bd e540 e1bd 4dd3 8b3d 3678 143e
00000100: 0b1d cfbc 7a07 b83d 1fb1 cb3d 8ae2 353c
00000110: 9d82 103d d95a 33bd fe53 71bd d9d0 63bd
00000120: 9e3c 153e 8427 223d a83e e0bc 4f31 a3bc
00000130: 2ed5 dd3c 9b9f 6dbd fd7d a93d 6f4a 803d
00000140: 587c 9c3d 5a65 abbd 98bd dd3d d628 0abd
00000150: 1b1c 95bd bece 073e 6831 04bc feef 87bd
00000160: 34fd 43bd f393 d23d b036 a2bc 7264 9ebd
00000170: 66e4 92bd 9292 503d 3828 febc ee68 d3bd
00000180: a3d3 fdbc c187 01bd 390d fe3c b7cc af3d
00000190: 4f73 b33d 0a27 22bd ccc7 87bb e620 c73d
000001a0: a79f abbc 181a 393d e33d 55bb 3d00 b43d
000001b0: 576e 993d 63f6 06be f9c3 9b3a 0c56 453d
000001c0: c3f5 e83c 9dd1 b7bd 9921 82bc bcaa 863c
000001d0: 6c64 d1ba 50d8 b73d cc1a a4bd 96b5 1cbd
000001e0: c0c1 003e 4a71 d23d 7009 033d c27b 313e
000001f0: 6ecb 6dbd b6e4 38bd 224e 273e f37e 5dbd
00000200: 49a6 d03d e711 2c3e 4e05 f13d 3180 313e
00000210: a516 df3d 3842 02be bfcb 103d f131 283e
00000220: 724c f73d 6a49 d43b f587 c8bd 3e4f 173e
00000230: 1eae 623d b559 91bc 2240 673d b725 12bd
00000240: dece 193d 47a9 72be 9025 ffbb cc77 863d
00000250: 7818 443d 790c 16bd 2d4c 9cbd ee67 3e3d
00000260: e36a b43c 0df7 dc3c 4383 f9bd 1e76 2cbd
00000270: deb0 a93c 04b4 cabd 5946 acbd 2097 a13d
00000280: 369f 72bd 0d38 42bd 5889 b63d 0480 4dbe
00000290: 3e54 f5bc 26bd 463d e5d3 e13d 7d27 06bd
000002a0: 763c aa3d 721c 68be 66ab 2e3d 97a8 ba3d
000002b0: 6dc9 983d cfc7 953d 177a c3bc d247 69bd
000002c0: a5d3 bf3d 9295 e13d dd0f d13d 824c b5bd
000002d0: 194b 42bc 0529 e8bc c5f6 d1bd 25eb 833b
000002e0: ad40 5b3d 74cb a8bb 4c9b a33c 04cb c7bd
000002f0: d029 07bb 30fd 2c3e 0fb7 743d 33ed 8a3d
00000300: f99e ab3c fde1 a3bd 84b0 063e cb7b 053e
00000310: cdbb babd 2a19 91bd 96c5 413d bdb5 c6bd
00000320: aadc 3a3d 78a4 123e 8be3 84bd cd4f 653d
00000330: 4f6b 00be a9d9 463d 232e 1f3d 5038 713c
00000340: 00db 273c 025a 2a3d abfb d33c 2eb5 e43c
00000350: e0f4 473d 1239 f73d 6e7d e1bd c6e2 c53c
00000360: f537 bdbd a33b b83d 2a66 f63d 7d9b 283d
00000370: 8d57 80bd f708 ca3d c835 b73d f5b7 693d
00000380: 16e4 e3bc 2d35 073c 0b33 20bd 39a9 3a3e
00000390: 5405 223e 7510 43be 46db 203e ddbd 71bd
000003a0: 7adf 523c 4bfd 09bd 474c 203e 3e48 ccbc
000003b0: ea8e f93d 0274 8fbc 9f1a eb3d c6b4 92bc
000003c0: e12f 233e a93c 5cbe e059 06bd f1ef 4ebd
000003d0: cf37 1c3e 6318 0ebd 846a fe3c ca35 b83c
000003e0: eae0 e93d 688f c63d 7678 833d 83c1 973c
000003f0: f088 75bd f574 0dbe 4165 c1bd 91fb 013e
0.14349368 -0.19216466 0.09737345 0.09895652 0.108587146 -0.013457808 0.04201713 0.19979973
0.09909191 0.107799746 -0.11322911 0.0006092539 0.068114415 -0.13675782 0.14215674 -0.056417685
0.13959433 0.02157483 0.089638166 -0.124549404 0.06980395 0.12049325 0.07128409 -0.07108379
0.14892013 0.0785819 -0.020362636 0.0450882 -0.0108815795 0.095114276 -0.070810586 0.040919073
0.103530474 -0.03244892 -0.12000254 0.10886804 0.020817986 -0.11123866 0.04415762 0.118336484
-0.054789566 -0.045069683 0.03555779 0.13842115 -0.099200785 0.09389382 -0.11715355 -0.07317855
-0.08081617 0.08261263 0.041940708 0.024235437 -0.028569274 0.09889944 0.16159675 -0.06690336
0.053607002 0.116825685 -0.0036379665 0.14975105 -0.04923331 -0.10998706 0.06827412 0.14498982
-0.025282403 0.08985801 0.099458925 0.011101374 0.035280813 -0.04378781 -0.05891799 -0.055619095
0.14573905 0.039588466 -0.027373627 -0.019920973 0.027079191 -0.05801354 0.082759835 0.06264197
0.07640904 -0.08368941 0.10827178 -0.03373035 -0.07280751 0.1326246 -0.00806842 -0.06637572
-0.047848895 0.10282125 -0.019801468 -0.07734002 -0.0717247 0.05092103 -0.031025037 -0.10322748
-0.030984705 -0.031623606 0.031012164 0.08583968 0.08762228 -0.03958801 -0.0041436907 0.09723072
-0.020950152 0.0451909 -0.0032538108 0.08789108 0.07491749 -0.13179927 0.0011883966 0.048177764
0.0284375 -0.089755274 -0.015885161 0.016438834 -0.0015975363 0.08976805 -0.080129236 -0.03825911
0.1257391 0.102755144 0.031991422 0.17332366 -0.058055334 -0.04513999 0.16338399 -0.054076146
0.101879664 0.16803704 0.1176859 0.17334057 0.10892991 -0.12720573 0.035350557 0.16425301
0.12075128 0.006478478 -0.09791557 0.14776322 0.055341832 -0.017742971 0.056457646 -0.0356805
0.0375508 -0.23697387 -0.00778646 0.06565818 0.047874898 -0.03663299 -0.07631717 0.046485834
0.022023624 0.026973272 -0.12183239 -0.042104833 0.02071422 -0.098976165 -0.08411855 0.07890153
-0.059233867 -0.047416735 0.08912915 -0.20068365 -0.029947396 0.04852023 0.11026744 -0.032752503
0.08312313 -0.22667101 0.042643927 0.09114187 0.07460294 0.07313501 -0.023861928 -0.05695326
0.0936654 0.110148564 0.10208104 -0.08852483 -0.011858725 -0.028339872 -0.10252146 0.004025834
0.053528477 -0.0051512066 0.019971512 -0.09755519 -0.0020624287 0.16893458 0.05974489 0.067835234
0.020949828 -0.08002088 0.13153273 0.13035505 -0.091178514 -0.07084878 0.047307573 -0.097026326
0.045620598 0.14320552 -0.06488713 0.055984307 -0.12540935 0.04854742 0.03886236 0.014722899
0.010245085 0.041589744 0.02587684 0.027918424 0.048817515 0.12071432 -0.11010252 0.024155986
-0.092391886 0.0899575 0.12031205 0.04116391 -0.06266699 0.09864991 0.08945805 0.0570602
-0.02781872 0.008252424 -0.03911118 0.18228616 0.15822345 -0.19049247 0.15708646 -0.05901896
0.012870664 -0.033688825 0.15654097 -0.024936792 0.12185462 -0.017511372 0.11479687 -0.017908465
0.15936233 -0.21507515 -0.032800555 -0.050521795 0.15255664 -0.034691226 0.03105665 0.022486586
0.11419852 0.09695321 0.064194605 0.01852489 -0.059945047 -0.13814147 -0.09443141 0.12693621

lstm.weight_hh_l0 f4 [256, 64]
00000000: 3896 7e3c 2a9f dfbd 505a 343d da4d 2f3d
00000010: d5e1 a33d bd94 fabc 91c0 aebd 2b6d c43d
00000020: c01d e93c b13e 97bc 8bed 9cbd 4783 733d
00000030: 0796 17bd 5409 92bc d325 e03d d649 ef3d
00000040: 6ff4 64bd 84d9 0abe 08e6 7e3d d99f c73d
00000050: 09d2 aebd 5424 9c3d e635 e6bd 35a7 4b3d
00000060: 36fe 223e 311a cabd b22f 7abd 9429 5b3d
00000070: 537a 273e 0d03 98bb 2fb1 eebd 5dda 66bd
00000080: 6c6e ab3d 8bcc bfbd 84bf b5b9 e926 bd3c
00000090: 0317 af3d 2342 a03d 08cf f3bd 2b32 d43d
000000a0: ad6d 02be 9553 e53d d0a3 01be 95d8 ed3d
000000b0: 9a7f e3bd 2843 913c 1414 af3c e0a1 06be
000000c0: d6f0 27bd 0603 a13d 8982 02be a100 943c
000000d0: 376c 5b3d b0b1 9a3c 1db0 66bd 0ea0 8bbc
000000e0: ae72 9f3d a82d 6e3d def5 79bd 5081 abbd
000000f0: 784a 96bd f5da 0e3e 7cc9 c0b9 2224 0dbe
00000100: 9ad4 853d 0034 05be 03c8 a73d bd68 723d
00000110: a47e 183d 04c7 21bd bd8c f3bc 9909 c2bd
00000120: 646d 1dbe 34b3 ae3d 93aa a7bd b20f a1bc
00000130: 0490 f83d 5c2a bcbd eeb3 e83d b647 bdba
00000140: 3436 82bd 494c 233d b550 b63b d5cf b1bd
00000150: c4d3 ba3d 614a 96bd b41b 1e3d 08b2 0f3d
00000160: e844 023e d82f 943d 8c71 323d 420e 9cbd
00000170: df0a b3bd 44e7 663d ad9c 07be cbad 3c3d
00000180: 36ef 58bd d891 8dbb f0c8 a63c eaf7 5ebd
00000190: 2cdf 1ebd f4a1 0b3d 1b1e 0cbd e577 41bb
000001a0: 9d57 44bc 4adb e33d fcce bc3d 3830 eb3d
000001b0: f7e5 b63d 75e4 9c3d 0a48 02bc 4229 b63d
000001c0: ddda babd 8a53 1fbd ff57 973d 34d3 98bd
000001d0: 9c75 3a3d 55e4 b13d ab36 c63d 28a6 f93c
000001e0: 2597 f03d cb22 4dbd 2704 e93d 0c8a e2bc
000001f0: 9805 2a3d 8254 b5bc ffde efbb 74ec da3d
00000200: 3207 fbbc d9a7 1cbe 8475 f9bc be1c ecbc
00000210: 4942 e13a d030 1a3d d72e 083e d797 ccbd
00000220: d580 dabd e16f 0f3d 914a a7bd 73c4 41bd
00000230: 49f7 bf3b 6634 5f3d 81bf ac3c 3f3a 42bd
00000240: ca86 483d 402c d6bd ea31 9f3d ec59 ccbd
00000250: 7a03 103e 75b6 cf3d 9364 02bd 1406 8a3d
00000260: fe01 ae3d 2f59 41bb c843 20bd 1b69 093e
00000270: da7a 933c c245 ad3d 11d2 55bd 7a0e a83c
00000280: cc2d 99bc f6fd d1bd f614 45bd 1231 ebbc
00000290: 0d10 cebc 86db bbbd f5ea 1f3d 6d68 b4bc
000002a0: 0ce8 debd 7869 423c e7ea debd 4e77 133e
000002b0: 1f78 263e 5f83 15bd b852 11be 25c5 a7bd
000002c0: 472f 1e3d ec4d a3bd d879 b23d 104c 28be
000002d0: acce 043d fad4 25be 5a37 0c3d 6dd7 6b3d
000002e0: 0456 ca3c d207 823d a4ca 1cbd c5ed 09be
000002f0: 9255 043d 5241 2fbd e52c aabd c2a0 473d
00000300: 5117 d4bd 19d4 833d f24b dfbc ac1c 603d
00000310: 3121 1e3e 1cc8 fcbc 3c87 8b3c d60b 0ebd
00000320: 1681 88bd 8834 5e3d a0b7 a4bd f531 063e
00000330: c834 cd3c 5614 c1bd 43b8 f53d dcbc 4cbc
00000340: b8f3 453d 8f22 0abd 8823 6d3d a860 bc3d
00000350: fe10 323d 5042 6c3d 8034 09be 839d ed3d
00000360: 8070 82bd 5eab 32bc 7217 fcbd 16ea 5dbd
00000370: 34e0 ec3d 090a a43d a8d7 053d 3d56 093e
00000380: bd38 d5bd c290 3f3d 30bd 48bd 5f57 d7bd
00000390: c0b4 f1bc e2d0 bebd 7932 0d3d e22c 5b3c
000003a0: d8ec 0bbe c77a 093e 9b65 ecbd e0b9 a5bd
000003b0: ea71 df3c b4fa 1bbe 7524 06be 74e9 b9bd
000003c0: 1cba 563c 9c48 dfbd bdbc 0b3d 681f 99bd
000003d0: 4356 d03c b116 e13c 0299 5d3d 9f7e 7cbd
000003e0: 6f78 303d 8505 b0bd 9b58 843d 551a dcbc
000003f0: 4f8c 003d 60b4 bc3d dc26 01bd 3dbd 533d
0.015538745 -0.1091903 0.04403144 0.042798854 0.080020584 -0.030588502 -0.08532823 0.09591135
0.028456569 -0.01846251 -0.07662495 0.059451368 -0.03700831 -0.017826714 0.109447144 0.11684005
-0.055897173 -0.13559538 0.062231094 0.097472854 -0.08536155 0.076241165 -0.11240749 0.049720008
0.15917286 -0.09868277 -0.061080642 0.05350645 0.16355257 -0.0046390356 -0.11654889 -0.05636059
0.08370671 -0.09365185 -0.000346657 0.023089843 0.08549311 0.078251146 -0.119047225 0.10361131
-0.1273715 0.11197583 -0.12660146 0.11613575 -0.111083224 0.017732218 0.021371879 -0.13147688
-0.041001163 0.07861905 -0.12745108 0.018066706 0.05357 0.018883556 -0.0563203 -0.017044093
0.07785545 0.05814901 -0.061025493 -0.08374274 -0.073384225 0.13950713 -0.0003677121 -0.13783315
0.06534691 -0.13008118 0.08192446 0.059181917 0.03723015 -0.039496437 -0.029730195 -0.09474487
-0.1537376 0.08530274 -0.08186831 -0.019660804 0.12136844 -0.09187767 0.11362444 -0.0014440927
-0.06357995 0.039867673 0.0055638202 -0.08682219 0.09122422 -0.073384054 0.03860064 0.035081893
0.12721598 0.07235688 0.043565318 -0.07619907 -0.08742308 0.056372896 -0.13243361 0.04606418
-0.052962504 -0.0043203644 0.020359486 -0.054435648 -0.038787052 0.034089997 -0.0342084 -0.0029520926
-0.011983779 0.111258104 0.09219167 0.11483806 0.08930581 0.07660762 -0.007951746 0.08894588
-0.09123776 -0.03889803 0.07389831 -0.07462159 0.045522317 0.08686129 0.09678396 0.030474737
0.117475785 -0.05008201 0.11377745 -0.027653717 0.04150924 -0.022135023 -0.0073202844 0.10689631
-0.03064308 -0.15298404 -0.030451544 -0.0288223 0.0017185892 0.037644207 0.13299118 -0.09989899
-0.10669104 0.035018805 -0.08168519 -0.04730649 0.005858336 0.05449333 0.02108741 -0.04741883
0.04895667 -0.10457659 0.07773192 -0.09978089 0.14063826 0.10142223 -0.031834196 0.067394406
0.08496474 -0.002950262 -0.03912714 0.13419001 0.018002916 0.08460571 -0.052202288 0.020514715
-0.018698595 -0.10253517 -0.048115693 -0.028709922 -0.025154138 -0.0917273 0.03904243 -0.02202245
-0.10884103 0.011865966 -0.10884648 0.1440098 0.1625676 -0.03650224 -0.14191711 -0.08191899
0.038619306 -0.07973847 0.08714646 -0.16435266 0.03242366 -0.16194525 0.034232475 0.057578493
0.024699219 0.06349148 -0.03827919 -0.13469608 0.03230817 -0.042786904 -0.08309344 0.048737295
-0.1035601 0.06436939 -0.027257893 0.054714844 0.15442349 -0.030857138 0.017032258 -0.034679256
-0.06665246 0.054249316 -0.08042836 0.13104995 0.025049582 -0.09427707 0.11998036 -0.012496199
0.04832813 -0.033724364 0.057895213 0.09198123 0.043473236 0.057680428 -0.13398933 0.116023086
-0.06369114 -0.010905115 -0.12309159 -0.05417832 0.11566201 0.080097266 0.03267637 0.13411804
-0.104112126 0.04676891 -0.04900855 -0.105147116 -0.029505134 -0.09317185 0.034471963 0.0133774
-0.13664567 0.13425742 -0.11542817 -0.080920935 0.027275998 -0.15232354 -0.13099845 -0.09077731
0.013105895 -0.10902521 0.03411554 -0.074766934 0.025431758 0.02747664 0.054100998 -0.061644193
0.043083604 -0.08594803 0.06462213 -0.026868025 0.03138381 0.09214091 -0.0315312 0.051694144

lstm.bias_ih_l0 f4 [256]
00000000: 3111 a5bd cb41 d1bc 54d1 a1bd 210a a4bd
00000010: afdc 223d 9a22 a8bd 5345 0b3d 398e e03d
00000020: 269b 34bc 7f5a a43d ee0c cb3d b07a 203e
00000030: 3e35 86bd 22d6 d0bd d17a c53d 09e6 6e3d
00000040: 7832 1d3d 4778 953c b3c1 b2ba 592d 103c
00000050: 2a81 29bd 7996 953d 1848 8dbc 814e 073e
00000060: adf8 3dbd 30e4 a73d 29c1 073e 0511 9ebc
00000070: 8f6c 6fbd e411 4bbd 9fc8 e93d c2a7 ba3d
00000080: 006d a7bb bfb7 4c3d de95 a03d ee2c 1f3e
00000090: 54b9 37bd 45c4 ec3d 62e9 40bd 78f5 6a3d
000000a0: ff5a c23d 50c4 adbc d367 afbd a903 c3bc
000000b0: f7c6 393d 9e33 183b 4dea 323c e040 f43d
000000c0: 917a dabd d0eb 56bd 7423 8abd e463 113e
000000d0: c06d e23d d660 073e 9e36 073c 9540 1e3e
000000e0: 30bb 4fbd e50a 153e f501 113d 8810 29bc
000000f0: db64 e03c 5df4 2bbd e541 063e 0c77 243d
00000100: ec87 bcbd 6ad1 d63c 7db3 053d e56e c4bb
00000110: f079 b03b a98b d9bd bba9 963d 9651 da3d
00000120: 3ac7 81bd 9ca5 dc3d f1b5 21bc 4060 f4bd
00000130: 4c27 d3bc fc83 00be 098b 013e 8bac ad3d
00000140: db63 ffbd 1717 ea3c 3e6b 043d c865 003e
00000150: 2e50 0fbe 25d3 f83d 2348 c83d af72 ed3d
00000160: 2d32 b83d 5531 f33d 0498 263c 531e 7c3d
00000170: 4f76 54bd 1f71 5d3d b3f9 48bd 6c3e 03bc
00000180: 9ee0 583d 9267 c93c 1a8b fdbc e317 8abc
00000190: 1519 6abd c116 383d 2a4a 9cbd b829 013e
000001a0: 33c3 1b3d dd31 8c3b 5e1a 2f3d c062 de3d
000001b0: 708b 8fbd c251 cf3b 10bd dd3d 142d 33bc
000001c0: 7dd7 7e3d d73c cc3d 3c3f f8bd d140 6bbb
000001d0: 9f74 aa3d 1ea8 f3bc ef2c 04bd c73c 143d
000001e0: 580c f13a 1d9f ae3d de0d cd3c 0201 a33d
000001f0: 9662 2a3d cabf 8ebd 5799 e73d 0af3 453d
00000200: 667c 0e3d b9bd c33c 8794 e6bd 1897 b73d
00000210: 8eb3 003d bda9 a4bd 7d77 e63c 7d90 08be
00000220: 74c7 ecbd 7fba 193d 2117 aa3c b9b9 77bc
00000230: 8c7d d43d fac2 e8bd 7c61 f13d 29f3 e4bb
00000240: 4b0a d43c 33e1 1bbc 61cd dabd 43ad c8bd
00000250: 7cc4 f9bd 9bbd 83bc 94ec 5cba fa38 af3d
00000260: ec01 d63d 8426 023b 06b0 f9bc c87e 9cbd
00000270: d7ee 823d 302f e93c 9399 f0bc 29ff 67bc
00000280: 5319 9fbd 944e 0bbe fe33 8c3d aecc 293c
00000290: 9719 e03d 1f41 e93d 1568 99bd dc1c ae3d
000002a0: a5f6 1abd ba43 1a3c 267a 3a3d b60a b23d
000002b0: 5257 fc3d 6eec 86bc 2f06 12bd 6f0b 813d
000002c0: 0d81 093d 5662 a03c c813 f6bb f7b6 7cbd
000002d0: 19ab ca3c 13ba e93c e9a4 9c3d d120 b03d
000002e0: e11d 423d a26b febd 765e a3bd 4721 e0bd
000002f0: db66 d93c 2aec 573c 22b1 2dbc 0e76 0d3d
00000300: 3f60 8cbd 32e0 c53d c74a 1ebd 6dfe af3d
00000310: de44 e53d 673d a33d 7cde 3a3c cfb6 923d
00000320: 85fb 39bc da88 42bd ecf7 153d 3b65 9dbd
00000330: 6da8 953d 7922 02bd 6459 82bd 6664 0dbe
00000340: 86a5 393d eaff f539 9bb7 043e 52f7 fd3d
00000350: 3b93 0c3e f6a8 c93d 6a7e 173c 19a8 893d
00000360: e563 34bc 2c98 553c 65de de3d f78e a93c
00000370: 3f30 c93c 5e8a f13d 0b02 e13c 5f6a 773b
00000380: 6625 ee3d ff41 bb3d 4149 ab3d 6712 8fbb
00000390: 41a8 c0bd c790 913d 5ce8 053d 654a dd3d
000003a0: e2d0 0e3c 7c68 3a3d 626e cabd d86a 89bd
000003b0: 4533 e23b 311b d73d 69bc cc3d e473 6abd
000003c0: 5ebf 5bbc 20e1 90bd 0a18 113e 059b b5bc
000003d0: b0e0 b8bb 5d33 913c 31d9 e9bc 53e2 82bc
000003e0: e7dd 033e a285 b4bc 4569 a83d fc3a 20bd
000003f0: 7b72 eb3c a054 87bd a425 efba 934b 2b3d
-0.080599196 -0.025544068 -0.07901254 -0.080097444 0.03976124 -0.08209725 0.03400166 0.10964627
-0.011023318 0.08025073 0.099145755 0.15671802 -0.06553124 -0.101970926 0.09642566 0.058324847
0.03837821 0.01824583 -0.0013638049 0.008799874 -0.041382946 0.07304091 -0.017246291 0.1321354
-0.046379734 0.0819782 0.13257279 -0.019295225 -0.05845314 -0.04957761 0.114152186 0.091140285
-0.0051094294 0.04997992 0.07841085 0.15544483 -0.044854477 0.11560873 -0.04709757 0.057363003
0.094900124 -0.021211773 -0.08564725 -0.023805456 0.045355763 0.0023224126 0.0109201195 0.119264364
-0.10667909 -0.052470982 -0.067450434 0.14198261 0.110560894 0.13220534 0.008252768 0.15454324
-0.050715625 0.14554937 0.035402257 -0.010318883 0.027391842 -0.04198109 0.13111074 0.040152594
-0.092056125 0.026222903 0.032641876 -0.005994665 0.00538563 -0.10622341 0.07356592 0.106600925
-0.063368276 0.10773775 -0.009870038 -0.11932421 -0.025775574 -0.12550348 0.12650694 0.084801756
-0.12470218 0.028575463 0.032328837 0.12538826 -0.1399543 0.121496476 0.09779384 0.1159414
0.08993945 0.11874644 0.010168079 0.061552357 -0.05187064 0.05406296 -0.049066257 -0.008010488
0.052948587 0.024585519 -0.030950118 -0.016857093 -0.057152826 0.044943575 -0.07631333 0.1261357
0.038027953 0.004278405 0.042749755 0.10858679 -0.070090175 0.006326885 0.108270764 -0.01093604
0.062217224 0.09972542 -0.12121436 -0.0035896788 0.08323025 -0.02974325 -0.032269415 0.036190774
0.001839052 0.08526442 0.025031026 0.079591766 0.041597925 -0.069701746 0.11308544 0.048327483
0.034786604 0.023894178 -0.11258798 0.08964366 0.031421237 -0.080401875 0.028133148 -0.13336368
-0.1156148 0.037531372 0.020762982 -0.015119963 0.10375509 -0.11365314 0.11786172 -0.0069869948
0.025883814 -0.009514141 -0.10683704 -0.09798672 -0.121956795 -0.016081622 -0.0008427587 0.08555789
0.10449585 0.0019859383 -0.030479442 -0.07641369 0.06393211 0.028464884 -0.029370105 -0.014159956
-0.07768502 -0.13604194 0.06845854 0.010363741 0.10942381 0.11389374 -0.07490555 0.08501598
-0.037832875 0.009415561 0.045526646 0.08693449 0.123213425 -0.01647016 -0.03565043 0.06301009
0.033570338 0.01957814 -0.0075096823 -0.061697926 0.024739789 0.02853111 0.076486416 0.08600009
0.047391776 -0.12422873 -0.07977001 -0.10943847 0.026538303 0.0131788645 -0.010601314 0.034536414
-0.06854295 0.096619025 -0.038645532 0.0859345 0.11194776 0.07970696 0.0114055835 0.07163774
-0.011351471 -0.047493793 0.03661339 -0.07685324 0.07307515 -0.031771157 -0.06364706 -0.1380783
0.04532387 0.00046920712 0.12960665 0.12400688 0.13728039 0.0984668 0.009246448 0.06721515
-0.011010145 0.013036769 0.10882262 0.020698054 0.024559138 0.117939696 0.027466794 0.003775261
0.11628227 0.09143447 0.083635814 -0.0043662074 -0.09407092 0.07107692 0.0326923 0.10805205
0.008716794 0.0455098 -0.09884335 -0.06709832 0.0069030845 0.10503233 0.09996874 -0.05723943
-0.013412325 -0.07074189 0.14169326 -0.022168646 -0.005642019 0.017724687 -0.028545948 -0.01597706
0.12877618 -0.022036377 0.082232036 -0.039118752 0.028741112 -0.06607938 -0.0018245471 0.04182012

lstm.bias_hh_l0 f4 [256]
00000000: b692 213d 59ec 40bd e218 81bd db1d cf3d
00000010: e914 be3d 8a74 91bd ba2d a1bd 303a 01bd
00000020: 7e30 8d3c 3e68 6dbc 14b6 34bd 1460 c53d
00000030: 9a6e da3d 04dc 293c 7ee7 023d 5fc1 08be
00000040: 6ab0 f5bd 06d7 0b3d a532 95bc 9615 b6ba
00000050: 04d8 da3d 4d54 87bd 0001 be3c 73ae ff3d
00000060: 5f19 013e a6a1 a93d bf33 793d d5a2 9abc
00000070: c519 763d 3a4d bd3c 5ddd 773c a40d e83d
00000080: 8b0d 9e3d 87be 713c 345f 763d 1a14 963d
00000090: e5c9 b73a 18bf 173e 72f5 423d 3de5 66bc
000000a0: 502d 56bc f46a 103d a387 d1bc ea0c ea3d
000000b0: b966 09be 1ec6 a53c 9b33 f73b a562 573d
000000c0: 3620 5f3c 2895 8ebb 8d94 66bd 636c 073b
000000d0: 254f 5e3d 0502 813c f26c 6dbd 619e 01bb
000000e0: 0b96 9cbd fe77 353d 08d6 1dbd f0b1 893d
000000f0: a308 adbd ec43 22b9 4858 f03d 77ad bcbd
00000100: 188a ec3d 9e86 3f3b 1fe1 e83d be09 78bc
00000110: fd01 403d 9942 c93d 1ea3 9d3c 9ec5 453b
00000120: f9fc e53d a9b3 523c 1cce 7e3d eb58 863d
00000130: 2886 433d ce16 6abd 3296 bdbd 6fa0 1d3c
00000140: f041 a33d b904 a33c 4597 013e 370b 933d
00000150: 5876 fbbb b606 c23d edf8 923d a56f 32bd
00000160: abe0 d1bc 850d 98bc 0f01 9abd d57e d23d
00000170: 5595 333d eb1d 053d 3a7c a1bd 867c a2bd
00000180: d185 a63d c5a8 033d 6abc e1bc f72c a33d
00000190: fe89 ce3d e1b5 85bd 02ae 01bd 9a8c f73d
000001a0: 2308 683d 8725 bebd c928 f63d 3488 5f3d
000001b0: 52be 88bd fa37 dfbc 9c6d 983c a6ef 02bc
000001c0: 3008 5cbd dfce a0bd de7c 833d e387 a2bd
000001d0: 5581 d2bd d74a 463b 5682 7f3d 2097 35bc
000001e0: 1b5a 6d3d c7c5 a83b 5ee5 0a3d 0b13 81bd
000001f0: 3cea ed3d f6b1 9f3d 4a88 463c 5fba c43d
00000200: 051d 8ebc 706c bdbd 8f03 ac3d aa49 c13d
00000210: 56ce 8fbd 86f3 4a3d 6d9a c0bd 65e7 0c3d
00000220: a6d4 d73d 6527 d43d ef20 9fbc a194 02bd
00000230: b56b 35bd c4f2 afbd edd3 d63c e502 9c3d
00000240: 8588 c0bd 1901 08be 458f 1abd 52ba 67bd
00000250: f68e 35bd 8ed0 f6bd 1b2e 923c cc36 bb3d
00000260: 1848 9c3d 3bf8 d03d 9706 e4bd 3c30 cbbc
00000270: 77cb e93d ad1c 1f3d 7592 d9bd 575c 493c
00000280: 43fb fe3d ec9e ca3c b00a 983d fff7 d23d
00000290: d31f 833c dbdc 18bc 2f13 253d 2a5a 46bd
000002a0: 4db6 1fbd 15aa 0bbd 31a6 8f3d 20ab 0abd
000002b0: e384 833d 6051 8fbd 0883 dabd bae1 1fbc
000002c0: 4cae ef3d 0b9d 663d bbcd c8bd 5606 ccbc
000002d0: 37bc 333d a208 e8bd cdfe 9bbd 8852 6f3c
000002e0: 6ee0 85bd a499 733d 4848 c93d 7e81 adbc
000002f0: 435d 113d e47c 31bc b17e ebbd 542b c9bd
00000300: 1d27 b5bd dac3 da3d d8f0 21bb 2081 7dbd
00000310: 0226 2b3e 60c3 833d a4af 57bd a6bc 82bb
00000320: 789e cb3d a285 0ebd 14ed 8bbb df0f c43d
00000330: d326 443d c2c2 0d3d f60a ed3d 4cb2 b53d
00000340: 8848 2e3d f78e 223a 9fab 86bd c22b 9ebd
00000350: 6647 77bc c673 893b 3cdd 2cbc d48a 06bd
00000360: af2e 14bd 9ee3 0e3e c9ba eb3d a49b 0f3c
00000370: 9e31 99bd b344 933b 5531 bcbd 7f60 80bc
00000380: 3a54 55bc 4be2 fa3d edf1 65bd a027 35bd
00000390: 818d 923d 488f c83d cb2f 98bd c7eb 3d3d
000003a0: beb0 533d 06be 8e3d 6f98 69bd 542c 5f3a
000003b0: 790d 903d 00d5 3bbd 17a9 d33d 630a d33c
000003c0: 6ca1 433c 5644 02bb 11f0 833d c782 91bc
000003d0: 416b 03bd c4ca f9bc ce91 95bc 3ec5 c33d
000003e0: 4b07 a8bc c1ad 9bbd 8032 283c 135e f83d
000003f0: ef02 b1bd 782d d43c 14be 563d 9aad c3bc
0.039446555 -0.0471004 -0.06303574 0.10113116 0.09281332 -0.07102306 -0.0787005 -0.031549633
0.017235037 -0.014490185 -0.044118956 0.09637466 0.10665627 0.010367397 0.03195905 -0.13355015
-0.11996539 0.03414061 -0.018212626 -0.0013891931 0.10685733 -0.06607876 0.023193836 0.124844454
0.12607335 0.08282785 0.060840365 -0.018876472 0.06008317 0.023108114 0.015128461 0.11330727
0.07717427 0.014754898 0.060149387 0.07328053 0.0014021961 0.1481899 0.047597356 -0.014092741
-0.013072327 0.03525825 -0.025577372 0.114282444 -0.13418092 0.020236071 0.0075439936 0.05258431
0.0136185195 -0.004351277 -0.056294013 0.0020663969 0.054274697 0.015748033 -0.057965226 -0.001977824
-0.07645806 0.044303887 -0.038534194 0.06723392 -0.08448913 -0.00015474827 0.11735588 -0.09212773
0.11549777 0.0029224525 0.113710634 -0.0151390415 0.046876896 0.098271556 0.01924282 0.0030177603
0.11229891 0.012860217 0.06220828 0.065599285 0.047735363 -0.057150654 -0.09257163 0.00962077
0.07971561 0.019899713 0.12655361 0.071798734 -0.00767402 0.09473936 0.07176385 -0.043563504
-0.025619825 -0.018561134 -0.07519733 0.102780975 0.043843586 0.032499235 -0.078850225 -0.07933907
0.08130992 0.032143373 -0.027555663 0.07967561 0.10084914 -0.06528831 -0.031660087 0.120873645
0.056648385 -0.092845015 0.12019498 0.054573253 -0.06676926 -0.027248371 0.018606953 -0.007991707
-0.053718746 -0.078519575 0.06420301 -0.079360746 -0.102785744 0.003025701 0.062380157 -0.011083394
0.05794726 0.00515053 0.033910148 -0.0630246 0.11616942 0.07797615 0.012117455 0.0960586
-0.017347822 -0.092491984 0.08399116 0.094378784 -0.07021777 0.04954865 -0.094044544 0.034400363
0.10538606 0.103590764 -0.019424884 -0.031880025 -0.04429217 -0.08591226 0.026224101 0.076177396
-0.09401039 -0.13281669 -0.03773429 -0.056574173 -0.04432579 -0.120514974 0.01784425 0.09141311
0.07630938 0.10203596 -0.111340694 -0.024803273 0.11415761 0.038845707 -0.106236376 0.012290082
0.12450268 0.024733983 0.074239135 0.10301208 0.016006386 -0.00933 0.040301498 -0.04842583
-0.038992215 -0.03409775 0.0701412 -0.033854604 0.064218305 -0.06997943 -0.106695235 -0.009758407
0.11703166 0.05630211 -0.09804865 -0.024905365 0.043880668 -0.113297716 -0.07616959 0.014607079
-0.06536947 0.059472695 0.0982824 -0.02117991 0.035489332 -0.010832999 -0.11498774 -0.09822717
-0.08845351 0.10681887 -0.0024710204 -0.06189072 0.16713718 0.06433749 -0.05265774 -0.003989774
0.09942335 -0.03479541 -0.0042702053 0.0957334 0.04788859 0.034609564 0.11574356 0.08871898
0.04254964 0.0006201113 -0.06575703 -0.0772319 -0.015092706 0.0041947095 -0.010550793 -0.03284724
-0.036177333 0.13954017 0.11510236 0.008765135 -0.07480167 0.0044942736 -0.09189097 -0.015671013
-0.013020569 0.12250193 -0.05613892 -0.044227242 0.07155896 0.09792954 -0.07430991 0.046367433
0.051682226 0.06969838 -0.057030138 0.00085133803 0.0703382 -0.04585743 0.10334986 0.025761789
0.011940341 -0.0019877157 0.064422734 -0.017762555 -0.032084707 -0.030492194 -0.018258002 0.09559105
-0.02051129 -0.076015 0.010265946 0.12127318 -0.08643138 0.025900587 0.052427366 -0.02388649

lstm.weight_ih_l1 f4 [256, 64]
00000000: 606a 4bbd 1ddd d2bd e578 39bd 1240 f63d
00000010: 10a9 29be 2a8b db3b 86ca 0fbe 7a8c 33bd
00000020: c607 aa3d 343b 953d e44f 453d 2dbf 34be
00000030: 75b2 2f3d b1c2 cc3d e022 103e 444e 29bc
00000040: ca13 2abe 36ac f1bd aec7 57bd cae0 e0bd
00000050: 8724 83bd 3a73 85bd 79ce 553d ae09 5bbd
00000060: 9b94 65bc 79b1 49bd f1be 403d 190b 7fbd
00000070: 9a94 d8bb 1df4 c2bd 348a b7bd 14a4 6fbd
00000080: 22f1 ccbb ba52 5f3d 7645 143e beee 493e
00000090: 8093 9b3d a8a5 393e b882 ecbb 04e1 18bd
000000a0: 8dd8 82bd 6b21 63bc e4f6 3f3b 4114 51bd
000000b0: 3487 023e 61ce 7a3d 3b5d 09be 8926 f7bd
000000c0: b15b 723a c5c6 d0bd 1dc9 65bc 0190 fbbb
000000d0: 7304 02bb 810b e7bd d1da 43bc 1d7d 84bd
000000e0: cf80 1dbd 239a 023d a24a 79bb ef10 a5bd
000000f0: 927d 15be b152 aa3d 7329 6c3d e653 f7bd
00000100: 2f4b 9dbd 9c54 11bd e996 41bd 961c bc3d
00000110: e0f6 6fbd 0aba d73d a75d 0abd 991a 943d
00000120: 9688 c33c cf13 f63d d58f 90bd a4c3 cb3d
00000130: 3f0f 4fbd 8f84 50bd 09bd 8cbd 54d5 a83d
00000140: 7be1 8c3c d7a9 04be 9447 e4bd a241 233e
00000150: c948 103d a868 8bbd 3719 edbb 8740 833d
00000160: 32d9 203d 2841 adbd e16b 36bd ea04 82bd
00000170: 46fb 8e3d 948c 23bb f5fc d1bd 0cbe c1bd
00000180: 3497 033e cc2b 1abe fb15 033e 439a 7f3d
00000190: 9e54 d7bd fb04 d6bd 74f5 283d deda 4539
000001a0: 9d7a 07be a4e3 db3d f651 50bd 9101 373e
000001b0: 035c e63d 2fd2 9ebd ecec 913d d98e a3bd
000001c0: cdae 52bd eb32 3fbd 2417 1dbe 34de 72bd
000001d0: 5dcb 5abd 2ad6 9cbd 221d 903d a862 43bd
000001e0: cc21 e9bc 708a fa3d 2ebe d13d fdfa 02bd
000001f0: 1096 5fbc c4bc 41bc 0a62 2abe 5493 3ebd
00000200: 34e5 713d a1b8 d43c ba04 9c3c 332b 843d
00000210: 1c9d 8fbd f9c4 ed3d 07ec 7e3d 31b5 b03d
00000220: 69b7 67bd 7258 863d d1c7 20bd 6a1e 0a3e
00000230: a6ed ce3d 8d34 0cbd 047e cbbd a065 4f3d
00000240: 6231 e0bd 1969 eabd 58ac 9bbd 4731 abbd
00000250: b138 e43d 8794 3c3b 1f62 c63d d81a c3bd
00000260: 4cfc 7bbd b758 623b 5253 f53d b6e9 0e3d
00000270: b71f c5bc 4ead 573d c81f 56bb 0c96 9fbd
00000280: 198e b93b cab5 f6bd aa20 94bd 4631 fbbc
00000290: 0f51 9d3d 7b72 32bd 49c2 953c fdfc 85bc
000002a0: 3613 d2bd 3571 76bd 785d 243e 23e2 d33d
000002b0: b67b 1ebd 4819 e73d 677e 2e3d c742 8cbc
000002c0: 7dd3 1a3e ff27 8bbd f829 98bd 1b0d bc3d
000002d0: 198d 7cbd 35c4 943d 9d42 863d 6d91 b43d
000002e0: 59e2 6abd 679f fabc 13b2 77bc 7923 9dbd
000002f0: eb45 623d 5007 edbb bc4e f13c ef74 e6bc
00000300: 8074 d7bd 476b 08be 806f e1bd 3db0 96bc
00000310: 6c14 c13d 674f 8c3d 88fd 8dbd 1aa1 d3bd
00000320: 1622 8b3d 165b b03a 32e3 e93d d176 b83d
00000330: f9b5 973d fbef b33d 41c3 df3d 59a4 943d
00000340: 9ef5 ec3d 7cf1 8dbd 418f 15bd 405b 513d
00000350: e267 d13d 2345 bf3c 9a2d 66bd 307f f83d
00000360: b7ac e13d ce61 d93d 29ee 8cbc b3b1 47bd
00000370: 8fa5 02be fd83 d13d 8122 1cbe bc07 68bd
00000380: c463 833d 560d 98bc 60ee 233d f552 56bd
00000390: 9238 afbd 7399 80bd a362 b0bd dcf7 dcbb
000003a0: 3d01 e63d 7ce7 13bc be00 133e 21fd bb3d
000003b0: 520b fd3d 7471 213e 1552 083d 650f 25bd
000003c0: 40a3 ca3d 874e 0abd f484 fe3d 2220 293d
000003d0: ed9b c5bd d6ac ff3c 47b3 e33c 8b3f 843d
000003e0: fb64 42bd 8456 93bd 8ac0 013e 4e0b 4d3c
000003f0: 1ea8 6cbd adcf 4abc e283 a0bd a7d1 91bd
-0.049661994 -0.1029608 -0.04528131 0.12023939 -0.16568398 0.0066999393 -0.140421 -0.04383514
0.08302264 0.07286683 0.048171893 -0.17651053 0.0428948 0.09998072 0.14075804 -0.010333601
-0.16609111 -0.11800425 -0.052680664 -0.10980375 -0.064034514 -0.06516118 0.05219886 -0.05347603
-0.014012481 -0.049241517 0.047057096 -0.062266443 -0.0066095116 -0.09519217 -0.08961907 -0.058506086
-0.006254331 0.054522254 0.14479622 0.19719979 0.07596493 0.18129599 -0.0072177313 -0.037323967
-0.0638896 -0.013862948 0.0029291445 -0.051044706 0.12746888 0.061231975 -0.13414471 -0.12067897
0.00092452305 -0.10194162 -0.014025 -0.0076770787 -0.0019839078 -0.11281491 -0.011954025 -0.06469176
-0.03845292 0.031885277 -0.003803887 -0.080598705 -0.14598683 0.083165534 0.057656717 -0.12076549
-0.07680356 -0.03548108 -0.04726306 0.0918514 -0.058585048 0.10533531 -0.03378072 0.072316356
0.02386884 0.12015497 -0.07058684 0.09949425 -0.05055165 -0.050907668 -0.06871993 0.08243814
0.017197361 -0.12955414 -0.11146465 0.15943006 0.035225663 -0.06807071 -0.007235672 0.06408792
0.039269634 -0.08459693 -0.044536475 -0.063485935 0.0698152 -0.0024955617 -0.10253326 -0.09460077
0.12850648 -0.1505577 0.12801354 0.062402975 -0.10514186 -0.10450169 0.041249707 0.00018868918
-0.13230367 0.107367784 -0.050859414 0.17871691 0.112480186 -0.07754933 0.071252674 -0.079862304
-0.051436234 -0.04667942 -0.15340859 -0.05929394 -0.0534166 -0.07658036 0.07036807 -0.047701508
-0.028458498 0.12233436 0.10241352 -0.031977642 -0.0136466175 -0.01182479 -0.16638961 -0.04652722
0.059056476 0.025966944 0.019045223 0.06453552 -0.07012388 0.11609835 0.062236812 0.086283095
-0.056571398 0.06559838 -0.03925306 0.13488165 0.101039216 -0.034229804 -0.09936145 0.050634027
-0.10946919 -0.11445827 -0.07601231 -0.08359008 0.111436255 0.0028775053 0.09686684 -0.095266044
-0.061519906 0.0034537741 0.11978783 0.034890853 -0.024062974 0.05265551 -0.0032672752 -0.07792291
0.0056626913 -0.12046392 -0.07232793 -0.030663144 0.07681476 -0.04356621 0.018281119 -0.016355986
-0.102575704 -0.060166556 0.1605128 0.103458665 -0.0386922 0.11284119 0.042601015 -0.017121686
0.15119739 -0.06794738 -0.0742988 0.09182187 -0.061658 0.07263986 0.06555674 0.088168
-0.05734477 -0.030593587 -0.01511814 -0.076727815 0.05524246 -0.0072335377 0.029456489 -0.02813193
-0.105202675 -0.13322173 -0.11007595 -0.018394584 0.09427723 0.06851082 -0.06933123 -0.10333462
0.06793611 0.001345488 0.11420287 0.090070374 0.074077554 0.08786007 0.109259136 0.07257909
0.11570285 -0.06930825 -0.03651357 0.051112413 0.10224892 0.023348397 -0.056195833 0.12133634
0.11019271 0.10614358 -0.017203407 -0.04875345 -0.12758468 0.10230253 -0.15247537 -0.056648
0.06415513 -0.018561047 0.040022254 -0.052325208 -0.08555712 -0.06279268 -0.086125635 -0.0067434143
0.11230705 -0.009027358 0.14355752 0.0917914 0.12355675 0.15765935 0.033281405 -0.040297884
0.09894419 -0.033766296 0.124277025 0.04129041 -0.09648881 0.031210344 0.027795447 0.06457432
-0.047459584 -0.07194236 0.12671104 0.012514902 -0.057777517 -0.012378615 -0.07837655 -0.07120066

lstm.weight_hh_l1 f4 [256, 64]
00000000: cb7d 0ebc 4cf7 e63c 8f3a a1bc 21b3 f23d
00000010: d361 b13d 4c6c 76ba 1984 f1bd d5d4 c1bd
00000020: 05b4 783c 3d63 6c3d 875f 0c3d e023 c4bd
00000030: 3106 083d e830 483e 9a8d 303e cdbc 49bd
00000040: f36c aebc e902 bd3d d179 a3bd b1d3 cfbc
00000050: f14a 41be 25a6 863d bb13 10be 6950 24be
00000060: dcd8 b13a 2079 64bc 9b2d 08be e3fa 21be
00000070: 0dc1 6e3d 6110 313d 533b b33d ea03 3fbd
00000080: 5adc 1a3b 60f5 863d 42b1 923d 6a53 5a3d
00000090: 2b98 8dbc 2e73 c8bd 9a49 ea3b ce91 523e
000000a0: 9af9 22be 5a20 a63c b4a3 4ebd 34ff 703b
000000b0: 759a 133e 8666 343d 28e1 6b3d 5262 1abd
000000c0: 84b6 093e 5603 ff3d 9fa3 183d 5876 133c
000000d0: ba1c 30bd 05a7 97bd 0de4 6bbd c1fe 5abd
000000e0: b5f5 acbd bcd8 5d3b 0e57 423d f396 4dbd
000000f0: 2663 2b3d 1bef 8dbb 1cea 683d 860a 333e
00000100: 4cb7 57bd 4493 6b3d 16be a7bb 5b42 35bd
00000110: 5321 7dbd 4f20 41bd ba47 2a3d 41db 253d
00000120: 7bbe 853d f7c4 98bd 39a1 17bc 5100 2ebe
00000130: a426 583a 1845 05be 7af7 83bd 857e 023e
00000140: 1525 b43d 2870 a0bb f49d 78bd 5036 87ba
00000150: e33c e5bd 37d6 1a3d 3c56 cc3d 798d f8bd
00000160: b041 cdbd 4974 983d 0b92 113e 8df1 f3bc
00000170: 77bf 2b3e 548f b63d 13d6 27bc 399e aebd
00000180: e8a5 32bc 905c 133d d3c9 5a3d 2208 323d
00000190: 4114 69bd 3f2e db3d 9863 4bbc 7290 2d3d
000001a0: addb 0ebe c745 113c f0eb 9a3d 4e70 97bd
000001b0: 820b 2dbe 681b 3e3b d8af c73d 9dd4 11be
000001c0: 2af4 7ebd 2080 c73c fa11 67bd b95f 693d
000001d0: 7ca0 3f3e fc13 f6bd 0422 bbbc b812 2abe
000001e0: 7994 9d3d 7a95 86bd 7727 f93d 55c5 633d
000001f0: b393 a13c 727f 083d f527 a9bc e9cd ddbd
00000200: c53d e6bd 85c7 0b3e a6c0 1b3d ca4c 723d
00000210: b4c7 a83d 9cc3 d63d 6ee9 f8bc 78da 1d3c
00000220: f69e a93d 6768 23be fa39 cd3b 8b06 5cbc
00000230: 0406 7cba bd6f 383c abef ee3b 86c7 c8bd
00000240: 4e2a 0abd 7041 79bd 40ec 4f3d 7eee 76bd
00000250: fbf2 14bd 6954 6e3d 7904 a6bd b2b5 d53d
00000260: 75ed babd e5c2 0e3d 57d1 363c d232 673d
00000270: 1cb5 6cbc 9797 93bd 69f3 72bc 2e0f d23d
00000280: b0cc 95bd c3de abbc b20b 8d3c 178e f83c
00000290: 2646 a6bb b397 913d 3f92 c7bd cd07 913d
000002a0: 930b 3d3d 7bd1 9fbd fa3d 153e 21a6 8ebd
000002b0: 99a6 dc3c b772 aa3c 277c dd3d b7ce d2bd
000002c0: c9f4 733c 8705 e2bd 2817 e73d 3ef9 be3d
000002d0: 9173 6f3d 2ddf 12bd b558 ecbd db22 a23c
000002e0: e290 0cbd 61aa 00be 0526 ed3d ee63 71bd
000002f0: eeb4 05bd cc8b 37bd a816 c03d 1596 c63c
00000300: 27a7 7d3d 8eb6 ed3d d49b ccbc 11d9 dabd
00000310: 605c 43bd 01ae 4abb 3b96 143e 5453 b6bd
00000320: b935 c5bc f034 c7bd 65f1 0ebc 6073 c33d
00000330: eba5 453c 4bf1 d7bd 39a5 903c 3219 9dbd
00000340: d4b5 8dbd 3357 d3bd e9ce fb3d f1be 163c
00000350: 1a29 0f3d 7be5 653d 8b85 bb3d 1087 253d
00000360: 6316 043e d370 913d 1c41 e93d 62c5 78bd
00000370: c651 823d 4a95 88bd a67f 17bd 4811 e43d
00000380: 1304 7abd 8b40 4fbd 0ff1 a7bb 71bd 09be
00000390: 3bd6 c3ba 165b 6fbd e918 a73d 2179 43bd
000003a0: f98e 3dbb 820c 8ebd 10d6 8ebd b0ff e33c
000003b0: c18e d6bd e9d0 73bd 96ef 043e 909d c5bd
000003c0: ec33 df3b b794 a73d 71d1 b03c 068b c9bd
000003d0: 22e0 0f3e 3f1c 2dbc 7d42 da3c 102e 6cbd
000003e0: dac9 81bd 2cf2 bf3d 4f44 18bc 4c52 65bd
000003f0: cbb7 febd e97c 763d 9f16 44bc a5ca 8cbd
-0.008696984 0.028194092 -0.019681243 0.118505724 0.086612366 -0.0009400293 -0.11792774 -0.094644226
0.015179639 0.05771183 0.03427079 -0.09577155 0.03320903 0.19549906 0.17241517 -0.04925232
-0.021292185 0.09229071 -0.07982219 -0.025369497 -0.18876244 0.06574658 -0.14070027 -0.16046299
0.0013568657 -0.013944894 -0.13298647 -0.15818362 0.058289576 0.04322851 0.087515496 -0.046634592
0.0023629875 0.0658977 0.071627155 0.053302206 -0.017284473 -0.09787594 0.0071498873 0.20563433
-0.15915528 0.020279098 -0.05044909 0.0036773207 0.1441439 0.044043086 0.057587773 -0.03769142
0.1344853 0.12451808 0.037265416 0.009000383 -0.042996146 -0.07404903 -0.057590533 -0.05346561
-0.084453024 0.0033851108 0.047446303 -0.050192785 0.041842602 -0.004331482 0.05686389 0.17484483
-0.05266504 0.05751349 -0.0051190956 -0.044252735 -0.06179936 -0.047149953 0.04157231 0.0404923
0.06530472 -0.07459443 -0.009254747 -0.16992308 0.0008245504 -0.13014638 -0.06443687 0.12743576
0.08796135 -0.0048961826 -0.06069751 -0.0010315869 -0.11193254 0.037801947 0.099773854 -0.12136359
-0.100222945 0.07444055 0.14215867 -0.029778266 0.16772257 0.089140564 -0.01024391 -0.08526272
-0.010903813 0.035976946 0.05341513 0.043464787 -0.05690408 0.1070218 -0.012413882 0.042374082
-0.13950987 0.008866734 0.07564533 -0.07394467 -0.16898921 0.0029008035 0.097503364 -0.14241262
-0.06224457 0.024353087 -0.05641363 0.056976054 0.18713564 -0.120155305 -0.022843368 -0.16608703
0.076943345 -0.06571479 0.121657304 0.055608112 0.019723749 0.033324666 -0.020648936 -0.1083029
-0.1124225 0.1365033 0.03802552 0.059155263 0.08241215 0.10486528 -0.030384745 0.009634607
0.082822725 -0.15957795 0.006263015 -0.013429294 -0.00096139335 0.011257109 0.0072917542 -0.09803681
-0.03373175 -0.06085342 0.050762415 -0.060286038 -0.036364537 0.05818597 -0.08106322 0.10435046
-0.091273226 0.034853835 0.011158309 0.05644495 -0.014447477 -0.07206648 -0.014828541 0.102568015
-0.07314432 -0.020980245 0.01721749 0.030341191 -0.0050742803 0.071090125 -0.09744691 0.07081566
0.046153616 -0.07803627 0.14574423 -0.0696528 0.026934909 0.020806653 0.10814696 -0.10293334
0.014889904 -0.110362105 0.112837136 0.09324883 0.058459822 -0.03585737 -0.11540357 0.019792011
-0.03431786 -0.12564994 0.11579517 -0.05893319 -0.03264325 -0.044811055 0.09379321 0.024241487
0.061926987 0.11607085 -0.024976648 -0.106859334 -0.047695518 -0.0030926468 0.14510433 -0.08902612
-0.024073469 -0.09726894 -0.008724545 0.095434904 0.012063484 -0.1054407 0.01765691 -0.07670821
-0.069194466 -0.10319366 0.12295324 0.009200797 0.034951307 0.056127053 0.09156331 0.04041201
0.12899165 0.07101598 0.11389372 -0.060735114 0.06363253 -0.066691 -0.03698697 0.11136109
-0.06103904 -0.050598662 -0.005125172 -0.13451172 -0.0014941165 -0.058436476 0.08159048 -0.04772294
-0.002892433 -0.069359794 -0.06974423 0.027831882 -0.10476447 -0.059525404 0.1298202 -0.09649193
0.0068116095 0.08182662 0.021584244 -0.0984097 0.14050344 -0.010565816 0.026643032 -0.057661116
-0.06337328 0.093723625 -0.00929363 -0.055986688 -0.124373995 0.060177717 -0.011968284 -0.06874589

lstm.bias_ih_l1 f4 [256]
00000000: 51c7 95bd 6a15 d13b bfa5 123c 35a0 6bbd
00000010: 22c9 ffbd 5039 65bd 109c 21bd 6b90 d33d
00000020: 0fce 243e f6b0 093e 2dee e53d 5b06 d63d
00000030: c7a5 ab3c aa6d 803d 0e7b 42bb b1b3 083e
00000040: f600 e4bd d4de be3d f699 953d 5947 84bd
00000050: a5fc a1bd c2b4 133e fa9c 40bd 7ef2 89bd
00000060: daae bebd 873e b03d 7f65 b13d 2d73 1a3e
00000070: bfac 8ebd dfe9 7a3d 841c 853d b82b 323d
00000080: 0166 763c 7bbe 83bd 46e6 d43d b96a 18bd
00000090: 9f7b 613d b027 e3bd e89a 233e 210e b03c
000000a0: 14ed 8e3d ac39 92bd 14fd b9bc 69ce ba3d
000000b0: 9938 f43d 1893 c6bc 66f8 cb3c 5af0 c1bd
000000c0: 814c 253d d4c3 ed3a 1b7c 76bd 7fe3 8d3d
000000d0: 83af 253e 7689 0f3d 2705 ce3d 80fe babc
000000e0: 32c7 9d3c ddc0 053d 2e02 d5bd 0a7f c93d
000000f0: 6308 383c 1b0b fc3d 0745 183e f16a fd3d
00000100: 6053 3e3c b4f4 1fbd 6404 103d 0f48 d23d
00000110: b76d cbbd d842 2d3c 47d1 eebc f77f 05bd
00000120: 602e 143e 91ea ddbc 8820 033e 16c2 f93d
00000130: c853 8ebd ecbf d43d 5a01 e13d 3dce fe3d
00000140: 605f bb3d 88ec 56bd 7270 acbd 84f2 6d3c
00000150: ad4b 0a3e 399c cc3d 8e70 cb3d 030e 1a3d
00000160: c08a 463d d03f 423d 49bb ed3d b2e8 1e3c
00000170: 7e27 e73d df91 60bd 3a7f bcbc 404a 6f3b
00000180: 3b1f b53d 4f05 90bc 896f 293c c838 c73d
00000190: 5226 cc3d 0856 7cbd 3260 26bd e0e0 a23d
000001a0: a16f 9d3d 2167 e9bc ab4e 38bd 2c01 d3bd
000001b0: c043 6a3d e182 373c 168a 553d 2b90 c5bd
000001c0: db26 bebd 87d3 953d f44b 2bbd d827 5d3d
000001d0: af57 053e 5e35 a5bd 08ce 843d cd03 9ebd
000001e0: 8736 333d 5518 ff3d 3267 233d 1cf0 ccbc
000001f0: 99db d2bd 18b6 d23d 8ec1 e53d 212f 99bd
00000200: 70d6 bcbd 5640 d93d c170 2c3b c008 ed3d
00000210: 7dd2 e63d 6c11 053d 0301 7b3d 7c50 9ebd
00000220: c702 a33d 9dfd e2bc 439c 85bd 8ee5 ccbd
00000230: c19f cdbd 597f f63d 3ce2 503d e52e 9c3d
00000240: bf7b dcbc 54e2 9c3d fb0b 24bd 8556 b0bc
00000250: 3523 26bd c13c 6e3d 27cb c5bd d721 e2bd
00000260: d21b a6bd 70f7 dabd 52c3 ee3d c2a2 6dbd
00000270: c2be 803c 8d5c ac3d 9912 c03d 78c1 aebd
00000280: e925 873d 092d 0b3e 7af7 11bc 1d67 21bd
00000290: 1ad3 63bd 9bf7 b43d 4759 183d 5643 e23d
000002a0: c636 7a3d 4135 8cbd 2f61 f4bd fccb f6bd
000002b0: bf21 29bd 46a7 863d 6a71 113e a5b9 d6bd
000002c0: 37f0 103d da52 15bd eca2 033e 2b42 823d
000002d0: 2766 973d 71ef f1bd 257c c93d 74b5 cfbc
000002e0: 67d4 b2bc c873 b93d e2ba ef3d 2957 b6bd
000002f0: 749a 503d f93a 013e be27 7e3c cd92 80bd
00000300: 61c9 65bd 070e 3d3d 89c2 103b fb75 d33c
00000310: eff0 853d 6400 e93c ea12 31bb ad76 94bd
00000320: 9af0 ee3d d487 123d 3e5c 453d e19b 0abd
00000330: caea 033e bdbb 013e 8f7f eb3d 88f8 aebd
00000340: 14e9 cdbb b4b3 aebd 7fe8 16bd d0de a63d
00000350: 6540 85bd 3499 133e ad9a 95bd 50ba 65bd
00000360: bdc4 94bd cb4a 5abd d5c0 6d3c dbde 0d3d
00000370: 0bf4 043d f142 bdbc 8ced 283d 83f4 4fbc
00000380: 97e3 483d fac2 d13d 7f95 d13c 9103 96bd
00000390: 8c8c 5e3c 8f37 6b3d 8579 09bd 8d37 97bc
000003a0: 103b c23d 28e1 15bd 0160 afbc 10fc c43d
000003b0: 6034 55bd c136 173d 0b87 24bc 8d5a 7ebd
000003c0: 85d1 ac3d 02ed ddbb d8a5 cebd d231 84bd
000003d0: a851 2a3c 1f39 4bbd 8c1c d43d 79d1 d53d
000003e0: 71aa de3d 1828 8bbd 22fd ae3c 60e1 1ebd
000003f0: e2b7 5bbd 1c81 19bc 9c76 a9bc bafa 063d
-0.07313407 0.0063807266 0.00895065 -0.057525832 -0.12489535 -0.05596286 -0.039455473 0.1033028
0.1609423 0.13446411 0.11227069 0.10450431 0.020953072 0.06270917 -0.0029675397 0.13349797
-0.11132996 0.09319845 0.07304756 -0.06458921 -0.07909516 0.14424422 -0.047024705 -0.06735705
-0.09310694 0.08605676 0.08661937 0.15082999 -0.069665425 0.061258193 0.064995795 0.043498725
0.015038968 -0.06432816 0.10395484 -0.037211154 0.055049535 -0.11091554 0.15977061 0.021491112
0.06978813 -0.07139906 -0.022703685 0.09121401 0.11924858 -0.024240062 0.024898719 -0.094696715
0.040356163 0.0018140026 -0.06017695 0.06928157 0.16180234 0.035043202 0.100595765 -0.022826433
0.019260023 0.032654632 -0.10400806 0.09838684 0.011232468 0.12306806 0.14870082 0.12373913
0.011616558 -0.039051726 0.035160437 0.1026765 -0.09933036 0.010575019 -0.029152526 -0.03259274
0.14470816 -0.027089389 0.12805378 0.12195222 -0.06949574 0.10388169 0.10986586 0.124416806
0.09149051 -0.052471668 -0.08419885 0.014523152 0.1350543 0.099907346 0.099335775 0.03761102
0.048472166 0.047424138 0.116079874 0.009699034 0.112868294 -0.054826614 -0.023009885 0.0036512762
0.08843847 -0.017580656 0.010341533 0.09727627 0.099682465 -0.061605483 -0.040619083 0.07953048
0.07687307 -0.028491559 -0.0449969 -0.10302958 0.057193518 0.011200638 0.052133642 -0.096466385
-0.09284755 0.07315736 -0.04182048 0.053993076 0.1302173 -0.080668196 0.0648461 -0.07715569
0.043753173 0.12455813 0.039893337 -0.025016837 -0.10295791 0.10288638 0.11218558 -0.07479692
-0.09220588 0.10607974 0.0026312324 0.115739346 0.11270616 0.032487318 0.06128026 -0.07730195
0.07959514 -0.027708823 -0.06523945 -0.100047216 -0.10040236 0.120360084 0.050997004 0.07626132
-0.026914475 0.07660356 -0.040050488 -0.02152563 -0.04056092 0.05816341 -0.09657889 -0.11041611
-0.08110775 -0.10691726 0.11658348 -0.058016546 0.01571596 0.0841609 0.09378547 -0.08532995
0.06599028 0.13591398 -0.008909101 -0.039404977 -0.055621244 0.088362895 0.037194517 0.110479996
0.061087392 -0.06846095 -0.11932599 -0.12050626 -0.04129195 0.065748736 0.1420342 -0.10484628
0.035385337 -0.036455967 0.12855119 0.06360277 0.07392531 -0.11813248 0.09838132 -0.025355078
-0.021829797 0.09055287 0.11705567 -0.08903343 0.050928548 0.12620153 0.015512405 -0.06278
-0.056100253 0.046155956 0.0022088608 0.025813093 0.06540095 0.02844257 -0.002701933 -0.07249198
0.11666985 0.035774067 0.048183672 -0.033840064 0.12882534 0.12669273 0.11498939 -0.08543497
-0.0062838886 -0.085303694 -0.03684282 0.08147967 -0.06506423 0.14413911 -0.07304893 -0.056085885
-0.07264087 -0.053293984 0.014511307 0.03463636 0.0324593 -0.02310321 0.041242167 -0.0126925735
0.04904517 0.10242267 0.02558398 -0.07324899 0.013583314 0.05742603 -0.033563156 -0.018459106
0.094839215 -0.03659168 -0.021408083 0.096183896 -0.0520519 0.03691745 -0.010041962 -0.062098075
0.084384 -0.0067726383 -0.10090226 -0.06454815 0.010395445 -0.04961502 0.103570074 0.10440344
0.10872353 -0.06794757 0.021360938 -0.038789153 -0.05364216 -0.009369161 -0.02068644 0.032953955
