api/data/models/BTC_TRY_1h_lstm.pth (torch, 211077 bytes, 10 tensors)

lstm.weight_ih_l0 f4 [256, 5]
00000000: 8d1f a03d 8cb7 9f3d d9e2 3dbc 6d76 c2bc
00000010: caf3 9d3d c94a eebc b96c 09bd 0b79 0ebd
00000020: ce93 18bd c14f 55bb 3e85 88bd de75 a53d
00000030: d2da 9e3c afcc b73d 330d 14bd 9a2e a4b9
00000040: f73c b0bc 28b5 f9bd 836b fbbc 8e3e d2bd
00000050: b596 e13c 13b0 8dbd 5572 f73d 9120 51bd
00000060: cebf 0d3e 6f99 813d e902 da3d b05c 043c
00000070: 1aee a63d a110 853d 911d 623d 383a f83d
00000080: 6a3e 953d 3891 d438 a1c1 8fbc 7a67 3e3d
00000090: dff6 673d 9d0b b83c 9047 1bbd 2f92 07be
000000a0: a377 c2bd 1211 d5bc 0c21 a5bc 8933 b5bd
000000b0: cd75 cabd a076 723d 1e1f b23d e986 a5bd
000000c0: 9ef9 34bc 5ba3 c53d 929c e33d 1be2 d03d
000000d0: e9f8 8d3d 0486 d639 52ed bc3d 6c3d d4bd
000000e0: 7119 c33c 7c87 ad3d d423 333d cc3e 9cbd
000000f0: baba 07bd 85c3 11bd aa3e d5bd ebdd 4e3d
00000100: b7fc c5bd 3743 7cbd 45dd a1bd 875f 8f3d
00000110: db99 043e 4b11 b2bd 773f fe3d 1392 753d
00000120: fcf4 43bd de4e 6dbd 9700 f63d 47da 333d
00000130: ecea 393d d510 13bc d832 edbd 936e e6bd
00000140: 36a7 c0bd 8949 113e 73e3 cf3d 744c 823b
00000150: ef7c cdbd 52ab f0bc ae48 b5bd b7f9 b33d
00000160: 9e59 393d 8882 c03d 2fd9 89bd e776 b1bd
00000170: db34 f53d 56a5 a03d eba5 b1bd 2ec9 16bd
00000180: f6b0 49bc 0ea2 5e3d 5c4f a6bd f875 933d
00000190: 9e04 0b3e d86b b5bd d626 44bd 3fc3 6abc
000001a0: 6434 413d 660f 043d 73e9 4a3d 31cf c1bd
000001b0: 3750 c1bd 8159 8a3d 810d 1abd b647 07be
000001c0: e461 c9bd 02c2 acbd 68fd 36bd 16c3 f43d
000001d0: b8e0 993b 1094 9dbd fd6b c2bd 14b7 383d
000001e0: 5ced 3e3d 8dd8 3a3c 439d 29bd 7859 d0bd
000001f0: 3fef b13c 617d e4bd 359f dabc aac5 e53c
00000200: a5fe 95bd 6ca9 31bd 2960 27bd 2242 33bd
00000210: 8277 723d 3489 023b 74c5 06bd 6e9b 1a3d
00000220: 7571 87bb dcf3 d7bd 037e ed3d ef13 593d
00000230: 011f e03b 10d4 9c3d 9e74 debb f568 4d3d
00000240: fa5a afbc 8816 043e 79a9 58bc 5c41 88bc
00000250: 1224 ad3b 8643 2d3d 5ae5 e43d e37f 2c3d
00000260: 554a d4ba 74b7 db3d afd1 f13d ac21 4f3c
00000270: cf5b 753d 0229 203d 4998 a13d e36e a4bd
00000280: 04a7 c1bc d4b4 af3d 58a0 523c a5df 84bc
00000290: 2ee1 cebd 7606 493d 7bf3 cb3d dcec e9bd
000002a0: 899c ab3d 5125 5d3d fbec c6bd fc91 0a3e
000002b0: b39e 8cbd f5e4 b23d cfe3 3d3d 1f99 c33c
000002c0: 133f c3bd 7e32 8fbd 21cf 9d3d 3c5c 3cbd
000002d0: 2336 b5bc d571 03be 297f a23d 38a0 83bd
000002e0: 3ccb b5bc 9276 cdbc 5780 b23d 0826 c03d
000002f0: 25d2 43bd 9991 d73d eed8 903d b0df 17bd
00000300: 405a d5bd b952 ac3d b711 dcba fa53 b83b
00000310: 8e6f a43d fcf0 d13d 5cd8 8c3c 2dee 263d
00000320: 3b98 013e f491 113d ec4f 2dbd 1d21 7cbc
00000330: 7b6b 993d 7b96 033d 0a46 b8bb c9ee cc3d
00000340: acf6 be3c 5531 40bd 0992 b4bd a175 99bd
00000350: 1605 713c 3762 6e3d 5225 143e b593 353d
00000360: 4277 01bd 47a6 ed3d 760e 053e 4b3c c23d
00000370: 392b 1fbd a2f3 db3d be53 41bc d2ed de3d
00000380: abd0 93bd cbf4 973d 727c 8cbd e950 c8bd
00000390: d6e4 a33b 8282 343d 6f12 b43d 8065 b1bd
000003a0: 50fb ef3d 3bc6 c5bd 017b dbbd 2e0d c93c
000003b0: 5b55 e33d 66b9 62bd 5cdc 5e3d a269 e9bc
000003c0: c0af 093d 47e9 713d e7fd c1bd 1bff 48bd
000003d0: fca9 8cbd 26dc 993d 7b34 ddbb e23b 47bd
000003e0: 0bd5 983d a7c9 933d 8d19 6f3d dbc2 0bbe
000003f0: 4fd5 b93d bfbb 35bc 9fb9 a6bd 0f82 80bd
0.07818518 0.07798681 -0.011589729 -0.02373811 0.07712515 -0.029088395 -0.03355095 -0.034783404
-0.037250333 -0.0032548758 -0.06666039 0.08079122 0.019391451 0.08974587 -0.0361454 -0.00031315238
-0.021513445 -0.12192756 -0.030690914 -0.102658376 0.027537683 -0.06918349 0.12082354 -0.05105645
0.13842699 0.06328093 0.10645086 0.008078739 0.08150883 0.06497312 0.055203978 0.12120479
0.07287295 0.00010135997 -0.017548384 0.0464854 0.05663192 0.022466475 -0.037910044 -0.13239358
-0.09495475 -0.026009116 -0.02015736 -0.0884772 -0.0988575 0.05919516 0.086973414 -0.08082373
-0.0110458415 0.09650298 0.11113848 0.10199376 0.069322415 0.0004091711 0.09224953 -0.10363278
0.023815842 0.08473107 0.04373534 -0.07629165 -0.03313706 -0.035586853 -0.10412343 0.050504606
-0.09667342 -0.06158754 -0.07903532 0.07000642 0.12949316 -0.086947046 0.12414449 0.05995376
-0.047841057 -0.05793654 0.12011831 0.043909337 0.045390055 -0.008976181 -0.11581963 -0.11251559
-0.09406893 0.14188208 0.10150804 0.003976399 -0.10033595 -0.029378567 -0.08851753 0.08787864
0.04525148 0.09399897 -0.067308776 -0.08665257 0.11972972 0.07844035 -0.086742245 -0.036812954
-0.012310257 0.054353766 -0.08120605 0.07200235 0.1357598 -0.0885846 -0.0478886 -0.014328777
0.047169104 0.032241248 0.04953904 -0.09463347 -0.09439128 0.06755353 -0.037610535 -0.1321095
-0.09833124 -0.084354416 -0.04467526 0.11951272 0.004695978 -0.07694256 -0.094932534 0.045096472
0.046613082 0.011404169 -0.041409742 -0.10173315 0.021720527 -0.11156727 -0.026687244 0.028048355
-0.0732396 -0.043374464 -0.04086319 -0.04376424 0.059196003 0.0019918205 -0.03290315 0.037745886
-0.004133398 -0.10544559 0.115963005 0.052997526 0.0068396335 0.07657635 -0.006788804 0.050148923
-0.021405686 0.1289922 -0.013223999 -0.016632728 0.005283841 0.042300723 0.11176558 0.04211415
-0.0016196469 0.1072835 0.11807572 0.012642305 0.05990201 0.039101608 0.07890374 -0.080289625
-0.02363921 0.08579412 0.012855612 -0.016219923 -0.10101543 0.049078427 0.099585496 -0.114221305
0.08379466 0.053990666 -0.09713169 0.13532251 -0.06866207 0.08735076 0.046359833 0.023876725
-0.09533515 -0.069920525 0.07705522 -0.0459864 -0.022120541 -0.12836392 0.0793441 -0.06427044
-0.022191636 -0.025080953 0.08715885 0.09382254 -0.04780783 0.105258174 0.07072626 -0.03707856
-0.104176044 0.084142156 -0.0016789947 0.005625245 0.0802909 0.10251042 0.017193012 0.040754486
0.12655728 0.035539582 -0.042312548 -0.015388754 0.074912034 0.03212593 -0.0056235837 0.10006482
0.023310982 -0.046922047 -0.088169165 -0.07493139 0.014710685 0.058199134 0.14467362 0.044330318
-0.031607874 0.116039805 0.12993798 0.09484156 -0.03885958 0.10739829 -0.011799751 0.108852044
-0.07217535 0.074197374 -0.068596736 -0.097810574 0.0050016446 0.044069774 0.087925784 -0.08661938
0.11717856 -0.0965695 -0.107168205 0.024542417 0.11100265 -0.05535259 0.05440937 -0.028492752
0.033614874 0.05906036 -0.09472256 -0.049071413 -0.068683594 0.07512693 -0.006750641 -0.048641093
0.0746251 0.072161965 0.058373976 -0.1364855 0.090738885 -0.011092125 -0.08140873 -0.06274807

lstm.weight_hh_l0 f4 [256, 64]
00000000: 8124 8cbd 3129 273d 3ef9 853d 126c a4bd
00000010: c620 873d 125a a33c d996 b5bc 5307 99bd
00000020: bd74 92bd d130 07bd 84fb 633b 5fa9 263c
00000030: 8697 b9bd 2414 763b 739a f83d d5fe b2bd
00000040: 16e1 70bd c804 1bbd 6f4c ecbd ef99 003d
00000050: baa6 d8bc 8b29 07be 76c7 2dbd 24bc b8bd
00000060: 5400 a3b9 a815 953d 8fb7 b73c e8f8 c23d
00000070: 49a8 aa3d 9552 83bc 53f4 803d 3fa1 223d
00000080: 2e53 38bd 02f0 823d a7e1 923d b077 983d
00000090: 6f21 ce3d 426b e2bb b74f 3cbc 8f4e a9bd
000000a0: 2377 9f3c 3c83 fd3c 4d59 083e 4a22 0fbd
000000b0: ec6e debd 66df 033d 06c8 9b3c 2d65 453d
000000c0: e66f e33d 5e00 f7bd e279 c63d 2efd 4abd
000000d0: 4d75 e43d 46cd 223c 4a42 a13c f763 d3bd
000000e0: 16ec f6bd 8a78 dcbd 4cf5 c43d 2cf2 d13d
000000f0: 47b2 e03d 9194 f03c 260d 773b b559 cdbd
00000100: 5121 1f3b ca5b a63c c5c1 133d 6d38 85bd
00000110: 4b86 0abd 7ba8 48bd cd08 9aba d4b1 8a3d
00000120: f10b dc3b e422 c13d b5fc 6b3d 5d81 d7bd
00000130: 1d4f 7dbd 0b0f 2f3d 43c8 643d a1fb 0d3c
00000140: 7c5e 543d 59f3 1ebd eaf6 ba3d 0a2c 73bd
00000150: 6f52 393d 06da d83d 25f3 c9bd 50d7 35bb
00000160: a4ae dc3c 20fe a1bd 20c8 a6bc e403 66bd
00000170: dfbf 21bd bff8 ed3d c9a9 9a3d d5c5 d0bd
00000180: fe7e 943d ee9f c03c 0a71 923c fcb8 723d
00000190: 4153 c23d 89f8 31bd be47 f73d 3950 a93d
000001a0: 3e2d 7d3d 4f9f c33d 82b5 7b3d c27f 323d
000001b0: cc17 883d e49b 263b 5054 5e3c 371a 013c
000001c0: 9394 ce3d 69b6 e3bd 3e52 643d 865c 9b3d
000001d0: 1a0a 963d a27d d53d 25e8 8d3c 9a1d d33d
000001e0: 4aa5 9b3d f42c 793d bd6e 7bbc 4782 06bd
000001f0: 2896 c03d da43 f4bd 7b6a 103e 6b00 7b3d
00000200: 9b88 c43d 6d7f aabd 04be 573d 596a be3d
00000210: 820d e5bd 34e4 12bd 7047 72bd aabb b6bd
00000220: c243 acbd 3c94 c9bc 23c0 33bc d85b 62bd
00000230: f8d7 513d a1d9 fabc 918c f3bc aac7 d7bd
00000240: ac3a 52bd d43c 7fbd 9e6b 043e adce d0bd
00000250: 3b47 4fbd 3e8b 823b 3f2e efbd de6e 013e
00000260: fc15 da3d 9e76 a83d 486c 63bc 1455 68bd
00000270: 8ca4 fa3c bf45 383d 0d42 83bd c229 383c
00000280: f0bc 4d3d b2ad bf3d c8a3 aebd 137f b83d
00000290: 4b17 8b3d 2ca4 123d 29df 0bbe 68f4 d3bd
000002a0: 0caf 4c3d 52f1 37bd b94b 6ebc 99b9 04be
000002b0: 56ff f93d 6a1a 9fbd 6639 573d c0fb e1bd
000002c0: 3bae 303d 72be e03a 7fed bcbd 99f9 753d
000002d0: 68b8 a03d 6e92 0b3e c8be 07bc e0cb c2bc
000002e0: a924 fabb 1481 d4bd a296 5dbc 7bc0 a33d
000002f0: 2b10 0bbe 8abb 1e3d 5c2a 143d 039c f7bc
00000300: d7ca 143d 0cc6 cebc a2ec 9dbd 85eb e43d
00000310: 17da c8bb d714 1dbd 802b 27b8 4220 e33d
00000320: 517b 91bd cb5f 053e af6a b73d a8cd d63d
00000330: 4284 6a3d 1df6 773d 5d35 dabc ea7c e93d
00000340: a728 d13d 4ee2 503d 9af9 cf3d a08d b23d
00000350: af5a 04bd f015 90bd 94bb 6fbd 4607 b53d
00000360: 61b3 d5bd c635 4b3d bf06 71bd b847 a2bd
00000370: 15eb 0d3e 39a4 f63b b155 90bd c5cf e9bd
00000380: 629e e2bd d47c 13bc 2ba8 3fbd c15d 04bd
00000390: 1b2c 213d 0ebd 0a3e a8a3 efbc 314b 5bbd
000003a0: 52bc 0e3c d1d5 8abd 3aa9 5abc 231f 02bd
000003b0: bcf8 a93c a149 86bd 4178 313d f31f 8f3d
000003c0: e92a 63bd 1b37 0b3e d104 cebd cad1 673d
000003d0: a17b bcbd feca 17bc 7a3e 8a3d 5377 623c
000003e0: fe54 ba3c 2b00 f63c b753 26bd db57 973d
000003f0: cf30 823d 989e ed3c d83a f4bd b996 a83d
-0.068429 0.040810768 0.0654168 -0.08028425 0.06598048 0.01994041 -0.022166656 -0.074721
-0.07151172 -0.03300554 0.0034787366 0.010172217 -0.09062104 0.0037548626 0.12138834 -0.087400116
-0.05880841 -0.037846357 -0.11538016 0.031396803 -0.026446689 -0.13199441 -0.04242655 -0.0902026
-0.00031090027 0.07279521 0.022426395 0.09520131 0.08332879 -0.01603059 0.06296601 0.039704558
-0.0450012 0.06393434 0.07171946 0.074447036 0.10064971 -0.006909759 -0.011493615 -0.08266937
0.019465989 0.030946366 0.13315316 -0.03494481 -0.108610004 0.03219547 0.019016277 0.048192192
0.11105327 -0.12060617 0.09691216 -0.049557857 0.11155186 0.009936636 0.01968493 -0.10321801
-0.120567486 -0.107651785 0.09617099 0.10251269 0.10971504 0.029367717 0.0037697046 -0.10026876
0.0024281333 0.02030744 0.036073465 -0.06504903 -0.033819478 -0.0489888 -0.001175189 0.06772199
0.0067152907 0.09430483 0.057614047 -0.10522721 -0.061843026 0.042738955 0.055855047 0.00866595
0.05184792 -0.038806293 0.09129126 -0.05936817 0.04524463 0.1058846 -0.09860829 -0.0027746744
0.026938744 -0.079097986 -0.020359099 -0.056156054 -0.039489623 0.1161971 0.07551915 -0.101939835
0.07250784 0.02351376 0.017876167 0.059258446 0.09488536 -0.043449912 0.120742306 0.082672544
0.061810724 0.0955187 0.061452396 0.04357887 0.06645164 0.0025422508 0.013569906 0.007879785
0.10086932 -0.11118776 0.055742495 0.07586007 0.073261455 0.10424353 0.01732261 0.103083804
0.07599886 0.060833886 -0.015346226 -0.032839086 0.0940364 -0.11927004 0.14103119 0.061279695
0.09596368 -0.08325086 0.052671447 0.09297628 -0.11184217 -0.035862163 -0.05915016 -0.08922513
-0.08411361 -0.024606816 -0.010971102 -0.05526337 0.051231354 -0.030621352 -0.029730113 -0.1053613
-0.051325485 -0.06231387 0.12931678 -0.1019567 -0.05060504 0.003983884 -0.116787426 0.12639949
0.106487244 0.082257494 -0.013880797 -0.05672176 0.03059604 0.04498839 -0.064090826 0.011240425
0.050229013 0.093593016 -0.085273325 0.090086125 0.06791552 0.035801098 -0.13659348 -0.10349351
0.049971625 -0.044907875 -0.014544421 -0.12961425 0.122069046 -0.0776871 0.052544974 -0.110343456
0.04313491 0.0017146601 -0.09224986 0.060052488 0.07847673 0.13630077 -0.008285232 -0.023778856
-0.0076337648 -0.10376182 -0.013524683 0.07995697 -0.13580386 0.03875307 0.03617321 -0.03022576
0.036326256 -0.02524092 -0.0771115 0.11177734 -0.006129514 -0.038349953 -3.9856415e-05 0.11090137
-0.07103599 0.13024823 0.08955895 0.104884446 0.057255037 0.060537446 -0.026636774 0.114007786
0.10212832 0.05099707 0.101550296 0.08718419 -0.032313045 -0.07035434 -0.058528498 0.08839278
-0.104346044 0.04961183 -0.058844324 -0.079238355 0.13859208 0.007526901 -0.07047594 -0.11416582
-0.110653654 -0.009001929 -0.046791237 -0.032315973 0.039348703 0.13548681 -0.029252842 -0.053538505
0.008711891 -0.067790635 -0.013346011 -0.031767976 0.020748489 -0.06557012 0.043327574 0.06988516
-0.055460844 0.1359524 -0.100595124 0.056596555 -0.09203268 -0.009264706 0.06750198 0.013822394
0.022745606 0.030029377 -0.04060718 0.07389804 0.06356966 0.029006287 -0.11925286 0.08231873

lstm.bias_ih_l0 f4 [256]
00000000: e77f 91bd 2183 083d 7b9d 733d 6e4b 8dbc
00000010: 81f2 6bbd 1e14 9bbc d6af e13d 5cd1 42bc
00000020: f2c3 b6bd 52c7 cabd 735e 883c dd23 f13d
00000030: 310c 8b3d bb55 043e a20d 9d3d 24db db3d
00000040: 0865 df3d fef0 2a3d 5698 bd3d 4ad1 b53d
00000050: eac1 783d d47c 0e3c 120b c13c f0f2 10bd
00000060: 0f2a f33c df3f fabb 2bcb ae3d a31c f5bd
00000070: 2693 b33d d1d4 9fbd 0b4e cf3d 229f 9d3d
00000080: 12f8 f23d 248f 45bd 646c d5bd de18 39bd
00000090: f0ed 7f3d d1bf 44bd 4dcc 6f3d 0fd2 3cbd
000000a0: 45d9 3cbc 8501 913d 674b fe3d 31b9 fe3d
000000b0: 06e9 853d 7f7f b03d 8d47 5fbd 8065 febd
000000c0: 9567 fe3d 5d8e f0bd 3473 f0bd 6964 42bc
000000d0: c7cb 0cbd 905d ba3c 6b03 ad3d 9aa2 703d
000000e0: b784 6d3d 9522 0c3d 716b c73d 7565 86bd
000000f0: bf00 b2bd 7166 963c a3eb fb3b 043d e43d
00000100: 00fc 313d 06c3 803d 6f8d a13d cf8c a0bc
00000110: fdc5 4ebd d753 f73c 1d70 be3d 2903 cd3d
00000120: d65a 073e 3453 11bd 1400 573d e507 1cbd
00000130: 8457 ae3d e5c5 fe3c db66 c4bd 85e9 f9bd
00000140: afeb 1bbd 2b9e de3b 9423 adbd 2345 913d
00000150: b2eb 91bc 4e21 0fbd 4bbc 3b3d 81cd 003e
00000160: 803f 2fbd 0653 573d 9897 c5bd 4cfa b4bd
00000170: ceaa 343d 729a 4fbd cf68 683d 99df 34bd
00000180: 0d05 22bd 8b76 71bd 94c0 cd3d a8a2 c5bc
00000190: 71a1 683d b713 9ebd 8592 43bc ddf3 2e3d
000001a0: f32b 55bc 4c5f 5b3d 4b79 ccbd c93c 143e
000001b0: 2b4a a3bd 792e 3bbd 579f 07be 43cc 2e3d
000001c0: c1b9 ff3d 0bc2 fb3c 58b5 12bd 6200 90bd
000001d0: 43e3 90bd a7dc f73d d2b7 f6bd 151a e4bd
000001e0: bd9c cc3d 7697 c3bd 1356 c6bb e300 453d
000001f0: c5cb b33d 9c28 6b3b c566 4c3d 2aba a4bc
00000200: 1f7a f2bd a485 aebd 0963 583d 4818 9f3d
00000210: b114 493d 1c6c 3dbd e4e9 78bd a2da b03c
00000220: e6f1 c63d a9d3 55bd f1b6 533b 5649 c0bd
00000230: 751b 0abe 4376 d93d 477d 033c cdd1 ed3b
00000240: dbe8 e73d ed89 723c 9fbe a03d db6f 003c
00000250: 74bc 383d 520d 153d 7816 c0bc d378 12be
00000260: c849 b4bd 3e5c 8c3d f05d b2bc 761b d43d
00000270: 1658 12bc 3bb7 403c e143 fabd 540d 923c
00000280: 0243 82bc 0a27 85bc cc5c 013e 7e2a debb
00000290: adbc 8c3d d47d 3e3d 677e 853d d48e 833d
000002a0: d4c3 b73d 6184 14bd bf87 003e 09f6 703d
000002b0: c78a ddbc 63ae a2bd 4336 b2bb 0ea6 4a3d
000002c0: d2c5 f53d 3b9f 723d 0f01 88bd 8da9 ce3d
000002d0: 5330 203c f867 11be 19e7 f3bd e71e 5f3b
000002e0: 8d64 f0bd 4b27 93bc bad8 bc3d e7d0 d03c
000002f0: a279 a23d fbd9 c9bd d1c3 cb3d d58f 9b3d
00000300: b6ed c33c 72d1 32bd ae0c 9c3d 0f9a a9bc
00000310: 67b7 013e e4e4 dd3c 1645 56bd 1fbe a43d
00000320: 8068 50bd 8676 a03d f4ab 463d 0157 f63d
00000330: 7489 563d fb9f 9e3c f3a9 be3a e215 ba3d
00000340: 838d 46bd 63dc cb3d f0dc dc3d 0fac d1bc
00000350: 5492 66bd a4ed 963c 84fc 623d dd0b 9f3d
00000360: 4ad5 513d 91c4 ee3d abc7 3dbc cbd2 6d3d
00000370: dec3 d03d 9683 0b3e f08f 8cbd 443e 84bd
00000380: 9ee4 f03d f13f 983d c81a a73d 1928 b0bd
00000390: 3c93 103d 649a ac3d e272 a83d f5e7 0d3c
000003a0: 77c4 033e 9178 8dbd 2015 acbd af8e 8dbc
000003b0: d7ce bf3d 70fe 8cbc 489b 57bd 8fb3 8c3d
000003c0: c3ab 7d3d 3a26 aebc 3b91 c7bd 0730 513c
000003d0: a7b0 e83d 0b7d cf3d 872e 653d 647f 383d
000003e0: c622 adbd 3ab9 e23c ca23 b5bd 5162 853d
000003f0: 125c 073c 589d 9fbd eff4 16bd 3e0a 113e
-0.071044736 0.03332818 0.059476357 -0.017247882 -0.057604317 -0.018930491 0.11019866 -0.0118907355
-0.08924092 -0.099012986 0.0166466 0.117744185 0.06789435 0.12923329 0.07668616 0.10735157
0.10907942 0.041733734 0.092575714 0.08877809 0.060731806 0.0086967535 0.023564849 -0.035387933
0.029683141 -0.0076370086 0.08534845 -0.11968353 0.08768301 -0.078042634 0.101223074 0.07696368
0.11863722 -0.048232213 -0.104210645 -0.04518973 0.062482774 -0.048034493 0.058544446 -0.046098765
-0.0115264105 0.07080368 0.124167256 0.12437666 0.06538586 0.08618068 -0.054511596 -0.12421703
0.124221005 -0.11745904 -0.11740723 -0.01186476 -0.034374025 0.022749692 0.084479176 0.05874882
0.057987895 0.034212667 0.0973729 -0.0656232 -0.086915486 0.018359395 0.007688002 0.1114445
0.043453217 0.06287198 0.078883044 -0.019598393 -0.050481785 0.030191345 0.09298728 0.100103684
0.13218245 -0.03547974 0.05249031 -0.038093466 0.08512786 0.031100223 -0.095899306 -0.122027434
-0.038066562 0.0067937574 -0.084540516 0.07093265 -0.017812584 -0.03494387 0.045833867 0.12578394
-0.042785168 0.05256941 -0.09648055 -0.08836803 0.044108205 -0.0506844 0.05674058 -0.04415855
-0.039555598 -0.058950942 0.10046497 -0.024125412 0.056794588 -0.07718604 -0.011936788 0.042713035
-0.013010967 0.05355768 -0.09984072 0.14476313 -0.07973131 -0.045698617 -0.13244377 0.042675268
0.124866016 0.030732175 -0.035817474 -0.07031323 -0.07074597 0.12102633 -0.1204678 -0.11137787
0.09990833 -0.09550373 -0.0060527413 0.04809655 0.087791 0.003588236 0.049902696 -0.020108301
-0.11839699 -0.08521584 0.052828822 0.07768303 0.049092 -0.04624568 -0.06076993 0.021588627
0.09714107 -0.052203808 0.0032305086 -0.09388988 -0.13487037 0.1061826 0.008025474 0.007257676
0.113237105 0.014803392 0.07848858 0.007839168 0.045101598 0.036389656 -0.023448214 -0.14303903
-0.08803135 0.06853531 -0.021773309 0.103568 -0.008932134 0.011762436 -0.12219978 0.017828621
-0.015901092 -0.016253967 0.12633055 -0.006779968 0.068719245 0.046506718 0.0651825 0.06423727
0.08972898 -0.03625906 0.12551783 0.058828387 -0.027043713 -0.07943418 -0.0054385974 0.04947477
0.12000622 0.059233885 -0.06640827 0.10090933 0.009777146 -0.14199817 -0.11909313 0.003404552
-0.117379285 -0.017963072 0.09221025 0.025490237 0.07933356 -0.098560296 0.099494584 0.07595793
0.02391706 -0.043656774 0.07619606 -0.020703344 0.12667619 0.027086683 -0.05231198 0.08044075
-0.05088091 0.078351066 0.04850383 0.120283134 0.05237718 0.019363394 0.0014546498 0.09086205
-0.0484748 0.09954145 0.10784328 -0.02559474 -0.056291893 0.018423863 0.0554166 0.077659346
0.0512288 0.11658586 -0.011583249 0.058062356 0.10193609 0.13624415 -0.068633914 -0.06457189
0.11762355 0.07434071 0.08159405 -0.08601398 0.035296664 0.08427885 0.08225037 0.00866126
0.12867914 -0.06907762 -0.08402467 -0.01727995 0.093656234 -0.017211169 -0.052638322 0.068701856
0.061931383 -0.021258462 -0.097444974 0.012767798 0.11361819 0.10131272 0.055952575 0.045043364
-0.08453898 0.027676214 -0.08844717 0.06512893 0.008261697 -0.07793683 -0.03685468 0.14164063

lstm.bias_hh_l0 f4 [256]
00000000: db49 c63d f1e6 fa3d 97c6 b63c dd56 103d
00000010: 3ac1 173d 7f98 eb3d 52f0 7e3d dd77 c2bc
00000020: 79de 76bd c25b a73d c34d e2bd e517 b0bc
00000030: dced b23d 2f90 3d3d 7baa a4bd c2ad 803d
00000040: f20b 8a3d 930c bd3d 5642 0c3e a1e8 ed3c
00000050: abd7 79bc 2a61 41bc 629a bbbd 75d3 c1bd
00000060: 57e9 743d 55f8 933d b1d9 58bd f3ca f7bd
00000070: c342 a43d 29cc d33d 3124 9dbd 4059 e23d
00000080: 16ad abbc c4e4 ddbc f8f8 133e 020c 153d
00000090: f80b ca3c 8a85 0e3e 6864 8b3c 3902 083d
000000a0: e7ef b33d a999 21bd 5ddf c6bc 6955 c2bd
000000b0: d5de 183d 5bdd 10bc 7d72 0fbd f4c9 2ebd
000000c0: a16e 92bb a473 e13b e2ac c33d e5c5 7fbd
000000d0: e9fe 673d 5f4a 34bc a245 58bd 355c 003e
000000e0: 4c9a 943d 3e94 a5bd 4e0b 14bc 9567 203c
000000f0: 01a1 1dbd 8303 8ebd 1195 e53d edac f5bc
00000100: d742 ca3d 6eba b8bd 9bf6 9b3d 1311 38bd
00000110: 2f2d 75bd aa30 23bd df61 d0bd 9f6e 853d
00000120: 17dc f43c 1fa7 ff3b e80c f23d 035f ec3b
00000130: 72f2 8cbd 6b43 6b3d fdf9 a3bd efb8 733c
00000140: b00e 42bc 0ef6 c83d d616 b83d fc44 7bbd
00000150: f8ea 343d d9e0 9cbd 477f e33c 2acc 15bd
00000160: bf6f 9dbd e23f bcbd c421 02bd 92c3 0abd
00000170: 5e4e 253d b203 ff3d 0bb5 d1bd 9130 73bd
00000180: 6a94 533c fe1c 79bd ab07 f73c 00f2 53bd
00000190: 4daf 873c 58db 52bd 771c cc3d 3769 49bd
000001a0: dfab 923d 1b86 abbd 7763 ac3d 2b61 053e
000001b0: 5bce b73d 5d71 de3d df41 0f3c 77b2 883b
000001c0: 8f7d cdbd 6fc0 e6bd 6b25 9cbd b4f7 ae3c
000001d0: 7d37 d23c 41d9 f53d 1ed2 f6bd e3c5 eb3d
000001e0: 1d86 93bd a60b 0f3e 87a0 c5bd f53d 3bbd
000001f0: a693 553d 579b a4bc 158c 5b3d 8288 dabc
00000200: 2923 b23d 9637 7dbc 394e cebd 0a6a fdbd
00000210: 7e8d ccbc 5141 1ebc 0cde 953c d257 953d
00000220: 132d 133e 8705 0fbe 385d 763d 9d9c 5c3c
00000230: c342 91bc c3f2 36bd f971 43bc 37b8 3a3c
00000240: 4f5e aebd 0814 86ba 399f cfbd 8327 df3d
00000250: 688e 853d 233a 9abd cc43 b53d 267e cdbc
00000260: 521a 203c 5956 493b 5999 1c3d 3d7c dabb
00000270: 0fe9 b0bd 2a5d 043e e387 b33c adca c43d
00000280: 8f65 c43d 9f48 cf3d 8bfd 183d 80d2 8fbc
00000290: 971e 903c f63d c9bd cfad d33d 8f70 dbbc
000002a0: 6622 c6bd 036e debd a1fb 0c3e 731f 063e
000002b0: b0a7 00be 1888 a83b bc53 283d 0224 2b3d
000002c0: 24ee f13d 4e4a a7bd 42e1 8f3d bd50 e2bd
000002d0: b9b5 d0bc 5884 dfbc 4fd2 853d b6ed f63d
000002e0: 738c 773d 16c0 0bbd 7684 57bc 0869 bc3d
000002f0: 2c94 db3d c31d a93d 357f 36bd 371f 8f3d
00000300: f850 06bd f3e6 dd3d 86bb 55bd d955 0abe
00000310: d94c 37bc 8f5d 823d 006b be3d df1b f3bd
00000320: 7908 073e d362 f83c 28aa bdbd 3782 013e
00000330: 5808 95bd b87c 053d 5681 7b3d 3ae0 87bd
00000340: afc5 9b3d a80a d5ba 3248 fe3d 30a5 163d
00000350: 9882 5cbd 284c b13d 987c 743b adff 82bd
00000360: 8d41 97bd 1c26 443c 0b83 afbd 0900 13bd
00000370: 9303 893d 666c a1bd d5fe 53bd d24c b63d
00000380: 7a35 e0bc 1579 e8bd a646 533d 816a 0f3e
00000390: e62f 933d 8940 4fbd 0736 f6bd f7ae eabb
000003a0: d40b 52bc 7de9 323d 5fa4 513d 6cc9 cb3d
000003b0: 7d11 e33d 3476 ae3d 6061 d4bc a293 5e3d
000003c0: 0ac5 0a3e 7f41 bc3d d6e6 53bd fb01 9dbd
000003d0: 071d 0dbd 4f72 123e 3761 02bd 3ce3 4f3d
000003e0: 6af1 083e 7007 e13d f3a9 3abc 053d a5bd
000003f0: 2a23 b23d 4ab6 d8bd cb68 4fbd 0940 bbbc
0.096820556 0.1225108 0.022311492 0.03523909 0.03704951 0.11503696 0.062240906 -0.023738796
-0.06027076 0.08171798 -0.11049988 -0.021495769 0.08736774 0.046280082 -0.08040329 0.06283142
0.0674056 0.09230914 0.1369718 0.02904159 -0.015249173 -0.011802951 -0.091603056 -0.0946416
0.059792843 0.072251 -0.05294198 -0.12099256 0.08020546 0.10341675 -0.076729186 0.11052179
-0.020956557 -0.027086623 0.14450443 0.036388405 0.02466391 0.13918129 0.01701565 0.033205245
0.08785992 -0.039453182 -0.02427643 -0.09488947 0.037321884 -0.008841838 -0.035021294 -0.042673066
-0.0044687544 0.0068802405 0.09554459 -0.062444586 0.056639586 -0.01100406 -0.052800782 0.12535174
0.07255992 -0.080849156 -0.009035898 0.009790321 -0.038483623 -0.069342636 0.11210073 -0.029989684
0.0987603 -0.09019934 0.07615396 -0.04493816 -0.059857544 -0.03984133 -0.101749174 0.0651524
0.029890103 0.007801905 0.11818868 0.0072134747 -0.0688218 0.05743734 -0.08006666 0.014875635
-0.011844322 0.09812556 0.089887306 -0.061345086 0.044169396 -0.07660074 0.027770652 -0.03657166
-0.076873295 -0.09191872 -0.031770483 -0.033877917 0.04035794 0.12451877 -0.10239609 -0.05937249
0.012913803 -0.060818665 0.030155024 -0.05174446 0.016563082 -0.051478714 0.09966367 -0.049172606
0.07161688 -0.08375188 0.08417409 0.13025348 0.08974906 0.10861466 0.008743732 0.0041716653
-0.10033714 -0.112671725 -0.076243244 0.021358348 0.025661224 0.120043285 -0.120517954 0.11512353
-0.072033145 0.13969287 -0.09649759 -0.045713384 0.05214276 -0.020093603 0.05360039 -0.02667642
0.086981125 -0.015455147 -0.100735135 -0.12373741 -0.024969812 -0.009659127 0.018294357 0.07292141
0.14372663 -0.13966952 0.060147494 0.013465074 -0.01773203 -0.04466511 -0.011929029 0.011396459
-0.08514082 -0.0010229358 -0.10137791 0.10896208 0.065213025 -0.0753062 0.08850822 -0.025084566
0.0097719 0.0030721633 0.03823218 -0.0066676424 -0.086382024 0.12926164 0.021915382 0.0960897
0.09589683 0.10121273 0.037351172 -0.017556429 0.017592711 -0.09826271 0.10335886 -0.02678707
-0.0967453 -0.10860827 0.13767864 0.13097934 -0.12563968 0.0051431768 0.04109548 0.041782387
0.11813 -0.08168469 0.070253864 -0.11050556 -0.025477277 -0.027284786 0.06534254 0.120570585
0.060436677 -0.034118734 -0.01315414 0.091997206 0.10721621 0.0825763 -0.044554908 0.06988376
-0.03279206 0.10835066 -0.05218079 -0.13509311 -0.0111877555 0.06365501 0.092977524 -0.1187055
0.13186826 0.03032056 -0.0926097 0.1264733 -0.07276982 0.032589644 0.06140264 -0.06634565
0.076060645 -0.0016253786 0.12416114 0.03677863 -0.05383548 0.08657104 0.003730571 -0.063964225
-0.0738555 0.011971977 -0.08569916 -0.035888705 0.06690135 -0.078820035 -0.0517567 0.08901371
-0.02736925 -0.113512196 0.051581047 0.14005472 0.0718687 -0.050598655 -0.12022024 -0.0071619707
-0.012820203 0.043679703 0.051182147 0.099505275 0.1108732 0.08518639 -0.025925338 0.054340012
0.13551727 0.0919218 -0.051733814 -0.07666393 -0.03445151 0.14301418 -0.031830993 0.050753817
0.13373342 0.10987747 -0.011393058 -0.08068279 0.08698113 -0.10581644 -0.050637048 -0.022857683

lstm.weight_ih_l1 f4 [256, 64]
00000000: eb94 e9bc 862e ce3c 0167 9dbc 53bd e73d
00000010: baed 253d d7f1 483d da41 43bc dfa5 c3bd
00000020: 0e36 8cbc 9c22 b7bd 59a9 dc3d c927 92bd
00000030: 35b0 7ebc 244c 153d dc2f a5bd a9e7 e8bd
00000040: 5191 a13d 552d 373d ffe8 073c 8168 8b3d
00000050: 1263 003d 97d1 9a3d a3f0 463d 0123 ad3d
00000060: e4ad f83c e90d d53d f774 8f3d e35f 423d
00000070: 1d31 d5bd 3d55 3abd 2dad d13d 8767 d1bd
00000080: d609 fb3d 416b ebbd e7eb 9cbd 031a 09be
00000090: f66f e53d 7031 ddbc ddfd 123d acf7 9c3d
000000a0: 0332 183d 169e 263d 5a66 013e 75cd 64bd
000000b0: e82a cc3d 3817 27bc c76e b03c 3b61 c8bd
000000c0: e202 293d db74 0f3d c06a 8a3d 9c45 c4bd
000000d0: f630 24bd 9085 f1bd 7eaa a93d c5b5 3dbd
000000e0: 14d8 babc 3f18 c6bd a8d8 afbd 61f2 8d3d
000000f0: fc88 46bd c069 a0bd 1109 10bc 921e 33bd
00000100: b2c9 febd f576 613d 875a f03d aee2 893d
00000110: 8a3a e43d dc28 06be 872c e8bd 589a f63d
00000120: f87d 073e a704 4f3c f5a5 2dbd 86b7 89bd
00000130: ae05 d4bd bdb2 2c3d 472b 24bd 1b00 bb3d
00000140: bb23 e63d 89df 03bd 87fb 583d be88 0f3e
00000150: b366 b33d 6358 af3d 1c8a cebd b433 14be
00000160: e042 ddbd b4ef c9bd a70e 33bd 0894 0f3e
00000170: 4665 623d 55de 0e3e 021e 773c e6bb 013e
00000180: cda1 a0bd 8bd9 c3bc 6cd6 01bb 405a e1bd
00000190: 3075 aebc d6ea 9dbd aad7 0cbc 95f1 4cbd
000001a0: e340 9f3d f0fc a33d cf7c 453d db7e 6ebd
000001b0: 44d1 9a3d 7e28 f63c a31e a8bc e472 8f3d
000001c0: ee09 98bd 44c5 c9bd 1efa b33d b5a4 f43b
000001d0: 0ae3 55bc 6702 853d 7ede b2bd df1f 0f3e
000001e0: 139d ccbd 4e72 ac3d 7d32 1e3d 6231 2e3d
000001f0: 77fd 81bd 67e6 e9bd e363 633c 3866 e73d
00000200: 39b0 073e 08f4 42bd 5b0e f03b 8eea ad3d
00000210: c77d c9bd 83ab 3a3d 5833 e03b 5eb5 c0bd
00000220: 8506 cdbd 3c15 553d 28ee 7d3d 6b32 663d
00000230: e4e1 f23d c143 e63c ea9b bd3d 42d7 20bc
00000240: 4d81 85bd 89e2 8d3c 16f7 a63c 30e6 cdbc
00000250: b618 54bc 5ab6 703d 685d 523a 1ecb 053e
00000260: c198 d8bd 88f8 d4bd 13f9 9bbd c0fb e13d
00000270: 213a 6bbd 9094 c73d 20e6 be3d 3f8c bc3d
00000280: 1efa e4bd efd4 a0bb a62c 02bd 8348 b3bd
00000290: a88a a53c abb8 363d e43e 9abd e79e 84bd
000002a0: f00e a0bd d563 88bd 87f6 933d 9e96 1c3d
000002b0: 5280 49bd c479 923d 4380 8fbd 16b9 813d
000002c0: a684 debc 6278 29bd cb6d 393b 9079 a03d
000002d0: a393 2e3d 22ce f33d 0ea4 bb3d 3e18 363d
000002e0: d4bc c5bd 294c 103e 97b8 e33d fbd4 94bd
000002f0: 6ed6 283c 9f54 09bd 3747 2e3c 39da 0fbd
00000300: ecbe adbd 50e5 2abc 0f0d 853d 28f0 bfbb
00000310: 556c cabd 204b ab3b 35c3 9bbb 53d9 cc3d
00000320: 36e1 033e 84ff c83d 7426 07bb c747 333d
00000330: 8fc2 383d 57b2 b1bd 3eb2 d93d 5fb5 8a3d
00000340: 7f96 c1bd e69b 91bd 90e0 7bb8 643d 62bc
00000350: 7c8d 383d 009c a2bc 9721 84bc 086a 923d
00000360: db36 4a3d 5ea1 03be d1c8 d2bc 8227 94bd
00000370: 9960 9ebd 1eec 55bd 2991 cebb e42e bfbc
00000380: 4729 123d b9ec d93d 22d5 8fbc 236d d03d
00000390: 7ad2 023e 0820 b5bd c411 b73c ad48 b5bc
000003a0: 14c5 75bd 1ef3 91bd d51e 40bd 6a79 2f3d
000003b0: 8765 26bd 8260 1bbd 6cab 223d b9d0 6bbd
000003c0: 8b54 d33d 4ee3 c53d 9361 fbbc 7ddf fa3d
000003d0: 4bdf bcbd e520 b33d 853d b9bd 9771 6b3c
000003e0: 1d6b 4abd ea3a e63c 9ce2 453d 9e2c 583a
000003f0: 10fa abbd a33f e1bd ea30 ec3d 22a4 bfbd
-0.028513392 0.025168668 -0.019214155 0.113154076 0.040509917 0.04905876 -0.011917556 -0.09553122
-0.017115619 -0.08942148 0.10774488 -0.07136495 -0.015544941 0.036449566 -0.08065769 -0.11372311
0.07889045 0.044720966 0.008295297 0.06807042 0.03134448 0.07559507 0.048569333 0.08453942
0.030356355 0.10403044 0.07004731 0.047454726 -0.10409758 -0.045491446 0.10238109 -0.102248244
0.122577354 -0.114950664 -0.07662182 -0.13388829 0.112029955 -0.027001113 0.035886634 0.07664427
0.03715707 0.040678106 0.126367 -0.05586 0.09969121 -0.010198407 0.021537198 -0.0978417
0.041262515 0.03502355 0.06758642 -0.095835894 -0.040085755 -0.11793053 0.08284472 -0.046315927
-0.022808112 -0.09672593 -0.08586246 0.06930996 -0.048470482 -0.0783267 -0.008791224 -0.043730326
-0.12440814 0.055045087 0.11736017 0.06732689 0.11143978 -0.13101524 -0.11336618 0.120411575
0.13231647 0.012635387 -0.042394597 -0.067244574 -0.10352646 0.042162646 -0.040080335 0.091308795
0.11237284 -0.0321956 0.05297425 0.14017007 0.08759823 0.0856178 -0.10084936 -0.14472848
-0.10803771 -0.09860173 -0.043715145 0.14021313 0.055272363 0.13952 0.015082838 0.12669334
-0.07843361 -0.023907444 -0.0019811643 -0.11003542 -0.021296114 -0.07710807 -0.00859634 -0.050035078
0.07776048 0.080072284 0.04821473 -0.058226448 0.075594455 0.030048605 -0.020522421 0.070043355
-0.07423769 -0.098520786 0.087879404 0.0074659237 -0.013054619 0.06494599 -0.08733843 0.13977002
-0.09990897 0.084202394 0.038622368 0.042527564 -0.06347173 -0.11420899 0.013878795 0.112987936
0.13250817 -0.047596008 0.00732593 0.084920034 -0.09838443 0.045573723 0.006842058 -0.09409593
-0.10011009 0.052022204 0.0619947 0.056200426 0.118594915 0.02810848 0.09258254 -0.009816946
-0.06518803 0.017319934 0.020381492 -0.025134176 -0.012945345 0.058767654 0.0008024783 0.13065764
-0.105760105 -0.10398966 -0.076158665 0.110343456 -0.057428483 0.09745133 0.093212366 0.09206437
-0.111805186 -0.004908196 -0.03178086 -0.08754065 0.020207718 0.044609707 -0.07531527 -0.06475621
-0.07815349 -0.066596664 0.07224756 0.038229577 -0.04919464 0.07152131 -0.07006886 0.063341305
-0.027162861 -0.04137457 0.0028294201 0.07835686 0.042621266 0.11904551 0.0916215 0.044456713
-0.09655157 0.14091553 0.11119192 -0.07267185 0.01030503 -0.033527967 0.010637096 -0.035120223
-0.08483681 -0.010430649 0.06496631 -0.0058574863 -0.09883944 0.0052274615 -0.004753495 0.10002389
0.1287888 0.09814361 -0.0020622285 0.043769624 0.04510742 -0.08676594 0.106297 0.06772875
-0.09452533 -0.071098134 -6.0052203e-05 -0.013808582 0.045056805 -0.019849777 -0.016129298 0.0714913
0.04936872 -0.12854525 -0.025730522 -0.07234098 -0.07733268 -0.052227132 -0.0063039255 -0.023337789
0.035683896 0.106408544 -0.017557684 0.10177066 0.12775603 -0.08844 0.022347338 -0.022129381
-0.0600024 -0.07126449 -0.046904404 0.0428404 -0.040624168 -0.037933834 0.039714262 -0.0575721
0.1031886 0.096624956 -0.030686175 0.12249658 -0.09222277 0.087465085 -0.09044937 0.014370344
-0.049418557 0.028104264 0.048311815 0.00082463946 -0.08397305 -0.10998466 0.11532767 -0.09357478

lstm.weight_hh_l1 f4 [256, 64]
00000000: f70b 5dbd 458a b8bd bd51 763d c7df a1bd
00000010: f6ba 59bc ad39 a2bd d7e0 af3c b344 6cbd
00000020: 4e66 513b fd95 413d 2b6d d3bd 5f13 b13d
00000030: b9c1 fa3d 1ba4 e13d 4902 ba3d 5e19 d0bd
00000040: 91e9 f93b 1b5c df3c ad27 aabd 337b 943d
00000050: 763a b1bd 3e6c 9d3c 41c9 a53c 4e44 333d
00000060: 46c9 0cbd 369d 86bc fe7b b3bd c28d bfbc
00000070: f0c3 9e3d aa73 293d 5116 5b3d 2092 92bc
00000080: 47a6 e13d 8a6d 0c3e 7691 99bd 7ad7 ad3c
00000090: 15bf 03be 97f8 80bd 332a d03c 3d06 be3d
000000a0: 0188 e1bd daff 7d3d 87eb 0cbd fd53 7b3d
000000b0: 6985 3cbd b6df 623d 11c6 a0bd 6a99 fcbd
000000c0: f2a1 63bd ea29 893d ba87 0a3d 11b0 ac3c
000000d0: 316d f2bc 321e b43d 7ffd dbbd 50c3 80bd
000000e0: fe0f 043e 7741 9f3d 8b53 aebb ff95 403d
000000f0: 9c52 ae3c 3e3e efbd 7f52 583d ea43 1e3d
00000100: 5dc4 ca3d a39f 6bbd 7c91 62bb 3eea afbd
00000110: b848 bbbc 1566 813c 0dd7 e3bd 5546 c4bd
00000120: b1ae babd 0f98 53bd f143 393d 9dce 81bd
00000130: bf92 0e3e e6d9 ea3d 1ca0 2a3d 6311 e33d
00000140: 86a3 60bd c9d1 8c3c 3a57 af3d df5d 1fbd
00000150: ca5a 323d f29f 063e 9e07 4ebd 11ce 88bd
00000160: 710b aebc 1c8b 51bc 09d7 86bd 360b 9abd
00000170: 0234 f03d 1a48 433b 79a6 093e 8056 ac3d
00000180: 2ef2 dfbd 4a2f 4e3d f1e7 c8bd eada fb3c
00000190: 0646 36bd ee5b 88bd d429 97bd e63e 06bd
000001a0: 678d 8fbd 46d7 dd3d 007c 5d3c fa85 c13d
000001b0: 1f22 043d 9719 c93c 0870 06bd 2768 f3bd
000001c0: 694f 7c3c 3c84 8d3b 1c93 ae3d 63b0 b3bc
000001d0: 4bad 143d e07d fe3d db44 a3bd a6d1 bbbd
000001e0: 3d1b 9e3c cb7c 9ebd ba50 613d d304 c33d
000001f0: dd44 983d 09b5 c4bd a4a0 ba3d bfd8 e43d
00000200: b70f c83c e59e 03be 3a61 a0bd dbca 53bc
00000210: 18f3 b73d 709c a1bd 60ea 1f3d eb8c 19bd
00000220: 53d3 d83d 4dae a63c be8e 0f3d f296 c13d
00000230: 84cb 023b 189a d8bc 19e4 90bd a1d6 cfbd
00000240: 78d2 2c3d 388c bf3c 2ce5 0f3c 226d 8bbd
00000250: 3914 0cbe 38bd da3c 1083 e33c 68b3 97bd
00000260: da3e c53c 15f8 05be d340 45bc f2a5 e5bc
00000270: e7a2 a33d 36d3 be3d 698a 6ebd d544 953d
00000280: 5430 c03d 7e02 173d 0050 d6bd a707 cabd
00000290: 3f67 c0bd fdb2 8fbd 5374 a43d 5c4f 103d
000002a0: ed2d 003e 751b 423d 188a 6b3c 63c4 ddbd
000002b0: 0d1b dabd 7020 3ebd c065 c2bd 6f40 acbd
000002c0: 6cf5 e83d 02ab febd d8fd ce3b be0b 98bd
000002d0: 47d8 5fbd 7c47 8cbd 7e87 d7bd cab4 da3c
000002e0: e9e4 35bd 856f c4bd f892 513c b5b2 e23c
000002f0: 1fe3 25bd 3d0e 87bd e131 5dbd d154 193c
00000300: c76e 1bbd 8708 363d d19f 87bd 7b31 53bd
00000310: 916b b03d b798 a8bb 0183 a13d 82f5 e4bd
00000320: d769 ecbd b6ab b53d 4f3c 093e e227 083e
00000330: 075a 753d 25f6 173d 1535 863d 81d0 17bd
00000340: 7f8b a4ba 46ee cfbd 52cc 973d a728 8bbd
00000350: a7c8 ce3d f9f5 75bc 77af a73c 1ad1 843d
00000360: bb79 b03d 3076 a03d e2d3 5abc 44e4 62bc
00000370: 13fa dd3d a41e 033e 0274 783d d81e a8bb
00000380: 2045 f3bc fdc5 c63d ac1a 09be db2c d53c
00000390: 2f76 ae3c 952a f0bd 285e a63d 3305 d2bd
000003a0: 9e82 a6bd fcd4 dabd 206d 10bc 1322 31bc
000003b0: 5999 d4bd 9fa3 35bd e8ae 1a3d 4f09 1dbd
000003c0: 0aa9 9c3d d238 d73d 8c67 b73d 4b1f c73c
000003d0: e11c d93d 4046 5fbd ecd8 303b 5cd1 97bd
000003e0: 489e cb3c 490a f83d fffe 7d3d 5f28 1a3d
000003f0: b5d2 80bd 053e b5bd 027b abbd bbef 083e
-0.05396649 -0.09010748 0.060136545 -0.0790401 -0.013289204 -0.07921157 0.021469517 -0.057682704
0.0031951847 0.04726218 -0.103235565 0.08646273 0.12243981 0.11017629 0.09082467 -0.101610884
0.0076267202 0.027265599 -0.08308349 0.07250061 -0.08653729 0.019216653 0.020237567 0.043766312
-0.034371637 -0.016432386 -0.08763884 -0.023383025 0.07752216 0.04137007 0.05348808 -0.017891943
0.11018043 0.13713661 -0.074984476 0.021220911 -0.12865861 -0.06297415 0.025410747 0.092785336
-0.11012269 0.062011577 -0.034404304 0.061359394 -0.046025667 0.05538913 -0.07850278 -0.12333949
-0.055574365 0.066974476 0.033820845 0.021080049 -0.029593082 0.08794822 -0.1074171 -0.06287253
0.12896726 0.07776158 -0.0053200177 0.047018047 0.021279626 -0.11681794 0.05281305 0.038638987
0.099007346 -0.05752529 -0.0034571579 -0.085896 -0.022861823 0.015795747 -0.11125002 -0.09583727
-0.09115351 -0.051658686 0.04523081 -0.063382365 0.13923167 0.11467342 0.0416566 0.11087301
-0.054843448 0.017189877 0.08561559 -0.03890788 0.043543614 0.13146952 -0.050300233 -0.06679929
-0.02124569 -0.012789514 -0.065839835 -0.075216696 0.1172867 0.0029797615 0.1344241 0.08414936
-0.10934864 0.050338067 -0.09809864 0.030744035 -0.044500373 -0.06658159 -0.07381025 -0.03277483
-0.07009392 0.10832076 0.013518333 0.09449382 0.032259103 0.024548335 -0.032821685 -0.118851
0.015399792 0.004318742 0.08524153 -0.021934694 0.036298078 0.124263525 -0.079721175 -0.09170847
0.019300098 -0.07738646 0.055008627 0.095224045 0.0743501 -0.09604842 0.09112671 0.111741535
0.024421556 -0.12853582 -0.078310445 -0.0129267825 0.08981913 -0.07891166 0.039041877 -0.037487905
0.10587182 0.020346785 0.03504824 0.09452619 0.001995773 -0.026440665 -0.07074756 -0.10148359
0.042192906 0.023382291 0.008782666 -0.06807925 -0.1367959 0.026701555 0.027772456 -0.07407266
0.024077822 -0.13082917 -0.012039381 -0.02803323 0.079900555 0.09317629 -0.058237467 0.07288519
0.09384218 0.03686761 -0.104644775 -0.09864741 -0.09394693 -0.07016561 0.080299996 0.035231933
0.1251752 0.047389466 0.014376186 -0.108284734 -0.10649691 -0.046417654 -0.094920635 -0.08410727
0.113749355 -0.12434961 0.0063168816 -0.07424115 -0.054649618 -0.06849572 -0.1052389 0.026697535
-0.04440776 -0.09591583 0.012791388 0.027673105 -0.040499803 -0.065945126 -0.054002646 0.009358601
-0.037947442 0.044441726 -0.066222794 -0.05156086 0.08614267 -0.005145158 0.07886315 -0.111796394
-0.11543625 0.08870642 0.13401912 0.13296464 0.05990031 0.037099976 0.06553093 -0.03706408
-0.001255378 -0.10152869 0.07412018 -0.06794863 0.10096865 -0.015012258 0.02046941 0.064851955
0.08616968 0.078350425 -0.013356181 -0.013848368 0.108387135 0.12804657 0.06065751 -0.00513063
-0.029696047 0.09705732 -0.13389081 0.026022365 0.021296589 -0.11726872 0.08123428 -0.10254898
-0.08130382 -0.10685155 -0.00881508 -0.010811347 -0.10380811 -0.044345494 0.03776446 -0.038338955
0.07649429 0.105088845 0.08955297 0.024306914 0.10601211 -0.054510355 0.0026984764 -0.07412979
0.024855748 0.12111337 0.06201076 0.037636157 -0.06290189 -0.0884972 -0.08373071 0.133727

lstm.bias_ih_l1 f4 [256]
00000000: 022c 4d3d 71ab a9bd 7ac8 15bd 544a f1bc
00000010: 43d2 613d 50e2 023e fd1c 8dbd 9840 83bc
00000020: df54 883d 632b dc3c 7d19 643c f786 c23d
00000030: 3fe0 c13d e19e 7e3c 5d5e 283d f915 d63c
00000040: 5443 d13d 1acc b23d 0fa5 00bc 0383 203b
00000050: b7e0 78bd c733 c83d f377 91bd 7ac3 e03d
00000060: 3d3a 983c 745b 16bd 2182 d0bc c648 153d
00000070: 3885 963d a753 8fbd 97ef 003e aef5 f63d
00000080: b221 e7bd 5a27 b43d 3579 183d 6552 9b3d
00000090: 660a 0c3e e700 b8bd cb3e f43d 70f6 f93d
000000a0: 7279 1e3b 8559 ccbd a6ca 6b3b 3c87 443d
000000b0: e06f a0bc c842 2cbc 00b5 dbbd 6ca6 91bc
000000c0: 3351 e03d acc8 0b3d 14e3 eabb f637 42bd
000000d0: ad87 a2bd 77a0 65bd b641 d93d 51e2 0f3d
000000e0: 69b0 fb3d eced 063a 3553 96bd c297 d33d
000000f0: 89fc 303d 3a8c 4c3d e186 d13d 4285 643d
00000100: 4c4f ee3d 2b79 5a3d 46f5 f53c f630 c7bd
00000110: 5b7b c7bd 5485 0bbd 62aa ad3d 529e 9c3d
00000120: 2ed6 85bc e1ae c03b 3b67 ec3d 2d40 483d
00000130: 8902 a53d aae8 4bbd 6b4c ea3c 5c34 5f3c
00000140: 193a 593d 9e71 bd3d 8dc2 2b3b 30af 7dbd
00000150: 1444 c9bd c2cb aa3d 71e0 ab3c c2a9 b2bd
00000160: aa2b d2bd bc85 703d 0d74 ed3d b68d 0bbd
00000170: 0bab c13d a12c d43d 3b1f 303c f2ed 76bc
00000180: 4769 84bd 76a8 813d 5c8f ffbb 1a03 a0bd
00000190: d664 1c3d 7d96 c43d 4434 963d 5642 de3c
000001a0: 2614 b33d 0549 ad3c 0643 b3bd 72c6 febd
000001b0: ecbc a4bd 92cb 043e ef32 db3d 8c0c 30bc
000001c0: a909 663d 0d0f f43d 5c13 c03d 1f33 80bd
000001d0: a024 8dbd deec 7e3d 24fb 9fbd 3fed 813b
000001e0: 4b2b 9c3d 78fd c73d acb7 b53d df67 f93d
000001f0: b92c 05bc 3b91 2e3d b972 993d f207 05bd
00000200: e2ed f1b9 ef8e 043e 9d2e cc3d 0d54 e3bd
00000210: affa e3bd 9ac9 b4bd fd8a 4e3c b544 ee3d
00000220: 03bd da3d da63 8cbd d5e4 1f3d e34a 98bd
00000230: 3763 cf3c 483e 283d 6482 1f3d 2c7e aa3d
00000240: ebcb 26bd 812c c8bd cebd d5ba 8cfa 983d
00000250: 930e fa3d 178e 1abd c907 a9bc 1bf9 c83c
00000260: abed 71bd b8e4 c43b 75b6 413d 786f 77bd
00000270: 054d a93d 061d da3d ca8b 7e3d c974 5cbd
00000280: 67c4 c03c b2b4 e33d f6e5 94bc 1a3e 10bb
00000290: c6dc 82bc 53f7 ac3d f6f3 f13d f470 013e
000002a0: 1192 c2bd 676c 903d fab0 303d 8f64 c03d
000002b0: ee52 5e3a 9cc2 5c3d 6646 5c3d 94d6 663d
000002c0: cdc7 433d 4f86 153c 5bc7 bd3c fcc7 09be
000002d0: 82d4 98bd cbab f63d f202 d73c eebc fdbd
000002e0: faf5 e93d 5f65 c0bd 8f3b 0c3d b4fd 573d
000002f0: 37c2 3abd 6e53 2d3d b0ad 80ba 0c81 8b3d
00000300: 3622 913d 4854 a73d 3e79 6fbd 237f c2bd
00000310: c80a c93c 7ce3 b63d 88c5 c13d cf62 123e
00000320: 82bd 9dbc b38a 003d 879a 81bc 6967 543d
00000330: fb25 023e 5f58 b3bd dcd2 93bd 9b9e c23b
00000340: 6b20 63bd 8eeb 883a f9fa 6b3d adba 1a3a
00000350: f5e7 113e e517 f4bc 0b1e 163d aed9 cf3d
00000360: ca55 b03d 2a6a f83d d6dc 1f3b 3e03 fa3c
00000370: d907 fbbd 540e 14bd 66d4 d9bc b994 95bd
00000380: 1550 a13d 96e4 d1bd 7e6b 7b3d 2600 58bd
00000390: 54bb d2bd b6b0 f53d 8a01 003e e717 6d3d
000003a0: 9a0f 9cbd d063 69bc 4015 013e 5452 c13d
000003b0: 82cc 8d3d 6474 af3d c8e7 a53d 5894 e8bc
000003c0: f514 5a3d 4339 9cbd 8558 0a3e 1fe1 a03d
000003d0: 34e5 cbbd 4c38 0b3e 7b27 053e 2b4a 9b3d
000003e0: cc25 b63d 5856 373d 0e51 4cbd be49 093e
000003f0: 77c4 133e ac9e 083e 738c edbc 39e4 9ebc
0.050090797 -0.08284653 -0.036568142 -0.029454388 0.05513216 0.12781644 -0.06890295 -0.016022012
0.06656813 0.026876157 0.0139220925 0.09498399 0.094666 0.015540809 0.041105617 0.026133524
0.1021792 0.087303355 -0.007851853 0.0024492152 -0.06076118 0.09775501 -0.071029566 0.10974784
0.018582458 -0.03670831 -0.025452675 0.036446355 0.07349628 -0.06998377 0.12591396 0.120585784
-0.11285724 0.08796568 0.037224967 0.07584075 0.13675842 -0.08984547 0.11926039 0.12205207
0.0024181274 -0.09978012 0.0035978942 0.047980532 -0.019584596 -0.010513969 -0.107278824 -0.017779551
0.109529875 0.034126922 -0.007168183 -0.04741665 -0.07936034 -0.056061234 0.106082365 0.03512794
0.12289507 0.00051471475 -0.07340089 0.1033168 0.043209586 0.049938418 0.10230804 0.055791147
0.116362184 0.05333821 0.030024182 -0.097261354 -0.09740325 -0.0340627 0.084797636 0.07647385
-0.01633748 0.005880222 0.11543127 0.048889328 0.08057124 -0.049782433 0.028600892 0.013623323
0.053033922 0.092501864 0.002620849 -0.06193465 -0.09827438 0.08339645 0.020981045 -0.08723785
-0.102622345 0.05872129 0.115944006 -0.034070693 0.09456452 0.10360075 0.010749633 -0.015071379
-0.064653926 0.063309595 -0.007799072 -0.078130916 0.038182102 0.09599016 0.073341876 0.02713124
0.087440774 0.021152982 -0.08753018 -0.12440194 -0.080438465 0.12968281 0.10703074 -0.010745179
0.056161556 0.11916933 0.093786925 -0.062597506 -0.06891751 0.062237613 -0.07811573 0.0039650495
0.07625445 0.09765142 0.08872923 0.12178015 -0.0081283385 0.04261897 0.07492585 -0.03247828
-0.0004614434 0.1294515 0.09969828 -0.11100016 -0.111317985 -0.08827515 0.01260638 0.116341986
0.106805824 -0.06854983 0.03903659 -0.074361585 0.025315864 0.04107502 0.03894271 0.083248466
-0.040721815 -0.097741134 -0.0016307177 0.07469663 0.12209811 -0.037733164 -0.020633595 0.024532845
-0.05906455 0.0060087107 0.047293145 -0.06040904 0.082666434 0.10650067 0.062145032 -0.053822313
0.023531152 0.11118449 -0.01817606 -0.0022009672 -0.015974414 0.08445611 0.1181411 0.12640744
-0.09500516 0.07051926 0.043137528 0.0939418 0.00084809854 0.05389653 0.053778075 0.05635698
0.047797967 0.00912626 0.02316635 -0.13455194 -0.07462408 0.12044486 0.026246522 -0.12389551
0.114238694 -0.09394335 0.034236487 0.052732185 -0.045595374 0.042315893 -0.0009817388 0.06811723
0.07086603 0.08170372 -0.058465235 -0.09496906 0.024541274 0.08930108 0.09461504 0.14295505
-0.019255403 0.031382274 -0.015820755 0.051856432 0.12709801 -0.0875709 -0.072179526 0.0059393174
-0.055450838 0.0010446177 0.057612393 0.00059024506 0.14248641 -0.02979655 0.036649745 0.10148941
0.08610113 0.12129624 0.0024393103 0.030519124 -0.12257356 -0.036146477 -0.026590537 -0.07303757
0.078766026 -0.102486774 0.06138181 -0.052734517 -0.10289636 0.119965956 0.12500587 0.057884123
-0.07620163 -0.014244989 0.12605762 0.09439531 0.069237724 0.085671216 0.081008494 -0.028391048
0.053242642 -0.07628109 0.1351033 0.078554384 -0.099558264 0.13595694 0.13003342 0.07582506
0.08893928 0.04476008 -0.049881987 0.13407037 0.14430414 0.13341779 -0.028997635 -0.019395934
