api/data/models/ETH_TRY_1h_lstm.pth (torch, 211077 bytes, 10 tensors)

lstm.weight_ih_l0 f4 [256, 5]
000000 8d 6c cb 3d 58 28 b5 bd 29 9f 8f 3d 78 70 0f 3d
       0.09932814 -0.088455856 0.07012779 0.035019368
000010 83 82 a3 bc 2e d0 70 3c eb 69 97 3d f0 b7 a8 bd
       -0.019959694 0.014698071 0.07393249 -0.08238208
000020 50 42 4f 3b b3 79 f6 bd c6 8d d2 bd 5c 5d e7 bd
       0.0031625219 -0.12034931 -0.102809474 -0.11297104
000030 b8 01 0d be 4e 5c 86 3d 68 e3 1d 3d 78 8c c8 3d
       -0.13770187 0.065605745 0.03854695 0.09792417
000040 1a ce 97 bc 5d 95 0f 3d f4 c5 9a bc 53 3e 5c 3c
       -0.018530894 0.035054553 -0.01889322 0.013442594
000050 3b b0 83 bd 1e 3c dd 3d 4d b0 e5 3c aa 2f 4a bd
       -0.06430098 0.10802482 0.028038168 -0.049361862
000060 67 c9 28 3d 1b d5 fc 3d ec 9c 56 3d 85 5d fd 3d
       0.041207697 0.12345334 0.052395746 0.12371353
000070 ec 70 90 3d aa bc 2f 3d ac bb c6 bb 67 f0 bd bd
       0.07052788 0.042904533 -0.0060648527 -0.09274369
000080 f7 19 d5 3d eb 57 62 3c af 22 ed 3c 56 bb 38 3d
       0.10405343 0.013814907 0.028947202 0.045100532
000090 3d 00 c6 3c 3c 54 4e 3c 79 70 59 ba 8a f0 38 bd
       0.024170035 0.012593325 -0.0008294653 -0.04515127
0000a0 ac 20 c1 3c 1e 4d b6 bd 03 f2 c0 3d cd f0 3d bd
       0.02357515 -0.08901428 0.0942116 -0.046372224
0000b0 f3 ab 22 bd 33 c8 df bd 4e 39 00 3e 67 65 c8 bd
       -0.039714765 -0.10926857 0.1252186 -0.09784966
0000c0 7f 79 9f 3d ab e6 d8 bc 97 a0 3d bb 58 1a 96 bc
       0.077868454 -0.026477179 -0.002893483 -0.018323109
0000d0 22 a7 b6 3d 30 f2 d6 3d 35 91 f3 bd 87 af 2a bd
       0.08918597 0.10495412 -0.118929304 -0.041671302
0000e0 15 29 95 bd 3e 1a 9f 3d 93 07 e3 3c 9b dd f2 bd
       -0.072832264 0.07768677 0.027713573 -0.11858674
0000f0 45 86 0f ba 8e c4 b7 bd f0 fc 86 bd 48 39 2c 3c
       -0.0005475025 -0.08973037 -0.06591213 0.010511704
000100 e6 0a c0 3d ad c2 ee 3d 98 5c d0 bc ba d6 c5 bd
       0.09377079 0.11658225 -0.025434777 -0.096600965
000110 ad 02 66 bd b7 46 94 3d 53 c9 b0 bd 8e b4 a9 bd
       -0.056154896 0.0724005 -0.086321495 -0.08286391
000120 c5 19 a1 3b 99 d7 b3 bd bd e1 a6 bb f7 21 85 bd
       0.004916402 -0.08781356 -0.005092828 -0.06500619
000130 f8 0b 51 3d 38 54 f2 bd 1e 02 ac 3d f9 67 22 bd
       0.051036805 -0.1183247 0.08398841 -0.039649937
000140 61 5a 07 3e c2 15 23 3d d1 69 a6 bd 2c 98 13 3d
       0.1321807 0.03981567 -0.08125652 0.036033794
000150 96 70 e0 3d 9a 21 77 bd 26 77 c4 3d b9 26 a1 bd
       0.10958974 -0.06033478 0.09593038 -0.07868714
000160 92 8c 9a 3d 97 ee 12 3e 8e 5a b8 3d 2e 4a 42 bd
       0.07546343 0.14348827 0.09001647 -0.047434025
000170 c0 67 dd 3c 65 48 89 3d 4d 5a b5 bd 70 de b0 bc
       0.02702701 0.06703261 -0.08855114 -0.021590441
000180 fc 0f ae bd 12 8c c4 3d fd 4c 73 3c d6 8c 39 3d
       -0.084991425 0.09597029 0.014849898 0.045300327
000190 70 3e ed 3d 82 20 18 3d e7 9b ed bc 85 0b 22 3d
       0.11584175 0.037140377 -0.029005004 0.039561767
0001a0 0b 20 40 3c 34 fe 28 3d 06 a3 20 3d 4c ea 4e 3d
       0.01172639 0.041258052 0.03921797 0.05051641
0001b0 61 54 12 3c 3d db 9a bd 90 7c 09 3e 83 17 13 bd
       0.00893125 -0.07561348 0.13426423 -0.035911094
0001c0 6f e7 57 3d df 82 ec bc 8f e5 cd 3d fb 7d 43 3d
       0.052710947 -0.028870998 0.100535505 0.047727566
0001d0 a9 db 79 bd 56 ee b1 3d 84 22 40 bc ae a0 5b 3d
       -0.0610005 0.08688037 -0.011726979 0.053620033
0001e0 03 ea cb bc df 1c 55 bc 0e ec 80 bd b2 b1 03 3d
       -0.024891859 -0.013007372 -0.06295024 0.032151885
0001f0 43 71 d5 bd a3 40 91 3d ef 2f 85 bd 25 ee e5 3d
       -0.104219936 0.070924066 -0.06503283 0.11227063
000200 9e ac 24 bd e0 3c 09 3e 7e cc ea bc 09 3d af 3d
       -0.040203683 0.13402128 -0.028661963 0.085565634
000210 0c 6a 9e 3d 08 c3 c2 bd 75 7b 55 3d e7 e5 92 3d
       0.077350706 -0.095098555 0.05211969 0.07172757
000220 bc 58 6b 3c 34 c3 6a 3d 94 41 64 3c f3 34 41 bd
       0.014364418 0.057315066 0.013931651 -0.047169637
000230 6a 31 b5 bd 4d 44 2b bd d8 22 df bc cd fa 35 3d
       -0.088473156 -0.041813184 -0.027238294 0.044428635
000240 f1 2d a2 3d 18 34 c4 bd b6 db b4 3d d7 df b2 bc
       0.07918919 -0.095802486 0.08830969 -0.02183525
000250 1d 28 df 3d 95 e8 01 bd 78 be 5b 3d d7 2c 98 bd
       0.10896323 -0.031715948 0.053648442 -0.074304275
000260 b2 a5 39 bd 47 4b b5 3c 57 24 b9 3d 55 b4 cd 3d
       -0.045324035 0.022130622 0.090401344 0.10044161
000270 d7 1d a3 3c 1f e3 fa 3c 1a 38 ca bc bd 1a 2b bd
       0.01991169 0.030625878 -0.024684954 -0.041773546
000280 00 95 d9 3d 82 d9 07 3d 0b dc 2b 3b b2 2d 40 bd
       0.106241226 0.033166416 0.0026223685 -0.04691858
000290 06 f1 88 3c ee b6 68 3d 98 d7 16 3d 24 6c cd bd
       0.016716491 0.05681508 0.0368267 -0.10030392
0002a0 65 8f 31 bd a5 75 8a 3c 44 b0 f8 3d bd 00 1a 3d
       -0.043349642 0.0169018 0.12142995 0.03759836
0002b0 e3 26 0d 3e d5 15 c0 bd 7c bd 83 bd 42 66 17 3e
       0.13784365 -0.09379164 -0.06432626 0.14785102
0002c0 d4 3c 22 3d 45 bc 17 3e bc c1 e6 bb af f2 fb 3d
       0.03960879 0.14817913 -0.007042138 0.123021476
0002d0 03 6a 28 3d 5c 66 c8 bc b2 2b 95 3d 7d 11 b8 bd
       0.041116726 -0.024462871 0.07283725 -0.089877106
0002e0 86 fc e1 3d c0 7e 9e bd 52 71 8e 3c be 99 8f 3d
       0.11034493 -0.077390194 0.01738802 0.07011746
0002f0 67 c7 94 3d 1d 7e 5c 3d d3 ea b7 3d 6f 61 58 bd
       0.072645955 0.05383121 0.08980336 -0.052827295
000300 a2 40 14 3e dd d2 12 3e 3e c8 bc 3d 47 c5 16 bd
       0.1447778 0.1433825 0.09217881 -0.036809232
000310 8b b1 34 bd 2e 55 07 3e e3 e4 3b 3d a2 12 d8 3d
       -0.04411463 0.13216087 0.04587258 0.10550429
000320 6e 83 93 bd e7 55 08 3d 16 14 fa bc 73 ea 17 bd
       -0.072028026 0.033285048 -0.030527156 -0.037088823
000330 35 61 08 3c e8 93 d5 bc b0 ed 12 bc bb c7 ef 3d
       0.008323957 -0.026071504 -0.008967802 0.117080174
000340 18 d5 ed 3d 33 0d 0e 3d 93 83 e7 3d 54 de cf 3c
       0.1161291 0.034680557 0.11304393 0.025374569
000350 5f 15 ec 3d 5f 1c d0 3c a8 12 99 3d 3b f0 7f bd
       0.11527514 0.025404153 0.074742615 -0.06248496
000360 0c ad 50 bd 90 b3 bd bb 34 f8 58 bb fb 1a 3a 3d
       -0.05094628 -0.005789228 -0.0033106925 0.045435887
000370 32 0b 80 bd 1d 44 a9 bc 7c a4 04 3e 4b 22 82 bd
       -0.06252135 -0.020662362 0.12953371 -0.06354197
000380 02 b1 3b bd be 32 87 bd e4 37 6b bb a9 4b b1 3c
       -0.045823105 -0.06601475 -0.0035891468 0.021642523
000390 f0 c7 b6 3d 57 6e 77 bd 6e 55 dd 3d 62 30 52 3d
       0.08924854 -0.060407963 0.1080731 0.051315673
0003a0 ae 25 04 3e c4 77 c0 bd 9c 93 21 bd b4 15 ae 3d
       0.12904999 -0.093978435 -0.039447412 0.08500233
0003b0 40 68 4d bc 4b b0 cd bd 53 31 87 bd 3d ad 3a bd
       -0.012537062 -0.10043391 -0.06601205 -0.04557537
0003c0 dc ea ee 3d 55 11 f2 3c c5 f4 a6 3d 5d d0 a3 bd
       0.116658896 0.02954928 0.08152155 -0.079987265
0003d0 06 fe ea bb 75 f6 b2 bd 5d 81 8e 3d a8 e6 10 3e
       -0.0071713952 -0.08738414 0.06958268 0.14150488
0003e0 e0 a7 d1 bd 31 08 c0 3b 10 7b a0 bd 33 9a 43 bd
       -0.10237098 0.0058603515 -0.07835972 -0.047754478
0003f0 60 b9 0a bc 21 e2 8e bd b9 14 ad bc 7e 84 35 bd
       -0.008467048 -0.069767244 -0.021128045 -0.044315808

lstm.weight_hh_l0 f4 [256, 64]
000000 31 04 38 bd 53 14 9c 3c ed 43 ab bd 6e e3 87 bd
       -0.044925872 0.01905266 -0.08362565 -0.06635176
000010 a0 8c dc bd 36 49 b2 3c 30 ef f4 3c 02 cf d9 3d
       -0.107690096 0.021763425 0.02989921 0.10635187
000020 42 a8 09 bd b3 25 fd bd c5 00 ca bd 5b b1 b6 3d
       -0.03360773 -0.12360706 -0.09863428 0.089205466
000030 da c4 ec 3c 6c 22 3b 3d 65 78 ce 3d dc 39 9a bd
       0.02890246 0.045687124 0.10081557 -0.07530567
000040 8c 9d ec 3d 50 99 17 3d 2b a6 68 39 8e 41 a8 bd
       0.11553487 0.037011445 0.00022187147 -0.082156286
000050 cb a0 a2 3d 7e a1 63 bd fa de a6 3d 57 ba de 3b
       0.07940825 -0.055573933 0.08147998 0.006797116
000060 61 3c 3b 3c 71 12 12 3d af cf 89 3d 97 d7 c9 bd
       0.01142797 0.03566212 0.067290656 -0.098555736
000070 3c 87 b6 3d 9c 44 83 3d 77 2a 72 3d 8f ec ef 3b
       0.08912513 0.064095706 0.05912253 0.007321901
000080 d3 bd be bd e7 38 f5 3d 99 80 18 3d a0 88 ad 3d
       -0.0931355 0.11973744 0.037232015 0.08473325
000090 da 78 e7 3d 83 d1 84 3d c2 f4 08 bd 9d cf 8d 3d
       0.113023475 0.06485274 -0.033436544 0.06924365
0000a0 ac 26 b3 3d 79 e9 00 be 05 d5 36 3c 43 b8 c7 bc
       0.087476104 -0.12589063 0.011159186 -0.024379855
0000b0 4d 13 ea bc 4c e6 18 3b 0f 7d 9c ba 5a 12 a9 bd
       -0.028573656 0.0023330627 -0.0011939126 -0.082554534
0000c0 09 51 fe bd 2c f6 0b 3d 2f dd af bd 9e ad 05 3e
       -0.124178 0.034170315 -0.08587109 0.13054511
0000d0 4b 29 d7 3d 44 f6 42 3d 7e ae 9d bd 0a c5 db 3d
       0.10505923 0.04759814 -0.07699297 0.107309416
0000e0 63 5d 96 3b 93 1f d1 3d 1f 44 d3 3d 91 21 84 3c
       0.0045887693 0.102111004 0.103157274 0.016129287
0000f0 c5 8a d3 bc c2 8e 21 bd f3 ba e4 3b 4f c2 c8 bc
       -0.025823006 -0.039442785 0.006980294 -0.024506716
000100 d2 fd d4 3d 0c fe b9 3b 09 ed 97 3d 96 70 e2 3d
       0.10399975 0.0056760367 0.07418258 0.1105663
000110 88 5f c1 bd ca 27 81 bd 9e 10 1c bc fb 0f e4 bb
       -0.09442049 -0.06306417 -0.009525446 -0.006959913
000120 a6 85 c4 bd 93 2b b4 3d 08 93 82 bd b9 df b8 bd
       -0.09595804 0.087973736 -0.063757 -0.09027047
000130 77 dc ab 3c 26 44 d0 bd 2a 89 c3 bd 6e bc e2 bd
       0.02097915 -0.10169248 -0.09547646 -0.11071096
000140 9f 61 df 3c 1e ad 8f bd 0e 0b 9e 3c 96 d9 93 3d
       0.027268229 -0.07015441 0.01929238 0.072192356
000150 c5 8c 81 bd e1 a6 75 3d f1 0d ae bd b5 f8 da bd
       -0.06325678 0.0599736 -0.08498753 -0.10691968
000160 b6 fa d5 3d 58 5e d3 3d bc 80 be 3d 3f 41 8c 3d
       0.1044821 0.10320729 0.09301898 0.06848382
000170 4d cf b5 3d e4 e7 3c bc 30 7f ad bd 48 93 53 3d
       0.0887743 -0.011529896 -0.08471525 0.05165413
000180 84 bf f1 3c 66 9d d6 bc 55 ad c2 3d 3b 9a 88 bc
       0.029510267 -0.0261981 0.09505717 -0.016675105
000190 bb b2 15 3c 8f 8e dd bd d8 53 e7 3d de f3 11 3d
       0.009136851 -0.108182065 0.11295289 0.03563296
0001a0 03 af a6 3d 3d 2f f5 bd f6 8a e2 bd 1a d6 22 bd
       0.081388496 -0.119719006 -0.11061661 -0.039754964
0001b0 1d 48 b6 bd ed 5a ff 3c e6 ce b3 3d bf 7d 25 bc
       -0.08900473 0.031171286 0.08779697 -0.010100781
0001c0 e8 0e fa 3c 5d e5 94 3d 12 ae 4e bd 4b 01 6d 3d
       0.030524686 0.0727031 -0.050458975 0.05786256
0001d0 b8 93 9d 3d bb a4 c6 bd a5 df 64 bd 70 07 2d bc
       0.07694191 -0.096993886 -0.055877347 -0.010560855
0001e0 16 a4 27 bd 03 e9 dc 3d 9b ff af bd fa 8d e9 bd
       -0.04092797 0.10786631 -0.08593675 -0.11404033
0001f0 01 8d 3d bd 8e 59 f2 3c 8c 57 bb bd a6 13 33 bb
       -0.04627705 0.029583719 -0.091475576 -0.0027324944
000200 e5 de 7e 3d 90 60 de 3b d7 a2 78 3d 2c 13 5c 3c
       0.062224288 0.0067864135 0.06070217 0.013432305
000210 58 d6 aa 3d 75 9b 15 bd 58 1c c6 bd 81 13 45 3d
       0.08341664 -0.03652521 -0.09673375 0.048114303
000220 f8 e2 f2 bc 9d e9 e1 3d b4 82 c2 3d 7c 4f de 3c
       -0.029649243 0.11030886 0.09497586 0.02713751
000230 b7 9c ea bb 22 58 af 3c 09 44 cf 3d 7c 76 e7 bd
       -0.007159795 0.02140433 0.101203986 -0.11301896
000240 e7 11 93 bd 8d b1 85 bd 35 3d 15 bc 43 08 9f 3b
       -0.07181149 -0.06528006 -0.009108831 0.00485328
000250 42 0e f3 bc ff 5a 26 3d 2c f9 be bd 6e ea 80 3a
       -0.029669885 0.040614124 -0.093248695 0.000983549
000260 65 68 18 bd 41 3c c0 bd d8 6c cf 3d 07 80 c4 3d
       -0.037208933 -0.093864925 0.10128182 0.09594732
000270 bd 55 43 3d e6 17 48 bd 8c 19 d2 bd 1d d4 27 3d
       0.04768919 -0.048850916 -0.10258779 0.04097377
000280 4b 94 7d bc 97 d2 c2 bd 4c 1e f0 bc ba fc 96 bd
       -0.01547725 -0.09512823 -0.029311322 -0.073724225
000290 c0 ad 9b 3c 77 5c 87 bd 98 82 bb 3d 2b 62 e4 bd
       0.019003749 -0.06609433 0.09155768 -0.111515366
0002a0 4e ec ce 3a 86 3c 8d 3d 7d 6a f1 bc 16 d7 e4 bd
       0.0015786977 0.068963096 -0.029469723 -0.11173837
0002b0 51 18 e8 3c 94 c7 86 3d ba b3 58 bd 9b 39 87 bd
       0.028331907 0.06581035 -0.052905776 -0.06602784
0002c0 b7 19 ec bd 94 a1 d3 bd 74 f9 29 bd 8c 52 81 bc
       -0.11528342 -0.10333553 -0.041497663 -0.015786432
0002d0 1d 47 3f bd 9f 8e 81 3c b6 3b 90 3d 40 db 0c 3d
       -0.04669868 0.015815077 0.07042639 0.03438878
0002e0 6c 09 f1 3d fc a2 d2 3c eb 10 83 3d 5b 90 06 3e
       0.11769375 0.025712483 0.06399711 0.13141005
0002f0 76 dc ad bd 4b 24 ee 3d 1d 26 86 bd f9 cb ed 3d
       -0.08489315 0.11628016 -0.06550238 0.1161117
000300 54 44 cb bd 4e a6 52 bd e7 26 fc bd c4 bd c9 3d
       -0.09925142 -0.05142813 -0.123121075 0.09850648
000310 90 52 98 3d cb 26 59 bc 06 f5 84 bd 0f 21 6c 3d
       0.074376225 -0.013253878 -0.06492047 0.057648715
000320 ef 0d 03 bc 83 e8 61 bd 68 ae e4 3d 08 e5 47 3d
       -0.0079989275 -0.05515338 0.11166078 0.048802406
000330 fe 41 53 3d 0a ef 53 bb dc 16 8e 3b a2 6f 24 bd
       0.051576607 -0.0032338523 0.004336221 -0.040145524
000340 f0 ad 9a bd 32 a8 da 3d 95 0e 14 bd 13 c6 2c bd
       -0.07552707 0.10676612 -0.03614672 -0.042181086
000350 27 ab e5 3d 32 75 35 bd 4e 86 d9 3d c4 4d 44 bd
       0.11214285 -0.04430122 0.1062132 -0.047925726
000360 5e d7 63 3d 0a da b3 bd 4f 3b d2 3d 30 89 b7 bd
       0.055625312 -0.08781822 0.102652185 -0.08961713
000370 9c e3 af 3c 5c 57 8b 3d f9 8c 97 3d 73 6c b1 3c
       0.021470837 0.06803772 0.07399935 0.021658158
000380 0b 31 25 3d 90 d0 d7 bd a5 d8 81 bd 5c 5c bc 3d
       0.040329974 -0.10537827 -0.0634015 0.09197304
000390 69 b8 e8 3d f2 e1 38 3b 35 ec e8 bd 55 90 96 3d
       0.113632984 0.0028210846 -0.11373178 0.07351748
0003a0 7e d2 51 3d e9 64 d3 3d 43 ca 82 3d 32 8f cc 3d
       0.05122613 0.103219815 0.063862346 0.0998825
0003b0 85 c6 e0 3d 0b b2 e2 3d 61 64 a4 3d b1 e9 07 3e
       0.109753646 0.11069115 0.08026958 0.1327274
0003c0 bd f7 1e bc e6 a0 0e bd 03 55 69 bd e8 a7 b4 bd
       -0.00970262 -0.034821413 -0.05696584 -0.08821088
0003d0 43 1c ad 3d ff 0d 74 bd aa 99 5c bd 8f 30 f1 bc
       0.08452656 -0.05958366 -0.053857483 -0.0294421
0003e0 db 81 cc 3d c8 9c a8 bc 8f a4 b2 bd de 0b f4 bd
       0.099857055 -0.020582572 -0.08722793 -0.11916326
0003f0 a0 4a dd bc 13 3b 92 3d ee 98 9e bc 1f 15 76 bd
       -0.027013123 0.07140174 -0.019360032 -0.060078736

lstm.bias_ih_l0 f4 [256]
000000 9f 0d 24 bc c0 32 6a 3d 81 8f 05 be c0 7a a7 bc
       -0.010013013 0.057177305 -0.13043024 -0.020444274
000010 5b da eb bd b9 ff 90 bd 4c fc ab bd c5 34 43 bd
       -0.115162574 -0.07080025 -0.08397731 -0.047657747
000020 7d e1 52 bd 92 2a a9 bd 32 d2 51 bd f6 f3 c4 3d
       -0.051484574 -0.08260073 -0.05122585 0.09616844
000030 76 82 bb 3c bd e6 0d bd 5c ef 38 3d 8f 45 94 bc
       0.022889357 -0.034643877 0.045150146 -0.018099574
000040 78 19 0b bd e3 3b 70 bb 01 ca af bd 54 d5 fc 3d
       -0.033959836 -0.003665679 -0.08583451 0.123453766
000050 c5 78 1a bc ae 99 b4 bc 17 87 ad bc 48 58 30 3d
       -0.009428208 -0.022045936 -0.02118258 0.04305294
000060 b6 ee 7b 3d f5 e1 cb 3d a8 63 7c 3c 8e 62 96 bd
       0.06150695 0.09955207 0.015404619 -0.073430166
000070 2f 33 a2 bd 50 92 3d bd 97 c3 38 3d 50 be 92 3c
       -0.07919919 -0.046282113 0.045108404 0.017913014
000080 bd 7e 8e bd 88 53 ee bd 91 66 65 3d 86 c3 a5 3d
       -0.06957767 -0.11637026 0.056006018 0.08093934
000090 18 a6 21 bd 6c 3a 13 bd 27 4d 7f bd 0e 58 47 bd
       -0.03946504 -0.035944387 -0.062329438 -0.04866796
0000a0 93 e9 e5 bd 76 0f a1 bd 29 26 fc 3d aa b4 c1 bd
       -0.11226191 -0.07864277 0.12311966 -0.09458287
0000b0 1b f5 a5 3c 87 f3 94 bc 79 f8 02 3e 6d 4b 22 3b
       0.020258477 -0.01818253 0.12790097 0.0024764196
0000c0 45 96 17 bd 9c b8 c9 bd 60 d2 ca bd 6e c8 4e 3b
       -0.037008543 -0.098496646 -0.09903407 0.003155257
0000d0 0a b5 67 bd 15 91 ac bd ee 8d f0 bc e5 97 9e 3c
       -0.056569137 -0.0842611 -0.029364552 0.019359538
0000e0 86 4f 1d bd 14 fb 1d 3d dc e7 bf bc e8 5c aa bd
       -0.038405918 0.038569525 -0.023425989 -0.08318502
0000f0 01 f2 07 3e 76 90 32 3d be 1d ed bd 8b ca 41 bd
       0.13275911 0.0435948 -0.115779385 -0.0473123
000100 9f 5b ed 3d 60 6d 18 3b ab b5 9d 3d 3f fe be bd
       0.11589741 0.0023258552 0.07700666 -0.09325837
000110 d2 c9 a1 bc 0c fb e6 3d ff ff db 3d a9 62 6f 3d
       -0.019749556 0.11278352 0.10742187 0.0584437
000120 7d a5 17 3e 3b ee 1d 3d 6c b7 00 bd ca a4 39 3c
       0.14809223 0.038557272 -0.031424925 0.011330793
000130 99 3a 65 3a 71 6f 98 bc ee fd 9f 3d 13 f8 a7 bd
       0.00087443885 -0.018607827 0.07812105 -0.08201613
000140 f8 4b 9a 3d 3b 81 94 bd 9c 44 44 bd e7 f0 d4 3d
       0.07534021 -0.07251211 -0.047916993 0.10397511
000150 87 75 e9 3d ea 54 39 bc a0 45 36 bc 24 36 ee bb
       0.1139937 -0.011311749 -0.011124998 -0.0072696377
000160 40 19 b8 bd 6e 0b 0c 3e 7a 9a e9 3d 4b 10 06 3c
       -0.08989191 0.13676235 0.11406417 0.0081825955
000170 5f ed 16 bc 0c 46 a9 bd 68 6a 54 3c 55 c0 87 3d
       -0.009211867 -0.082653135 0.012964822 0.06628481
000180 ef 67 c9 3c da ab c1 bd cf 50 d6 bc 91 77 96 bd
       0.024585692 -0.09456606 -0.02616158 -0.07347024
000190 4d f5 b1 3d 8e ff e3 3d 15 7b c6 3d ab 7f da 3d
       0.086893655 0.111327276 0.09691445 0.10668882
0001a0 d8 7e 44 3d 59 b3 1a bc 94 7e af 3d ca 72 1c bd
       0.04797253 -0.009442174 0.08569065 -0.03819541
0001b0 72 2e 7a 3c b6 64 d0 3d d7 d1 81 bb 67 b8 fc 3d
       0.0152698625 0.10175459 -0.0039617824 0.123398595
0001c0 c4 a5 42 3d 4e c8 07 3e 68 e6 8a bb 82 31 80 bd
       0.047521368 0.13260004 -0.0042388923 -0.06259443
0001d0 35 83 ae bb 6c 65 14 3a 8b 79 15 bc c9 be a1 3c
       -0.0053256997 0.0005660865 -0.009123216 0.019744294
0001e0 26 82 35 3d ae 2e e0 3d 6d 25 d0 bd cb 14 9f bd
       0.044313572 0.109464034 -0.101633884 -0.07767638
0001f0 d9 5f d7 bc b3 18 0a 3e 20 00 98 3c d8 d9 ee bd
       -0.02629082 0.13485985 0.018554747 -0.11662644
000200 7c 45 f1 bd d5 d3 84 3d 5d e3 4b 3d d2 01 ae 3d
       -0.11780831 0.06485716 0.049777377 0.08496441
000210 a2 be 03 be d8 0c 95 bd 23 f6 93 3c b2 13 76 bd
       -0.1286569 -0.072778404 0.018061703 -0.060077377
000220 88 e3 9e 3d d4 d6 50 3d a8 31 cd 3c 9d db 9e 3d
       0.07758242 0.050986126 0.025048092 0.07756732
000230 11 29 cb bd ea 72 06 3d 00 60 5a bd ed c4 9e 3c
       -0.09919942 0.032824434 -0.05331421 0.01938101
000240 4b a9 1b be 4d d5 95 3b 99 33 b5 3d 4e 44 ac 3d
       -0.15201299 0.0045725466 0.08847732 0.084114656
000250 14 d8 a8 3d 1e 6f ef 3d 3d fe e3 3d ea 13 86 3d
       0.08244339 0.11691116 0.111324765 0.06546767
000260 ed 6f 25 bc 6a 7b a5 3b 2e 51 09 3d 42 d6 49 3d
       -0.010097486 0.0050501125 0.033524685 0.049276598
000270 3f 2e ca bd 87 f0 99 3d 7c 6e 12 be 3c 5c 94 bb
       -0.09872102 0.0751658 -0.14299959 -0.0045275968
000280 1a 79 78 bd 91 0b a0 bd 6d 89 65 3d 63 73 c2 3d
       -0.060662366 -0.07814706 0.056039263 0.094946645
000290 89 32 9f 3d 6e a5 97 3b 0b a8 7d bd 2f e4 dc bd
       0.07773311 0.004627875 -0.061927836 -0.1078571
0002a0 86 30 97 3c a2 56 91 bd e6 71 9a bc 25 f4 75 3d
       0.018455755 -0.07096602 -0.01885314 0.060047287
0002b0 bf 2d 53 3d af 1d 1d 3c 25 7d 45 bd d7 ef a3 3d
       0.0515573 0.009589597 -0.04821505 0.0800473
0002c0 a2 2b 59 bd 27 d1 53 bd eb d3 91 3d 4e b2 9c bd
       -0.053020127 -0.051713135 0.07120498 -0.076511964
0002d0 7c 4a ab b9 62 2b 58 3d 6f 07 04 bd 86 f0 1a 3c
       -0.00032671157 0.052775748 -0.03223365 0.009456759
0002e0 c1 f5 d2 bd 50 fb 83 3d 25 02 08 bd fe 5c 05 be
       -0.1030078 0.064444184 -0.03320517 -0.13023755
0002f0 32 cf 17 3e 4e f6 5c bd 79 54 ac 3d 50 30 87 3d
       0.14825132 -0.053945832 0.084145494 0.06601012
000300 8a 0b 4e bd 20 be bf bd d4 0f 72 3d e0 f0 8f bc
       -0.050303973 -0.09362435 0.059097126 -0.017570913
000310 ab 08 83 3d fb d2 b2 3d 98 f0 05 bd f6 a6 d2 bd
       0.06398138 0.087316476 -0.03270015 -0.102857515
000320 0c fc 8f bd 22 8b 8e bb b7 b7 ef 3c 1f a1 cf bc
       -0.07030496 -0.004350082 0.029262407 -0.025345383
000330 45 c8 a5 bd 15 ae a0 3d e5 fd a3 3d 0e c4 b1 bd
       -0.08094839 0.078457035 0.08007411 -0.086799726
000340 42 f5 71 bd e8 4b c1 3c ed ae 9a 3d 56 0e c7 3d
       -0.059071787 0.023595765 0.07552896 0.09719531
000350 d4 76 e2 bc 9e 12 87 3d 0a f8 33 3d 7d d9 3d 3d
       -0.027644552 0.06595348 0.04393772 0.04634999
000360 d2 36 33 3d b5 ed 35 3d 66 14 47 3b 36 2c 82 bd
       0.043753453 0.04441615 0.0030377149 -0.06356089
000370 70 85 54 bd 64 f6 ce bc 28 29 0d 3e b9 78 c5 bd
       -0.05188507 -0.025263973 0.13785231 -0.09642167
000380 df ce 04 3e db 3b 95 bb 7b d3 0d 3e ed 1a 03 bc
       0.1296954 -0.0045542545 0.13850205 -0.008002025
000390 16 d3 41 3d 57 27 97 3d ba d0 89 bc 46 34 b1 bd
       0.047320448 0.0738055 -0.016823161 -0.086525485
0003a0 b1 e9 a2 bd 4a a3 03 3d 7b a9 e9 3d 8e 38 9e bd
       -0.07954729 0.032138146 0.11409279 -0.07725631
0003b0 37 62 5e 3c 0f 81 df 3d aa af ac 3d 2b 57 1a bd
       0.013573221 0.10913288 0.08431943 -0.037680786
0003c0 8b 16 53 3d 98 a0 20 3d 65 69 2d bd 83 15 1b 3d
       0.05153517 0.039215654 -0.04233684 0.037862312
0003d0 ac 68 86 3c 65 90 c7 3d 9f 9c 8a 3d fb 22 19 3e
       0.016407333 0.09744338 0.06768154 0.1495475
0003e0 4d d4 aa 3d 7e b0 ca bb 22 71 89 bd b5 77 9f ba
       0.083412744 -0.0061855903 -0.067110315 -0.0012166413
0003f0 18 4e f4 3d f1 a8 89 bb ec bf ac 3d 1e 8e 6e bd
       0.11928958 -0.0042010476 0.08435044 -0.058241002

lstm.bias_hh_l0 f4 [256]
000000 ed 9e 75 bc 7f 38 a4 3d 87 71 a6 bd ac 9c 02 3e
       -0.014991504 0.08018588 -0.08127122 0.12755078
000010 39 2b bd bd ef b1 a3 3d 59 0c a2 3d f8 a4 a0 bd
       -0.0923676 0.079929225 0.079125114 -0.07843965
000020 fe 8f 9d bd a3 d5 81 3d 35 61 7c bd 1d 26 09 bd
       -0.0769348 0.06339576 -0.06161614 -0.033483613
000030 0c a7 6d bd 31 7c d8 3d b8 d4 b6 3b 40 34 c9 3d
       -0.058020636 0.10570563 0.0055795573 0.09824419
000040 d9 ee 61 bc 7a 57 00 3e 2b 49 60 bd 6c 9b 72 3d
       -0.013789856 0.1253337 -0.05475728 0.059230253
000050 45 fc 30 bd 5e 7f 74 3b 0d 4d ea 3d 5a 93 c8 3c
       -0.043209333 0.0037307362 0.114404775 0.024484325
000060 d1 2a a3 3d 6d f0 b9 3c c3 17 d6 ba 60 d5 84 3a
       0.07967151 0.022697652 -0.0016333986 0.0010134391
000070 00 e6 4e 3d ef a5 05 be f2 18 14 3e 8f 95 05 3e
       0.050512314 -0.1305158 0.14462641 0.13045333
000080 4c d5 80 3d 08 bf 87 3d fb 31 d1 3c c6 6b 88 bd
       0.06290683 0.06628233 0.025536528 -0.06661181
000090 91 b2 90 3d dc 5e d8 3d 8a 86 63 3c 50 6e 97 3d
       0.07065309 0.10564968 0.013887057 0.07394087
0000a0 41 e4 d7 bb 9f a7 46 bd e5 d5 59 bd 84 44 f1 3d
       -0.0065884893 -0.0484997 -0.0531825 0.117806464
0000b0 5a be bf bd de 8f a3 bb ff f6 b7 3c 16 a2 96 bd
       -0.093624786 -0.0049915155 0.022456644 -0.07355134
0000c0 03 aa 43 bd 40 d1 fb 3d d8 1c bc 3d 84 79 0f bd
       -0.047769558 0.12295771 0.09185189 -0.035027996
0000d0 5b cd ae bc 0c 2d 1b bd 14 66 56 3b 9e 51 82 bc
       -0.021338155 -0.037884757 0.0032714652 -0.015908059
0000e0 c2 24 ce 3d f2 e2 04 bd f8 37 35 3d 1f 9f 60 bc
       0.10065605 -0.032442994 0.04424283 -0.013709812
0000f0 5c aa 59 bc 2a d3 95 3b f7 1d 29 3d a3 4f 42 bd
       -0.013285246 0.004572292 0.041288342 -0.04743923
000100 d7 59 5a 3d 1f eb 2d bd 40 99 7e 3b 97 23 8f 3c
       0.053308334 -0.042460557 0.0038848668 0.017473025
000110 37 b0 c1 3d d2 44 b1 bd a9 0f d8 3a 79 ee 94 3d
       0.094574384 -0.086557046 0.0016484159 0.072720475
000120 14 82 f9 bc 64 54 25 3d e0 ca 27 bd 94 24 1c 3d
       -0.030457534 0.040363684 -0.04096496 0.03812082
000130 59 c1 ab 3d 0f 81 7d bc 90 6d 92 bd d6 b8 15 bd
       0.083864875 -0.0154726645 -0.07149804 -0.036553226
000140 91 b3 fd bc 5d e7 0e 3e 1b 0c ba bd 58 9c 2e 3d
       -0.030969413 0.13955446 -0.0908434 0.04262957
000150 c9 af fc bd 2d 97 0f 3e 7b 83 12 3d 5f ad ab bc
       -0.12338216 0.14022513 0.03576992 -0.020956693
000160 96 69 aa bd 97 e9 a5 3d 22 84 38 3c 44 08 0e 3e
       -0.0832092 0.08101194 0.011261972 0.1387034
000170 5c 14 c3 3d ec 16 a9 bd 14 eb ea 3d e0 db a2 3d
       0.095253676 -0.08256325 0.11470619 0.07952094
000180 3b cc ea 3d 08 9c ae 3d b6 fa c6 bd 13 03 0b 3e
       0.11464735 0.08525854 -0.09715788 0.13575391
000190 35 01 a9 bd bc eb e7 3d df 3a dd 3d 8b c8 cc 3c
       -0.08252183 0.1132426 0.108022444 0.02499797
0001a0 80 5c 3e 3d ae b3 bf bc fd e6 f0 3c 85 ee aa bd
       0.046474934 -0.023401108 0.029407019 -0.08346275
0001b0 0c 40 dd bd 7e b1 22 bc 97 d1 3f bc 28 64 c3 3b
       -0.108032316 -0.009930013 -0.011707685 0.0059628673
0001c0 9b d5 c3 3d c2 85 4e bd f0 af bd 3d cd da f6 ba
       0.095622264 -0.05042053 0.09262073 -0.0018833518
0001d0 fe c3 1a bd 25 f8 a0 bd fd 77 53 3d cd ac 3d 3d
       -0.03778457 -0.0785983 0.0516281 0.046307374
0001e0 77 8d ef 3c ce fe a2 bd 17 26 c5 bd 1b 9e 10 3d
       0.02924226 -0.079587564 -0.09626406 0.03530703
0001f0 51 87 86 3d 3c 4b ec 3d 7c d0 73 bd c6 f9 bd bd
       0.06568778 0.11537787 -0.059524998 -0.09276156
000200 1b d8 3e 3c 3d 02 d1 bd 91 6f df bd 1a a6 43 3c
       0.011648203 -0.10205505 -0.109099515 0.011941457
000210 f2 00 1a 3d 15 91 00 3e 13 aa 2e bd 17 39 f6 bc
       0.037598558 0.12555344 -0.042642664 -0.03005652
000220 de 99 9a bd 52 60 04 3e fc 62 d0 3b 7b 7e a6 bd
       -0.07548879 0.12927368 0.006359456 -0.08129593
000230 30 b0 6a 3d ed de af 3d 24 7d e5 bc a6 b8 f0 3d
       0.05729693 0.085874416 -0.028013773 0.11753969
000240 9b 0b d4 bd 18 f4 48 bc af 31 f9 3d 45 00 e9 3b
       -0.10353776 -0.012265228 0.121676795 0.007110628
000250 26 a4 b2 bd 46 d8 b6 bd 56 08 10 3e d8 63 d1 bd
       -0.08722715 -0.0892797 0.1406568 -0.10224122
000260 52 54 8e 3d 8a 0a 9f bd fe ce cf 3d f6 ef 12 be
       0.069496766 -0.07765682 0.101469025 -0.1434935
000270 07 50 aa bd 88 93 77 3d 3a 1d 1e 3d 83 b2 a9 3d
       -0.08316045 0.06044343 0.03860209 0.082860015
000280 2b 32 16 3e cc fb 81 bd 02 57 ab bc 25 cc 12 3e
       0.14667575 -0.063468546 -0.020915512 0.14335687
000290 79 b5 bb 3d 75 04 f6 bd 24 d4 b9 3b 82 43 0a bd
       0.091654725 -0.12012569 0.005671041 -0.033755787
0002a0 15 41 46 3d f9 ce ae bd 2a 81 0d be fe 33 92 3c
       0.04840191 -0.08535571 -0.13818803 0.017847057
0002b0 61 e7 aa bd 66 6a a0 bd 03 61 7b bd 72 7a ff 3d
       -0.08344913 -0.07832794 -0.061371814 0.124745265
0002c0 94 ea 8d bd f7 de 63 bd f5 71 a1 3d a2 49 d9 bd
       -0.06929508 -0.055632558 0.07883064 -0.106097475
0002d0 1f 59 dc 3d 2b 96 fa 3d 55 64 9a bd 81 69 98 bd
       0.10759186 0.122356735 -0.07538668 -0.07441998
0002e0 93 de 93 bd b6 73 93 3d 47 b5 0a 3d 36 20 55 3c
       -0.07220187 0.071998045 0.033864286 0.013008168
0002f0 51 e4 f7 3d 68 c7 d5 bd a8 c6 27 3d c5 38 e6 bd
       0.12104095 -0.10438424 0.040960938 -0.11241297
000300 69 66 b4 bd d4 8b cc bd f5 7f cb bd c0 b1 e0 3c
       -0.08808596 -0.099876076 -0.09936515 0.027428508
000310 80 b4 18 bd 8b 9d 9a bc 28 59 f7 3d 47 a4 49 3d
       -0.037281513 -0.01887395 0.12077552 0.049228933
000320 2e a0 86 bb 25 72 68 bd b8 05 09 3d 8f 98 29 bd
       -0.0041084504 -0.05674948 0.03345272 -0.041405257
000330 95 33 38 3d 6f 97 d1 bd 83 39 35 3d 13 38 f8 bd
       0.044971067 -0.10233962 0.0442443 -0.1212007
000340 d7 9d 91 3c be b4 da 3d 39 76 61 bd 43 d2 30 3d
       0.01777546 0.10679005 -0.055044387 0.04316927
000350 53 1f 2b 3b 31 33 95 3c f6 49 3c bd 62 3b 7f 3c
       0.00261112 0.018212887 -0.045968972 0.015578123
000360 0e ed 70 3d 8f ea 03 3c 99 e6 a1 bd 0e 2b 74 bd
       0.058819823 0.008051529 -0.07905311 -0.059611373
000370 72 68 a0 bd e2 df 2f 3d 1d 51 47 3d 44 73 4c 3c
       -0.07832421 0.04293812 0.04866134 0.012478653
000380 16 76 93 bd 84 56 cd bd 7f 59 45 bd b6 3d 9e bc
       -0.072002575 -0.10026267 -0.048181053 -0.019316535
000390 ae 15 ea 3d 2b c7 71 bc e0 47 8e bd 03 9c c1 bc
       0.11429916 -0.014756958 -0.06947303 -0.023633962
0003a0 64 42 d8 bb b6 d3 3b 3d 36 2f 92 3d 94 91 29 3d
       -0.0065997113 0.0458562 0.07137911 0.0413986
0003b0 61 1c dd 3d 61 2a 2b bd 30 62 d5 3c 4e 3d af bd
       0.107964285 -0.041788463 0.026047796 -0.08556615
0003c0 fc 8e 20 3d e5 42 e1 3d c8 8f d3 3c 50 a4 c1 3d
       0.03919886 0.10999087 0.025825396 0.09455168
0003d0 c1 ff 06 3e 3e 0c c9 3c 13 16 0c be da 73 c1 bc
       0.131835 0.02454197 -0.13680296 -0.023614813
0003e0 f6 9c e2 bd 20 35 39 bd ae d7 2b bd c9 de 0f 3d
       -0.11065094 -0.04521668 -0.041953735 0.035124574
0003f0 d0 a5 87 3d 09 e1 2d bd 64 35 ed bd 84 75 ca 3d
       0.06623423 -0.04245094 -0.11582449 0.098856956

lstm.weight_ih_l1 f4 [256, 64]
000000 e9 5d 90 3d 3c a0 10 3d 99 11 89 3d 8e 66 fe 3d
       0.07049162 0.03530906 0.066928096 0.124219045
000010 e5 f2 61 bd 45 5e 23 3d 37 ec 0b bd 21 44 aa bd
       -0.055163283 0.039884824 -0.03416082 -0.08313776
000020 92 0e e0 3d 06 05 ca 3d 9f 28 6b 3d 74 ce 94 3a
       0.10940279 0.098642394 0.057411786 0.0011353032
000030 3a 01 9f bd 07 92 04 3e f8 03 8e bd 1b 11 df bb
       -0.07763906 0.1294633 -0.06934351 -0.006807459
000040 5c ce 44 bd 89 07 96 3b 5c c7 9c bd 53 3b df 3c
       -0.048048362 0.004578535 -0.07655212 0.027249968
000050 ab 1f 66 3d c9 b8 b5 3d 18 c5 dc bb 06 1b 20 3d
       0.056182545 0.088731356 -0.0067373626 0.03908827
000060 52 8f d5 bc 9b 20 e0 3d a2 28 83 3d e6 e4 d5 3c
       -0.026069317 0.10943719 0.064042345 0.026110124
000070 f5 0a 8c bd 88 1c ca 3d 51 5c cd bd 2c ce 16 bd
       -0.068380274 0.09868723 -0.100273736 -0.036817715
000080 0f 1f a8 bd df de a3 3d 8b 81 b6 3d ce 4f d1 bd
       -0.08209049 0.08001494 0.08911427 -0.102203
000090 2b 33 a6 bd 06 5b 17 3d e1 d3 f6 bd 12 42 e0 bd
       -0.08115228 0.03695204 -0.120521314 -0.10950102
0000a0 e8 b0 6b bb 41 b3 39 3d d2 ad c1 3d 4e fb 01 3d
       -0.0035963599 0.045336965 0.09456982 0.031733803
0000b0 81 66 7a bd bc 4f db bc 3d 7d d4 bc c2 8d 2d 3d
       -0.06113291 -0.026771419 -0.025938625 0.04237152
0000c0 73 34 9d 3d ba e2 4f 3d 08 77 0d 3e bf 78 65 bc
       0.076760195 0.050753333 0.13814938 -0.014005839
0000d0 08 45 86 bd 89 d5 bd 3d d4 22 d9 3d ae 4d d3 bd
       -0.065561354 0.09269244 0.10602346 -0.103175506
0000e0 b6 f7 4b 3d 2a cc 72 3d 74 3e 96 bc a8 0a 08 3d
       0.049796782 0.059276737 -0.018340327 0.033213288
0000f0 19 6a 97 bd cb 87 8e 3d 38 7d 8e 3d aa 96 9f bd
       -0.073932834 0.06959494 0.06957477 -0.07792409
000100 77 20 ba 3d b6 80 77 bd e2 11 6f bc 71 58 26 3b
       0.090882234 -0.060425483 -0.014591666 0.0025382305
000110 fe 1c e4 bd 1b e5 1c bd 5c 2f c4 3d 03 38 8a 3d
       -0.11138342 -0.03830443 0.095793456 0.06748965
000120 54 67 88 3a 56 de 62 bc 64 58 f5 3d 1c fc 68 bd
       0.0010406771 -0.013846954 0.1197975 -0.056881055
000130 66 ed e8 bd 5d c1 25 3d 8b cb d1 ba e0 37 0a bd
       -0.11373405 0.04046761 -0.0016006095 -0.033744693
000140 fc 40 4f bd fb 97 e1 bd a8 50 94 3b ac ff 0e 3d
       -0.050599083 -0.11015316 0.0045262165 0.034911796
000150 89 d4 f7 bd 31 90 e7 3d 97 91 dd bd b9 8e c2 bc
       -0.12101085 0.11306799 -0.10818785 -0.023749696
000160 58 2b 8a 3a 05 67 af 3c 6d 93 a6 3d 0d fa 9b bd
       0.0010541482 0.021411428 0.08133588 -0.07616053
000170 8b b4 93 3d 7a 16 06 3e 6c 49 4a bd 32 1c c8 bd
       0.0721217 0.13094512 -0.049386427 -0.09771003
000180 b1 b3 9f 3d 40 81 43 bd c5 e7 a0 bd e5 0c 1e 3d
       0.07797945 -0.047730684 -0.078567065 0.038586516
000190 4d 8a a5 bd 67 e7 8c 3d 4f 8e aa 3d 10 a2 f1 bd
       -0.080830194 0.06880074 0.083279245 -0.11798489
0001a0 de 46 f2 3d 9e bb b2 bd d1 56 b0 3d 10 55 7f bd
       0.11829923 -0.087271914 0.08610309 -0.06233698
0001b0 3f e4 18 3c 3f 1d 94 3d e1 b8 9e 3d 7c 9f 37 bd
       0.009331762 0.07232141 0.077501066 -0.04482983
0001c0 17 f5 61 bd 1b df a4 3c d2 fa 7c bd 31 a8 f2 bd
       -0.055165377 0.020125916 -0.06176264 -0.11848486
0001d0 59 2e d4 bd a1 ab 34 3d 6a 72 1e 3c ea 02 96 bc
       -0.103604026 0.04410899 0.009670833 -0.018311936
0001e0 16 6e 68 bd 6b ee 89 bd a5 69 0e 3e 20 d2 41 3d
       -0.05674561 -0.06734928 0.13907488 0.04731953
0001f0 80 23 e5 3d b2 38 d9 3d f9 43 70 3d 98 58 8b 3d
       0.11188412 0.10606517 0.058658574 0.06804007
000200 55 5c 02 bd 58 11 39 bd 63 36 e4 bc d6 f7 f4 3d
       -0.031826336 -0.045182556 -0.027857965 0.119613335
000210 4f b9 cc 3d 27 22 17 bd c7 dd e5 3d 25 98 52 bd
       0.09996282 -0.036897805 0.11223941 -0.051414628
000220 85 7f 8d bd 0d ea 23 3d d6 f2 dc 3d 0d cd b4 3d
       -0.06909088 0.04001813 0.10788505 0.08828173
000230 3b 98 d1 bd b7 6a 48 bb fd 84 04 be 62 14 d5 3d
       -0.10234114 -0.0030581185 -0.12941356 0.10404278
000240 c7 a9 b5 bd 29 ae 5f bd cd 89 ee 3c f2 a8 14 3d
       -0.08870273 -0.05460945 0.029118443 0.03629393
000250 1e 5d 84 3d cc b9 e3 bd 1e a4 17 3d fc 0c 1c bc
       0.06463073 -0.11119422 0.03702175 -0.00952458
000260 8f 75 a6 bc 99 c0 05 bd 97 a8 bd 3d c5 23 d8 3d
       -0.020319728 -0.03265438 0.092606716 0.105536975
000270 86 56 82 bd 12 45 73 3d b0 47 4f bd bc 30 85 3d
       -0.06364159 0.059392042 -0.050605476 0.06503436
000280 2a 93 be 3d 82 58 ab 3d 31 58 2d bd d7 96 b4 bd
       0.09305413 0.08366491 -0.042320434 -0.08817833
000290 61 e3 f0 3d fc 85 05 be 13 df a8 bd 4c f4 86 3d
       0.11762119 -0.13039392 -0.08245673 0.06589565
0002a0 bf f9 eb 3c 28 a4 d1 bd 88 3d ab bd ba d4 5b bd
       0.028805612 -0.102363884 -0.083613455 -0.05366967
0002b0 aa e9 00 be 31 80 0c 3d fe 48 91 bd d7 ca 05 3e
       -0.12589136 0.03430194 -0.07094 0.13065659
0002c0 66 23 49 3d ec 5b fb bd c4 fa 03 3d ee 66 d1 bd
       0.049106024 -0.12273392 0.03222157 -0.102247104
0002d0 77 39 08 3e a8 4a b6 3d 26 e2 92 bd bd 1e c7 3d
       0.13303171 0.08900958 -0.07172041 0.0972266
0002e0 1a e4 ab 3c 31 08 9a bc dd 7d 9a bd de 10 c2 bc
       0.02098279 -0.018802734 -0.07543538 -0.023689684
0002f0 88 3e d4 3d ce ef d3 bd 62 25 81 bd e8 4e e9 3d
       0.103634894 -0.103484735 -0.06305958 0.11392003
000300 92 86 ea bd 97 c2 6c bd 48 10 ab bd 3d 29 f4 bd
       -0.114514485 -0.057802763 -0.08352715 -0.11921928
000310 47 30 05 be de 56 c4 3c ae ce b2 bd a7 a4 cf bd
       -0.13006698 0.023967203 -0.08730827 -0.10138827
000320 ae 2d 76 bc e6 c6 4c bd 4e e4 8a 3d 42 69 85 3d
       -0.015025539 -0.04999437 0.06781827 0.06514217
000330 23 dd 8e 3d 34 dc 88 3d b0 bc 84 bd 4a 9b ff 3c
       0.06975772 0.066826254 -0.06481302 0.031201977
000340 93 24 b8 3b ca 8d ca bd 4a 79 b4 bb 91 ae 91 bd
       0.0056195944 -0.09890325 -0.005507623 -0.07113374
000350 d8 25 86 3c 33 97 00 3e ab 95 06 3e 85 46 04 be
       0.016375467 0.12557678 0.13143031 -0.12917526
000360 e1 42 d7 3c 1f ac 55 bd d3 f7 60 3d 45 36 e8 bd
       0.026277008 -0.0521661 0.054923844 -0.11338476
000370 a2 49 a5 bd 11 0f 80 bd 8d 3b 58 3d 81 55 1c bd
       -0.08070685 -0.06252874 0.052791167 -0.03816748
000380 41 7d a8 3d 2b f9 bf bd 87 be b8 3d cf 2f a2 bd
       0.08227015 -0.09373697 0.09020715 -0.07919275
000390 7a 38 4d 3b 80 36 aa 3d cb 53 f6 bc 8d 2d 64 3d
       0.003131418 0.08311176 -0.030069252 0.055707503
0003a0 83 53 82 bd 92 ea ad 3c 3b 9b 3b 3c ba 41 92 3d
       -0.06363585 0.021230016 0.011450584 0.071414426
0003b0 ea 67 c4 3d 88 26 81 bd 02 c4 c9 3d 05 09 d2 3d
       0.095901325 -0.063061774 0.09851839 0.102556266
0003c0 17 27 7d bd 16 1f 1e bd 64 8e 0d bd 17 95 a5 bd
       -0.061804857 -0.038603865 -0.034559622 -0.08085077
0003d0 4e d2 84 3c 35 14 a2 bd af f9 0d be f8 44 74 3d
       0.016213562 -0.079140104 -0.13864778 0.059636086
0003e0 2f 5d 4f bc f5 26 1a 3d c7 4e 98 bd 65 8c dd bb
       -0.012656494 0.03763481 -0.074369006 -0.006761121
0003f0 5a 3f 1a bd c6 fc a0 bd a9 ef cb bd 46 45 da 3c
       -0.037658073 -0.07860713 -0.09957821 0.02664436

lstm.weight_hh_l1 f4 [256, 64]
000000 0d 1e b6 bb c8 12 91 bd d3 60 9c bc d1 a2 3e 3d
       -0.0055577816 -0.0708366 -0.019089138 0.046541993
000010 da 64 7c bc 9a 23 85 bd d2 04 1e 3d 7c 69 c3 bd
       -0.015404904 -0.06500931 0.038578816 -0.09541604
000020 f4 90 7f 3c fe 48 92 bd 0e c9 ab bd aa f4 7d ba
       0.015598524 -0.071428284 -0.083879575 -0.0009687642
000030 cc 94 eb 3c 70 ec 11 3d e1 77 55 3d c8 13 17 bd
       0.028757475 0.035625875 0.05211628 -0.0368841
000040 e3 d6 e0 bb 92 4b 98 bd e4 b6 9b bd 69 d5 d4 bd
       -0.006861554 -0.07436289 -0.07603243 -0.10392267
000050 fe 7c 55 bd ce bd bd 3d 52 09 92 3d 8c d6 b4 ba
       -0.052121155 0.09264718 0.07130684 -0.001379685
000060 76 0d d3 bc f6 ca 4b bd 95 df 23 3d f0 db dc 3d
       -0.025763255 -0.049754106 0.040008146 0.10784137
000070 59 38 9b 3d 44 b0 32 bd ff f1 95 bc 23 ef cd 3d
       0.07579107 -0.04362513 -0.01830387 0.10055377
000080 3e d4 70 bd 67 c6 84 3d 39 16 55 3b 3c 52 d4 bd
       -0.05879616 0.06483155 0.0032514466 -0.103672475
000090 1e 3f d7 bc 3c 89 e3 bc f3 99 e8 ba 31 7e 98 bc
       -0.026275214 -0.0277754 -0.0017746076 -0.01861486
0000a0 36 0c e4 3c 05 93 1c bd 48 fd 97 bc 8b 5e a3 3d
       0.027837854 -0.038226146 -0.018553391 0.07977017
0000b0 a6 e0 10 bd c6 d4 d6 bc 77 3d 82 3d 10 ae a3 3d
       -0.03537049 -0.026224505 0.0635938 0.07992184
0000c0 15 3e 21 3c 44 d0 f4 3d 58 2e ef bd 13 c5 ad 3d
       0.009841462 0.11953786 -0.11678761 0.084848545
0000d0 19 01 aa 3d f4 be 8e 3d 56 2f 58 bd 23 dc d1 bd
       0.083009906 0.06970015 -0.052779518 -0.10247066
0000e0 ef 33 4b bd 4b 64 fd 3c e5 90 46 3c 6e b3 3b bd
       -0.049610075 0.030931612 0.0121195065 -0.045825414
0000f0 3e 6c b9 3d 5d 2f 98 bd a1 68 be 3d 72 78 18 bd
       0.09053849 -0.07430909 0.092973 -0.03722424
000100 64 c8 c2 bd ff 22 64 3d a1 b4 0e 3e 60 ec 96 bc
       -0.09510878 0.055697437 0.13936092 -0.01842326
000110 75 ea b0 bd 1d 03 dc 3c 2a 99 7f bd b6 2a 96 3d
       -0.08638469 0.026856953 -0.062401928 0.07332365
000120 16 3c 93 bc 2a 21 99 3d 34 08 a6 3d 44 82 db 3b
       -0.017972987 0.07477029 0.08107033 0.0066988785
000130 c9 4d f5 3d 92 1b 90 3d 1c a8 02 bc 51 cb 05 3c
       0.11977727 0.070365086 -0.007974651 0.00816615
000140 d2 43 07 bc aa d8 99 3d 7c 3d 23 bd ee a6 ab bd
       -0.008255916 0.075120285 -0.039853558 -0.08381449
000150 95 02 ac 3d 6d e4 ea bd d2 2a 14 3d 53 df 64 ba
       0.0839893 -0.1146935 0.03617365 -0.00087307877
000160 a0 da 9f bd 69 9c 0a 3c 4c 3c a8 3d 36 0e 04 bd
       -0.07805371 0.008460143 0.08214626 -0.032240115
000170 bf 21 ff 3b ae d6 03 3e d5 c4 db 3d 42 3a 92 3b
       0.0077860053 0.12874863 0.10730902 0.0044625113
000180 0e f7 90 3c cb 59 3d 3d 58 bf 01 3d 51 65 db bd
       0.01769593 0.04622821 0.03167662 -0.10712684
000190 d4 f9 6c 3d b1 03 04 3e 9c 77 71 bd d7 ef 87 bd
       0.057855442 0.12892033 -0.05895196 -0.06637543
0001a0 93 69 cd bd 6b 2f 01 3e 64 8a 08 3e 82 17 c7 bc
       -0.10029902 0.12615745 0.13334042 -0.024303202
0001b0 d8 55 de 3d f1 25 c2 bd f4 85 b5 bb 22 d5 62 bd
       0.10856217 -0.09479893 -0.00553965 -0.05537904
0001c0 b9 19 e7 bd 1e d5 93 3d 0f f2 bd 3d bb 12 f4 bd
       -0.11284203 0.07218383 0.09274685 -0.11917635
0001d0 c9 51 13 bd 6c ec b2 3d cb 90 d1 bc fd 94 49 bd
       -0.03596667 0.087365 -0.025581738 -0.049214352
0001e0 f1 b4 9f bd 9e 2c 89 3d 08 c8 f7 bc ad 33 f8 bd
       -0.07798184 0.06697963 -0.03024675 -0.121192314
0001f0 d4 42 57 3b 65 76 03 3d 04 f0 92 bd 9d 6d 80 3c
       0.003284623 0.03209533 -0.071746856 0.015677268
000200 a6 9d 97 3d 0c 44 00 be e5 35 6c bc d5 6c d2 3d
       0.07403116 -0.12525958 -0.014417146 0.10274664
000210 6f cc 4d 3d 37 78 01 be bf f6 3b bc ef a9 d0 3c
       0.05024379 -0.12643515 -0.011472403 0.025471656
000220 37 c7 05 be 6a d8 43 bd e4 de 7c 3d 32 a3 53 3d
       -0.13064276 -0.04781381 0.061736003 0.051669307
000230 e5 2a d9 3d e6 13 4a bd 66 05 08 be 9c b5 ba bd
       0.106038846 -0.049335383 -0.1328331 -0.091166705
000240 29 75 f0 3d 53 1e fb bb 3d 19 b5 3d 57 28 f5 bd
       0.117410965 -0.007663527 0.088427044 -0.11970585
000250 90 5a 27 3d ae da a1 3d 32 cc 7d 3d 24 0a dc bd
       0.04085785 0.07903038 0.061962314 -0.10744122
000260 dd be c8 3d 0c 1d 47 3c 04 2d 37 3b a7 a4 08 bd
       0.09802029 0.012152921 0.0027950415 -0.03336015
000270 fa 05 f3 3c c8 0d 77 bd 4e a9 19 bb c1 ab 8f bd
       0.029665936 -0.060315877 -0.002344686 -0.07015181
000280 ba b4 08 bc f5 1c cf bd a8 0f 2b 3d 6e ed ad bd
       -0.00834387 -0.10112945 0.041762978 -0.08492552
000290 0e b0 c2 3a fe 2e e9 3d e8 f4 e2 3d f7 3e 5b 3c
       0.0014853494 0.11385916 0.110818684 0.013381711
0002a0 fa 64 e7 3d f8 82 95 bd 5d 36 33 3d a4 60 01 be
       0.112985566 -0.07300371 0.043753017 -0.12634522
0002b0 36 78 3d bd 83 77 58 bd b3 bb db 3d 3d fa 46 bd
       -0.04625722 -0.05284835 0.1072916 -0.04857849
0002c0 f4 22 e0 bb 8f c1 ae bd 5c 0f dd bd 9c c4 12 bd
       -0.0068401042 -0.08533012 -0.10793945 -0.035832033
0002d0 d6 50 bd bd ce f6 c4 bd 30 9c d8 3d 5d df 8d bc
       -0.09243934 -0.09617387 0.105766654 -0.017318422
0002e0 08 20 c5 3d 73 fa cc 3d 99 b4 85 bd 8d 8b ed bd
       0.0962525 0.10008707 -0.06528587 -0.11598883
0002f0 51 5e df 3d fb 03 c6 3d 37 f0 43 bc 2a be 07 3d
       0.10906661 0.09668728 -0.011959127 0.03314034
000300 5c ad d6 bd 33 16 e0 bd a5 03 b4 3d e8 2e d1 bd
       -0.104822844 -0.10941734 0.08789758 -0.10214025
000310 b4 27 9a 3d 4c f6 e8 bc 9b ce 14 3d 3b 37 b6 bd
       0.07527104 -0.028437756 0.036329847 -0.08897253
000320 e4 6a 80 3d c8 4d 91 bc 56 be 25 bc 94 27 ba bd
       0.06270388 -0.017737284 -0.01011618 -0.0908958
000330 f1 92 dc bd 2a 4f 76 3d d6 77 81 3d 4d f8 9f 3c
       -0.10770214 0.06013409 0.06321685 0.019527579
000340 88 f1 21 3d 96 98 f6 3d 1e 23 56 3d d2 87 05 be
       0.039536983 0.12040822 0.052279584 -0.13040093
000350 91 b6 2b 3d 53 a0 c3 bd f3 3d f5 bd f1 5c 5a bd
       0.041922156 -0.09552064 -0.119747065 -0.053311292
000360 38 aa 6a 3a 95 e8 cf bd ff 1a a2 bd b5 e1 ba 3d
       0.0008951756 -0.101517834 -0.07915305 0.091250814
000370 22 ef 6e 3d 32 d5 bc 3d 03 d4 b5 3d 7c eb ed 3c
       0.058333524 0.09220351 0.08878329 0.029042952
000380 a8 91 bb bd b9 5d 86 3d 95 e7 e4 3d 54 7b d0 bc
       -0.09158641 0.06560845 0.11176983 -0.025449432
000390 b6 8a c9 3c 82 97 8e 3d ab c5 a4 3d 3a a4 13 3b
       0.024602275 0.069624916 0.08045515 0.0022528307
0003a0 0c 9f a4 bc 2b 6a 6e bd cd c8 87 bd d3 97 f5 3c
       -0.02009537 -0.05820672 -0.066300966 0.029979622
0003b0 02 97 81 3d 6f 1a b0 bd 1a 26 3c bd 4c ba 30 bd
       0.063276306 -0.08598792 -0.045934774 -0.043146417
0003c0 01 c6 85 bd 21 0d 04 3e c1 1f 78 3d 9a d4 9a 3d
       -0.06531907 0.12895633 0.060577158 0.07560082
0003d0 48 77 c2 3d ac de e0 3a 07 5a 89 3d 28 31 b4 3c
       0.09495407 0.0017156205 0.067066245 0.021996096
0003e0 46 a6 53 bd 2f 1b 87 3d dc 18 b0 bd 28 b1 94 3c
       -0.051672243 0.06596982 -0.085984915 0.018150881
0003f0 4a 7c a6 3d 3a 95 93 3d 91 52 ab bd b7 8d 48 bd
       0.08129175 0.07206197 -0.08365358 -0.048963275

lstm.bias_ih_l1 f4 [256]
000000 a4 9a b0 bc 8b ff 84 3d 33 63 ae bd e8 29 a2 3d
       -0.021558113 0.064940535 -0.085150145 0.07918149
000010 a2 07 8f bc d5 a4 d9 3d 30 1e 9e 3d fa 9e e3 3c
       -0.017459694 0.10627142 0.077206016 0.027785767
000020 bb f8 0d be dd d1 07 3e 5f 96 e0 3d d2 fb e8 3c
       -0.13864414 0.1326365 0.10966181 0.02844039
000030 d1 1b 08 3e 66 85 7f bd c1 6b 64 bc 14 64 c8 bd
       0.13291861 -0.062383078 -0.013941706 -0.097847134
000040 d4 8b 40 3d 71 1d 2a bd 65 e6 0f be 6f a1 90 3d
       0.04700835 -0.041531984 -0.14052732 0.07062041
000050 9b b5 e6 3d cc 49 de 3d 46 79 82 bd 63 c5 83 3d
       0.11265107 0.108539194 -0.06370787 0.06434133
000060 0b 52 35 bd 87 57 bc 3d 41 53 d6 3b 4f 81 50 3d
       -0.044267695 0.09196382 0.0065406864 0.05090457
000070 cc 48 e1 3d 22 38 a1 bd bb 36 08 bd b9 fb 00 3c
       0.11000213 -0.078720346 -0.03325532 0.007872515
000080 fe fb c0 3d 7e 93 10 bd df fe f1 3d 28 c1 93 bb
       0.09423064 -0.03529691 0.11816191 -0.00450911
000090 67 7f 4f bd 6e 10 4e bc 4c 12 82 bd 39 a2 db bc
       -0.05065861 -0.012577159 -0.06351146 -0.026810752
0000a0 d8 e5 e7 3d 75 6d c7 bd 3f 50 94 3c a6 18 c5 3d
       0.11323136 -0.09737674 0.01810467 0.09623842
0000b0 e5 1a 8e 3d 0b 46 8c bd 59 f0 11 3e b0 88 a6 3c
       0.069387235 -0.06849297 0.14251842 0.02032885
0000c0 4a fe b9 3c df 25 cd bc cc b0 0d bd 2d b3 02 3d
       0.022704262 -0.025042472 -0.034592435 0.031909157
0000d0 a7 e9 01 3e 18 93 0e 3e 21 d5 40 3d 79 1b 16 3e
       0.12686788 0.139233 0.047078256 0.14658917
0000e0 87 f5 98 3d ae 3c b9 bd 10 fc a5 bd da f9 c8 3d
       0.074687056 -0.09044777 -0.08104718 0.098132804
0000f0 25 58 d6 3d d9 85 1a 3e d6 b3 b0 3d 5c 47 16 bd
       0.10466031 0.15090121 0.08628051 -0.036689147
000100 b2 dd 53 3d 9c b4 07 3e d3 9a 5e 3d ba cd 65 3c
       0.051725097 0.13252491 0.05434687 0.0140261
000110 46 87 ce bd 30 7f ec bc 67 1d 21 bc 1a 31 1b 3e
       -0.10084395 -0.028869241 -0.00983367 0.1515545
000120 22 ff 8c bd 4e 40 9b bd d1 55 12 bd 18 e5 b9 3d
       -0.068846 -0.075806245 -0.035726372 0.09076899
000130 5d d1 a1 bd b0 44 94 3d b9 8d f0 3c 85 66 e9 3d
       -0.07901261 0.072396636 0.029364454 0.11396507
000140 93 7f c5 3d 7e 88 00 3d e2 54 85 3c fd 40 7d 3c
       0.096434735 0.03138017 0.016275827 0.015457389
000150 70 ba 93 3d 15 f3 30 bd cd 47 c7 3d 7a 37 e6 bc
       0.072132945 -0.04320057 0.09730492 -0.028102625
000160 11 bd 56 3d 07 3f 92 3d 78 cc 00 be 64 6d af 3d
       0.0524264 0.07140928 -0.12577999 0.085657865
000170 9c b4 f4 3b d5 f9 29 3d 18 73 ae bb 67 b5 d5 bd
       0.0074678194 0.041498024 -0.005323779 -0.104349904
000180 8a 53 01 3e be 1d 9a bc e4 03 fb 3d 51 c7 06 3d
       0.12629524 -0.01881301 0.122566015 0.032904927
000190 39 96 8b bd 83 2d 84 3d 37 8a fd 3c 20 e9 c9 3d
       -0.06815762 0.06453993 0.030949695 0.09858918
0001a0 42 a2 2c 3d 9b 69 22 bd bd 38 fb 3d 8a 44 2d 3d
       0.04214693 -0.039651494 0.12266681 0.042301692
0001b0 65 f7 d3 bd 15 05 0a 3e a5 1e 97 3d 0f c2 22 3d
       -0.10349921 0.13478501 0.07378892 0.03973585
0001c0 a6 50 37 3d 12 22 df bc ce 01 99 3d 85 98 30 bd
       0.044754647 -0.027237926 0.07471047 -0.043114204
0001d0 01 77 38 3d a4 c7 b0 3c 6f 08 b3 bd 77 5e b2 3d
       0.045035366 0.021579571 -0.08741843 0.08709424
0001e0 d7 41 fd bd e0 6b 3e 3c f2 80 e7 bc 56 b9 e7 3d
       -0.123660736 0.011622399 -0.028259728 0.11314647
0001f0 54 ec 51 3d 3d ea 5f 3d 3b 6e 7f bc 4b da a2 3d
       0.05125077 0.054666746 -0.015590246 0.07951792
000200 55 0a 6f bd 49 d2 10 3d e3 23 03 3d 2a 35 3d 3d
       -0.058359463 0.035356794 0.032016646 0.04619328
000210 0b 3e 4f 3d e9 56 ea bc 22 dd 6c bd f0 35 fb 3d
       0.05059628 -0.028605895 -0.057828076 0.12266147
000220 fb 5d b2 3d cd 5d 4e 3d 91 e6 fd bd e4 f6 10 3e
       0.087093316 0.050382424 -0.12397493 0.14156681
000230 e9 6c 90 bc 58 19 c4 3a a1 c5 85 b9 18 89 b2 bc
       -0.017630057 0.0014961166 -0.00025514982 -0.021793887
000240 1f f0 08 bc 3f f2 b3 3d 46 91 db bd f8 16 14 be
       -0.008358031 0.08786439 -0.10721068 -0.14461887
000250 b7 93 dc 3d 77 f3 df bd b9 ed 44 3d 0d 0d ce 3d
       0.10770362 -0.10935109 0.048078272 0.10061083
000260 50 ba c2 bd ea 02 82 bd a1 46 90 3c a3 a5 9f bc
       -0.095081925 -0.06348212 0.017611803 -0.019488161
000270 50 ed 42 3d f7 de 28 3b 57 9d 68 3d 11 f0 b9 3d
       0.0475896 0.0025767663 0.056790676 0.09078992
000280 17 fa a9 3d ae 57 c3 bd bd 65 33 bc 5b 34 a9 bd
       0.08299654 -0.09538208 -0.010949549 -0.08261939
000290 d2 07 19 3c 11 3a f8 3d c2 50 76 3d f0 6c bb bd
       0.009340243 0.1212045 0.06013561 -0.091516376
0002a0 47 2e 6f 3b 01 9e 0b 3e 82 17 12 3e 8b bf f7 bc
       0.003649609 0.13634492 0.1426678 -0.030242702
0002b0 7d 64 02 3c 52 6e a4 bd c3 ed 05 3e 5e a1 fe bd
       0.007958529 -0.080288544 0.1307898 -0.12433122
0002c0 89 55 1a 3e ff 52 ce bc b0 03 c4 3d ba 9e 79 bc
       0.15071692 -0.02518606 0.09571016 -0.015235597
0002d0 43 9d c9 bd 67 23 84 bd 46 d3 b5 3c 4a 40 01 be
       -0.098444484 -0.06452065 0.02219547 -0.1262218
0002e0 1d 06 c9 bd 4a b2 10 3e 74 46 e1 3b fe 5d 1a be
       -0.09815619 0.14130512 0.0068748537 -0.15074918
0002f0 79 19 19 be 2c ba 04 3e d6 c2 ae 3d 18 e8 cc 3d
       -0.14951123 0.12961644 0.08533256 0.10005206
000300 c6 21 7c bc 2b 5d 98 bd cb f5 79 3d d2 33 45 bd
       -0.015388912 -0.074396454 0.061025422 -0.048145123
000310 08 50 df 3d 75 ba 8a 3d 23 5f bb bd 19 ce 21 bd
       0.109039366 0.06773845 -0.09149005 -0.03950319
000320 d8 ed b8 3d 89 9e fc bb f7 47 cc bc eb 86 10 3e
       0.0902974 -0.0077093286 -0.02493666 0.14113967
000330 9a 3f 98 bd aa ba 0b bc 57 de 42 3d e2 53 bd bd
       -0.07434006 -0.008528391 0.04757532 -0.09244515
000340 2e 89 db 3b ef c7 0b 3e 37 07 97 bd 12 9c a2 3a
       0.0066997027 0.13650487 -0.07374423 0.0012406132
000350 b2 e2 6c bb a0 30 3d bd 6d 89 8e bd 41 9a 65 bb
       -0.0036145863 -0.04618895 -0.06959806 -0.003503457
000360 bc 7a 82 bc d7 0d 39 bd 2d f6 1a bd 1a da ca 3c
       -0.015927665 -0.045179214 -0.037832428 0.024762202
000370 96 4e a9 3d fe 49 4d 3d 26 53 b3 3d 68 50 98 bd
       0.08266942 0.050119393 0.08756094 -0.07437211
000380 6d ed 13 3e c3 cb b8 bd c6 be 85 bc c9 d1 ab bd
       0.1444604 -0.090232395 -0.01632632 -0.08389623
000390 24 7b 93 3d f8 bd cf bc 36 0d da 3d 2e 73 78 bd
       0.072012216 -0.025359139 0.10647051 -0.06065672
0003a0 21 55 ef 3d 52 6f 33 3d a1 6a f6 bc ab 05 cc 3d
       0.11686159 0.043807335 -0.030080141 0.099620186
0003b0 6b 88 fd bd ae c3 96 3d 1a 57 5c bd 1d 94 1a 3d
       -0.12379535 0.07361542 -0.053794004 0.037738908
0003c0 04 8e 4b 3d 1d 78 0d 3e 0a 77 8d 3d 48 77 72 bc
       0.049695984 0.13815351 0.069074705 -0.014798947
0003d0 36 42 9e 3b 12 f0 d5 3d 5c 2a 05 3d cc be 22 3b
       0.0048296703 0.104461804 0.0325111 0.0024832962
0003e0 f4 55 70 3d 40 1c 83 3d 94 c8 d2 3d 5a 68 18 3e
       0.05867572 0.06401873 0.102921635 0.14883557
0003f0 7b 32 c7 3d 8b 00 b0 3d a3 15 00 3e 0d ef 34 3d
       0.09726425 0.085938536 0.12508254 0.04417329
