api/data/models/ETH_USDT_1h_lstm.pth (torch, 211349 bytes, 9 tensors)

lstm.weight_ih_l0 f4 [256, 6]
000000 4f c7 87 bd 81 49 ad bd f1 55 8b bd 64 65 56 3d
       -0.06629812 -0.084612854 -0.068035014 0.052342787
000010 97 15 a8 3d e5 9c a3 3d 75 b0 c3 3d 43 60 c4 bc
       0.08207243 0.0798891 0.09555141 -0.023971682
000020 16 d3 0a 3d 54 84 24 3c 40 45 32 3c ce d2 bf bd
       0.033892713 0.010041315 0.010880768 -0.0936638
000030 b9 73 8b bc 30 34 bb bd 8a 63 67 bd a6 13 a2 3d
       -0.017022954 -0.09140813 -0.056491412 0.07913904
000040 06 86 7c bd 57 5c c5 3d 11 72 61 3d 33 6b 9e 3d
       -0.061651252 0.09636753 0.055040423 0.077352904
000050 e2 6a aa bd c5 a1 49 3d e4 31 7d 3d 46 f9 40 3d
       -0.083211675 0.04922654 0.061815158 0.047112726
000060 4b d9 d1 3d d6 ea 7a 3d 46 bf 07 3e 9b 3f 1a 3e
       0.102465235 0.061259113 0.13256559 0.15063326
000070 4f 22 5c 3d 14 da 43 bd 09 33 4b 3d 01 8b 83 3d
       0.053743657 -0.047815397 0.049609218 0.06422997
000080 79 0a de bc da 44 00 bd 10 c2 85 3d 2a 76 ba 3d
       -0.027104603 -0.031315662 0.06531155 0.09104569
000090 e2 10 10 bd 2f e0 23 bd 07 c4 d4 3d 0a ed c1 bd
       -0.03517235 -0.04000872 0.10388952 -0.0946904
0000a0 28 11 ad bd 2b b7 c6 3d 92 ec 95 bc 47 09 8f bc
       -0.08450538 0.09702905 -0.018301282 -0.017460478
0000b0 f8 86 bb 3d be d4 ff 3d c6 f5 0c 3e 9c d0 5d 3c
       0.091566026 0.12491749 0.1376563 0.013538506
0000c0 cb d9 5c bc 61 99 2b 3d 4f 9a 2a 3a 57 50 0d 3d
       -0.01347966 0.04189432 0.0006507979 0.034500446
0000d0 1a 82 9e bd b2 e4 18 bb f7 1b 32 3e 24 fe 76 bb
       -0.07739659 -0.0023329672 0.1739348 -0.00376881
0000e0 aa aa eb bb 55 41 ce bc 91 3b 8b bd 5b 88 0e 3e
       -0.0071919756 -0.025177637 -0.06798471 0.13919203
0000f0 67 66 51 bc ce 4c e9 3d 17 60 b9 3d b6 ae 61 bc
       -0.012780762 0.113916025 0.09051531 -0.0137745645
000100 32 66 13 3d 78 3c a2 bd c7 16 96 3d 01 4f b5 3d
       0.035986133 -0.0792169 0.07328563 0.088529594
000110 a9 c0 0d be 5a 6e b9 3d 7c e6 da bd 8d 7e 58 bd
       -0.13843025 0.09054251 -0.10688493 -0.052855063
000120 bf e6 b2 3d e5 0d 10 3e 6f 00 a8 bd 58 a9 b1 bd
       0.087354176 0.140678 -0.08203208 -0.08674878
000130 f9 88 14 3c 47 d5 6f 3d 84 b1 06 bb d9 a3 3c bd
       0.00906586 0.058553007 -0.0020552585 -0.046054695
000140 18 71 91 bd 73 44 ad bd e1 9c 38 bd db 14 09 3e
       -0.07101649 -0.08460321 -0.045071486 0.13386862
000150 76 e2 5c 3d c6 2d ea bd 26 50 ed bd 41 ca 55 bc
       0.053926907 -0.11434512 -0.11587553 -0.013048709
000160 8c 99 7b bd 68 b8 96 3d 96 b5 00 bd f8 de 98 bd
       -0.06142573 0.073593915 -0.031423174 -0.07464403
000170 29 67 42 bc e9 78 a2 3c 8b 1b b8 3d 77 47 43 3d
       -0.011865416 0.019833045 0.089896284 0.047675576
000180 55 70 c8 bd b2 f9 93 3d 55 2e e3 3d 2e b3 33 3d
       -0.09787051 0.0722536 0.110928215 0.04387205
000190 c2 9d d2 3d ef 2b 4f bd e6 d3 e3 bd e2 71 cf 3c
       0.10283996 -0.050579008 -0.11124401 0.025322858
0001a0 8e a9 ee bd 70 05 81 3d 7d ca d1 3d 5c a5 7d bd
       -0.11653434 0.06299865 0.102437 -0.061925277
0001b0 d2 df 87 3d 62 43 c1 bc 99 73 df 3d ba 54 c1 3c
       0.06634487 -0.023591701 0.109107204 0.023599971
0001c0 a6 f3 16 3e dc e9 a9 3d b0 48 b7 bd 2c c2 d5 3c
       0.14741382 0.08296558 -0.08949411 0.026093565
0001d0 1e 0c 25 bd ba 00 50 3a eb ee d8 3d b3 47 dc bd
       -0.04029476 0.00079346786 0.10592445 -0.10755863
0001e0 3c 09 47 3d b2 ce aa bd 08 3c 0e be 83 b1 3a 3d
       0.04859279 -0.08340205 -0.13890088 0.045579445
0001f0 22 6c 81 3c 05 0a b4 3d fb 5e ee bc 18 76 c7 3c
       0.015798632 0.087909736 -0.029098025 0.024348304
000200 17 65 0b bd 77 7d b5 bd cd 6b 07 bc b2 b1 00 3d
       -0.034031954 -0.08861821 -0.008265448 0.031419463
000210 dc 02 8d 3d a9 b0 0f be d8 d1 f4 3d da d2 0b 3e
       0.06885311 -0.14032234 0.11954087 0.13654652
000220 75 99 de 3b b4 6a 90 3d 43 31 cb 3d 2d 5f 0e 3e
       0.006793196 0.07051602 0.09921505 0.13903494
000230 0a 2d 8f bd c7 fe 04 3c 34 82 96 3c 85 79 7e 3c
       -0.069910124 0.008117384 0.018372633 0.015531902
000240 ff de 23 bd 88 04 7a 3d 90 b8 50 bd bb c9 e1 3d
       -0.040007588 0.061039478 -0.050957263 0.11024805
000250 d2 09 7b bb b1 43 8c 3d 97 3b 6a bd bb 29 9d 3d
       -0.0038305414 0.068488486 -0.057185736 0.07673975
000260 10 7d d1 3d 55 af 5c 3d 68 2a 6c 3d 2a 89 d5 3d
       0.10228932 0.053878147 0.05765763 0.104265526
000270 63 77 25 3d 74 67 2f 3d 94 ea b4 3d d7 0c a9 bd
       0.04039706 0.04282327 0.08833805 -0.08254402
000280 4e 06 69 bd 3a 37 4e bd 1d 1f cb 3d 9a 4e 6d 3c
       -0.05689078 -0.050345637 0.09918044 0.014484072
000290 09 b2 c7 3d 7f ab 31 3e d8 f7 34 3c c9 d7 1d bc
       0.097507544 0.17350577 0.011045419 -0.009633967
0002a0 81 a5 04 be 31 78 19 3d ff 85 11 3e 71 8c d1 3d
       -0.1295376 0.03746814 0.14211272 0.10231865
0002b0 d5 90 7b 3d 03 10 c9 3d e9 cf c2 bd 7b 1e b4 bd
       0.06141742 0.09817507 -0.09512312 -0.08794876
0002c0 08 98 68 bd b8 df 06 bd 3a 19 ad 3c 12 01 b2 bd
       -0.056785613 -0.0329282 0.021130193 -0.086916104
0002d0 20 47 9c 3d d0 24 ad bd 55 24 44 3d 7c a6 e9 3b
       0.076307535 -0.08454287 0.04788621 0.007130442
0002e0 e8 c4 11 3e a9 fb d1 3c 32 96 86 bc d5 e1 af 3c
       0.1423527 0.025632696 -0.01642904 0.02146999
0002f0 3f c2 c9 3d 29 60 7a bd cc 01 fb bc 6b c2 90 3d
       0.098515026 -0.06112686 -0.030640505 0.07068332
000300 8a 54 cc 3d e0 ba e7 bd 61 40 62 bd a4 87 9f bd
       0.09977062 -0.113149405 -0.055237178 -0.07789543
000310 b0 40 ab bc e5 e0 07 3e c5 9a 9d bd 43 a7 ed 3c
       -0.020904869 0.13269384 -0.076955356 0.02901042
000320 ff c0 9f 3d 5c 2c c1 3d a8 4a c0 bc 4e f8 89 bd
       0.07800483 0.09432289 -0.023473099 -0.067368135
000330 e0 fb e2 3d 0b e9 59 bd 8b bf 14 bd f3 91 17 bd
       0.110831976 -0.053200763 -0.036315482 -0.037004422
000340 99 c4 f5 3d bd 04 6d bd e0 85 0e 3e 3c e5 4b 3e
       0.12000389 -0.057865847 0.13918257 0.19911665
000350 5b 81 60 bd 36 a0 91 bd 7b d6 e5 bc 91 b9 4d 3d
       -0.054810863 -0.07110636 -0.028056374 0.050225798
000360 2a 97 0b 3e f6 d7 0c bd bd 73 39 bd 6b d6 9d 3b
       0.13631883 -0.034385644 -0.045276392 0.0048168204
000370 3a eb 92 3d 36 f9 b2 3d 34 99 72 bd c0 8e 34 3e
       0.07173772 0.087389395 -0.059228137 0.1763258
000380 fc 2b 92 3d ee bc 50 bc 6f a0 f1 3c ae 1a fe 3c
       0.071372956 -0.012740357 0.029495446 0.031018581
000390 97 e8 d2 bc 29 d8 0b 3d 0b 69 c3 bb d6 ba fd 3d
       -0.025745673 0.034141693 -0.00596345 0.12389152
0003a0 65 2e a3 bd 88 41 55 3c f3 23 a9 bd 13 64 4f bd
       -0.079678334 0.013016112 -0.0825881 -0.050632548
0003b0 0e 41 bf bd c9 18 b8 3d d9 a9 0a 3e 34 99 a6 bc
       -0.0933858 0.089891024 0.13541354 -0.020336725
0003c0 7c 8d 16 3e cf 32 66 3d ea 1e 20 bd e7 c6 0a bd
       0.1470241 0.0562008 -0.039091982 -0.033881094
0003d0 c7 72 e3 3c 4c 38 78 3c 54 f9 b6 bd b3 fc 0d 3e
       0.027764691 0.015150141 -0.08934274 0.13865928
0003e0 81 ea f3 3c fd 90 35 3d ee db 9b bd 97 12 ec 3d
       0.029774906 0.044327725 -0.07610308 0.11526983
0003f0 f2 b3 8c 3d 01 28 49 3d 00 c8 7a 3d 04 41 de 3d
       0.06870259 0.049110416 0.06122589 0.108522445

lstm.weight_hh_l0 f4 [256, 64]
000000 8d 2c 56 3d f6 30 b1 3d b7 4d a5 bd 55 71 8c 3d
       0.05228858 0.08651917 -0.080714636 0.06857554
000010 1f c8 d9 bd 7d 66 c8 3d 30 e7 24 bc 99 c3 20 3e
       -0.10633873 0.09785173 -0.010064885 0.15699615
000020 44 59 29 bd d5 04 9a bd 66 4f be 3c 5f 71 01 3e
       -0.041344896 -0.07520453 0.02323122 0.12640904
000030 df 65 82 3d 00 06 7c bc 99 c4 bd 3d ec b6 a2 bd
       0.063670866 -0.01538229 0.09266014 -0.07945046
000040 7d 4b 00 3e 6f 55 a1 3c 01 d4 fd 3c 5f 01 43 3d
       0.12528796 0.019694058 0.03098488 0.04760873
000050 10 da a0 3d 29 97 ae bc a8 f6 18 3e 56 a2 f5 3c
       0.07854092 -0.021312313 0.14937842 0.029984634
000060 79 30 db 3d 73 90 8a 3d e5 1c fb bc 9c a0 ec 3d
       0.10702605 0.06765833 -0.030653426 0.11554071
000070 88 fd f6 3d 06 3e fd bc 20 c1 96 bd 91 7d ae 3c
       0.12060076 -0.030913364 -0.073610544 0.02130011
000080 f0 7f 4a 3c 9e fa b3 bd 22 9c f3 3d 0d 2e 0a be
       0.012359604 -0.08788036 0.11895014 -0.1349413
000090 1b 39 64 3c 19 9d 8e 3c 98 14 b9 3c 01 fb 88 bd
       0.013929631 0.017408894 0.022592828 -0.066885
0000a0 ee 11 f8 3c bd ce 79 3d 6b a6 2b 3d 43 b6 66 3d
       0.030281987 0.060988177 0.041906755 0.056326162
0000b0 f9 46 59 3c 58 71 e1 bd a2 15 27 3e 8d 7b 73 3d
       0.01326155 -0.11007947 0.16316846 0.059444
0000c0 76 8c 0b 3d f8 f4 4e bd 80 c6 c5 3c 14 44 ed 3c
       0.0340695 -0.05052659 0.024142504 0.028963126
0000d0 e8 95 d1 3d 26 6c 7b bd 0d 96 2c bd 1e 59 78 bd
       0.102336705 -0.061382435 -0.042135287 -0.060631864
0000e0 7a b6 ab 3d 46 80 42 bd 27 aa d2 3d 37 1f b1 bd
       0.08384414 -0.047485612 0.1028636 -0.08648532
0000f0 81 29 cd bd a3 0b 65 3d 07 19 80 bc 4a 87 3b 3d
       -0.10017682 0.0559193 -0.015636934 0.04578332
000100 c3 80 0c 3d 4b a4 d9 3d 1b 82 4b bd 27 5d 83 bd
       0.034302484 0.106270395 -0.049684625 -0.06414252
000110 4d d7 d7 bd 0f 41 15 be 25 fd 86 3d 51 4f 6e 3d
       -0.10539112 -0.14575599 0.06591252 0.05818111
000120 0d 7b 14 be de 47 b9 bc 7c fa 21 bd fa 7d d7 bd
       -0.14500065 -0.022617277 -0.03954552 -0.10522075
000130 8f 85 2d bd 8f 0a 18 3d d6 c0 74 3d 84 1b 9b bd
       -0.0423637 0.037119444 0.059754215 -0.075736076
000140 e0 e0 22 bd 85 a6 15 3d 09 7f 86 bc 74 9d fe bc
       -0.03976524 0.03653576 -0.016417997 -0.031080939
000150 1b ca 8b 3d c9 ec cc bc 61 a4 be 3c 61 a0 b4 bb
       0.06825658 -0.025015252 0.023271741 -0.0055122827
000160 3c e9 1b 3c e7 1d 41 bd 12 b1 10 bb b5 b8 8b 3d
       0.009516057 -0.047147658 -0.0022078198 0.068223394
000170 38 71 31 bd 1d 9c b8 bd 50 ac e6 bd e9 c4 5c 3d
       -0.043320864 -0.09014151 -0.11263335 0.053898726
000180 67 c4 f3 3d c9 b9 3a bd 76 08 77 bc d5 b9 83 bd
       0.11902695 -0.045587335 -0.015077701 -0.06431929
000190 36 d4 ca 3c 79 31 f4 3d 4a c0 da 3d 7a c7 a5 3d
       0.024759393 0.11923499 0.106812075 0.08094688
0001a0 b1 b5 0e be 44 c7 65 bd 46 fc e2 bc 83 a2 a5 bd
       -0.13936497 -0.056098238 -0.027708184 -0.08087637
0001b0 4f 52 b8 3c 3d ed 85 bd e1 1f 17 3c a2 8d 94 bd
       0.022500185 -0.0653939 0.009223909 -0.07253577
0001c0 0b af e6 3c 3e f6 bb bc 6d 24 5b 3c 56 ba 8f 3d
       0.028159639 -0.022944566 0.013375384 0.07017963
0001d0 39 e4 c2 39 ff 93 b9 bd 59 99 8c 3c 8b 77 cf 3d
       0.00037172603 -0.09061431 0.017162966 0.10130223
0001e0 ef 90 90 3d 70 f7 19 bd cb d9 af 3d 2c e6 eb bc
       0.07058894 -0.03758949 0.085864626 -0.028796278
0001f0 f1 82 bd 3d a0 42 eb 3d ed 1f a6 3d fd bf 30 bd
       0.09253491 0.11487317 0.08111558 -0.043151844
000200 98 de 08 bd 65 fc 81 3d c7 b0 ca 3d 98 7d f0 3c
       -0.033415407 0.063469686 0.09896999 0.029356763
000210 a8 2a 39 be 35 49 81 3c 5d 15 16 bd a4 da 95 bd
       -0.18082678 0.015781978 -0.036641467 -0.07317093
000220 0d e8 a2 3d f8 a5 d3 3d 37 3a 38 bd 39 d0 ba ba
       0.079544164 0.103343904 -0.044977393 -0.0014252729
000230 78 0e 32 bd da 16 87 3d 20 4e bb 3d 6b 76 98 bc
       -0.04347083 0.065961555 0.091457605 -0.018611154
000240 95 23 e1 3d 28 fe e3 3d ba d1 01 bd 0d 9e 22 3d
       0.10993115 0.11132461 -0.03169415 0.03970151
000250 ec 5c a1 3d 07 93 0a 3c aa 35 d1 3d e6 3a 78 bd
       0.078790516 0.008457906 0.10215314 -0.060603045
000260 06 b6 84 ba 4c 2d d1 3d f6 6c 06 bd 2a fa 3c 3b
       -0.0010125048 0.10213718 -0.032818757 0.0028835633
000270 90 f5 f8 3c 3d 23 3a 3d 80 af 44 bb f3 fe 1e be
       0.03039053 0.045443762 -0.0030011833 -0.15526943
000280 4b 17 e6 bd 17 86 1a 3c 5d 94 d3 3c c8 05 a9 3c
       -0.112349115 0.009431384 0.025827581 0.02063264
000290 ef 42 ef 3d 65 db a2 bd 52 47 fb bc d7 56 7e bd
       0.116826884 -0.079520024 -0.030673657 -0.062094536
0002a0 8e b2 de bc af ba 60 3c 0e 4f a1 3c 34 0d 52 bb
       -0.02718475 0.013716384 0.019691017 -0.0032051327
0002b0 dd 37 1a 3c e9 37 93 bd b2 b4 04 3e a6 b8 61 bd
       0.009412733 -0.071883984 0.12959555 -0.055107735
0002c0 2a 2c 62 bd 1b 39 12 bd 70 cc ad 3c 70 6e dd 3d
       -0.0552179 -0.03569899 0.021215647 0.1081208
0002d0 15 c1 b3 3d a0 fe d1 bd 46 ed 76 bd d2 d7 52 ba
       0.08777062 -0.10253644 -0.060284875 -0.0008043024
0002e0 01 1d 74 bd fd 73 9f bd ce 02 b5 3d d5 bb 98 bd
       -0.059597973 -0.07785795 0.088384256 -0.07457701
0002f0 a3 35 02 be 9e 62 12 3e ea 53 03 be 0b 60 b5 3b
       -0.12715773 0.14295432 -0.1282498 0.005535131
000300 fc 44 76 3d b1 db 91 bd 35 b6 dd b9 47 72 73 3d
       0.060124382 -0.07121981 -0.0004228816 0.059435155
000310 52 57 fd bc 5c 2e e0 bd 88 2b a6 bd 90 ce d2 bd
       -0.030925427 -0.10946342 -0.08113772 -0.10293305
000320 fa 87 0a 3d 63 38 84 bd b9 03 ae bc 33 dc dc 3d
       0.033821084 -0.064560674 -0.02124201 0.10784187
000330 fb b8 98 3c 05 7d 94 bc 49 97 b2 3d 35 e5 75 bb
       0.018642893 -0.01812602 0.087202616 -0.0037520651
000340 40 e2 5b 3d 2f c0 21 3d ed 2b f1 3c a3 22 9a 3d
       0.053682566 0.03948992 0.02943989 0.07526138
000350 c6 cc bc 3d 60 31 b0 bd 7f d6 b2 3d 7e bd bf 3c
       0.09218745 -0.086031675 0.08732318 0.023405787
000360 ba d3 a4 bb c7 73 f9 3d 35 00 c3 3c a7 b8 78 3d
       -0.0050301226 0.12180286 0.02380381 0.060722973
000370 9f d4 82 3d 70 ee e0 3c a0 a6 18 be 9b ec 0b bd
       0.063882105 0.027457446 -0.14907312 -0.03416119
000380 4b 46 7b 3c 07 fc 7d 3d e9 2b 71 3d 63 11 20 3d
       0.015336583 0.06200793 0.058879767 0.03907908
000390 0f 09 d1 3d 4e 60 3a 3d ce 26 d8 bd ea a5 37 bd
       0.10206806 0.045502 -0.105542764 -0.044835962
0003a0 94 34 cb bd cd b3 b1 3c 0c 99 97 3d 42 6c 99 bd
       -0.09922138 0.021692181 0.07402238 -0.07491352
0003b0 8c b7 c1 3c 8a e9 06 3e c3 52 88 bd 6c c1 ab bd
       0.023647092 0.13175026 -0.066564105 -0.08386502
0003c0 53 3d b7 3d a8 7c 04 be 3a 39 3a 3d 7d b8 88 3d
       0.089472435 -0.12938178 0.04546473 0.06675813
0003d0 3c 58 29 3d 9e 7b e1 bb 87 fd 7e 3d 7c 4d 0e 3e
       0.041343912 -0.0068811914 0.0622535 0.13896745
0003e0 6a c4 87 3d a6 6a 6c 3d d8 29 b4 bd 23 c8 e3 bb
       0.0662926 0.057718895 -0.087970436 -0.0069513484
0003f0 3c de e8 3d ba 55 00 be a9 f9 d5 bc 17 87 f4 bc
       0.11370513 -0.12532702 -0.026120024 -0.029849572

lstm.bias_ih_l0 f4 [256]
000000 4a 3a 61 3d 76 86 0e 3d b9 55 76 bc 63 75 a2 bd
       0.05498723 0.0347962 -0.015035086 -0.07932546
000010 16 fe 03 bc c2 f5 85 3d bc 22 65 39 15 fc 91 3d
       -0.008056184 0.06541015 0.00021852081 0.07128159
000020 e2 74 a1 bd a3 e7 dc bc 45 e1 6e 3d e3 ff 35 bc
       -0.07883622 -0.026965922 0.058320303 -0.011108371
000030 e9 d5 34 3d e9 5b c3 3d 32 9b 31 3d 8a fb 50 bc
       0.044149313 0.09539015 0.043360896 -0.012755284
000040 8e f0 da bd 5b 20 43 bd b4 a9 34 bd fe 2c f4 3d
       -0.106904134 -0.04763828 -0.044107154 0.11922644
000050 4f b1 00 3d 45 f7 8d 3d 1f 84 ac 3d 77 0d 98 3d
       0.031419095 0.069319285 0.084236376 0.07424443
000060 49 a4 ec 3d 1a 5a 80 3d 92 15 00 3e 37 90 e3 3d
       0.115547724 0.062671855 0.12508228 0.11111491
000070 47 af 06 3e 1e 83 1b 3d 5a 25 2a bd 0e a7 46 3d
       0.131528 0.03796684 -0.041539527 0.04849916
000080 00 2d 1b 3e 99 7f fe 3d 30 9b 02 3e 49 ee c5 3d
       0.15153885 0.12426681 0.12754512 0.0966459
000090 98 1c 53 3c 54 a1 6b bc 23 04 fb bb 51 36 95 3d
       0.012885235 -0.014381725 -0.0076604052 0.07285751
0000a0 bf 5f 6c 3d 35 1b ac 3d 63 b4 cc bc 5c 5e 09 3e
       0.057708498 0.08403627 -0.024988359 0.13414901
0000b0 90 a0 08 3d 68 f8 1e bd 1c 09 f8 3c bd fc 01 be
       0.03335625 -0.038811117 0.030277781 -0.12694068
0000c0 98 65 a7 bc 20 d0 e6 bd a3 6d 71 bd e0 20 a6 3d
       -0.020434186 -0.112701654 -0.05894245 0.08111739
0000d0 dd 43 db 3d a6 07 cc 3d cc 1d 68 bc e8 24 d6 bb
       0.10706303 0.09962396 -0.01416726 -0.0065351613
0000e0 5d c5 cd bd 4e 60 29 3d 75 1e 87 3d 08 8e c5 3b
       -0.1004741 0.04135161 0.06597606 0.0060288943
0000f0 c1 64 96 3c 02 c4 a9 bc ce d4 41 bd fc 4b c4 3d
       0.01835859 -0.020723347 -0.047322087 0.09584805
000100 f3 1d a9 3d c1 96 d2 bd 25 39 16 3d b6 f7 1e bc
       0.082576655 -0.1028266 0.03667559 -0.009702614
000110 84 91 11 3c a3 9f ae bc e3 bd 04 3d 35 8f 71 3d
       0.008884791 -0.021316355 0.032407653 0.058974463
000120 3a 4c f4 3d 4d 51 5b bc 90 db 1b bd 69 fa c9 bd
       0.119286016 -0.013386083 -0.038051188 -0.09862215
000130 d7 59 3a 3c 1f 77 82 bd 3a e3 da bd f4 32 63 3d
       0.011373959 -0.06370377 -0.10687871 0.055468515
000140 f1 89 cf bd b7 0e 28 bd 1f e3 20 bc ce 78 1d 3e
       -0.10133732 -0.04102966 -0.009819775 0.15378115
000150 78 57 e2 bd a8 c8 0a 3e fb b7 20 3d 7b 11 f7 bc
       -0.110518396 0.13553107 0.039237957 -0.030159703
000160 f6 c8 c5 3d cd 9a e5 bc 2c e8 ca 3d fa 7d ac 3d
       0.09657471 -0.028027916 0.099075645 0.084224656
000170 4d d5 0d 3e 18 00 a8 3d a6 f6 6c bd a7 8b a2 bd
       0.13850899 0.08203143 -0.05785241 -0.07936793
000180 b3 52 10 3e a1 f0 b2 3d de 0f fb 3c aa 16 d7 bc
       0.14094047 0.087373026 0.030647215 -0.026255924
000190 c0 c6 c3 bd 0d 76 81 3d 74 00 e6 3c 75 bc c6 3c
       -0.09559393 0.063213445 0.028076388 0.024259785
0001a0 70 77 09 3e b8 0b 8c 3d b7 62 e5 3d 12 09 62 3c
       0.13424468 0.06838173 0.11200469 0.013796108
0001b0 b5 b6 48 3d 08 02 d9 bd 42 83 c8 3d 45 68 c3 bd
       0.049002368 -0.105960906 0.097906604 -0.09541372
0001c0 73 a5 5c 3d d9 b7 88 3d 6b 0e 2b bd 41 9b 2d 3e
       0.053868722 0.06675691 -0.041761797 0.16953756
0001d0 5f 60 d8 bd fe 98 e1 bd 1d 93 d8 3d 9d 3b e7 3c
       -0.10565256 -0.11015509 0.10574935 0.028226668
0001e0 99 02 53 3c a3 2b 8f bd b3 e2 c9 3b 45 43 80 bc
       0.012879037 -0.06990745 0.006161058 -0.015657077
0001f0 d6 f2 f3 3d 9a a4 fc 3b 07 d0 3c 3d 53 c0 9c 3c
       0.11911552 0.0077100517 0.046096828 0.019134676
000200 4d 99 d4 3d d1 f9 99 3d 04 45 ca bd 86 b5 e0 bd
       0.10380802 0.07518352 -0.09876445 -0.10972123
000210 c3 d1 a3 3d 55 44 53 bd c0 79 e8 3c a6 0a 8b 3d
       0.07998993 -0.05157884 0.028378367 0.067891404
000220 ba e7 46 bc d8 3c b8 bb 8f 5e 68 bc c8 ba 8d bd
       -0.012140209 -0.0056224875 -0.014182701 -0.06920391
000230 bf 58 87 bc 7b 04 6a bd aa b6 01 be 16 21 ff 3b
       -0.01652181 -0.05713318 -0.12667337 0.0077859266
000240 75 5a 55 bc 6e 9e c2 bb 29 74 d4 3d 89 0a a8 bd
       -0.013022055 -0.0059392964 0.10373718 -0.082051344
000250 99 e3 5f bc f2 b2 89 3d 34 0b d9 bd 0f c1 2c bd
       -0.013665103 0.06723584 -0.1059784 -0.042176303
000260 58 55 45 bc ba 41 0e bd 02 00 9c bc 0b d8 db 3d
       -0.012044273 -0.03473065 -0.019042972 0.10734566
000270 8b 8b 85 3d 93 77 86 3d fb c2 a2 bd 9d 73 36 bc
       0.06520756 0.06565776 -0.07947346 -0.011135963
000280 6b af 63 3c 48 c4 75 bd e7 0a ec bd 49 de a3 bc
       0.013896803 -0.06000164 -0.11525517 -0.020003455
000290 bc 9e 09 bc 01 25 59 3d dc cd 82 3c 22 7f 43 bb
       -0.008399662 0.053013805 0.015967302 -0.0029830416
0002a0 1f ed e4 bb 62 8e c8 bd d9 11 ab 3d ba a4 de 3d
       -0.006986275 -0.09792782 0.083530135 0.10871263
0002b0 c5 b8 5e bc 2d ef 45 3d b9 dc b5 3c 3b 47 33 bd
       -0.013593857 0.0483238 0.022199975 -0.043769103
0002c0 89 75 0c bc 99 df fb 3c 59 25 e4 bd d3 28 06 3d
       -0.008572944 0.030746268 -0.11139936 0.032753777
0002d0 b4 57 23 3d b5 df 5d 3d 91 28 57 3d 9d d3 a1 3d
       0.039878562 0.05416842 0.05252892 0.0790169
0002e0 2e 86 e7 3c 8d 7d e9 bc 15 8c fe 3d 36 1f 13 bd
       0.028262224 -0.02850225 0.12429062 -0.035918437
0002f0 ce e6 90 bd 71 c2 59 3d 27 a1 11 3d ae 9c 70 ba
       -0.070752725 0.05316395 0.035554077 -0.00091786205
000300 a8 7b 49 bd c4 67 c8 bd d4 ea 3c 3c b8 48 bf bd
       -0.049190193 -0.09785417 0.011530597 -0.09340042
000310 4c c7 fc 3d d8 c7 b9 3d fb 98 8c bd aa 08 ea 3c
       0.123427 0.0907132 -0.06865116 0.028568584
000320 09 c2 23 3c 00 d3 26 3e 74 1b 0a 3d 46 7e 53 3d
       0.009994992 0.16291428 0.033717588 0.051634096
000330 e3 c7 2d bd 17 10 16 3d 0a 4b b7 bd dc 6b f4 bd
       -0.042426955 0.03663644 -0.089498594 -0.11934635
000340 ff 0c 82 3c 11 a0 d2 bb 9a 1f 1f 3d d1 22 68 bc
       0.015875338 -0.006427773 0.038848497 -0.014168457
000350 4b 79 ee 3d 57 f2 bb bd c3 82 d8 bd 95 af 85 bc
       0.116442285 -0.09177082 -0.10571816 -0.016319076
000360 36 b1 d8 3d c8 21 21 3e ba 81 c7 bd d0 0c 10 3e
       0.10580675 0.15735543 -0.0974154 0.14067388
000370 8b a8 a4 3c 7d 48 30 bd c2 e8 a5 3d 8c cc 23 3d
       0.020099899 -0.04303788 0.08101036 0.039989993
000380 07 02 c6 bd 1a 0f b3 3c 29 e8 9c bd 4e 0b d6 3d
       -0.096683554 0.021857787 -0.076614685 0.10451375
000390 14 af 54 3a 5a d2 41 bd 00 f7 fa 3c e8 36 53 3d
       0.0008113247 -0.047319748 0.030635357 0.051566035
0003a0 92 c5 63 3b b2 bd 49 bd e1 cc 5a bd ce d5 70 3d
       0.0034755212 -0.049253173 -0.053418044 0.05879765
0003b0 c3 36 f3 3a 82 f3 bb 3d 3a 8f 8e 3c ba 48 98 bd
       0.0018555749 0.09177305 0.01740228 -0.074357465
0003c0 69 0b 4f 3d 87 d2 fd 3d cd ef b5 3d 1f 1c 7a bd
       0.05054799 0.123936705 0.08883629 -0.061061975
0003d0 de 58 03 bd 33 ef 60 bd 43 d3 7e 3d 52 f2 c6 bd
       -0.032067172 -0.05491562 0.062213194 -0.09714188
0003e0 b2 3e ca bb 8f df ba 3c b6 2a ae 3d c4 79 ff bc
       -0.0061720246 0.02281168 0.0850424 -0.031185992
0003f0 9f d9 f1 3c 07 22 30 bd 77 08 b6 bc 0c 18 71 bd
       0.029522715 -0.0430012 -0.022220833 -0.058860824

lstm.bias_hh_l0 f4 [256]
000000 b2 39 9b 3d 22 86 78 3d bf fc cd bc 3b ed d9 bd
       0.07579364 0.060674794 -0.025144933 -0.10640951
000010 f3 2a f7 3b b3 22 a1 3d 2c 27 f7 3d ad cf 67 3b
       0.0075429617 0.078679465 0.12068018 0.0035371587
000020 ed 1d 00 3e b1 74 93 3d 07 3f 2f bd d5 3d 8a 3d
       0.12511416 0.071999915 -0.042784717 0.06750075
000030 32 7d 99 3d 6d c8 bf bd 75 d1 a9 3d c7 81 0c bc
       0.07494582 -0.093644 0.08291904 -0.008575863
000040 e8 7a c0 3b b5 b6 af bc 51 32 b9 bd 67 34 09 3e
       0.0058740266 -0.021449426 -0.090428 0.13398896
000050 4c ed ac bc a9 37 08 3e 26 96 28 bb 6f cf 14 bd
       -0.021109246 0.13302483 -0.002572426 -0.036330637
000060 67 6f ef 3d d3 be 08 3e 10 5d d8 bc 20 44 ed 3c
       0.1169117 0.13354044 -0.026411563 0.028963149
000070 a5 75 7c 3c d6 58 67 bd db ea e1 3d 65 e0 4a bd
       0.015408908 -0.056481205 0.11031123 -0.049530406
000080 8a 20 9b 3d 04 59 dc bc 2a 01 b0 3c 57 fe 8e bd
       0.07574566 -0.026897915 0.02148493 -0.06982105
000090 a6 27 c9 bd 83 5e c1 bd 31 a1 0a 3e c7 b3 92 3a
       -0.098220155 -0.09441855 0.13538052 0.0011192494
0000a0 94 46 26 3d 72 4d bc bd 8a f7 04 3d 0f d7 81 3d
       0.040594652 -0.09194459 0.032462634 0.06339847
0000b0 6b ae dd 3c b5 da cf 3d 45 4b dd 3d b4 0a 32 bd
       0.027060708 0.10149137 0.10805372 -0.04346724
0000c0 07 89 9a bd c8 78 f5 bc 2a f4 0b be 1c 05 5a bd
       -0.07545667 -0.02996482 -0.1366736 -0.05322753
0000d0 2b 1f b7 bd f8 aa c2 3d 0c 7c 47 3d ab e6 e8 3d
       -0.08941492 0.09505266 0.048702285 0.113721214
0000e0 ad 10 ae bc a2 c4 21 bd 6c 87 45 bd b9 27 a6 bd
       -0.021248186 -0.039494164 -0.04822485 -0.08113045
0000f0 69 55 a5 3d 50 93 99 3c 3c 42 32 3d f2 4b cf bc
       0.08072931 0.018747002 0.043520197 -0.025304768
000100 90 78 75 3d f1 c0 9f 3d 9d 13 a7 bd 58 82 a6 bd
       0.05992943 0.078004725 -0.08158038 -0.0813033
000110 c8 fc 97 3d 8d 74 a6 bd 64 7b 8f 3d e4 97 a2 3d
       0.07421261 -0.08127699 0.07005957 0.07939127
000120 1e f4 df 3d 49 78 37 3e 47 5b c4 3c 35 fc e0 3d
       0.109352335 0.17916979 0.023969306 0.10985605
000130 cd b4 06 3d 8a 2a 8d 3d 57 fe 04 bd b6 13 c5 bd
       0.03288727 0.06892879 -0.03246912 -0.096229
000140 48 44 f2 3c ca a3 a5 bd 09 bc e9 3d ed 40 59 bd
       0.029573575 -0.08087881 0.11412818 -0.053040434
000150 72 b3 d8 3d 42 a0 d9 3d 9a 78 ce 3d 82 81 d3 3c
       0.105811015 0.1062627 0.10081597 0.02581859
000160 8a 69 22 3b 72 c4 af bd 86 d3 4d bd 1e 7a 4a 3a
       0.0024782144 -0.08582391 -0.050250553 0.00077238854
000170 a0 25 2e bb 7e 80 0a bd 4b 01 d4 bc 70 d3 f6 3d
       -0.002657272 -0.033813946 -0.025879523 0.12052047
000180 57 b8 c4 bb c3 bf bc 3c f2 10 84 bc 02 9a 0a bd
       -0.0060034203 0.023040658 -0.016121361 -0.03383828
000190 e7 47 c7 bc 4c 8c b8 3d 9a 99 02 3e ff e9 80 3d
       -0.024326278 0.090111345 0.12753907 0.06294631
0001a0 87 a7 53 bd e9 78 e3 3d 0b 24 c6 3c 3c c5 9d bd
       -0.05167344 0.11107046 0.024187109 -0.07703635
0001b0 da 50 5a bc 30 ed 97 bd 7a c8 a4 bd 10 02 84 bd
       -0.013324941 -0.07418287 -0.0804605 -0.06445706
0001c0 9f 2b 12 3e 17 e4 5c 3c 8e 27 00 be eb 09 82 3d
       0.14274453 0.013482115 -0.12515089 0.06349548
0001d0 41 02 13 bd b2 92 6e 3d 6b 87 d0 3d 9e 12 90 3c
       -0.03589082 0.05824537 0.10182079 0.017587002
0001e0 5d 9c 05 bd ea 5c 19 3c 7c 31 2d bd 84 d4 28 bd
       -0.032619823 0.009360531 -0.04228352 -0.041218296
0001f0 3b 35 37 bd dc 2f b0 bd cd 28 d1 3d 98 46 f6 3d
       -0.0447285 -0.086028785 0.1021286 0.120251834
000200 07 a6 a1 3a 45 bc 83 3d 79 96 ec bc a6 9f da 3d
       0.0012332805 0.06432394 -0.028880345 0.10674982
000210 b9 62 67 bc 3b bb df bd 7e bb a9 bd 84 c7 96 3d
       -0.014122658 -0.10924383 -0.082877144 0.07362273
000220 d5 8e d8 3b 6e f0 ae 3d 50 f4 80 bd b9 93 62 bd
       0.006608824 0.08541952 -0.06296599 -0.05531666
000230 57 10 c1 3d 7e 4e bc bd 8b ca ee bd e3 2c be 3d
       0.09426945 -0.09194659 -0.11659726 0.09285905
000240 8d 6c ef 3c 61 c2 15 bd a1 18 c2 3d 5c 99 2e 3d
       0.029226566 -0.036562327 0.09477354 0.042626724
000250 d5 d4 4f bd 89 7f 27 3c 40 54 06 bd 2c 3c 9b bd
       -0.05074008 0.010223278 -0.03279519 -0.07579836
000260 2c e5 ef 3d f4 41 bb 3d 47 ab 7d bc b0 1e 29 bc
       0.11713633 0.09143439 -0.01548273 -0.010322258
000270 dd b9 78 3d f0 a4 7a 3c 7b 8b ca 3d e9 ff 07 be
       0.060724128 0.015298113 0.09889885 -0.13281216
000280 32 10 9f bd 57 86 07 be 67 0a ac 3d bf e8 22 bd
       -0.07766761 -0.1323484 0.084004216 -0.039772745
000290 f4 31 3b 3c 74 aa 80 bc 83 50 2d bd cb 59 8f bd
       0.011425484 -0.015706278 -0.04231311 -0.069995485
0002a0 eb 2e bb bd da 85 5d 3c 74 89 4d bd 89 7d a1 3c
       -0.09139808 0.013520682 -0.050179914 0.01971318
0002b0 02 24 da 39 a1 5e 01 3e 95 33 a9 bd cc ab a8 3c
       0.00041607028 0.12633754 -0.082617916 0.020589732
0002c0 46 38 5e bd 8f 9b c6 bd 34 ef ff 3b df 79 c9 3c
       -0.054252885 -0.09697639 0.0078104977 0.024594245
0002d0 88 00 be b7 67 ba 5f bd ae 5d 9d bd f5 40 b0 3d
       -2.2650012e-05 -0.054621127 -0.076838836 0.086061396
0002e0 05 fb eb bd e0 d3 67 bd bb 9b db 3d a2 4c cf 3d
       -0.115224876 -0.056598544 0.107230626 0.101220384
0002f0 1e b6 f4 bd e7 35 b3 bd 51 df 2b bd e1 fc 06 3e
       -0.119487986 -0.087505154 -0.041961018 0.13182403
000300 94 bf 1a 3d c7 bf 7f 3d ab 49 4f bd 29 27 0a 3e
       0.03778036 0.062438753 -0.050607365 0.13491501
000310 0e a7 3f bd e1 42 53 bc 53 91 e4 bd 96 08 ff bc
       -0.046790175 -0.012894363 -0.11160531 -0.031132024
000320 90 ad d8 3d 89 f5 35 3e 34 1d d8 bd 1e 75 0a 3d
       0.105799794 0.17769445 -0.10552445 0.033803098
000330 1d 67 4f 3d e6 16 db 3d 86 ae 47 3d fc 13 be 3d
       0.050635446 0.10697727 0.048750423 0.092811555
000340 0a f8 22 bd 13 5c 84 3d 2d c3 8a bd bd e3 9d bd
       -0.03978733 0.06462874 -0.06775508 -0.07709453
000350 05 2d b6 3d 43 a2 cd bd ef f4 16 3d 21 b3 aa bd
       0.088953055 -0.100407146 0.03685468 -0.083349474
000360 e3 50 af 3d e6 c1 a4 3b 3a 5d f3 3d b6 72 77 3d
       0.0856035 0.0050279973 0.11883016 0.06041213
000370 6b 2c 9a 3c 58 8f b0 3d fa 19 5e bd 64 a6 b0 bd
       0.018820008 0.08621091 -0.054223992 -0.086254865
000380 f8 ce d4 39 ee 52 1a bd d2 fc 5c 3d f2 fc 11 3e
       0.00040589995 -0.037676744 0.053952046 0.14256647
000390 e4 3d be 3d 46 2c a1 bd fb 17 5e bd aa 68 db bd
       0.092891484 -0.078697726 -0.05422209 -0.107133225
0003a0 d5 11 af 3d 39 4f 8a 3d e0 0a 1b 3d 6f 23 e5 bc
       0.08548323 0.06753392 0.037852168 -0.027970998
0003b0 b0 56 2c bd a4 0f b4 3d cb ba da 3d 00 3e f2 bc
       -0.04207486 0.08792046 0.10680159 -0.02957058
0003c0 83 fa 92 bd dd 57 11 3d a0 56 01 be 7f b6 7b bd
       -0.071766876 0.035484184 -0.12630701 -0.06145334
0003d0 e5 39 9b 3d 6c 1e ae 3d 45 56 c8 3d 6d 4e f2 ba
       0.07579402 0.08501896 0.097820796 -0.0018486507
0003e0 02 05 6a bd eb 98 3e bc cb 46 00 3e a1 b0 2b bd
       -0.057133682 -0.011633138 0.12527005 -0.041916493
0003f0 dd 82 8a 3d ed bc da bc c1 63 06 3e 4c c9 0e 3d
       0.067632414 -0.026701415 0.1312399 0.03485994

lstm.weight_ih_l1 f4 [256, 64]
000000 7f e7 31 bd 49 ba b2 3d b2 d3 99 3d 13 2a b7 bd
       -0.043433663 0.08726937 0.07511081 -0.08943572
000010 86 5c cb 3c d8 78 2c bc 4c 1e a2 3d 5e 03 cc 3c
       0.024824392 -0.010526858 0.07915935 0.02490395
000020 59 f6 cb bd cf ef bd 3d 16 92 6a 3b 35 e3 d0 bd
       -0.099590965 0.092742555 0.003579264 -0.10199586
000030 24 f4 a6 bd 33 52 4d bd 7c 07 b9 3d f0 b4 b9 bd
       -0.08152035 -0.05012722 0.09034631 -0.09067714
000040 7a 01 be bc 04 a0 fb bd be a4 91 3d 74 10 8c 3c
       -0.023194063 -0.1228638 0.071115 0.01709769
000050 07 f0 6e 3c 28 0e 87 3d 44 14 3f 3d 9e 66 0b bd
       0.014583594 0.06594497 0.046650186 -0.03403341
000060 a3 7f 12 3e f6 9c 06 3d 78 6f 9b 3d 86 67 66 3a
       0.14306502 0.032864533 0.0758962 0.000878923
000070 93 9a 19 3e fc c3 0b bd 51 b8 38 3d 5b a8 01 be
       0.15000372 -0.034122452 0.045097653 -0.12661879
000080 24 2d eb bd a7 6d 11 be d8 84 59 3d 13 0e a6 bd
       -0.11483219 -0.14201985 0.053105205 -0.08108153
000090 c8 68 00 3e e3 cb b7 3d fb ac 92 3c 0f 2f 6b 3d
       0.12539971 0.08974435 0.01790475 0.057417925
0000a0 5c c9 28 bd e4 86 93 bd f5 44 b1 3c dc bc f0 3d
       -0.041207656 -0.07203463 0.021639327 0.11754772
0000b0 b7 ff f0 bd 7d cc 12 3e bb 48 e7 ba 47 7b b0 3d
       -0.11767524 0.14335819 -0.0017645577 0.08617263
0000c0 c8 cd 03 bd 08 c5 d9 bd f0 5b 4b bd 5b 22 91 3d
       -0.03217867 -0.10633284 -0.049648225 0.07086631
0000d0 e9 16 b1 3d 42 ed 63 3d 20 20 34 be fb 00 81 3d
       0.08646948 0.05564619 -0.1759038 0.06299015
0000e0 a6 a9 f2 bd 32 2e 70 bc b0 ad cc bd f1 dc c2 bd
       -0.11848764 -0.014659451 -0.09994066 -0.095147975
0000f0 75 fc df bd 5a 18 c0 bc 68 92 c2 bd 64 64 6d bc
       -0.10936824 -0.023449112 -0.09500581 -0.014489267
000100 ec 40 39 3d 14 17 b1 3c db 96 7a 3d 38 2a 75 3d
       0.04522793 0.02161745 0.061179023 0.059854716
000110 b8 d5 fe bc a6 1c 0f be 53 bd 2c bd c3 a2 89 3d
       -0.031107768 -0.13975772 -0.04217274 0.067204975
000120 a1 20 87 3d 2e 4d c1 3d 34 68 c9 bd 93 28 e8 bd
       0.0659802 0.09438549 -0.09834328 -0.11335864
000130 12 11 c3 bd df 27 df 3d 7b 5d e4 3d fa 3f 11 bd
       -0.0952474 0.10896277 0.111506425 -0.035461403
000140 d9 ca e0 bd 7e de 92 bd 9c fa fc 3d 7e 82 c0 3c
       -0.1097619 -0.07171343 0.123524874 0.023499724
000150 75 7a 6c 3d e3 9c f8 bd 4a 49 c8 bd 88 8a d1 3c
       0.05773397 -0.12139299 -0.09779604 0.025578752
000160 18 cb c0 bc b0 99 e5 3d f2 bf ee bd 67 e5 b5 3d
       -0.023534343 0.11210954 -0.116577044 0.08881646
000170 46 0b bb 3c 20 4c d1 3d 1e 17 b7 3d 9e 5d 58 3d
       0.022832524 0.10219598 0.08939956 0.052823655
000180 37 2f 99 3d d1 12 04 be 9b 3e c1 3c 4b 59 20 bd
       0.07479709 -0.12897803 0.023589423 -0.039147656
000190 2b 7b a9 bd f9 7a 1a 3e 71 16 e8 bd 9b c4 03 be
       -0.082754456 0.15085973 -0.11332405 -0.12867968
0001a0 84 fb 33 be 8b d0 36 be 68 04 40 3c 1a f4 a8 bd
       -0.17576414 -0.1785299 0.0117198005 -0.08249684
0001b0 0c f8 e8 bd f1 9a 17 3e 4d 92 3e bd c5 62 07 bd
       -0.11375436 0.14805199 -0.046526242 -0.03305318
0001c0 79 8d 84 3b a6 bc 9c 3d 1a cd 25 bd b6 f1 37 bc
       0.004045185 0.07653169 -0.040478803 -0.011227062
0001d0 6e d9 99 bd ba a6 8d 3c a7 1a f5 bd 81 79 c9 bc
       -0.075121745 0.017291415 -0.11967974 -0.02459407
0001e0 36 9c 4c 3d 59 e7 07 be 9f f0 ed 3d 96 19 be bd
       0.04995366 -0.13271846 0.116181605 -0.09282224
0001f0 a5 c8 27 be 03 5e 89 bd 30 cf 4f bb ef 13 90 bc
       -0.16385134 -0.067073844 -0.0031709187 -0.01758763
000200 f9 c7 32 3e 04 9f 9b 3d 85 be 0a bd 2c 14 f5 3c
       0.17459096 0.07598689 -0.0338731 0.029916845
000210 9f cb e4 bd 32 f3 cd 3c b5 68 dc 3c 5c 63 bf 3c
       -0.1117165 0.025140379 0.026905397 0.023362808
000220 3a eb b8 3d da ef 39 3e 88 9c 47 3d 8a d2 10 be
       0.09029241 0.18157902 0.048733264 -0.14142814
000230 17 b4 25 3e e6 46 e3 bc 0b b6 6b bd 97 37 12 bc
       0.1618198 -0.027743768 -0.057546657 -0.008924386
000240 89 e8 e6 bd 66 84 bf bc 9a 32 31 bd 81 f8 05 3e
       -0.11274821 -0.023378562 -0.043261148 0.13083078
000250 4e a7 02 3e eb 66 9c 3c 94 41 99 3c 36 77 63 3c
       0.12759134 0.019092044 0.018708028 0.013883403
000260 e5 0b af 3d 3e b5 da 3c 40 16 05 be 06 2f 10 bd
       0.085471906 0.026697751 -0.12996769 -0.035201095
000270 d0 d7 1e 3b 34 01 f7 3c 0e 40 ae 3d 52 0c df bd
       0.002423752 0.03015194 0.08508311 -0.10891022
000280 c2 4a 7b 3d 59 fe a0 bd 8b 39 cd 3d 1d 1b d5 bd
       0.06135059 -0.07861013 0.10020741 -0.10405562
000290 ed 06 ca 3d b6 70 08 bd 43 7b 5c bd 2b a6 3a bb
       0.09864602 -0.033310615 -0.05382849 -0.0028480391
0002a0 a1 6a cb bd 98 26 85 bd ee b7 6f bd cf 06 27 3d
       -0.09932447 -0.06501502 -0.05852502 0.040777978
0002b0 cf 00 82 bd fc 90 c8 3d 3c 21 e0 bc b5 cd 97 3d
       -0.063478105 0.097932786 -0.027359597 0.074122824
0002c0 f6 f5 2a 3d 08 d0 27 be 08 fb f2 3c be 94 aa bc
       0.041738473 -0.16387951 0.029660717 -0.020822879
0002d0 af ed 61 bd be 81 19 3d 9b 6c 8b bd 85 f1 df bc
       -0.055158313 0.037477247 -0.06807824 -0.027336845
0002e0 e5 5e 13 be 8b e8 11 be c9 b9 8a bd aa 99 aa 3d
       -0.14391668 -0.14248864 -0.06773717 0.0833009
0002f0 82 25 14 be e2 a5 c2 3d ba f3 c2 bd da 5e a5 3c
       -0.14467433 0.09504296 -0.095191434 0.02018683
000300 7b ff b7 bc ad 8f ef bc 1d 39 d0 3c c9 12 4d 3d
       -0.02246069 -0.029243315 0.025417859 0.050066743
000310 9b e3 e5 3c 5b 92 ed bd 0d 03 e2 bd 32 97 a8 bd
       0.028062632 -0.11600181 -0.11035738 -0.08231963
000320 c7 ae e3 bd 88 bb 98 3d 44 4d c3 bd db e8 a1 3d
       -0.111173205 0.07457644 -0.095362216 0.07905742
000330 ca 55 bd 3c 03 18 44 3b e4 ff e7 bd a6 91 d3 3b
       0.023112196 0.0029921539 -0.11328104 0.0064565716
000340 41 ab 40 bd 96 96 f7 bc ce 03 2d bd 0b da dd 3d
       -0.04703832 -0.030223172 -0.042239957 0.10832604
000350 cb c3 13 3d 7e a0 66 3d 24 9b 5c bd 1e 86 76 3d
       0.036075395 0.0563054 -0.05385889 0.060186498
000360 4e 7c c7 3c 59 98 ad 3d 71 17 e3 bd 86 69 8b ba
       0.024351265 0.08476324 -0.110884555 -0.0010636307
000370 6f f1 8e bc 56 4d 56 bd 45 cb f6 bd d3 43 81 3d
       -0.017449109 -0.052319847 -0.12050489 0.063117646
000380 4b 4e 1c bd 1f b0 26 3d c4 c2 1c bd 1d 1c c6 3d
       -0.038160603 0.040695306 -0.03827168 0.09673331
000390 27 b5 20 bd 97 b7 85 3d 57 9d 6f bd b4 fe bf bc
       -0.03923526 0.065291576 -0.05849966 -0.023436882
0003a0 7e d8 4d bd 2c f1 93 3c e2 fb df 3d 07 fe 04 3d
       -0.05025529 0.018059336 0.10936715 0.03246882
0003b0 d2 54 11 3e bd cf 74 3d e6 73 d0 3c 0c 3b 90 bd
       0.14192513 0.059768427 0.02544589 -0.07042512
0003c0 09 4d d2 bd 96 35 14 bd 62 e5 78 3c 38 95 bb 3d
       -0.102685995 -0.036183916 0.015191408 0.091593206
0003d0 3b 4f 98 bd 28 c2 8a 3d 8c c4 b9 3d 93 41 af 3d
       -0.07436987 0.067753136 0.090706915 0.08557429
0003e0 07 b4 92 3d 11 06 c4 bd f2 06 22 3d 4d 25 43 bd
       0.07163244 -0.095714696 0.039557405 -0.047642995
0003f0 85 1d 93 3d 4a c6 2a bc bc d0 87 bd c3 c6 1f bd
       0.07183365 -0.010423252 -0.0663161 -0.039007913

lstm.weight_hh_l1 f4 [256, 64]
000000 85 dd 9c bc cc 0c eb bc 8a c2 ac bc e0 74 e7 3c
       -0.019148597 -0.028692625 -0.021088857 0.028253973
000010 fa 18 7b 3d a6 76 b7 3c ce 09 dc 3c 6c 94 8a 3d
       0.061303116 0.022395443 0.026860144 0.067665905
000020 9a 54 04 bc 93 5a a0 3d 64 95 e6 3c 56 0b 04 3e
       -0.008076811 0.07829776 0.028147407 0.1289495
000030 9f 1d 60 3d 9a f1 0e bd 01 09 cb bd ae 74 8e bd
       0.05471575 -0.034898378 -0.09913827 -0.06955849
000040 6c fb 18 bd 6a b6 dd bd 50 a3 95 bc ae 38 a6 bd
       -0.03734915 -0.10825808 -0.01826635 -0.081162795
000050 73 da 2d 3d d1 1d 1f be 22 ef 8f bc b8 3a ce bd
       0.042444658 -0.15538718 -0.017570082 -0.100697935
000060 0a 6e c1 3d 91 1e 8e bd 52 cc 05 3d 53 6e e1 3d
       0.094448164 -0.06939424 0.03266556 0.11007371
000070 62 52 de bd b2 9a c3 3d 80 c7 e3 bd e7 d8 ca 3d
       -0.10855557 0.0955099 -0.11122036 0.09904652
000080 21 11 15 bd 43 b3 07 be 6f c6 1a 3e be 70 b8 bd
       -0.03639329 -0.13251977 0.15114759 -0.09005879
000090 d2 78 ae bd a6 2a 11 3e 90 38 e1 3c 2f ee 58 bd
       -0.085191384 0.14176425 0.027492791 -0.052961525
0000a0 8b cc f3 bc cf e0 20 bc 1b 82 9d bc 36 3f a1 bd
       -0.02976062 -0.009819224 -0.019227078 -0.07873385
0000b0 3a 86 9e 3d 98 32 0f bd d6 97 b1 bc 27 cc 82 3c
       0.077404454 -0.03496036 -0.021678846 0.015966488
0000c0 34 8a 94 bd f2 0e ce 3d 49 36 05 be f3 ec 71 bd
       -0.07252923 0.10061444 -0.1300899 -0.059063863
0000d0 27 53 e7 3d 11 17 51 bd a9 6f 02 bd 54 1d 25 3d
       0.11295157 -0.05104739 -0.03184477 0.040311173
0000e0 58 81 4c bd 68 34 f0 3d b2 de f2 bd 12 2e a6 bd
       -0.04992804 0.11728746 -0.11858882 -0.08114256
0000f0 e9 1c 1c be d3 80 a7 3c 35 d1 c0 bc 02 b3 57 bc
       -0.15245403 0.02044717 -0.023537258 -0.013165237
000100 a1 15 b5 3c d7 70 c6 bd 8d 17 9a bd f8 a9 00 bb
       0.02210504 -0.09689491 -0.07524023 -0.001963256
000110 c7 f5 99 3d 0a 29 73 3d 93 c2 1a be 9e 69 f8 3c
       0.075175814 0.05936531 -0.15113287 0.0303238
000120 a8 4f 08 be 05 bd aa bc ce 48 75 bd e8 7c f6 3d
       -0.13311636 -0.020842085 -0.059883885 0.12035543
000130 68 ac 7c bd 05 74 5a 3d 97 18 3b bd db a8 c2 bd
       -0.061687857 0.0533333 -0.045677748 -0.09504863
000140 d8 2f 0f be 61 fb ea bc 8a 7c d0 bd 58 e0 82 bd
       -0.13983095 -0.02868432 -0.10180004 -0.063904464
000150 ac f5 09 3e 40 81 25 3d 8f 59 ff 3c 99 e1 d2 bd
       0.13472623 0.040406466 0.031170635 -0.102969356
000160 81 cd 3a 3d 10 9a 34 bd b5 0c 9d bc 2f e8 c6 3d
       0.04560614 -0.044092238 -0.019171098 0.09712254
000170 4e de b6 3d 82 da bb bd 7b 2a a9 3b e8 91 5d 3d
       0.0892912 -0.091725364 0.005162535 0.054094225
000180 eb 60 bd bd a2 62 05 bd ea 57 0f bd ba 09 1a bd
       -0.09247001 -0.032564767 -0.03499595 -0.037606932
000190 e6 ea 63 3d 50 3c 04 3e d1 6a 0a 3e 16 c1 b9 bd
       0.05564394 0.12913632 0.1351731 -0.09070031
0001a0 b4 c0 dd bd d6 1a ca bd e2 3e d0 bd 52 3f b9 bd
       -0.10827771 -0.098684 -0.10168244 -0.090452805
0001b0 fe d2 e1 3b 19 5c 90 bd a2 62 fe bc 30 07 e6 3d
       0.0068916073 -0.07048816 -0.031052891 0.1123184
0001c0 40 19 ef bc 21 76 13 3d 88 83 8b bd c8 45 06 3d
       -0.029186845 0.03600133 -0.06812197 0.032781392
0001d0 28 18 7a 3d 84 9e d8 bd 6e 78 17 3d c7 40 42 bd
       0.061058193 -0.105771095 0.036980085 -0.047425058
0001e0 80 5b 04 bd 7a 48 b6 bd 29 8f bc 3d 64 43 00 be
       -0.032313824 -0.089005426 0.09206993 -0.12525707
0001f0 dd c8 08 be 5d d4 03 3d 47 78 80 bd 09 ca 20 3c
       -0.13357873 0.032184947 -0.06272941 0.009813794
000200 76 be 13 3d be 88 e4 bd 41 27 16 be 75 bd c3 bd
       0.03607031 -0.11158894 -0.14663412 -0.095576204
000210 c9 31 b3 3d f7 c0 85 3d c6 a2 fe bd e8 4f 8e 3d
       0.0874973 0.06530946 -0.1243339 0.06948835
000220 b4 6c 02 be 53 c4 c3 3d 02 4f 9f 3d 8b ec ca 3d
       -0.1273678 0.0955893 0.077787414 0.09908398
000230 c0 3a 09 be 52 4e ca bc ef 77 19 be 34 d5 c2 bd
       -0.13401318 -0.02469555 -0.14987157 -0.095133215
000240 77 cb d7 bc aa aa f4 bd 6f ad 1a 3d 1f ff d0 bc
       -0.026342137 -0.11946614 0.037763055 -0.025512276
000250 7f 28 9b 3d 38 90 f3 3c 06 af 60 3d 3f 5b e4 bd
       0.075760834 0.029731855 0.054854415 -0.11150216
000260 78 02 59 bc dc b9 4b 3d 5b 13 93 bd 24 b2 98 3d
       -0.0132452175 0.049737796 -0.07181426 0.07455853
000270 45 be 61 3d 46 37 c8 3b ee 68 c0 bd 6b 09 6f bd
       0.055113096 0.0061101047 -0.09395014 -0.05835859
000280 89 3b 83 3d 60 01 8b 3d 28 b3 e4 bc 9d b0 1e bd
       0.0640784 0.06787372 -0.02791746 -0.03874265
000290 7f 97 9a 3d 33 eb 1a bc 7b 10 c6 3d 03 90 fc bc
       0.07548427 -0.00945549 0.09671112 -0.030830389
0002a0 32 1e 17 be 8f 98 98 3d 9c 73 27 bd 88 ea 99 3d
       -0.14757612 0.07450973 -0.040881738 0.075154364
0002b0 b4 98 96 3c c4 c6 0a be 77 66 19 be 87 19 35 bd
       0.018383361 -0.13552386 -0.14980493 -0.044213798
0002c0 60 ed b2 3d fb f2 7b bd 31 fe 9b 3d c3 29 2f bd
       0.08736682 -0.06151102 0.076168425 -0.042764436
0002d0 9a 16 ee 3d 64 7a d8 bd 67 81 bb 3c 40 89 71 bd
       0.11625405 -0.10570219 0.022888852 -0.058968782
0002e0 44 7a cd 3d fd a3 47 bd c1 a2 a1 3d f1 bd 88 bd
       0.10033086 -0.048740376 0.07892371 -0.066768534
0002f0 f2 1b 39 bd af 4f c8 3d 95 dc 36 bd a3 ed 86 3d
       -0.045192666 0.097808234 -0.044643957 0.06588294
000300 2b 1d 69 3d eb fb 88 bd ca dc 38 3c c5 44 54 3d
       0.056912582 -0.066886745 0.011283109 0.051823396
000310 31 d4 b9 bd 00 2a c6 bd e5 b6 91 3d 1a c1 cd 3d
       -0.090736754 -0.096759796 0.071149625 0.10046597
000320 d7 50 05 3d 1e d5 88 bb 9b fc 00 bd 2b d1 f2 3c
       0.032547798 -0.004175796 -0.031490903 0.029640755
000330 8b 2b df bd dc 48 9d bd 13 14 1d bd 0e fc fb bd
       -0.10896977 -0.076799124 -0.038349222 -0.12303935
000340 ea 3d d7 bd 4a a0 cb bc e4 18 1c bd 46 ae d9 bd
       -0.10509856 -0.024856705 -0.038109675 -0.10628943
000350 77 05 08 bd 2d e7 10 be f2 dd 86 bc a8 f5 e4 bd
       -0.033208337 -0.14150687 -0.016463254 -0.11179668
000360 1b 41 b7 3c d4 bd e2 3d 48 6c 4f bd 28 14 5c bb
       0.022369912 0.11071363 -0.050640374 -0.003358135
000370 cd ec 09 bd 47 2f d9 bc e7 43 30 bd 72 4a e6 3d
       -0.033673096 -0.026511801 -0.043033507 0.11244668
000380 3d 6b d8 3d f9 82 18 be 6c 3a 00 bc 94 7d 59 3c
       0.10567329 -0.14893712 -0.007826429 0.013274569
000390 a0 9d c1 bd db 12 87 bd 9b 4b 0f 3e 4d 4f 11 3e
       -0.09453893 -0.06595393 0.13993685 0.14190407
0003a0 4f 4b 8f bc 00 54 53 bd 96 33 d9 3d 28 db e8 bc
       -0.017491965 -0.05159378 0.10605542 -0.028424814
0003b0 27 a7 a7 bc 7a ce b3 bd 5c c9 17 be e9 fe 3f bd
       -0.020465447 -0.08779617 -0.14822906 -0.04687396
0003c0 8a 90 c0 bc dc 48 bf 3d 90 ff 8b bd 07 99 56 3d
       -0.023506422 0.09340069 -0.06835854 0.052392032
0003d0 df d3 50 bd 50 b0 6f 3d b0 6f 0d 3e 99 ad 11 bd
       -0.050983306 0.058517754 0.13812137 -0.035565946
0003e0 91 33 fb 3b a1 e4 9e 3d 90 7b a1 3d 5a 6b 0c bd
       0.0076660593 0.07758451 0.07884896 -0.034282066
0003f0 26 54 45 bb 01 f4 98 bc f9 b8 f5 bb 37 4b 5c bd
       -0.003010997 -0.018671038 -0.007498857 -0.053782668

lstm.bias_ih_l1 f4 [256]
000000 27 56 9f bd 11 91 aa bd b6 92 9e bb a3 47 ca bd
       -0.07780104 -0.083284505 -0.0048392667 -0.09876945
000010 c3 6c f3 bd e1 8b 1a bd 4b 3e 37 3d a0 35 d1 3d
       -0.11885979 -0.037731055 0.04473714 0.10215306
000020 01 42 d7 bd 38 0a f4 bd c5 c0 a8 bb fa 7a a7 bd
       -0.10510636 -0.119160116 -0.005149933 -0.08177753
000030 00 a3 58 3d e4 3e 3f 3d d9 62 49 3b c0 14 98 bd
       0.052889824 0.046690837 0.0030729084 -0.07425833
000040 cb af 0c 3e ea 0f 06 3d d7 69 7f bd e4 3b 4a bd
       0.13738935 0.03273002 -0.062356796 -0.049373522
000050 a8 b6 42 3d 98 9b 8e bd 4e f9 c6 3d 57 69 08 3e
       0.047537476 -0.06963271 0.0971552 0.13321434
000060 25 1c 7f bd b0 19 01 bc 7b a8 8a 3d 22 b0 a8 3d
       -0.0622827 -0.0078796595 0.06770416 0.0823672
000070 d4 7c c1 bd 26 c1 5d 3d bf ae 98 bd ee a2 4d 3d
       -0.09447637 0.05413928 -0.07455205 0.05020421
000080 88 a1 1d 3d e9 74 9e 3d 4f 3f 91 3b f3 2e 84 bd
       0.038484126 0.077371426 0.004432596 -0.06454267
000090 64 63 39 bd 86 80 45 3d 5f 05 ef bd a2 66 9b 3c
       -0.045260802 0.048218273 -0.11670946 0.018969838
0000a0 22 b4 0c 3e 99 28 67 3b 17 1c 6a bd fe d5 cf 3d
       0.1374059 0.0035272 -0.057155695 0.10148238
0000b0 ef 1f b6 bd 80 16 c9 bd 6c 4b 9a 3d 69 9a a9 bc
       -0.088928096 -0.09818745 0.07533917 -0.020703511
0000c0 24 3c a5 bd 1a 3f c5 bd 59 9b 48 3d 8d 60 fe 3d
       -0.080681115 -0.09631176 0.048976276 0.12420759
0000d0 fd 03 a5 3d fc ab 77 3d 06 ab 02 3e 90 bf 7a 3d
       0.08057401 0.06046675 0.12760553 0.061217844
0000e0 86 a3 e6 3d 30 77 3e 3d de 31 58 3d 8c d2 a1 3d
       0.11261658 0.046500385 0.052781932 0.07901487
0000f0 62 9c a2 bc fb 62 a7 3d 51 1e bb 3c 88 9f c8 bd
       -0.01984996 0.08173176 0.022841604 -0.09796053
000100 0a 50 13 3d 1e f8 9f 3d 00 46 c0 3c fe b5 68 3d
       0.035965003 0.078109965 0.023470879 0.056814186
000110 97 c5 e1 bb aa 39 de bc 66 d6 4e 3d cd ef 2d 3d
       -0.0068900096 -0.027127106 0.050497435 0.04246502
000120 33 0d 7c bd 69 54 d9 3d cd 65 01 be d1 ef d6 bc
       -0.061536025 0.10611803 -0.1263649 -0.0262374
000130 c5 7f 69 3d 5d 67 79 bd da 3f 97 3d 76 12 d0 3d
       0.057006616 -0.06088959 0.073852256 0.10159771
000140 4e 71 90 3d aa d7 af 3b d1 83 4e bd 81 6a 34 3d
       0.07052861 0.0053662853 -0.05041868 0.044046883
000150 01 96 e2 3d c2 24 58 bd 97 9f bb 3d 19 f6 89 3d
       0.11063767 -0.05276943 0.09161299 0.067363925
000160 c9 f4 6a 3d d7 2b 92 bd 2f 1a af bd 21 30 ed 3d
       0.05736235 -0.07137268 -0.08549916 0.115814455
000170 85 1a 6a bd 43 45 d5 bd d2 66 36 3d 2f 8f 61 bd
       -0.057154197 -0.10413601 0.04453165 -0.05506819
000180 7f 40 d8 3d 61 2d 66 bd d3 e8 e9 3d 30 6e 96 3d
       0.10559177 -0.05619562 0.11421361 0.07345235
000190 85 93 fe 3c 2a 0d cb 3d 0c 1d c1 bc 63 54 c8 3d
       0.031076202 0.0991462 -0.023573421 0.097817205
0001a0 4f b7 12 3c d0 48 f4 3d 9f c3 a7 bd 69 b3 49 3d
       0.008954837 0.119279504 -0.08191609 0.049243364
0001b0 fd 60 1a 3d b0 ff 7d 3d 52 92 4a 3d c8 b3 8c bd
       0.03769015 0.06201142 0.04945595 -0.06870228
0001c0 07 c5 5a bc b0 7d 72 bd 36 2c c3 bd d9 f7 bf 3d
       -0.013352639 -0.059201896 -0.09529917 0.09373445
0001d0 8f c9 06 bd ce 95 13 be ee 73 60 3d 9d 1f 39 bd
       -0.032907065 -0.14412615 0.05479806 -0.045196164
0001e0 36 cf 08 bd 02 20 00 be 5a f0 26 bd 12 ce e0 3c
       -0.033400737 -0.1251221 -0.04075656 0.027442012
0001f0 c7 61 c7 3c cc 3a 4c 3d b8 b2 30 bc 87 98 a0 bd
       0.024338616 0.04986076 -0.010784797 -0.07841592
000200 bf 96 66 3c fb a7 64 bd 9d 6b 8e bd f3 17 d1 3d
       0.014074027 -0.05582426 -0.06954119 0.10209646
000210 50 b0 e3 3c 8f 40 af bd 9d 9d 9e bd c5 71 d6 3d
       0.027794033 -0.085572354 -0.07744906 0.104709186
000220 8e 15 b9 bd 1a fc cf 3c ad e0 c7 bd b4 d6 88 3d
       -0.09037314 0.025388766 -0.097596504 0.06681576
000230 98 8e b7 3c fb a9 66 bc 4a bc 30 3c 24 cb 1c 3d
       0.022406861 -0.014078612 0.010787079 0.038279667
000240 85 88 6e bd 98 b7 99 bd 1e f0 a8 bd 9a 6b 5e bd
       -0.058235664 -0.07505721 -0.08248924 -0.054301836
000250 76 78 34 3c 2f 5c e0 3b 3e ea a9 3d b4 f6 9c bd
       0.011015048 0.0068469266 0.08296631 -0.076642424
000260 fb dc 7f 3d 06 48 77 3d 92 ba ae bc 4a a0 9a 3d
       0.062466603 0.06037142 -0.021329198 0.07550104
000270 5a 40 8d 3d 3d 6b 42 3d 02 14 72 bd 32 fa af 3d
       0.0689704 0.04746555 -0.059101112 0.08592643
000280 0d c1 13 3d f5 10 e1 bd 04 cf 01 3e b8 ae 8e bb
       0.03607278 -0.109895624 0.12676626 -0.004354324
000290 11 86 05 bd bf 5e 4e 3d 81 ff 1b 3c f4 24 f0 bc
       -0.03259856 0.050383326 0.009521366 -0.029314496
0002a0 12 90 f5 bc be fa c4 3d b4 0f 96 3d 5a 19 32 3d
       -0.029975925 0.09618138 0.07327214 0.04348121
0002b0 17 55 ed bd 38 e6 bc bd a9 89 46 bd 57 01 62 3d
       -0.11588495 -0.09223598 -0.048471127 0.05517706
0002c0 5a 48 d2 bc ef 27 ca 3d 48 ab 11 3d 26 61 c2 3d
       -0.025669266 0.09870898 0.035563737 0.09491186
0002d0 dc 0d c4 3d 05 8d db 3d 31 99 0a bd aa e9 1b bd
       0.09572956 0.10720257 -0.0338375 -0.038064636
0002e0 fd 98 93 bd be 52 43 bc 18 1f 80 3c 9e 8b c1 3d
       -0.072069146 -0.011921583 0.015639827 0.09450458
0002f0 45 6f f4 bd 3a a3 80 3d f4 c7 c8 bd 44 9b 29 3d
       -0.119352855 0.06281133 -0.09803763 0.04140784
000300 a8 d6 61 ba b9 79 26 3d 37 4a a6 3b f8 ce b2 3c
       -0.0008615055 0.040643428 0.005074765 0.021827206
000310 42 ea b5 bd 6f 35 4f bd 29 f4 8f 3d 18 21 cc 3d
       -0.08882572 -0.050588068 0.07028992 0.0996725
000320 1f e2 61 3d f8 09 ba bd fc 2f ca 3d 80 5e be bd
       0.055147287 -0.09083933 0.098724335 -0.09295368
000330 4c 2a 83 3d 75 cc 58 bd ed c1 d6 3d 11 16 79 3d
       0.06404552 -0.05292936 0.10486207 0.06081206
000340 f0 f9 d3 3b f4 be f4 3d da 43 04 3e 19 1e c1 bb
       0.006469004 0.11950484 0.12916508 -0.0058934805
000350 5d 13 04 3d 58 c5 66 3c bd 61 9b 3d 35 e9 e0 3c
       0.03224503 0.014085136 0.075870015 0.027454952
000360 cc a3 bf 3c 04 54 9a 3d 1b 74 00 be 15 68 d3 bd
       0.023393534 0.07535556 -0.1254429 -0.103225864
000370 cc 50 fe 3d 4b e1 ee bd 91 04 ab 3d 23 27 55 3d
       0.124177545 -0.11664065 0.0835048 0.052039277
000380 a7 c5 26 bd 80 92 c8 3d e6 fb 09 bd 1b 0b 91 bd
       -0.04071584 0.09793568 -0.033687495 -0.07082196
000390 25 77 e3 bb fb f3 e0 3d 45 11 6e bd 5c 56 3a bd
       -0.0069416934 0.109840356 -0.05812194 -0.045492515
0003a0 f7 08 ba 3d d0 bb ed 3d 8a d1 82 bd e0 ca bd 3d
       0.09083741 0.11608088 -0.06387623 0.09267211
0003b0 8e 90 ea 3c c3 10 d0 3d 18 66 08 bd a0 17 29 bd
       0.028633382 0.10159447 -0.03330049 -0.041282296
0003c0 00 91 ca bd e8 61 11 3d 38 7c 93 bd a5 4b 29 3d
       -0.09890938 0.03549376 -0.07201427 0.041331906
0003d0 6b 12 13 be 88 5c 39 3d ae ca 61 3c ae 54 97 bd
       -0.14362495 0.04525426 0.013781233 -0.07389198
0003e0 51 fa 72 3d 72 1c 63 bd 29 cc 60 3d e1 89 75 3d
       0.05932075 -0.05544705 0.054882202 0.059945945
0003f0 2a a6 23 3c 1c 27 71 bc ee fc d3 3d a9 25 83 bc
       0.009988347 -0.014718797 0.10350977 -0.016009169
