api/data/models/GLOBAL_1h_lstm.pth (torch, 211317 bytes, 10 tensors)

lstm.weight_ih_l0 f4 [256, 5]
0.34348297 0.4647213 0.23031269 0.0944794 0.32666612 -0.2929939 0.17755243 -0.053485952
-0.23048516 0.08558684 -0.13364503 0.08923355 0.085619226 -0.048833355 -0.15254034 -0.7997178
0.22197163 0.21417058 0.16051045 0.13534793 0.4616129 0.9049165 1.131324 0.9337581
1.5271654 -0.19800802 0.39595526 -0.04773963 0.27987814 0.081473336 -0.15718478 -0.104895234
0.28866714 -0.26174632 -0.054509126 -0.30228472 -0.005354851 0.39497453 -0.0748831 -0.06994862
-0.96397686 0.24135688 -0.031834804 0.40078348 0.16136251 0.2798907 -0.044399206 -0.017073091
0.050895907 -0.0053071585 -0.24860351 0.24345563 0.072296195 0.4025935 0.015741846 -0.199356
-0.08977082 0.2487752 0.017259607 -0.11944003 -0.1959488 -0.09321692 0.2715884 0.17146197
-0.27454767 -0.101112455 0.12707992 0.15026928 0.29994524 -0.10705413 -0.045688067 -0.07057895
0.33763653 -0.3327094 -0.13963673 -0.38734835 0.19782567 -0.12776451 -0.85306275 0.05655074
1.0719383 0.08377551 -0.18604259 -0.36878648 0.13142674 -0.23199855 0.03653577 0.33648485
0.23994203 -0.019976914 1.2051365 0.16333638 -0.14928536 -0.18954657 0.08969649 3.0756314
-0.28047252 0.039442148 -0.537425 -0.25270155 0.06740658 0.90962553 0.7341479 1.0752165
1.1208475 0.15025085 0.06257051 0.32356736 -0.1255424 -0.076530844 0.9029033 0.6552868
0.671933 0.9576064 0.8264167 -1.3832855 0.055449016 0.121874094 -0.65139943 0.22786987
-0.13484111 0.018582754 0.3071051 0.095180996 -0.0118616 0.06423912 0.20780018 0.1365257
0.45828953 0.19012925 -0.035409506 0.13781641 0.143461 -0.13035987 -0.17086194 -2.2915676
0.1169539 0.32581902 -0.04938991 0.4733144 0.84031695 0.2653532 -0.09769432 0.056637242
0.23720056 0.8583446 0.24113129 0.04869469 0.28785852 -0.08094527 0.6253024 0.18918546
0.143854 0.38580102 0.013072338 -0.63667655 0.16540645 0.19054374 0.09414292 0.09378032
0.8661902 1.077724 1.3264338 1.2793132 1.7578292 0.37642387 0.26153317 0.17299289
0.27936476 0.015557783 -0.2750836 0.28984076 0.12808427 0.3473531 0.117758356 -0.06925934
0.14853103 0.045200463 0.13151741 -0.012459487 -0.17460921 -0.11087189 0.38278332 -0.20922053
-0.19789334 -1.083421 0.22735594 0.45760268 -0.53497285 0.17277952 -0.20766957 -0.06569235
0.1647337 0.002206129 0.02247423 1.8452142 0.2560922 0.28914455 0.37349543 0.45306748
0.8022903 0.31228003 -0.010158282 0.10768729 -0.032491084 3.1042867 -0.22313777 0.08138382
0.17203996 -0.1077775 -0.7198026 -0.041309882 0.4541068 0.12389749 0.108544484 0.093382284
0.15557522 0.20921353 0.38274738 -0.04348662 0.51487505 -0.05434025 -0.2842533 0.0066366214
0.05646941 -0.15615958 -0.035899155 0.077260025 0.09974278 -0.17396282 0.94746476 0.44336608
0.45743737 0.55285007 0.36302504 -0.0048892433 0.024040006 -0.16863489 0.017559074 -0.18690057
0.559899 0.012497661 0.10709103 -0.95738834 -0.0992896 -0.2639138 -0.15538669 0.2501316
-0.2209299 -0.24484172 -0.111505836 0.3636301 0.1903107 -0.013089627 0.030393654 -0.29209504
00000000: 00dd af3e f3ef ed3e 17d7 6b3e 6a7e c13d
00000010: c840 a73e 4c03 96be 4ed0 353e 1614 5bbd
00000020: 4d04 6cbe 2748 af3d 3eda 08be 14c0 b63d
00000030: 2259 af3d 7c05 48bd 8933 1cbe 4eba 4cbf
00000040: 884c 633e 884f 5b3e da5c 243e a698 0a3e
00000050: 8758 ec3e 9ca8 673f 3acf 903f c50a 6f3f
00000060: 287a c33f 9dc2 4abe a6ba ca3e a18a 43bd
00000070: 304c 8f3e 7edb a63d 0cf5 20be 50d3 d6bd
00000080: 2ecc 933e 9d03 86be f644 5fbd 10c5 9abe
00000090: bf77 afbb 1a3a ca3e 505c 99bd 3941 8fbd
000000a0: 30c7 76bf 4226 773e 3665 02bd 7e33 cd3e
000000b0: 373c 253e d54d 8f3e f1db 35bd dedc 8bbc
000000c0: 3a78 503d ace7 adbb eb91 7ebe 6f4c 793e
000000d0: 0710 943d bc20 ce3e 0bf5 803c fb23 4cbe
000000e0: c4d9 b7bd edbe 7e3e 0564 8d3c f99c f4bd
000000f0: cda6 48be 83e8 bebd a20d 8b3e ba93 2f3e
00000100: 8391 8cbe 0c14 cfbd 3d21 023e 31e0 193e
00000110: 6c92 993e 323f dbbd 6923 3bbd b28b 90bd
00000120: b2de ac3e e358 aabe eefc 0ebe 8652 c6be
00000130: d092 4a3e b3d4 02be 5262 5abf c0a1 673d
00000140: 4635 893f 7f92 ab3d f381 3ebe 95d1 bcbe
00000150: bb94 063e 0791 6dbe 88a6 153d be47 ac3e
00000160: 5db3 753e a0a6 a3bc ea41 9a3f a741 273e
00000170: 43de 18be 7f18 42be cbb2 b73d 25d7 4440
00000180: 189a 8fbe 178e 213d af94 09bf 1962 81be
00000190: 760c 8a3d 38dd 683f 1ef1 3b3f b2a0 893f
000001a0: ee77 8f3f 5cdb 193e f824 803d 9faa a53e
000001b0: 308e 00be 34bc 9cbd ac24 673f e0c0 273f
000001c0: cd03 2c3f b125 753f 0b90 533f 800f b1bf
000001d0: 821e 633d 2099 f93d 1dc2 26bf b856 693e
000001e0: ca13 0abe dc3a 983c e13c 9d3e 41ee c23d
000001f0: 2857 42bc cd8f 833d 92c9 543e 65cd 0b3e
00000200: eda4 ea3e 3eb1 423e 8f09 11bd bf1f 0d3e
00000210: 71e7 123e 0f7d 05be 6ff6 2ebe 0ba9 12c0
00000220: 8785 ef3d c0d1 a63e 134d 4abd 4456 f23e
00000230: 031f 573f 60dc 873e f613 c8bd 74fc 673d
00000240: b4e4 723e 79bc 5b3f 1feb 763e 1574 473d
00000250: 3162 933e a2c6 a5bd d113 203f d5b9 413e
00000260: 774e 133e b687 c53e 5c2d 563c 3cfd 22bf
00000270: 4f60 293e e61d 433e 01ce c03d e50f c03d
00000280: a4be 5d3f dcf2 893f 95c8 a93f 89c0 a33f
00000290: 8c00 e13f a1ba c03e ade7 853e 0c25 313e
000002a0: e608 8f3e 12e6 7e3c c2d7 8cbe 0266 943e
000002b0: 8628 033e 44d8 b13e 4b2b f13d d7d7 8dbd
000002c0: 8518 183e 1f24 393d 80ac 063e e022 4cbc
000002d0: c2cc 32be cd10 e3bd 2dfc c33e e83d 56be
000002e0: 8da4 4abe 8aad 8abf ffcf 683e e64a ea3e
000002f0: fbf3 08bf 1ded 303e 55a7 54be b689 86bd
00000300: f3af 283e b494 103b e01b b83c fb2f ec3f
00000310: 841e 833e c10a 943e cb3a bf3e 76f8 e73e
00000320: e662 4d3f 2be3 9f3e ec6e 26bc 278b dc3d
00000330: 5f15 05bd a2ac 4640 3a7e 64be 8fac a63d
00000340: 3e2b 303e 73ba dcbd fc44 38bf 8d34 29bd
00000350: b080 e83e f8bd fd3d 924c de3d 363f bf3d
00000360: 1c4f 1f3e 123c 563e 77f7 c33e 071f 32bd
00000370: dace 033f e293 5ebd a689 91be 0478 d93b
00000380: 784c 673d 4ce8 1fbe fe0a 13bd 813a 9e3d
00000390: f145 cc3d 4f23 32be 0d8d 723f e100 e33e
000003a0: 3b35 ea3e 9587 0d3f 6bde b93e f235 a0bb
000003b0: 8cef c43c a0ae 2cbe 0cd8 8f3c dd62 3fbe
000003c0: 8a55 0f3f fdc2 4c3c 8b52 db3d 6717 75bf
000003d0: 5958 cbbd b61f 87be b01d 1fbe 4011 803e
000003e0: 733b 62be cab7 7abe 2c5d e4bd b92d ba3e
000003f0: cfe0 423e e075 56bc 1dfc f83c 7b8d 95be

lstm.weight_hh_l0 f4 [256, 64]
-0.076609276 0.32079062 -0.16649519 0.007753359 -0.2965816 0.18445772 -0.16064394 0.09105154
-0.016078413 -0.24486938 -0.33444628 -0.16778791 0.07444005 -0.10669977 0.13531637 0.11085202
-0.019130886 0.13077474 0.07730021 -0.14246328 0.18389405 0.14247938 0.25660855 0.5945612
0.3241847 -0.2641008 0.17551205 -0.13068569 0.023331149 -0.28672132 0.08474206 0.32281563
0.0029150501 -0.2189133 -0.11315794 0.10325493 0.07076663 -0.2550124 -0.04470533 0.1234548
0.21432753 0.14447227 0.00058266683 0.008658591 -0.03831967 0.17953184 -0.15431407 0.11985025
0.039417874 0.08054 0.27897987 0.11791094 0.34079543 -0.11935556 0.05575977 -0.31356853
-0.23635855 -0.12313633 -0.12124386 0.15041235 -0.077431805 0.45717278 -0.34186876 0.025674623
0.3124959 -0.12370286 -0.094674304 -0.08878793 -0.18799742 0.20138812 -0.12978448 0.0745743
-0.053037528 0.031705253 -0.09198754 -0.16731505 0.13490556 -0.22713523 0.13542303 -0.15563717
0.41016656 0.21979567 0.23561846 0.35841927 -0.25657737 -0.029525759 -0.3247064 0.0016813598
0.023016645 -0.09189155 0.093088776 0.042952772 -0.21131751 -0.18525907 -0.016081387 -0.14726597
0.10349056 0.03884383 0.13203822 0.22441381 0.11109616 -0.20750564 0.0035415613 0.013212962
0.13891526 -0.30903715 -0.285829 0.24251907 -0.09655998 0.1375349 -0.06368608 -0.025287196
-0.142756 0.20753947 0.12260699 -0.14550696 0.14576864 0.025326136 0.03769605 -0.20384334
-0.075385965 -0.026424453 0.21286805 0.08667741 -0.18290342 0.14028147 -0.040616 0.12937227
-0.04177806 -0.121322386 0.14489767 0.036606375 0.07600504 -0.060865317 0.12616289 0.04766909
-0.028045397 -0.1384472 -0.0056247488 0.060739327 0.03234955 -0.041166205 0.12808375 0.07915136
-0.028577045 0.15022682 0.13036382 0.045667455 -0.22239965 0.20322932 0.06578259 -0.09983358
-0.07260822 -0.16048956 -0.03036087 0.15710834 -0.052559238 0.021501632 -0.099503696 -0.16477528
0.1869432 0.20545867 0.03493293 0.0042395177 -0.01078386 -0.045885574 -0.012100157 0.09708294
-0.045268837 -0.05025263 -0.23439041 0.2328953 -0.0907161 0.10931193 -0.004742655 0.004091542
0.09334735 -0.022299057 -0.16950653 0.062534474 0.047714837 0.08316976 -0.0807062 0.04878783
0.17675056 -0.020185217 0.080426455 -0.055435337 -0.0012961214 0.013754582 0.017307455 0.022516299
-0.09111473 -0.3616805 0.15318651 0.11384 -0.122479945 0.03300597 0.0704637 -0.29426774
-0.12681556 0.2259091 -0.066482216 0.09532087 0.040689453 -0.07328663 0.052423205 -0.20431821
0.46758327 0.0019423944 0.3337132 0.3764195 -0.1090508 -0.10295588 0.35896385 -0.35878247
0.07137575 0.118760206 -0.19360502 0.16211464 -0.42875752 0.16577908 -0.3195615 -0.2944164
-0.10659718 0.5218769 0.4153624 0.008760233 0.06439919 0.3535195 0.14242445 -0.060089502
-0.36896926 -0.40228105 -0.15820302 0.0903556 0.40270126 0.033084176 0.5609082 0.05864134
-0.005995822 0.07675892 0.017307427 -0.003109045 0.003643186 0.1257532 0.003002197 -0.06359567
-0.0864618 -0.059207074 -0.012213925 0.028649824 -0.08024471 0.29224092 0.050873138 0.26308677
00000000: 53e5 9cbd ab3e a43e b77d 2abe e40f fe3b
00000010: 8bd9 97be 7ce2 3c3e d87f 24be 3b79 ba3d
00000020: e0b6 83bc 0abf 7abe 8b3c abbe 98d0 2bbe
00000030: 0674 983d 6985 dabd 6090 0a3e 6206 e33d
00000040: 60b8 9cbc d0e9 053e 934f 9e3d e5e1 11be
00000050: b94e 3c3e 1de6 113e 3262 833e 2a35 183f
00000060: 89fb a53e 3838 87be 6eb9 333e 78d2 05be
00000070: f720 bf3c 23cd 92be 3f8d ad3d 1748 a53e
00000080: 6d0a 3f3b cf2a 60be 5abf e7bd 5277 d33d
00000090: 18ee 903d fc90 82be f01c 37bd dfd5 fc3d
000000a0: ad78 5b3e 8af0 133e 1cbe 183a c3dc 0d3c
000000b0: 16f5 1cbd 32d7 373e 8204 1ebe 0c74 f53d
000000c0: a374 213d 28f2 a43d 73d6 8e3e 4a7b f13d
000000d0: bd7c ae3e b070 f4bd 5b64 643d 0e8c a0be
000000e0: fa07 72be e62e fcbd b34e f8bd b205 1a3e
000000f0: 9194 9ebd 8d12 ea3e 6c09 afbe 9653 d23c
00000100: 76ff 9f3e ed57 fdbd 9ae4 c1bd 72d6 b5bd
00000110: 6582 40be b038 4e3e 39e6 04be 69ba 983d
00000120: e13d 59bd 5edd 013d f763 bcbd a354 2bbe
00000130: af24 0a3e 2396 68be 56ac 0a3e 5a5f 1fbe
00000140: 5a01 d23e 1e12 613e f745 713e bb82 b73e
00000150: 1c5e 83be 01e0 f1bc eb3f a6be 1361 dc3a
00000160: 678d bc3c a331 bcbd 54a5 be3d 3fef 2f3d
00000170: 9e63 58be 8eb4 3dbe 1dbd 83bc e4cc 16be
00000180: dcf2 d33d b51a 1f3d 0735 073e bccc 653e
00000190: 6286 e33d 5c7c 54be 8a19 683b 2e7b 583c
000001a0: cd3f 0e3e 1e3a 9ebe 2e58 92be eb56 783e
000001b0: 3dc1 c5bd f3d5 0c3e d96d 82bd 1827 cfbc
000001c0: a12e 12be 3a85 543e 6019 fb3d c7ff 14be
000001d0: 6044 153e c278 cf3c 2c67 1a3d 4fbc 50be
000001e0: f563 9abd 1878 d8bc 15fa 593e ed83 b13d
000001f0: 094b 3bbe f2a5 0f3e f65c 26bd 2a7a 043e
00000200: 791f 2bbd df77 f8bd 0e60 143e 91f0 153d
00000210: 88a8 9b3d e94d 79bd d830 013e aa40 433d
00000220: 76bf e5bc 1ac5 0dbe d04f b8bb cdc9 783d
00000230: f680 043d e59d 28bd 6328 033e 1c1a a23d
00000240: 681a eabc 0fd5 193e 187e 053e cc0d 3b3d
00000250: bcbc 63be 591b 503e 06b9 863d 8c75 ccbd
00000260: 9eb3 94bd 6057 24be 5cb7 f8bc 02e1 203e
00000270: 5b48 57bd 3124 b03c 98c8 cbbd daba 28be
00000280: 0a6e 3f3e c263 523e d515 0f3d a7eb 8a3b
00000290: caae 30bc 83f2 3bbd bd3f 46bc 6cd3 c63d
000002a0: d16b 39bd b4d5 4dbd 0a04 70be 1b7c 6e3e
000002b0: 5dc9 b9bd efde df3d 4668 9bbb 5812 863b
000002c0: e52c bf3d 83ac b6bc 1f93 2dbe 1312 803d
000002d0: a270 433d e854 aa3d 4b49 a5bd bfd5 473d
000002e0: 19fe 343e 785b a5bc a0b6 a43d 2a10 63bd
000002f0: 9ee2 a9ba e65a 613c 5dc8 8d3c 1a74 b83c
00000300: 5c9a babd 302e b9be eddc 1c3e f224 e93d
00000310: c4d6 fabd 4531 073d 464f 903d 43aa 96be
00000320: f0db 01be b754 673e d427 88bd 9737 c33d
00000330: fca9 263d 4d17 96bd b7b9 563d cb38 51be
00000340: 1367 ef3e f197 fe3a 75dc aa3e 0fba c03e
00000350: 0756 dfbd 88da d2bd 1cca b73e 56b2 b7be
00000360: 732d 923d 8d38 f33d 6540 46be 6101 263e
00000370: 1b86 dbbe fec1 293e 919d a3be bfbd 96be
00000380: 9f4f dabd b999 053f 61aa d43e 1587 0f3c
00000390: b9e3 833d 8200 b53e b7d7 113e 6920 76bd
000003a0: 8ae9 bcbe c8f7 cdbe f9ff 21be 5b0c b93d
000003b0: dc2e ce3e 4683 073d ae97 0f3f e731 703d
000003c0: 9a78 c4bb c833 9d3d 4ec8 8d3c 1fc1 4bbb
000003d0: 85c2 6e3b 72c5 003e 82c0 443b 723e 82bd
000003e0: e212 b1bd 1e83 72bd ea1c 48bc 09b3 ea3c
000003f0: 5757 a4bd 9aa0 953e 5a60 503d 4fb3 863e

lstm.bias_ih_l0 f4 [256]
0.18137385 0.11567325 -0.1645379 0.0018910302 1.3531029 0.12888475 -0.12531814 0.09555304
0.11080772 -0.093754 -0.14659475 -0.14965501 -0.083158955 -0.1677896 -0.10038034 0.05787499
0.0032690587 0.1156866 0.037140638 -0.12483932 0.791427 -0.0030453177 0.9700651 0.36766985
0.006766021 0.019078394 0.018376987 0.36730233 0.3168432 0.038306292 0.08283366 0.24332409
1.3846482 0.1998123 0.035834555 -0.048688717 -0.08381237 0.26673865 -0.116698705 0.43218026
-0.055612136 -0.15434508 0.115228005 -0.0020607782 -0.011361826 -0.14119044 0.29876533 0.026188737
0.024404814 -0.09372513 0.05657619 0.14346823 -0.017927509 -0.22484946 -0.08916703 0.039853696
-0.034103066 -0.28603822 0.7448595 -0.01977405 0.04737606 1.6772656 -0.04991443 -0.021610389
-0.089195296 -0.007903914 0.0005315796 -0.22789168 -0.39006463 0.18960021 0.084247924 0.06843755
-0.010351453 -0.056222994 -0.08089508 0.009205773 0.13910867 0.01860408 0.23524192 -0.33515888
-0.12569082 0.013921615 -0.13191979 -0.42184645 -0.309823 -0.024439886 -0.47734267 -0.102047965
-0.06586472 0.04057042 -0.18692543 -0.43088162 -0.24729203 -0.15902382 -0.04078363 -0.13306023
-0.35673183 0.0060548834 -0.09768621 0.04050354 0.08302813 -0.29323772 0.2043975 -0.45753744
-0.0011166667 -0.42568055 -0.17962259 -0.021993382 -0.21990642 -0.07104062 -0.23869854 0.015718568
0.07633363 0.041822445 0.20809172 0.1188302 -0.11121402 -0.11924428 0.076001234 0.08859102
0.10647323 -0.021393063 -0.54151076 -0.29275298 -0.040987078 -0.34090224 0.02768497 -0.071105845
0.065833844 -0.05281065 -0.034652777 -0.08286973 -0.057971437 0.15423393 -0.061821397 0.061498336
-0.16516031 0.047683015 -0.05112895 -0.04757185 0.15222915 0.004112153 0.033614583 0.034499846
0.12601468 0.04443406 0.073636994 0.19137087 0.010074983 0.0053551453 0.06700091 -0.1156698
-0.019584268 0.064280614 0.07923084 0.064725436 -0.0136509985 0.0057304767 -0.11009489 -0.05675286
0.02153882 0.14216529 0.08810517 0.011396585 0.096638255 -0.015429659 0.094034776 -0.01125465
-0.06655841 -0.07712466 -0.09592915 0.06715625 -0.018071137 -0.018448837 0.2552056 -0.0736931
-9.21557e-05 0.07683634 -0.008150737 -0.11779162 -0.12591362 -0.087256074 0.106751524 0.016114943
0.000261921 -0.061527636 -0.020177303 -0.12000778 -0.11240623 0.1063555 0.048841495 0.10354488
0.09203465 -0.07880494 -0.05334507 -0.07977258 1.2900134 -0.094994985 0.026145594 0.02008395
0.130981 -0.094622225 -0.05081785 -0.015923064 0.10667378 -0.013287524 -0.09627482 -0.016870638
-0.056157548 0.035777472 0.16472773 -0.21782826 0.85163873 0.10314842 0.82969797 0.20587155
-0.11218075 0.12249642 0.07345176 0.362889 0.115318626 0.0608808 0.1535419 0.11213411
1.3517818 0.15287237 -0.066879615 0.019636204 -0.040273245 0.2107749 0.13303241 0.2757439
0.036671743 -0.33092853 0.040729646 0.13406502 -0.018040635 -0.16976567 0.34337226 -0.054651387
0.15016392 -0.15563549 0.006389112 0.0639415 -0.1464709 -0.021023849 0.056321833 0.016121196
-0.04238336 -0.16498958 0.898353 -0.10740976 0.018658075 1.6467767 -0.14793918 0.07831164
00000000: 11ba 393e 19e6 ec3d a07c 28be 72dc f73a
00000010: 7a32 ad3f 5dfa 033e 6653 00be 50b1 c33d
00000020: 28ef e23d 1902 c0bd ef1c 16be 2a3f 19be
00000030: 3e4f aabd 09d1 2bbe 3594 cdbd 530e 6d3d
00000040: b43d 563b 19ed ec3d c820 183d c2ab ffbd
00000050: f69a 4a3f f493 47bb 3056 783f 393f bc3e
00000060: 7fb5 dd3b 4b4a 9c3c 568b 963c 0d0f bc3e
00000070: 4639 a23e 0fe7 1c3d b2a4 a93d f329 793e
00000080: 273c b13f 989b 4c3e 41c7 123d d26d 47bd
00000090: d2a5 abbd f891 883e bbff eebd bb46 dd3e
000000a0: 8dc9 63bd a30c 1ebe a9fc eb3d 1f0e 07bb
000000b0: f426 3abc 3a94 10be c5f7 983e c389 d63c
000000c0: 9bec c73c f6f2 bfbd 6fbc 673d 56e9 123e
000000d0: b6dc 92bc f03e 66be 349d b6bd a13d 233d
000000e0: a8af 0bbd 9a73 92be 1daf 3e3f 30fd a1bc
000000f0: 660d 423d a4b0 d63f 1373 4cbd 4508 b1bc
00000100: 06ac b6bd 6b7f 01bc b459 0b3a 705c 69be
00000110: 8db6 c7be 8f26 423e 2d8a ac3d fc28 8c3d
00000120: 2499 29bc 154a 66bd 52ac a5bd cfd3 163c
00000130: 8172 0e3e 9567 983c 42e3 703e f299 abbe
00000140: 18b5 00be 7c17 643c fb15 07be 42fc d7be
00000150: 1fa1 9ebe 2836 c8bc 4266 f4be 86fe d0bd
00000160: 15e4 86bd 2b2d 263d 6169 3fbe 849c dcbe
00000170: 1f3a 7dbe 24d7 22be bc0c 27bd f140 08be
00000180: 8ea5 b6be 0b68 c63b b50f c8bd 0ae7 253d
00000190: a70a aa3d 4123 96be 944d 513e 5942 eabe
000001a0: 1e5d 92ba cdf2 d9be fcee 37be 772b b4bc
000001b0: 262f 61be bf7d 91bd 646d 74be 3ac4 803c
000001c0: ce54 9c3d 034e 2b3d ff15 553e 3f5d f33d
000001d0: 2dc4 e3bd 5836 f4bd 89a6 9b3d 356f b53d
000001e0: a30e da3d 8140 afbc 73a0 0abf b8e3 95be
000001f0: 11e2 27bd bd8a aebe 97cb e23c f19f 91bd
00000200: e5d3 863d fb4f 58bd 12f0 0dbd 9bb7 a9bd
00000210: 7573 6dbd 80ef 1d3e 6f38 7dbd aee5 7b3d
00000220: c91f 29be 444f 433d 976c 51bd b3da 42bd
00000230: f5e1 1b3e 3dbf 863b 72af 093d b64f 0d3d
00000240: fe09 013e 7d00 363d fece 963d baf6 433e
00000250: 8b11 253c 377a af3b c637 893d 4ae4 ecbd
00000260: 306f a0bc 8ea5 833d c743 a23d c58e 843d
00000270: 70a8 5fbc b9c6 bb3b 6e79 e1bd b075 68bd
00000280: 2e72 b03c c793 113e 7c70 b43d beb8 3a3c
00000290: 47ea c53d aecc 7cbc 4e95 c03d 6c65 38bc
000002a0: c74f 88bd 89f3 9dbd 8176 c4bd 3789 893d
000002b0: ec09 94bc 0422 97bc 4faa 823e 68ec 96bd
000002c0: b743 c1b8 5f5c 9d3d ab8a 05bc bc3c f1bd
000002d0: 80ef 00be 50b3 b2bd 8ba0 da3d 7c03 843c
000002e0: 7152 8939 6704 7cbd df4a a5bc a4c6 f5bd
000002f0: 3d35 e6bd ead0 d93d 050e 483d 570f d43d
00000300: aa7c bc3d 7c64 a1bd 5c80 5abd ce5f a3bd
00000310: 291f a53f bb8c c2bd 492f d63c 1987 a43c
00000320: e21f 063e 4cc9 c1bd 6126 50bd 1671 82bc
00000330: c877 da3d eab3 59bc bc2b c5bd 4b34 8abc
00000340: 7505 66bd 668b 123d 63ae 283e 5f0e 5fbe
00000350: ff04 5a3f 7b3f d33d 1667 543f fecf 523e
00000360: 05bf e5bd 67df fa3d e06d 963d 96cc b93e
00000370: 2c2c ec3d 255e 793d 163a 1d3e 91a6 e53d
00000380: 3007 ad3f 938a 1c3e 2ef8 88bd 1bdc a03c
00000390: 8ff5 24bd 60d5 573e a639 083e 4e2e 8d3e
000003a0: 1c35 163d 776f a9be 21d4 263d 5748 093e
000003b0: f4c9 93bc 0dd7 2dbe 7dce af3e 22da 5fbd
000003c0: 92c4 193e e95e 1fbe c25b d13b c3f3 823d
000003d0: 78fc 15be 353a acbc b9b1 663d 9910 843c
000003e0: 2d9a 2dbd 07f3 28be 76fa 653f a6f9 dbbd
000003f0: d2d8 983c 94c9 d23f 5e7d 17be da61 a03d

lstm.bias_hh_l0 f4 [256]
0.2873528 0.0865775 -0.20344697 0.06613544 1.1402743 0.17761555 -0.020876085 0.054524183
0.09138124 -0.11672085 0.0575796 -0.021633374 0.012023093 -0.04416191 -0.14942025 0.10523885
0.022400722 -0.03424885 0.26904023 -0.074105084 0.7497897 0.04031224 0.8396015 0.42219946
-0.014374195 0.13756761 -0.087713294 0.38341448 0.19280106 0.15003045 0.17292202 0.19273224
1.4318509 0.2142505 0.0038849514 0.048044853 -0.13755351 0.39440745 0.026848502 0.41061
0.15982307 -0.09544438 0.18726607 0.006639044 0.11162279 -0.00944413 0.17736429 -0.039676193
0.096040376 -0.12876399 0.008738972 0.12751389 -0.09000067 -0.11229758 0.06566861 -0.15757266
-0.09720218 -0.1686547 0.75331336 0.031102857 0.011348917 1.5790377 -0.10432573 -0.081198215
-0.024803434 0.10949831 -0.17376421 -0.13912904 -0.2727714 0.36035272 0.021131806 0.12130576
-0.09791789 -0.06070828 -0.23400147 0.06265694 0.058505893 -0.044213753 0.018647313 -0.09428811
-0.095309086 -0.0030973363 -0.18243371 -0.44519296 -0.4743439 0.06887495 -0.35256684 -0.2750251
0.06989749 -0.07012641 -0.100734234 -0.32442957 -0.14116724 -0.30453932 -0.17863715 -0.15551977
-0.4533823 -0.111463994 -0.12826024 0.14053535 0.10736445 -0.30548254 0.09559017 -0.47686836
0.002573822 -0.5370862 -0.21446672 -0.020986428 -0.13945612 -0.08600913 -0.4228335 0.051955093
0.06945873 0.17812635 -0.02125347 0.0356365 -0.06480621 0.044277698 0.03401566 -0.024912639
0.078670494 -0.10359476 -0.51125544 -0.22761907 -0.10944813 -0.3155127 0.13104954 0.020281998
0.02589011 -0.18697776 0.057297207 -0.066287674 -0.09577769 0.11538058 -0.031404797 -0.09957856
-0.0658438 0.0225276 0.056914378 0.088694595 -0.08985493 -0.13842836 0.06585666 -0.1261043
0.16252409 -0.0004274814 0.16164608 0.25866067 -0.035003923 0.030751292 -0.0011385378 -0.057831135
0.13025354 0.034640197 0.06457203 0.039887685 -0.17170846 0.06817698 -0.0070104985 -0.11243712
-0.19438587 0.07768548 0.15697558 0.1349344 0.10407101 0.18697199 -0.06038242 -0.1329402
-0.18480325 -0.273191 0.01971983 0.011715911 0.18698765 0.08372101 0.04442546 -0.06785913
-0.01066258 0.09764085 0.10646327 -0.12600876 0.023719598 -0.070322186 -0.0037475824 -0.01924502
-0.095003486 0.12096316 -0.08419828 -0.009075552 -0.00963705 0.09021872 0.02332166 -0.03819202
0.16260478 -0.03939212 -0.21944743 -0.07058506 1.266558 -0.11137073 0.027968088 -0.0017796779
0.04041117 0.017874189 -0.10331581 -0.101857774 -0.061485205 0.06701328 0.058494575 0.16559336
0.11074903 -0.0037513457 0.05844324 -0.2527693 0.9222464 0.08064441 0.88578445 0.2744694
0.07039762 0.08585684 0.105158105 0.29406035 0.093786485 -0.042583853 0.013729745 0.1429614
1.5546176 0.2802709 -0.02530172 0.044642083 -0.15215872 0.26563692 0.043018945 0.2818297
0.015673932 -0.25293767 0.0057844087 0.121038355 -0.012284994 0.037460607 0.23446205 -0.027633637
0.08829203 0.08248964 0.035636768 0.16058402 -0.058338344 -0.12667556 -0.09102635 0.048528574
-0.010230547 -0.26055273 0.74799776 -0.03784306 -0.13066608 1.4861525 -0.121329136 0.07236886
00000000: e81f 933e 8b4f b13d 6754 50be 0472 873d
00000010: 82f4 913f dae0 353e 5304 abbc c054 5f3d
00000020: 1626 bb3d 570b efbd 96d8 6b3d 7938 b1bc
00000030: 82fc 443c 1ee3 34bd 9f01 19be 7787 d73d
00000040: b881 b73c 8648 0cbd a4bf 893e 68c4 97bd
00000050: 38f2 3f3f 731e 253d 20f0 563f 872a d83e
00000060: be81 6bbc 86de 0c3e 07a3 b3bd e74e c43e
00000070: a46d 453e 95a1 193e 7812 313e 9a5b 453e
00000080: e446 b73f 7c64 5b3e ab9a 7e3b aeca 443d
00000090: d4da 0cbe c6ef c93e 64f1 db3c 793b d23e
000000a0: a9a8 233e 5878 c3bd adc2 3f3e 568c d93b
000000b0: 7d9a e43d 8dbb 1abc fc9e 353e 8183 22bd
000000c0: d1b0 c43d b5da 03be e82d 0f3c 0093 023e
000000d0: 4552 b8bd 46fc e5bd 447d 863d ba5a 21be
000000e0: f011 c7bd d1b3 2cbe 25d9 403f 6bcb fe3c
000000f0: cff0 393c e81d ca3f baa8 d5bd 404b a6bd
00000100: 9230 cbbc a640 e03d 3fef 31be d877 0ebe
00000110: b1a8 8bbe 2780 b83e 9c1c ad3c 286f f83d
00000120: 2d89 c8bd 3fa9 78bd 159e 6fbe 4852 803d
00000130: e0a3 6f3d 7b19 35bd 40c2 983c 201a c1bd
00000140: 6931 c3bd aefc 4abb e7cf 3abe 55f0 e3be
00000150: 34dd f2be 4f0e 8d3d a483 b4be 17d0 8cbe
00000160: 6a26 8f3d 6f9e 8fbd c04d cebd a21b a6be
00000170: 258e 10be 94ec 9bbe a8ec 36be 9340 1fbe
00000180: ba21 e8be 3c47 e4bd a756 03be 80e8 0f3e
00000190: e5e1 db3d 3568 9cbe c7c4 c33d 1728 f4be
000001a0: 91ad 283b 7b7e 09bf 2a9d 5bbe bbeb abbc
000001b0: 96cd 0ebe 8e25 b0bd a27d d8be ddce 543d
000001c0: 6140 8e3d c166 363e c21b aebc 94f7 113d
000001d0: 1eb9 84bd 885c 353d 0154 0b3d 9715 ccbc
000001e0: ff1d a13d 7d29 d4bd a3e1 02bf f914 69be
000001f0: 5726 e0bd e18a a1be da31 063e 6f26 a63c
00000200: 7f17 d43c 1977 3fbe 7ab0 6a3d d5c1 87bd
00000210: 1827 c4bd a74c ec3d 51a2 00bd d8ef cbbd
00000220: 1dd9 86bd cd8b b83c 0d1f 693d 83a5 b53d
00000230: dd05 b8bd 2ac0 0dbe dbdf 863d 7c21 01be
00000240: b76c 263e 951f e0b9 8d86 253e 2c6f 843e
00000250: 4660 0fbd 22ea fb3c fd3a 95ba 57e0 6cbd
00000260: 2f61 053e e1e2 0d3d 573e 843d 4561 233d
00000270: 58d4 2fbe 5fa0 8b3d 53b8 e5bb 6f45 e6bd
00000280: 170d 47be 9119 9f3d 35be 203e 3e2c 0a3e
00000290: 2f23 d53d 9675 3f3e 8e53 77bd 7a21 08be
000002a0: 103d 3dbe b1df 8bbe 7b8b a13c 18f4 3f3c
000002b0: b179 3f3e ec75 ab3d 79f7 353d baf9 8abd
000002c0: 1ab2 2ebc edf7 c73d 6a09 da3d 7108 01be
000002d0: 9a4f c23c 1405 90bd 009a 75bb bba7 9dbc
000002e0: 3091 c2bd 89bb f73d 2670 acbd a0b1 14bc
000002f0: b8e4 1dbc 98c4 b83d 110d bf3c 3c6f 1cbd
00000300: de81 263e a259 21bd d4b6 60be e68e 90bd
00000310: 931e a23f 5616 e4bd 551d e53c 1544 e9ba
00000320: 2f86 253d e46c 923c 3d97 d3bd cf9a d0bd
00000330: e9d7 7bbd 423e 893d 0298 6f3d 4e91 293e
00000340: 63d0 e23d 23d9 75bb 2e62 6f3d fa6a 81be
00000350: 5718 6c3f e528 a53d c5c2 623f 4187 8c3e
00000360: a12c 903d b6d5 af3d 225d d73d 148f 963e
00000370: 2113 c03d 686c 2ebd b9f2 603c 7964 123e
00000380: b6fd c63f ab7f 8f3e 8d45 cfbc 9eda 363d
00000390: 7fcf 1bbe 9001 883e a234 303d fc4b 903e
000003a0: 9e66 803c 0c81 81be 238b bd3b f5e2 f73d
000003b0: 0047 49bc 4b70 193d d216 703e f05f e2bc
000003c0: 74d2 b43d 54f0 a83d dcf7 113d 2370 243e
000003d0: 30f4 6ebd 3db7 01be 066c babd e6c5 463d
000003e0: 069e 27bc 2b67 85be c87c 3f3f 5301 1bbd
000003f0: 54cd 05be 3f3a be3f 697b f8bd 2036 943d

lstm.weight_ih_l1 f4 [256, 64]
-0.13443245 0.11204904 -0.058297418 0.038937226 -0.44882497 0.039632946 0.020758979 0.025036579
0.119431525 0.1687327 0.17976034 -0.06803316 -0.2779693 -0.04308543 -0.06658088 0.2791786
-0.003381191 -0.13897207 0.39415434 0.2919612 0.2956881 0.1002725 0.15049993 0.15674086
-0.025497125 0.13143803 0.17344967 -0.38511786 -0.08066449 0.34941784 -0.11926222 -0.03674603
-0.556745 -0.058876134 0.044729523 -0.1200542 0.016657177 -0.21213347 0.17002946 -0.36332238
0.0097481785 -0.6878831 0.04069129 -0.08455231 0.30583078 -0.04718473 0.14603052 -0.16133392
-0.48873684 -0.115784034 -0.14942156 -0.024948739 0.057576153 0.050891966 0.19145182 0.09141803
0.11751218 0.051617216 -0.3093156 -0.054209217 -0.059735734 0.6378866 0.062240176 0.010292541
-0.050499506 0.13494562 0.023118982 -0.1637142 0.17341447 -0.21581285 -0.10228844 0.02133372
-0.14521146 -0.2870585 -0.15200986 0.042239137 0.2148909 -0.036108963 0.39220604 -0.28090277
-0.0979829 0.23955058 -0.23091665 -0.45517385 -0.44223645 -0.058372796 -0.6107985 -0.4917806
0.018627945 -0.30864167 -0.25805253 0.61319786 -0.07015273 -0.18589781 0.2948352 -0.13670506
0.3328126 -0.13049546 -0.094749644 0.22854945 0.28976017 0.35839173 -0.076552786 0.58146477
0.2197981 0.7874957 -0.16959731 0.19032133 -0.1892207 0.02637491 -0.09200259 0.38382447
-0.1184969 0.28010687 0.23355474 -0.10690847 0.16500679 -0.07806632 0.4994993 -0.1003298
-0.07505859 -0.17766947 0.6055133 0.36098263 -0.10950226 -0.32665026 -0.17148489 0.20693941
-0.15942843 0.22129376 -0.2716589 -0.025540272 0.65464556 0.24014135 -0.09820395 0.006978889
-0.1605552 0.054240286 -0.19943596 -0.12469732 0.16829278 -0.109670624 0.2860202 0.08722271
-0.04635896 0.23557013 -0.24152401 -0.3323162 -0.14928815 0.17576192 -0.39630994 -0.15441275
0.26942 -0.16285339 0.10393791 0.2174324 0.2619626 -0.22269274 0.21422125 0.08163637
0.37666523 -0.13487767 -0.040692877 0.11353601 0.3109648 -0.08162241 -0.21796119 0.6827096
0.22479773 0.6165027 -0.041833166 0.15307271 -0.1567441 0.18287708 -0.37427008 0.071189806
-0.18860495 0.1556914 0.38311693 -0.15435228 0.14221308 -0.25129345 0.23021568 -0.20984738
-0.21318167 -0.024078658 0.15309216 0.24346425 -0.19941576 -0.54606843 -0.20768075 0.20080517
-0.43220994 -0.21705414 0.03594474 0.06300507 0.021974374 0.16189079 0.1981033 -0.14737235
-0.051584665 0.1936638 0.1741788 0.19611625 -0.1996616 0.01636065 -0.04284885 -0.016587535
0.29305175 0.061175406 0.32714167 0.20464985 0.20669919 -0.11384803 -0.07273144 -0.058457788
-0.069005825 0.17059396 -0.23460808 -0.058309343 -0.29812136 0.34272593 0.051620595 -0.2989397
0.17528519 0.15836705 0.08255868 -0.07323472 -0.20397218 0.050659396 -0.07922264 0.076455005
-0.25570223 -0.35738596 0.008370859 -0.12129138 0.22480133 -0.09520911 0.18981531 0.0101826405
-0.44413483 -0.17937027 -0.013395275 0.054476846 -0.039517052 0.021143392 0.31440452 0.13558824
0.18110244 -0.11279996 0.028457213 0.037954964 0.04197455 -0.10141926 0.052497163 0.01793833
00000000: a9a8 09be f879 e53d 46c9 6ebd a47c 1f3d
00000010: 63cc e5be 2856 223d bc0e aa3c 8319 cd3c
00000020: 8498 f43d 44c8 2c3e 1813 383e f854 8bbd
00000030: fe51 8ebe 597a 30bd 8e5b 88bd 7ff0 8e3e
00000040: f996 5dbb b24e 0ebe 99ce c93e f07b 953e
00000050: 6e64 973e ab5b cd3d a71c 1a3e ad80 203e
00000060: 59df d0bc b197 063e ca9c 313e 2b2e c5be
00000070: 6d33 a5bd e5e6 b23e c03f f4bd 0183 16bd
00000080: d786 0ebf 1a28 71bd 4e36 373d fade f5bd
00000090: a274 883c 8439 59be 341c 2e3e 6405 babe
000000a0: d3b6 1f3c 1b19 30bf e9ab 263d c329 adbd
000000b0: da95 9c3e c744 41bd 0689 153e b834 25be
000000c0: b73b fabe 2e20 edbd f701 19be 4c61 ccbc
000000d0: f9d4 6b3d 1874 503d f20b 443e 6039 bb3d
000000e0: 3aaa f03d 936c 533d 9d5e 9ebe 7c0a 5ebd
000000f0: 75ad 74bd 894c 233f 8eef 7e3d 0ca2 283c
00000100: 92d8 4ebd 2f2f 0a3e 0564 bd3c b2a4 27be
00000110: 9093 313e 0bfe 5cbe 9a7c d1bd 0ec4 ae3c
00000120: 50b2 14be 55f9 92be 79a8 1bbe f202 2d3d
00000130: 5c0c 5c3e fee6 13bd 3bcf c83e 7dd2 8fbe
00000140: 42ab c8bd bf4c 753e 6a75 6cbe 8c0c e9be
00000150: d16c e2be 5018 6fbd 4a5d 1cbf abca fbbe
00000160: a299 983c 4806 9ebe 761f 84be 89fa 1c3f
00000170: 3cac 8fbd ff5b 3ebe a4f4 963e 69fc 0bbe
00000180: 6a66 aa3e 9aa0 05be 1a0c c2bd de08 6a3e
00000190: 725b 943e 1f7f b73e b5c7 9cbd e0da 143f
000001a0: c112 613e 5199 493f ebaa 2dbe 98e3 423e
000001b0: 12c3 41be 3210 d83c db6b bcbd a484 c43e
000001c0: 81ae f2bd 2b6a 8f3e f928 6f3e d4f2 dabd
000001d0: 8af7 283e 3ce1 9fbd 5fbe ff3e b679 cdbd
000001e0: 51b8 99bd fcee 35be eb02 1b3f b7d2 b83e
000001f0: b942 e0bd b43e a7be bc99 2fbe ede7 533e
00000200: 3541 23be d59a 623e e016 8bbe d539 d1bc
00000210: da96 273f 9de7 753e 271f c9bd 2aaf e43b
00000220: 9568 24be 102b 5e3d f138 4cbe 4f61 ffbd
00000230: f154 2c3e fe9a e0bd 3d71 923e d2a1 b23d
00000240: e5e2 3dbd 4c39 713e 1252 77be 5925 aabe
00000250: fede 18be effa 333e 23e9 cabe 601e 1ebe
00000260: 6bf1 893e 0ac3 26be 66dd d43d 99a6 5e3e
00000270: f61f 863e 9109 64be d15c 5b3e f830 a73d
00000280: 44da c03e 5f1d 0abe 93ad 26bd 9185 e83d
00000290: c736 9f3e a629 a7bd 3831 5fbe 0ec6 2e3f
000002a0: 6031 663e 1fd3 1d3f 4159 2bbd 18bf 1c3e
000002b0: 8681 20be 2144 3b3e 54a0 bfbe f6cb 913d
000002c0: a821 41be 916d 1f3e e727 c43e 860e 1ebe
000002d0: 4ea0 113e 89a9 80be a9bd 6b3e 3be2 56be
000002e0: 4c4c 5abe 9b40 c5bc 31c4 1c3e b14e 793e
000002f0: a533 4cbe 24cb 0bbf 43aa 54be df9f 4d3e
00000300: 9f4a ddbe 7143 5ebe cb3a 133d cd08 813d
00000310: 9a03 b43c b3c6 253e 97db 4a3e c7e8 16be
00000320: 714a 53bd ce4f 463e ed5b 323e b3d2 483e
00000330: 1774 4cbe c506 863c 4782 2fbd 95e2 87bc
00000340: e10a 963e 1093 7a3d 1d7f a73e bb8f 513e
00000350: f4a8 533e 2829 e9bd 39f4 94bd 6f71 6fbd
00000360: ed52 8dbd 2fb0 2e3e 1a3d 70be c7d5 6ebd
00000370: 5da3 98be c679 af3e 1e70 533d a00e 99be
00000380: f67d 333e f92a 223e 8614 a93d 16fc 95bd
00000390: 15de 50be 3a80 4f3d 7b3f a2bd 7194 9c3d
000003a0: 67eb 82be 4bfb b6be ed25 093c 9d67 f8bd
000003b0: 5232 663e fefc c2bd f25e 423e 17d5 263c
000003c0: a465 e3be d7ac 37be db77 5bbc 1d23 5f3d
000003d0: a2dc 21bd e834 ad3c a1f9 a03e a5d7 0a3e
000003e0: eb72 393e aa03 e7bd 1a1f e93c aa76 1b3d
000003f0: 81ed 2b3d e7b4 cfbd 4407 573d 68f3 923c

lstm.weight_hh_l1 f4 [256, 64]
-0.13702756 0.14800805 -0.098535955 0.02488034 -0.05205612 0.03641143 -0.08639222 -0.030797936
0.026922388 -0.07983133 -0.009765311 0.07956038 0.029675651 -0.09067085 -0.007236315 7.247665e-05
-0.03148929 0.11215244 0.07685773 0.21979068 0.0383215 0.037192464 0.14422168 0.028182486
0.023211965 -0.08796725 -0.07231157 0.24638578 0.0055337143 0.111175284 0.00691616 0.028863797
0.13156568 0.014868702 -0.08843272 -0.026205461 -0.06717851 0.12684612 0.057656556 -0.0007753033
0.017268064 0.07368913 0.1086486 -0.096964516 0.11950727 0.04427869 0.20250276 -0.0325508
-0.13612896 -0.13002591 0.07055972 -0.09444923 -0.13825776 0.07338389 0.12857251 0.07713725
0.04729847 -0.19848835 0.088493444 -0.08384649 -0.11609849 0.047511574 0.08282417 -0.101617634
-0.013733959 -0.018941898 -0.0033197082 0.26476464 0.05828852 -0.118888974 -0.10307632 0.14368208
-0.11075335 -0.10861627 -0.0060532917 -0.18434785 -0.097995125 0.08367227 0.18054007 -0.16459517
-0.0518098 -0.16131277 0.17591026 -0.020441106 0.101325065 -0.13707325 -0.4523882 -0.18523614
-0.18766226 -0.038380545 0.07415937 -0.35447878 -0.1192187 0.26698947 -0.20066899 0.19537312
0.14697842 -0.29763955 0.3182541 -0.15916729 -0.3695689 0.04434 -0.11557691 -0.20700036
-0.16197605 0.03697227 -0.16838196 0.071284 0.04379091 0.05931131 -0.2035148 -0.18994296
0.015703626 0.10408307 -0.06860009 0.15153769 -0.006110001 0.34120136 -0.053467266 -0.21960154
-0.14796509 -0.096722856 0.11808115 0.03444671 -0.20497456 0.23409642 -0.18140377 0.15944254
-0.373125 -0.14013232 0.08084764 0.07226148 0.20250076 0.025285896 -0.13169052 0.15028058
0.27681744 -0.3399728 0.24569774 -0.019192621 0.10721457 -0.41916725 0.21724218 -0.27645096
0.13783239 -0.14308427 0.41052565 0.22279336 0.29856262 0.123206005 0.42402932 -0.11593204
-0.37772375 -0.006674836 0.30219966 0.39016432 -0.2811603 0.22317061 -0.25437787 0.18684098
0.20123096 0.0026349046 0.06320357 -0.38199073 0.041387074 0.38043717 -0.13545375 -0.11627645
-0.3420272 0.3505291 -0.12347928 0.17479838 0.20637666 0.12716281 -0.014644632 -0.27219462
-0.08673587 -0.47364727 -0.32799983 0.20672064 -0.20845388 0.27326015 0.10158743 -0.169646
-0.06522821 -0.35976306 0.24612923 -0.10594885 -0.35954317 0.09290086 -0.12602785 0.3003214
0.1776297 0.14597557 -0.101744995 0.061227143 -0.17752455 0.056569364 0.1882239 0.05169321
-0.20439956 0.2721523 -0.14440604 0.1693902 0.07523957 0.28450766 0.06689249 0.042629004
-0.12498617 0.06926839 -0.21132159 -0.12577091 -0.22479717 -0.29335397 -0.48679444 -0.0039659864
0.19741867 -0.21247146 -0.19830318 -0.56620914 -0.031794388 -0.14304066 0.15455617 -0.13969898
-0.16148904 -0.10025859 0.2455198 0.010000759 -0.08720622 -0.1975946 0.1843163 0.041421425
-0.19320807 -0.067528956 0.029464755 0.033447698 0.020349817 -0.028526457 0.10495796 0.07990651
0.047331717 0.23564883 0.081891514 -0.037548523 0.046748824 0.108153075 -0.17413802 0.16436286
-0.06351025 0.19634736 -0.13346162 -0.025192799 0.20168585 0.06498042 0.009669928 -0.15449342
00000000: f450 0cbe 6c8f 173e 38cd c9bd dbd1 cb3c
00000010: cc38 55bd 2724 153d 67ee b0bd f44b fcbc
00000020: 578c dc3c 9c7e a3bd affe 1fbc 8df0 a23d
00000030: 5a1a f33c a3b1 b9bd 9c1e edbb 9bfe 9738
00000040: eafa 00bd 2eb0 e53d 9667 9d3d cf10 613e
00000050: 01f7 1c3d 2057 183d d9ae 133e f5de e63c
00000060: 0527 be3c 2c28 b4bd 1718 94bd 8e4c 7c3e
00000070: 2954 b53b deaf e33d f5a0 e23b c573 ec3c
00000080: 27b9 063e db9b 733c 371c b5bd d6ac d6bc
00000090: e394 89bd f3e3 013e 4829 6c3d b93d 4bba
000000a0: c175 8d3c 54ea 963d 2883 de3d 5595 c6bd
000000b0: 3ac0 f43d 925d 353d e25c 4f3e fd53 05bd
000000c0: 6465 0bbe 8325 05be 9d81 903d 996e c1bd
000000d0: 7193 0dbe 4b4a 963d 83a8 033e 22fa 9d3d
000000e0: 0abc 413d 8840 4bbe 0d3c b53d b5b7 abbd
000000f0: 0cc5 edbd 7f9b 423d b89f a93d e81c d0bd
00000100: 6604 61bc 0a2c 9bbc 768f 59bb 3b8f 873e
00000110: f1bf 6e3d 107c f3bd ad19 d3bd 6521 133e
00000120: a7d2 e2bd 3572 debd b15a c6bb afc5 3cbe
00000130: abb1 c8bd 5e5c ab3d 7fdf 383e a38b 28be
00000140: 8336 54bd 2d2f 25be d221 343e 1b74 a7bc
00000150: 8483 cf3d ee5c 0cbe 6d9f e7be 8bae 3dbe
00000160: 892a 40be eb34 1dbd dee0 973d 3e7e b5be
00000170: ef28 f4bd d8b2 883e 2c7c 4dbe e40f 483e
00000180: 8381 163e 3664 98be 34f2 a23e c0fc 22be
00000190: 2338 bdbe dc9d 353d 96b3 ecbd e7f7 53be
000001a0: 0ddd 25be 3c70 173d 526c 2cbe 59fd 913d
000001b0: 195e 333d 6bf0 723d 2f66 50be 6880 42be
000001c0: e4a4 803c 8129 d53d 347e 8cbd b22c 1b3e
000001d0: 6736 c8bb f2b1 ae3e 7e00 5bbd 3adf 60be
000001e0: 2984 17be a216 c6bd 88d4 f13d fe17 0d3d
000001f0: dae4 51be f9b6 6f3e e9c1 39be e844 233e
00000200: 3d0a bfbe d97e 0fbe 7393 a53d d4fd 933d
00000210: 5c5c 4f3e 5e24 cf3c e1d9 06be 27e3 193e
00000220: 04bb 8d3e ea10 aebe 3098 7b3e d839 9dbc
00000230: 5093 db3d 179d d6be bc74 5e3e fb8a 8dbe
00000240: ef23 0d3e af84 12be 6b30 d23e f123 643e
00000250: 33dd 983e 6e53 fc3d 5f1a d93e c76d edbd
00000260: 0265 c1be 95b8 dabb eab9 9a3e 9ec3 c73e
00000270: 3ef4 8fbe d686 643e d13d 82be 3e53 3f3e
00000280: 7d0f 4e3e 5dae 2c3b e070 813d 4a94 c3be
00000290: 7e85 293d a9c8 c23e 63b4 0abe 5922 eebd
000002a0: 301e afbe 8d78 b33e b4e2 fcbd 59fe 323e
000002b0: 6754 533e f836 023e 0af0 6fbc 185d 8bbe
000002c0: 93a2 b1bd e581 f2be 98ef a7be 93ae 533e
000002d0: ef74 55be c1e8 8b3e 120d d03d aeb7 2dbe
000002e0: 5e96 85bd dd32 b8be 4d09 7c3e b6fb d8bd
000002f0: 0b16 b8be ce42 be3d 720d 01be bac3 993e
00000300: 8fe4 353e 9f7a 153e ae5f d0bd 50c9 7a3d
00000310: ffc8 35be 47b5 673d c4bd 403e 42bc 533d
00000320: 1e4e 51be 8c57 8b3e 2ddf 13be a074 2d3e
00000330: 3417 9a3d fdaa 913e eefe 883d c09b 2e3d
00000340: c0f8 ffbd 96dc 8d3d b064 58be 17ca 00be
00000350: 3b31 66be 7e32 96be 1f3d f9be 1bf5 81bb
00000360: 1f28 4a3e 1e92 59be fd0f 4bbe 15f3 10bf
00000370: d53a 02bd 4079 12be f943 1e3e 400d 0fbe
00000380: 625d 25be 6054 cdbd 8b69 7b3e 39da 233c
00000390: 2d99 b2bd 3d56 4abe 6abd 3c3e 83a9 293d
000003a0: 56d8 45be 9f4c 8abd 1260 f13c 7400 093d
000003b0: a9b4 a63c 51b0 e9bc 33f4 d63d 06a6 a33d
000003c0: e7de 413d ed4d 713e bdb6 a73d 7bcc 19bd
000003d0: b27b 3f3d 5c7f dd3d 3d51 32be bd4e 283e
000003e0: a911 82bd 480f 493e 2aaa 08be 2161 cebc
000003f0: bc86 4e3e 7414 853d 9e6e 1e3c 8633 1ebe

lstm.bias_ih_l1 f4 [256]
-0.007466053 0.20860331 0.19541067 -0.19377206 0.21408562 0.10692877 0.09247908 -0.12825994
-0.09967775 0.10211821 0.21489781 -0.15234478 0.20652878 0.25061432 0.0022663036 0.024029063
0.2785261 -0.15911156 0.032449935 0.10607428 0.018611945 0.25778753 0.44209123 0.07882161
0.05008135 -0.027269185 -0.037116542 0.43847615 -0.0243801 0.050719835 0.18839443 0.1368431
-0.08060566 0.22629021 0.23945309 -0.036244545 0.1829737 0.013567304 -0.056318767 -0.0005500212
0.34803677 -0.13643979 -0.001063724 -0.03519641 0.04495795 0.024204079 0.0143597955 -0.02155455
0.036183458 -0.12386116 0.11792194 0.12765533 0.35475463 -0.07585944 -0.1981662 0.1201411
-0.11316785 0.25065485 0.114540815 0.57046133 0.12796973 0.063383065 0.04178259 0.14151838
0.07982007 0.033128463 0.02987647 0.294674 0.055254377 0.031152988 0.1340326 0.19391112
0.22892977 0.01441741 0.051131453 -0.10027876 -0.11421871 -0.08964921 0.15414056 0.13797285
-0.0074368203 0.0047608335 -0.054956835 0.06989087 0.022229407 -0.10686512 0.05226103 0.19662589
0.1288611 0.12770689 0.17045341 -0.021258866 -0.0075331004 0.07544533 0.20682582 0.06260495
0.19040747 0.007857477 0.004973735 0.19539209 -0.04223709 0.19686078 -0.05254533 0.10033735
0.023604264 -0.03389837 0.17890763 0.037483353 0.05305122 0.023021217 0.070018865 0.15322514
-0.015372571 -0.014652472 0.1569788 0.13949795 -0.05073233 0.00017159872 0.10659073 0.14459941
0.04415309 0.08233065 0.1780074 0.03765031 0.123776436 0.112078436 0.1226553 0.12654316
0.064793974 -0.109102555 -0.095052965 0.081342846 0.020692073 -0.016273333 -0.14198233 0.1590168
-6.267469e-05 0.05829256 0.07375874 -0.07552888 -0.08693464 0.024322262 0.06469557 -0.07234486
-0.029711967 -0.1654933 -0.016739232 -0.054310977 -0.04882372 0.03906812 -0.07892422 -0.1289505
-0.040804718 -0.07233875 0.13528693 -0.06569438 -0.1198449 0.047822595 -0.052892998 0.032390382
0.06437244 0.03694266 -0.0026017828 -0.07654883 -0.092232816 0.024548195 -0.09893933 0.011964564
-0.080229655 0.13295153 -0.04040942 0.16811243 -0.043473694 0.16712268 -0.0970458 -0.088885486
-0.025458453 0.10351127 -0.18043602 0.043502662 0.05081392 0.0903381 0.015900841 -0.13296096
-0.14054021 -0.017040776 0.10167004 0.053952795 -0.16333972 0.14786083 -0.0942091 0.043951873
0.102053575 0.18557079 0.3885315 -0.01068951 -0.12785278 0.10380144 0.025290355 -0.070643485
0.033048477 -0.03461183 0.17423052 0.07903655 0.21019216 0.27214798 -0.2194243 -0.008230088
0.10942252 0.027806748 -0.084293365 0.06315503 -0.022126283 0.26955697 0.33192658 0.015770556
-0.19798021 0.12465648 -0.14128868 0.17515995 -0.004689303 -0.15303648 -0.0162778 -0.007813198
0.076060675 0.23615083 0.1506109 -0.1070177 0.011265435 0.09425976 0.010132443 -0.12187279
0.17588532 0.0068931817 -0.19673948 -0.06581941 0.040222574 -0.15408565 0.048936304 -0.11963669
-0.12909691 0.020916902 -0.016367352 -0.08914138 0.17210041 0.018705789 -0.04643978 -0.036049165
0.015021765 -0.066142894 -0.13612038 0.49043503 -0.021793036 -0.17845865 -0.13858607 -0.04919509
00000000: cba5 f4bb 1b9c 553e bc19 483e 2f6c 46be
00000010: 4339 5b3e 79fd da3d ac65 bd3d 9356 03be
00000020: d923 ccbd 5a23 d13d 2c0e 5c3e 4500 1cbe
00000030: 487c 533e 8550 803e 4486 143b 99d8 c43c
00000040: f99a 8e3e 24ee 22be 39ea 043d 793d d93d
00000050: 1478 983c bafc 833e c859 e23e 396d a13d
00000060: 1a22 4d3d a063 dfbc 8407 18bd f27f e03e
00000070: c7b8 c7bc 9abf 4f3d 78ea 403e 9920 0c3e
00000080: 9514 a5bd 9fb8 673e 3133 753e 2975 14bd
00000090: 755d 3b3e 6649 5e3c 82ae 66bd 4c2f 10ba
000000a0: e031 b23e dfb6 0bbe a86c 8bba 1c2a 10bd
000000b0: d425 383d a247 c63c 5945 6b3c 2b93 b0bc
000000c0: 1b35 143d ebaa fdbd 0f81 f13d 14b8 023e
000000d0: 66a2 b53e 325c 9bbd 15ec 4abe 890c f63d
000000e0: 8cc4 e7bd d555 803e 6094 ea3d c109 123f
000000f0: 7f0a 033e fbce 813d 3924 2b3d 32ea 103e
00000100: b478 a33d b6b1 073d 80bf f43c 83df 963e
00000110: 6a52 623d 8d34 ff3c d83f 093e a390 463e
00000120: 916c 6a3e 0037 6c3c 376f 513d f35e cdbd
00000130: 80eb e9bd 019a b7bd 06d7 1d3e c148 0d3e
00000140: 92b0 f3bb c400 9c3b 6b1a 61bd f222 8f3d
00000150: 721a b63c 1adc dabd a90f 563d 4c58 493e
00000160: 2af4 033e 98c5 023e 578b 2e3e 1327 aebc
00000170: 3ad8 f6bb 1583 9a3d 26ca 533e 0637 803d
00000180: 2dfa 423e a6bc 003c b7fa a23b dd14 483e
00000190: cd00 2dbd df95 493e c639 57bd ab7d cd3d
000001a0: bb5d c13c 04d9 0abd 9033 373e 2588 193d
000001b0: 3c4c 593d fe96 bc3c 0d66 8f3d 0de7 1c3e
000001c0: 3cdd 7bbc ec10 70bc 0dbf 203e 8dd8 0e3e
000001d0: b4cc 4fbd 2eef 3339 3e4c da3d de11 143e
000001e0: dfd9 343d f99c a83d 9247 363e 3637 1a3d
000001f0: 807e fd3d 6189 e53d b432 fb3d 8894 013e
00000200: b4b2 843d 2971 dfbd 21ab c2bd 1497 a63d
00000210: 6c82 a93c a74f 85bc d163 11be 4dd5 223e
00000220: 3870 83b8 2ec4 6e3d d30e 973d e3ae 9abd
00000230: ca0a b2bd 7b3f c73c 1c7f 843d 8b29 94bd
00000240: 8366 f3bc 1377 29be b720 89bc 3075 5ebd
00000250: 62fb 47bd e505 203d 05a3 a1bd 9a0b 04be
00000260: d922 27bd 5726 94bd a888 0a3e c68a 86bd
00000270: 3e71 f5bd a0e1 433d 54a6 58bd c7ab 043d
00000280: b3d5 833d 3051 173d ac82 2abb a2c5 9cbd
00000290: 8fe4 bcbd 4c19 c93c b4a0 cabd 0507 443c
000002a0: 724f a4bd 7224 083e 5984 25bd aa25 2c3e
000002b0: 7911 32bd 3522 2b3e f3bf c6bd 9809 b6bd
000002c0: 3f8e d0bc b7fd d33d 38c4 38be d92f 323d
000002d0: 4222 503d 2f03 b93d 7b42 823c eb26 08be
000002e0: c6e9 0fbe 1999 8bbc 6238 d03d 9bfd 5c3d
000002f0: 8742 27be d468 173e b3f0 c0bd e106 343d
00000300: 7701 d13d 4506 3e3e 9aed c63e 0e23 2fbc
00000310: d7eb 02be d995 d43d b82d cf3c 88ad 90bd
00000320: d75d 073d 22c5 0dbd 7c69 323e eadd a13d
00000330: 9d3c 573e fb56 8b3e c4b0 60be 7ed7 06bc
00000340: ea18 e03d faca e33c 00a2 acbd 6d57 813d
00000350: 2e42 b5bc 5f03 8a3e 48f2 a93e 4131 813c
00000360: 53bb 4abe e64b ff3d fbad 10be 215d 333e
00000370: baa8 99bb 98b5 1cbe 0559 85bc ed02 00bc
00000380: b3c5 9b3d 86d1 713e be39 1a3e 192c dbbd
00000390: a992 383c 430b c13d 8c02 263c 7198 f9bd
000003a0: 481b 343e 33e0 e13b 1376 49be 54cc 86bd
000003b0: 6dc0 243d a1c8 1dbe 6f71 483d 1504 f5bd
000003c0: fb31 04be ec59 ab3c d314 86bc c18f b6bd
000003d0: 173b 303e e23c 993c a437 3ebd 4aa8 13bd
000003e0: d91d 763c ed75 87bd 2463 0bbe 4d1a fb3e
000003f0: 4f87 b2bc ddbd 36be 82e9 0dbe ca80 49bd

lstm.bias_hh_l1 f4 [256]
0.011503701 0.2162926 0.34755802 -0.1825944 0.11051412 0.29985344 0.15743738 -0.09714827
-0.0733634 0.14599647 0.02691801 -0.10293179 0.18196383 0.23494871 -0.042000987 -0.044150386
0.28327993 0.041210573 0.054606084 0.14281426 0.13488111 0.2944796 0.3276425 -0.082749374
-0.019097954 -0.034539886 0.19236235 0.32226795 0.038002808 0.09634149 -0.02912496 -0.057947602
0.091774754 0.23872392 0.17833978 -0.00036263245 0.31069452 0.14001985 0.05438118 0.10497563
0.15185338 -0.05229834 0.17719854 0.13627882 0.14734757 -0.021532295 0.086599976 0.08720173
0.05984635 0.005839382 0.17217676 0.1033112 0.3865394 0.10302976 -0.15313904 0.10420275
0.062656604 0.09574302 0.07894176 0.44907442 0.07077146 0.16939431 -0.06273617 0.18951537
0.1138141 -0.13561487 -0.03384308 0.22958814 0.120349064 -0.13338532 0.18423317 0.22087784
0.05794981 0.09948267 0.013432542 -0.14616056 -0.10510798 -0.0030843692 0.009629888 0.18911175
-0.175807 0.109949514 0.04776803 0.014836157 0.19299197 0.11599499 -0.0037653048 0.19005215
0.06390329 0.024216719 0.14125198 -0.06232666 0.16106911 0.08407842 0.103755146 0.11247635
0.18505554 0.008496593 -0.16892761 0.08757741 -0.14424501 0.0429988 0.080400616 0.062314205
-0.05328144 0.056905568 0.15377554 0.018907411 -0.002541356 -0.011118512 -0.11880388 0.11908439
-0.048799075 -0.025664626 0.15937717 0.057136163 -0.11558913 -0.19335371 0.09928897 0.21453194
-0.030370906 0.015116174 0.11930181 -0.1323772 0.1520524 0.1552386 0.209543 0.07174046
0.06788795 -0.040093396 0.07776382 -0.0005881012 0.13011417 -0.13008931 0.047648825 0.038814902
-0.072068594 -0.009409218 0.04466626 -0.06782239 0.06118616 0.07833759 0.14609343 -0.03586226
-0.0053105312 0.016527481 0.04139774 -0.0060009654 0.06130409 0.05972101 -0.065514 -0.034673408
-0.055331588 -0.00196195 -0.028018743 -0.054852203 -0.12941468 0.098685786 -0.16297638 0.14603527
0.15793204 0.014615684 0.038093552 0.05034413 -0.102535464 0.18157145 0.040432867 -0.1705035
0.029829971 0.059746813 0.0040414417 -0.020656016 -0.024736322 -0.044001427 0.028585685 -0.08075974
0.02417787 -0.024395075 0.03962627 0.14979824 0.013678821 -0.035027556 0.0034260396 -0.061748136
-0.020505369 -0.124266036 0.061718322 -0.029607337 -0.17839016 0.0033981204 -0.0637346 0.13824502
-0.10334691 0.036422845 0.38325906 0.121746406 -0.0010873465 0.27937064 -0.09529988 -0.049771957
0.056415286 0.08299053 0.070951074 -0.023099653 0.24414836 0.3297235 -0.18924877 -0.1862501
0.22187172 -0.1254686 -0.0033380133 -0.07959776 0.014896137 0.08369992 0.22013074 -0.14035317
-0.0022969802 -0.0027504973 -0.086519875 0.30813596 -0.05752303 -0.015968028 -0.09534896 -0.020287396
-0.045457922 0.36686212 0.21496087 0.019634308 0.21050256 -0.11235737 -0.16085514 -0.103890195
0.119205415 -0.09839176 -0.126933 -0.16029602 0.06723439 0.049775817 -0.16718818 -0.023059493
-0.026343176 0.13004968 -0.08428304 -0.10700614 0.19449125 0.024604585 0.039502848 -0.0063415375
-0.009640577 -0.028817508 -0.03211096 0.44917694 -0.12195751 -0.06058975 0.019625062 -0.15979998
00000000: 057a 3c3c cf7b 5d3e 20f3 b13e 07fa 3abe
00000010: 3a55 e23d 6486 993e 4437 213e acf5 c6bd
00000020: 8d3f 96bd 1980 153e 2983 dc3c e7cd d2bd
00000030: ba54 3a3e 6596 703e 3a09 2cbd 09d7 34bd
00000040: 110a 913e 6bcc 283d a1aa 5f3d e73d 123e
00000050: 461e 0a3e 08c6 963e c2c0 a73e 8178 a9bd
00000060: 5073 9cbc b279 0dbd a3fa 443e 4e00 a53e
00000070: d5a8 1b3d b04e c53d 7897 eebc 775a 6dbd
00000080: 67f4 bb3d 0b74 743e b49e 363e b41f beb9
00000090: 5a13 9f3e 5d61 0f3e cdbe 5e3d 77fd d63d
000000a0: 747f 1b3e c936 56bd 8973 353e ad8c 0b3e
000000b0: 48e2 163e 7f64 b0bc 545b b13d d296 b23d
000000c0: 7221 753d 4958 bf3b 1b4f 303e d394 d33d
000000d0: 7ee8 c53e 4401 d33d 7bd0 1cbe 4068 d53d
000000e0: 1b52 803d eb14 c43d 38ac a13d 15ed e53e
000000f0: a1f0 903d b475 2d3e d27b 80bd 5110 423e
00000100: 5e17 e93d a0de 0abe 0b9f 0abd 2719 6b3e
00000110: 9279 f63d 2996 08be 9fa7 3c3e cd2d 623e
00000120: c85c 6d3d 92bd cb3d 2a14 5c3c 1dab 15be
00000130: da42 d7bd 2123 4abb aec6 1d3c 83a6 413e
00000140: c006 34be 362d e13d 69a8 433d 5a13 733c
00000150: b09f 453e c88e ed3d 55c3 76bb 089d 423e
00000160: badf 823d 2462 c63c 5ca4 103e 3d4a 7fbd
00000170: 4def 243e 4f31 ac3d 947d d43d 005a e63d
00000180: 337f 3d3e 4b35 0b3c 5cfb 2cbe c95b b33d
00000190: f7b4 13be 821f 303d 14a9 a43d 2e3d 7f3d
000001a0: a43d 5abd d015 693d 5677 1d3e b7e3 9a3c
000001b0: e18c 26bb 6b2a 36bc 734f f3bd 84e2 f33d
000001c0: 8ae1 47bd 9f3e d2bc c533 233e 9c07 6a3d
000001d0: feb9 ecbd 84fe 45be 0458 cb3d 43ae 5b3e
000001e0: 68cc f8bc d4a9 773c 8254 f43d e48d 07be
000001f0: a0b3 1b3e def6 1e3e 7192 563e aaec 923d
00000200: d608 8b3d f938 24bd a342 9f3d ce2a 1aba
00000210: a63c 053e 2236 05be 6a2b 433d 60fc 1e3d
00000220: b398 93bd 1f29 1abc f8f3 363d 77e6 8abd
00000230: 579e 7a3d 756f a03d 8499 153e 4ee4 12bd
00000240: f703 aebb a464 873c ad90 293d bfa3 c4bb
00000250: ff19 7b3d 059e 743d 342c 86bd b405 0ebd
00000260: 60a3 62bd 0f94 00bb 9087 e5bc b4ac 60bd
00000270: 4885 04be c61b ca3d 48e3 26be 458a 153e
00000280: f0b8 213e 9f76 6f3c fc07 1c3d a535 4e3d
00000290: 1dfe d1bd deed 393e ef9c 253d 7898 2ebe
000002a0: fc5d f43c 13b9 743d 126e 843b ce36 a9bc
000002b0: d4a3 cabc d73a 34bd 872c ea3c 5d65 a5bd
000002c0: ab10 c63c 2ed8 c7bc 284f 223d b664 193e
000002d0: 221d 603c 0e79 0fbd 6887 603b 9deb 7cbd
000002e0: e0fa a7bc 317f febd 5acc 7c3d 168b f2bc
000002f0: e9ab 36be 00b3 5e3b 4987 82bd 1a90 0d3e
00000300: 8ba7 d3bd 1f30 153d 883a c43e 2e56 f93d
00000310: 4b85 8eba ab09 8f3e 952c c3bd aedd 4bbd
00000320: b713 673d f0f6 a93d cc4e 913d 7c3b bdbc
00000330: 0702 7a3e 85d1 a83e 6eca 41be 59b8 3ebe
00000340: 5732 633e d77a 00be 92c2 5abb 2704 a3bd
00000350: ed0e 743c dd6a ab3d f469 613e beb8 0fbe
00000360: ef88 16bb b041 34bb 5531 b1bd ffc3 9d3e
00000370: 459d 6bbd 62cf 82bc 5146 c3bd c131 a6bc
00000380: 1632 3abd 5ad5 bb3e b41e 5c3e 21d8 a03c
00000390: fc8d 573e 9f1b e6bd 36b7 24be 62c4 d4bd
000003a0: f821 f43d 9e81 c9bd b9fa 01be a424 24be
000003b0: 2fb2 893d bae1 4b3d 6133 2bbe 43e7 bcbc
000003c0: a5cd d7bc be2b 053e 969c acbd 0926 dbbd
000003d0: b728 473e 8e8f c93c bdcd 213d accc cfbb
000003e0: 83f3 1dbc b212 ecbc c886 03bd 85fa e53e
000003f0: dcc4 f9bd f52c 78bd bdc4 a03c 9ba2 23be
