api/data/models/GLOBAL_1h_lstm.pth (torch, 211317 bytes, 10 tensors)

lstm.weight_ih_l0 f4 [256, 5]
-0.11279534 -0.28982082 -0.048833333 -0.4280248 -0.18491153 0.060733367 -0.0014445479 0.38521457
-0.08729086 0.044715285 1.1829851 0.63059545 0.16364439 0.5675927 0.37464237 -0.00060372695
-0.010991386 0.10973615 -0.16851307 0.08988783 -0.3103198 -0.059928868 0.21059391 -0.28211483
-0.08211506 -0.15160382 -0.03441248 0.20663522 -0.19735166 -0.1445294 -0.033933535 -0.009976494
0.059534285 -0.06775178 0.1186871 0.10668914 0.17654656 0.054709412 -0.07191607 0.4455571
-0.17871818 -0.25291196 -0.37763292 0.2337985 -0.3051241 -0.07049358 -0.104383774 0.0049238238
0.020446861 -0.1499894 -0.7502168 0.1987921 0.5259305 0.32364854 0.4909938 0.01309815
0.16945815 -0.016343934 0.04668372 0.022576705 -1.7993515 0.11739584 0.75312287 0.15497245
0.14749576 -0.26259333 -0.0027436558 0.13583535 -0.049358226 0.17385946 -0.059575945 -0.06963282
0.20429157 0.06472666 -0.159189 0.03352211 -0.21352811 -0.15748756 0.24367188 -0.067615494
-0.031910166 0.07700579 0.15153837 0.19840273 -0.12891507 -0.016571967 -0.18077108 0.042199153
-0.2053731 0.06527268 0.0767731 -0.0962571 -0.17463379 0.38412008 -0.18534638 -0.034757655
0.08019898 0.019655518 0.1500861 -0.062024422 -0.6655067 0.4554249 0.24919416 0.44227415
0.11629603 0.013953755 -0.12800747 -0.1986069 0.06974362 -0.053673778 -0.081258304 0.3432193
0.13202581 -0.12780453 0.08161024 -0.25838447 -0.052047767 0.14299203 -0.126245 0.009652534
-0.16664013 0.012516896 0.18076994 0.25484526 0.0015641832 2.1174784 0.23727502 0.19097018
0.0948827 0.29251528 -0.10404335 0.12941463 0.10269979 0.06830443 0.10297288 -0.3309536
0.17539856 -0.30774924 -0.18506889 -0.15809725 1.9183735 0.20248395 0.0012363167 0.3508387
0.12714474 0.54893744 1.008183 0.4966737 1.2730612 0.96085924 0.9997863 0.79360473
0.758792 1.1612637 1.0419958 -0.9551181 0.12607886 0.16736037 0.2021109 0.19742188
0.086909436 -0.11026802 -0.16992949 0.21670046 -0.10588583 0.22844273 -0.080896474 -0.12203943
0.42974415 -0.22697796 0.11951988 0.033113435 0.13772891 -0.35955626 0.24070002 1.0540911
0.41162726 0.34518766 0.6336107 0.3983114 0.004930121 -0.02253315 0.03243928 0.12937762
0.00059660815 1.8480183 0.25044823 0.080337115 0.4101884 0.21607131 -1.9288911 0.31247362
0.39223433 0.30593693 0.24192297 2.8214822 -0.07288076 -0.39673877 0.25830963 -0.090662904
0.42731908 0.39854178 0.2983661 0.5024399 0.48007905 2.0839212 0.061492007 0.059122577
-0.34846577 0.011481245 1.0975608 0.399594 -0.06057597 0.54503727 0.3188894 -0.25407386
0.040416766 0.082001805 0.09311134 -0.15154192 -0.60372055 0.85216975 0.9382805 0.64934576
0.99772257 2.846307 -0.30883226 -0.097312324 -0.18687724 -0.20336957 1.2259289 0.09628879
-0.06494082 0.19582641 0.005865074 -0.22580788 0.0695732 0.2697852 0.3093693 -0.0067297616
-0.0060604657 0.95075613 1.5425107 1.248714 1.5355573 -0.023611914 -0.035052862 0.0033181044
0.2284832 -0.2362485 1.5438141 0.55812025 0.6290924 0.86065084 0.7973978 -0.11458263
00000000: 3e01 e7bd 6563 94be 7605 48bd 1126 dbbe
00000010: 7359 3dbe 8dc3 783d fc56 bdba d83a c53e
00000020: 8dc5 b2bd 6027 373d 0e6c 973f b46e 213f
00000030: 6592 273e c14d 113f 20d1 bf3e 6e43 1eba
00000040: 3715 34bc 59bd e03d b18e 2cbe 1c17 b83d
00000050: 3de2 9ebe f977 75bd eea5 573e 5b71 90be
00000060: f12b a8bd 083e 1bbe 1af4 0cbd 2f98 533e
00000070: 8e16 4abe 84ff 13be e4fd 0abd 7374 23bc
00000080: 39da 733d 72c1 8abd 3912 f33d d67f da3d
00000090: 9fc8 343e fa16 603d bc48 93bd 0f20 e43e
000000a0: e601 37be ad7d 81be 1a59 c1be e068 6f3e
000000b0: 3a39 9cbe f05e 90bd 29c7 d5bd 0758 a13b
000000c0: 2d80 a73c d296 19be 350e 40bf 2890 4b3e
000000d0: 62a3 063f 43b5 a53e 8a63 fb3e 9f99 563c
000000e0: 7086 2d3e b7e3 85bc 6e37 3f3d c8f2 b83c
000000f0: 2651 e6bf 3b6d f03d a9cc 403f 19b1 1e3e
00000100: 2109 173e a272 86be e8ce 33bb 6c18 0b3e
00000110: da2b 4abd 3708 323e e805 74bd a79b 8ebd
00000120: cf31 513e 698f 843d 7102 23be 7b4e 093d
00000130: 1da7 5abe 6b44 21be 1f85 793e fe79 8abd
00000140: 3cb4 02bd 36b5 9d3d e02c 1b3e 162a 4b3e
00000150: 5002 04be efc1 87bc 0e1c 39be 05d9 2c3d
00000160: 534d 52be afad 853d 373b 9d3d 7122 c5bd
00000170: 33d3 32be 63ab c43e 71cb 3dbe 0b5e 0ebd
00000180: 5d3f a43d 9c04 a13c 2cb0 193e 520d 7ebd
00000190: a65e 2abf 742d e93e c12c 7f3e c271 e23e
000001a0: 9d2c ee3d 4a9e 643c 6414 03be 9b5f 4bbe
000001b0: bed5 8e3d 09d9 5bbd c16a a6bd 71ba af3e
000001c0: c631 073e 31df 02be 4523 a73d f84a 84be
000001d0: 0a30 55bd 816c 123e 5f46 01be a925 1e3c
000001e0: b6a3 2abe ab13 4d3c c11b 393e 147b 823e
000001f0: 4705 cd3a c484 0740 39f8 723e b08d 433e
00000200: dc51 c23d 90c4 953e ae14 d5bd 4585 043e
00000210: 4454 d23d 31e3 8b3d 72e3 d23d c072 a9be
00000220: ae9b 333e 4f91 9dbe b382 3dbe 3fe4 21be
00000230: 438d f53f f457 4f3e e80b a23a 21a1 b33e
00000240: 3b32 023e 2a87 0c3f 240c 813f 044c fe3e
00000250: abf3 a23f dffa 753f fff1 7f3f ae29 4b3f
00000260: 3140 423f 4aa4 943f 1e60 853f 9f82 74bf
00000270: d11a 013e 8460 2b3e 29f6 4e3e f628 4a3e
00000280: 93fd b13d 33d4 e1bd ff01 2ebe bae6 5d3e
00000290: acda d8bd e4ec 693e 0dad a5bd cfef f9bd
000002a0: 6d07 dc3e e96c 68be d7c6 f43d f4a1 073d
000002b0: cf08 0d3e c217 b8be 117a 763e 75ec 863f
000002c0: cfc0 d23e 70bc b03e 5034 223f 79ef cb3e
000002d0: da8c a13b 7197 b8bc 0ddf 043d 917b 043e
000002e0: b265 1c3a dd8b ec3f c03a 803e c987 a43d
000002f0: 3704 d23e cc41 5d3e e7e5 f6bf 8bfc 9f3e
00000300: f0d2 c83e c4a3 9c3e a8ba 773e 2a93 3440
00000310: 8242 95bd 5821 cbbe 2941 843e 79ad b9bd
00000320: 91c9 da3e ab0d cc3e 71c3 983e e79f 003f
00000330: eccc f53e f75e 0540 0bdf 7b3d 842a 723d
00000340: 1b6a b2be d51b 3c3c df7c 8c3f 9697 cc3e
00000350: 821e 78bd 9087 0b3f 7945 a33e f815 82be
00000360: 0d8c 253d 90f0 a73d 29b1 be3d ce2d 1bbe
00000370: 6e8d 1abf cc27 5a3f 2733 703f 863b 263f
00000380: bf6a 7f3f e529 3640 431f 9ebe af4b c7bd
00000390: bf5c 3fbe 1d40 50be 3deb 9c3f 0f33 c53d
000003a0: b1ff 84bd b886 483e cf2f c03b 2e3a 67be
000003b0: 657c 8e3d 4921 8a3e a765 9e3e 5585 dcbb
000003c0: df96 c6bb c164 733f fe70 c53f dcd5 9f3f
000003d0: 248d c43f c66d c1bc 9793 0fbd 8e74 593b
000003e0: 80f7 693e 20eb 71be b39b c53f f8e0 0e3f
000003f0: 330c 213f 9d53 5c3f 4322 4c3f 4caa eabd

lstm.weight_hh_l0 f4 [256, 64]
-0.1798614 -0.11757284 -0.051136345 -0.002586297 -0.06862514 -0.029999454 0.037394904 0.10347328
-0.046383142 -0.11860368 0.13448665 -0.02121732 0.1735867 0.06678172 0.06320441 0.13942102
0.16896275 0.07150883 -0.14573139 0.1315706 -0.11599997 0.020932656 -0.06403816 0.07296042
-0.027326714 -0.09752333 -0.013222969 0.07843042 -0.13779972 0.18852814 -0.1620537 -0.06912036
-0.023922516 -0.07189627 -0.07791797 -0.16860814 0.0026233818 -0.031274274 0.051599625 -0.033639923
-0.07357923 0.0223246 0.286449 0.040352263 -0.06952735 -0.10769569 0.027391896 0.08166402
0.076426275 0.123515695 -0.030951435 0.014790982 -0.102433875 0.02215683 -0.05665398 -0.13615257
-0.08650111 -0.016959114 0.09739894 -0.06874953 0.08026449 -0.14576778 -0.12591173 0.13043146
0.0748835 0.0659867 -0.25029203 0.09839783 -0.15071553 -0.10375901 -0.19604462 -0.19947252
-0.025986783 0.061515506 0.030485595 0.30721483 -0.08201073 0.33066383 -0.0011961176 0.13051692
0.012482576 -0.2936516 0.15699695 -0.07889299 0.02168864 0.032656267 -0.15400603 -0.13466322
-0.15823449 0.08482425 0.07348507 -0.2981747 0.18065639 0.16838239 -0.0100179305 -0.111051254
-0.07663555 0.11273858 -0.2457969 -0.008530538 -0.045014046 -0.15816467 -0.14862747 -0.07604332
-0.072312914 -0.031613696 0.0975889 0.004108962 -0.04855987 0.21816507 0.040864177 -0.10656778
-0.14441346 -0.00071677734 -0.13225983 -0.113992 0.1405088 0.032222 -0.013657799 0.34742764
-0.24579604 0.031139841 0.11688396 -0.29642868 -0.049168162 0.15701334 -0.27435037 -0.12693414
0.103773005 -0.37438494 0.19412477 0.10281786 0.14474261 -0.1966024 -0.1448085 0.030976696
-0.14271337 0.40190336 0.09880655 0.20759879 -0.45080456 0.1435165 -0.33391222 0.079912394
-0.04721693 -0.2991695 0.3861704 -0.085148305 0.30802423 -0.047703728 -0.2919734 -0.34082836
-0.21886726 0.2797989 -0.009925872 -0.004198985 0.6925801 0.1450328 0.0067588408 0.00030919645
-0.108080894 0.10217619 -0.22813578 0.042947233 -0.18910433 0.42624524 -0.2640221 0.5088829
0.47619495 -0.2881566 -0.4821967 -0.26916188 0.3268136 -0.5693975 -0.28192312 0.029686566
0.22175892 -0.20589067 -0.28263345 -0.3632092 0.24592336 0.003574367 0.16111997 0.14369547
-0.36949298 -0.2881595 -0.34859043 -0.1557402 -0.21658039 0.110217825 -0.36529794 -0.40218464
-0.061660532 0.033787902 0.28420767 0.00057829224 -0.054524302 -0.013247891 0.112783596 0.07091904
0.055586882 0.020676034 -0.018122077 -0.2663291 0.25907782 -0.06247534 0.032423902 -0.09427959
-0.22609627 0.21169522 -0.2514314 0.08948189 0.10304999 0.15379381 0.039871346 -0.01407504
0.003631077 -0.1352016 -0.21202256 -0.08549182 0.0304024 -0.038555216 0.02416862 0.12038806
-0.08755857 0.03749283 0.0534224 0.2556562 -0.15449512 -0.122165985 0.08518284 0.19683512
-0.053623002 0.059202027 0.07233623 -0.006517891 -0.25183386 -0.09763873 0.28114492 -0.13110888
-0.06259759 0.25701037 -0.015762184 0.10413107 -0.3210257 0.06569309 0.026635902 0.01659881
0.09232805 0.13948147 0.1345568 0.15367164 -0.03697063 0.1291823 -0.042437717 0.004438324
00000000: 962d 38be 07ca f0bd 5874 51bd dd7e 29bb
00000010: 568b 8cbd 6ac1 f5bc 662b 193d cde9 d33d
00000020: 40fc 3dbd 7ce6 f2bd deb6 093e f2cf adbc
00000030: b6c0 313e dbc4 883d 5071 813d 62c4 0e3e
00000040: 9204 2d3e 3973 923d 9c3a 15be 72ba 063e
00000050: 6491 edbd f67a ab3c 7026 83bd 466c 953d
00000060: 46dc dfbc 50ba c7bd 27a5 58bc 21a0 a03d
00000070: 5f1b 0dbe 850d 413e 68f1 25be fa8e 8dbd
00000080: 27f9 c3bc 5a3e 93bd 7593 9fbd 9da7 2cbe
00000090: 0bed 2b3b 7419 00bd 215a 533d 04ca 09bd
000000a0: b5b0 96bd 14e2 b63c 71a9 923e 6a48 253d
000000b0: 5b64 8ebd 8f8f dcbd f864 e03c 773f a73d
000000c0: 6185 9c3d ccf5 fc3d dd8d fdbc e055 723c
000000d0: dac8 d1bd 3e82 b53c 010e 68bd 946b 0bbe
000000e0: 7e27 b1bd d7ed 8abc 1879 c73d 8ecc 8cbd
000000f0: b561 a43d 2644 15be 01ef 00be d38f 053e
00000100: 855c 993d 0924 873d 4726 80be cd84 c93d
00000110: 2c55 1abe 9b7f d4bd ecbf 48be 8642 4cbe
00000120: 3ce2 d4bc aff7 7b3d edbc f93c 434b 9d3e
00000130: 3ef5 a7bd c54c a93e 0cc7 9cba 3aa6 053e
00000140: b883 4c3c 8159 96be cfc3 203e a692 a1bd
00000150: 60ac b13c 94c2 053d c2b3 1dbe 28e5 09be
00000160: 3908 22be 56b8 ad3d 577f 963d 5baa 98be
00000170: fdfd 383e 6f6c 2c3e 3f22 24bc d76e e3bd
00000180: 19f3 9cbd 7ce3 e63d 2fb2 7bbe abc3 0bbc
00000190: a660 38bd ebf5 21be cd31 18be 9abc 9bbd
000001a0: cb18 94bd 5d7d 01bd b0dc c73d 79a4 863b
000001b0: b7e6 46bd aa66 5f3e 3261 273d 3540 dabd
000001c0: 1fe1 13be 1de6 3bba 1f6f 07be a374 e9bd
000001d0: 8ae1 0f3e 37fb 033d f6c4 5fbc 09e2 b13e
000001e0: f5b1 7bbe fb18 ff3c dc60 ef3d 80c5 97be
000001f0: 8e64 49bd 1bc8 203e a777 8cbe 06fb 01be
00000200: f186 d43d 62af bfbe a5c8 463e 2c92 d23d
00000210: 6837 143e 2452 49be ae48 14be d7c2 fd3c
00000220: 7423 12be 47c6 cd3e 175b ca3d c794 543e
00000230: dbcf e6be fdf5 123e 8bf6 aabe 1ca9 a33d
00000240: 8a66 41bd bf2c 99be 20b8 c53e 3c62 aebd
00000250: 5ab5 9d3e fc64 43bd 8a7d 95be 0e81 aebe
00000260: bd1e 60be cd41 8f3e 20a0 22bc a497 89bb
00000270: ee4c 313f 7a83 143e 4479 dd3b a51b a239
00000280: 8459 ddbd c041 d13d 6d9c 69be 70e9 2f3d
00000290: 91a4 41be d13c da3e e82d 87be 2646 023f
000002a0: d3cf f33e 4389 93be 7ce2 f6be 96cf 89be
000002b0: 1d54 a73e 09c4 11bf 3a58 90be 3e31 f33c
000002c0: c514 633e 01d5 52be 55b5 90be 8ef6 b9be
000002d0: 55d3 7b3e ed3f 6a3b a2fc 243e e824 133e
000002e0: 2f2e bdbe a489 93be 727a b2be 5c7a 1fbe
000002f0: 40c7 5dbe e2b9 e13d 5508 bbbe 25eb cdbe
00000300: c18f 7cbd 2f65 0a3d ab83 913e 8998 173a
00000310: e054 5fbd af0d 59bc 16fb e63d 003e 913d
00000320: 12af 633d c960 a93c c074 94bc 4a5c 88be
00000330: d9a5 843e 24e6 7fbd edce 043d a815 c1bd
00000340: c885 67be a2c6 583e 9ebb 80be 4842 b73d
00000350: e00b d33d 207c 1d3e 2350 233d ff9a 66bc
00000360: 5df7 6d3b 4a72 0abe 711c 59be 5616 afbd
00000370: 740e f93c 13ec 1dbd 45fd c53c 048e f63d
00000380: e851 b3bd 1592 193d 72d1 5a3d 5fe5 823e
00000390: f833 1ebe 2932 fabd 5774 ae3d 258f 493e
000003a0: cba3 5bbd d37d 723d 0425 943d 0894 d5bb
000003b0: 5ef0 80be d1f6 c7bd 3af2 8f3e 6841 06be
000003c0: 2a33 80bd dd96 833e b21f 81bc ac42 d53d
000003d0: 7b5d a4be 198a 863d 8933 da3c 3afa 873c
000003e0: 7d16 bd3d 3bd4 0e3e 42c9 093e 195c 1d3e
000003f0: 846e 17bd 5d48 043e 2cd3 2dbd 5c6f 913b

lstm.bias_ih_l0 f4 [256]
-0.1789547 0.10055158 0.3607264 -0.061732344 -0.09728668 -0.071615726 -0.059287146 0.29027817
-0.003044527 -0.10687204 0.6328436 0.15599057 0.3253251 0.24938028 -0.016068958 0.013196725
0.013495862 -0.1358126 0.062564686 -0.09439125 0.2651501 0.12702091 0.14463462 -0.08261692
-0.016232058 0.3345336 0.12052882 0.06798239 0.12639666 0.7386386 1.0326262 0.25754204
-0.02213325 0.008736914 0.05562809 0.35839134 -0.15526016 0.2630057 0.32971242 -0.12697259
0.29156998 -0.01318468 0.033770118 -0.06864977 0.9305125 -0.24133278 -0.011653176 -0.05449391
1.377636 0.098185845 0.6871442 -0.13351089 0.026556605 0.71512955 0.093785144 0.33347395
0.006315753 0.43370777 0.11959478 0.101135716 0.623505 0.19901285 0.015770039 0.00333148
-0.08131915 -0.011196819 -0.34143743 0.015688278 0.045453228 0.14012183 0.1445656 -0.042806044
0.0010704752 0.073106654 -0.21723197 0.072926 -0.105533205 0.17496893 0.16502917 -0.012880206
0.13617912 -0.011529857 -0.016793897 0.02430307 -0.17457479 0.23861931 -0.017623546 0.12720193
0.13008308 -0.49358734 -0.0073868963 -0.053190913 -0.37050116 -0.5137081 -0.40545377 -0.18694754
0.0726173 -0.045178436 -0.015115414 -0.33793795 0.18672563 -0.16119263 -0.5515575 -0.36464506
-0.28137082 -0.15576258 -0.2655414 0.11322943 -0.22783221 -0.37393287 0.040289614 -0.018020323
-0.3785661 -0.0059578735 -0.562026 0.21602578 -0.13528408 -0.27846563 0.1816945 -0.04783536
0.13956144 -0.09979333 -0.29701248 0.019054072 -0.30384827 -0.24692202 -0.08009212 -0.23943587
0.14927359 0.026582882 -0.20412563 0.0014079212 0.031433325 -0.051883094 0.0039785495 0.03785067
-0.12926209 0.16647816 -0.06442463 0.14513198 0.07032077 -0.0909491 -0.056541376 -0.07480137
-0.14887945 0.13646705 0.054240473 -0.06788184 0.012173243 0.021348245 0.10102596 0.07206579
-0.054801427 -0.18124698 0.109312445 -0.06373915 -0.056491103 0.1308256 -0.13858925 0.052639946
-0.07619192 0.052650485 0.25252146 -0.043187045 0.00809521 -0.119263515 0.027838167 -0.1957505
0.0045865434 0.16358285 -0.03250042 -0.07379448 0.12202882 0.19566013 0.091975994 -0.07610912
0.12674259 -0.13511291 0.026827103 -0.094428405 -0.0196541 -0.024424244 0.016710158 0.10233647
-0.045472957 0.20301355 0.04386783 -0.17003243 -0.010932405 -0.02503474 0.09678243 -0.13593593
-0.022097439 -0.014795887 0.36528596 0.01357161 -0.09699261 -0.10552608 0.045886472 0.20114973
0.028549135 0.061136305 0.32021984 0.025037916 0.3054966 0.18538605 -0.051719278 0.0005758017
-0.0866417 -0.042405937 -0.015269961 0.11679029 0.11329926 -0.05930051 0.08506847 0.13918772
-0.0014142112 0.3405257 0.024973102 0.1053663 0.027226483 0.72671264 1.0154479 0.16396014
0.15354128 -0.10709777 0.09804154 0.28692326 -0.082944736 0.01582549 0.30351785 -0.13056779
0.40767232 -0.090881065 0.09795598 -0.10750713 0.9190008 -0.20277588 0.08776056 0.017204521
1.39832 0.05347036 0.59961253 0.066601194 0.14715606 0.6346421 0.107324645 0.24133968
-0.10312456 0.2765914 -0.008206298 0.14293739 0.5364212 0.20819025 0.16519368 -0.069437206
00000000: e73f 37be fded cd3d 21b1 b83e 0edb 7cbd
00000010: 3d3e c7bd 44ab 92bd 14d7 72bd 579f 943e
00000020: b086 47bb badf dabd 0a02 223f febb 1f3e
00000030: 0391 a63e 8b5d 7f3e 0ca3 83bc 1437 583c
00000040: bf1d 5d3c 7512 0bbe ea21 803d 3350 c1bd
00000050: c1c1 873e c511 023e 191b 143e 0f33 a9bd
00000060: 18f9 84bc fd47 ab3e d0d7 f63d 5a3a 8b3d
00000070: 206e 013e 6b17 3d3f 182d 843f 8ddc 833e
00000080: ca50 b5bc 4625 0f3c 48da 633d 127f b73e
00000090: 85fc 1ebe afa8 863e 11d0 a83e 1a05 02be
000000a0: a948 953e 8e04 58bc 8952 0a3d 4098 8cbd
000000b0: 1136 6e3f f11f 77be f6ec 3ebc 0235 5fbd
000000c0: 6056 b03f a915 c93d afe8 2f3f 14b7 08be
000000d0: 3d8d d93c bb12 373f 6d12 c03d 19bd aa3e
000000e0: 60f4 ce3b f20e de3e 1cee f43d 3e20 cf3d
000000f0: 069e 1f3f 06ca 4b3e 2b30 813c f654 5a3b
00000100: a88a a6bd dd72 37bc e3d0 aebe b484 803c
00000110: 2a2d 3a3d 197c 0f3e 0109 143e 6455 2fbd
00000120: 304f 8c3a f1b8 953d 0f72 5ebe 3a5a 953d
00000130: cb21 d8bd 0e2b 333e 68fd 283e 8007 53bc
00000140: 8a72 0b3e bae7 3cbc 5b93 89bc 3b17 c73c
00000150: bcc3 32be 9f58 743e 415f 90bc 3941 023e
00000160: 8034 053e 7bb7 fcbe c70d f2bb b7de 59bd
00000170: 54b2 bdbe 6082 03bf a397 cfbe 2d6f 3fbe
00000180: 61b8 943d 060d 39bd a4a6 77bc 3406 adbe
00000190: 0135 3f3e ae0f 25be df32 0dbf c2b2 babe
000001a0: d60f 90be 3a80 1fbe 0bf5 87be d5e4 e73d
000001b0: d94c 69be 2174 bfbe b906 253d 5b9f 93bc
000001c0: 6ad3 c1be 443a c3bb f0e0 0fbf dd35 5d3e
000001d0: e987 0abe 0c93 8ebe 1f0e 3a3e 03ef 43bd
000001e0: 32e9 0e3e 7260 ccbd 0512 98be 4917 9c3c
000001f0: 0092 9bbe 20d9 7cbe 5607 a4bd ad2e 75be
00000200: 2ddb 183e 58c4 d93c 4f06 51be ff89 b83a
00000210: 3bc0 003d 5e83 54bd 7e5e 823b 4e09 1b3d
00000220: 485d 04be 4079 2a3e 0ff1 83bd 7a9d 143e
00000230: 5604 903d 8643 babd ee97 67bd 7631 99bd
00000240: db73 18be 05be 0b3e 422b 5e3d a205 8bbd
00000250: 4872 473c 84e2 ae3c b3e6 ce3d 3b97 933d
00000260: 7677 60bd cf98 39be 34df df3d ac89 82bd
00000270: 3763 67bd 25f7 053e 57ea 0dbe fc9c 573d
00000280: 820a 9cbd 09a8 573d 7e4a 813e e6e4 30bd
00000290: c6a1 043c 6e40 f4bd de0c e43c d272 48be
000002a0: b74a 963b 4382 273e 291f 05bd 8f21 97bd
000002b0: 3fea f93d 215b 483e e95d bc3d 19df 9bbd
000002c0: cfc8 013e 0a5b 0abe 83c4 db3c ae63 c1bd
000002d0: a301 a1bc 5a15 c8bc bee3 883c c895 d13d
000002e0: da41 3abd c9e2 4f3e c1ae 333d fb1c 2ebe
000002f0: d41d 33bc a815 cdbc de35 c63d ca32 0bbe
00000300: b005 b5bc 736a 72bc c306 bb3e 755b 5e3c
00000310: 10a4 c6bd 0f1e d8bd 74f3 3b3d 32fa 4d3e
00000320: e0df e93c 106a 7a3d dbf3 a33e 511c cd3c
00000330: 0d6a 9c3e d7d5 3d3e 98d7 53bd 66f1 163a
00000340: 3471 b1bd d9b1 2dbd dc2e 7abc bf2f ef3d
00000350: 7109 e83d 17e5 72bd 6138 ae3d 3a87 0e3e
00000360: 0e5d b9ba 6259 ae3e 6494 cc3c 49ca d73d
00000370: 130a df3c d709 3a3f 32fa 813f 2be5 273e
00000380: ed39 1d3e 1356 dbbd 01ca c83d 9be7 923e
00000390: eede a9bd 75a4 813c b166 9b3e 90b3 05be
000003a0: 6dba d03e da1f babd 259d c83d b32c dcbd
000003b0: a343 6b3f 7ba4 4fbe cfbb b33d 7ff0 8c3c
000003c0: 26fc b23f bc03 5b3d 3580 193f 3566 883d
000003d0: 14b0 163e e877 223f 06cd db3d c021 773e
000003e0: f832 d3bd 639d 8d3e b573 06bc 2e5e 123e
000003f0: e652 093f d32f 553e 8828 293e 1835 8ebd

lstm.bias_hh_l0 f4 [256]
-0.1454371 0.09754651 0.49804643 0.043494105 0.105120055 -0.11935677 -0.07119441 0.15666117
-0.078447714 0.04594086 0.5083308 0.0529864 0.3645225 0.40073615 -0.11368221 -0.12246718
0.046172563 -0.06944077 -0.0970047 -0.041627824 0.21790904 -0.06115086 -0.0474536 0.07131363
0.082248285 0.28208855 0.008915441 0.036667887 0.086971305 0.912865 1.1639307 0.2690201
-0.010259282 -0.073130324 0.11495025 0.42926288 -0.21810053 0.104041785 0.39780536 -0.034073606
0.348303 -0.03605111 0.17189637 -0.070280775 0.9935066 -0.05931424 -0.18583596 0.04347358
1.3842602 -0.09127281 0.67090636 -0.06359929 -0.13043804 0.59275955 0.09687402 0.3447336
-0.07223084 0.39626497 0.06596571 0.15146166 0.6629211 0.06523468 -0.02999879 -0.074337445
-0.115046844 0.019165134 -0.39794978 0.10137987 -0.08001214 0.10816925 0.22696109 -0.005001783
-0.036723223 -0.043798167 -0.10291505 -0.020815402 -0.26320395 -0.06537191 -0.066218324 0.06985585
0.09666789 -0.085802265 -0.040648982 0.114522256 -0.12708606 0.20716918 0.07132473 0.1332377
0.021480164 -0.3427062 -0.06777101 -0.029816447 -0.4313981 -0.33487535 -0.41562828 -0.07147375
-0.07176138 -0.038425487 0.10613572 -0.37962493 -0.0007891866 -0.33261487 -0.42526618 -0.3812256
-0.22928786 -0.2309204 -0.1854266 0.048837144 -0.25296432 -0.4532937 -0.14117293 0.025903353
-0.27320868 0.13778956 -0.5289578 0.20299713 -0.057718236 -0.2970313 0.16138105 -0.15575114
-0.07574185 -0.09902708 -0.28090912 0.0034693242 -0.40556967 -0.19122943 -0.31484342 -0.2841204
0.075608686 0.2515445 -0.09698965 0.10104308 -0.065990925 -0.062232908 0.09185032 -0.0970409
-0.1440442 0.15999883 -0.04510994 0.18621847 0.04475082 -0.12949222 -0.1534903 -0.0022447584
-0.116782665 -0.062479846 0.059894428 -0.060948156 0.17982623 -0.08803225 0.13875371 -0.14388005
-0.028523082 -0.12540041 0.14163093 0.03000351 -0.23471476 0.12789248 -0.042514328 0.117884934
-0.17683078 -0.044841405 0.029800022 -0.18979499 0.0021819442 -0.2574594 0.16214819 -0.16650319
-0.17864925 0.1774204 0.05106746 0.023158928 0.028288288 0.14144467 0.115929626 -0.037915148
0.08173989 -0.11837408 0.20883195 -0.019918889 -0.0945975 -0.122171044 -0.10190588 0.13241413
0.087477036 0.014183301 0.11781274 -0.09028101 -0.07582197 -0.08197989 0.16224574 0.019819107
0.0024552913 0.03817271 0.41949186 0.036013696 0.10032183 0.06824074 -0.07824737 0.3304599
0.053717628 -0.071635276 0.54087543 0.019772055 0.32417372 0.29538447 0.045159265 -0.16160733
0.016276589 -0.19328758 -0.089367755 0.08491153 0.020040901 -0.12557586 -0.03832323 -0.025718255
0.037131477 0.40740627 0.053204592 -0.011589141 0.022763735 0.70431834 0.9532333 0.15521465
0.034287136 0.07212702 0.1744655 0.3050137 0.02031327 0.22794679 0.4517825 -0.18697077
0.40329948 -0.14264782 0.16162656 -0.0040143016 0.920623 -0.18461047 0.02248635 -0.11646445
1.5286204 -0.046539485 0.816974 -0.07578765 0.11906362 0.59339917 0.2028234 0.38708672
0.053099528 0.46445686 0.08502053 0.2693018 0.47969592 0.06593408 -0.02726367 0.02639452
00000000: 77ed 14be 77c6 c73d f1ff fe3e e026 323d
00000010: 2f49 d73d 5271 f4bd 60ce 91bd c96b 203e
00000020: 32a9 a0bd 7c2c 3c3d f821 023f 4408 593d
00000030: b1a2 ba3e 4a2d cd3e 38d2 e8bd 13d0 fabd
00000040: 711f 3d3d f636 8ebd 66aa c6bd f081 2abd
00000050: 8c23 5f3e 5379 7abd b55e 42bd e10c 923d
00000060: ca71 a83d e96d 903e 1212 123c 1131 163d
00000070: 031e b23d 85b1 693f aefb 943f 01bd 893e
00000080: 8c16 28bc 5ac5 95bd 096b eb3d 58c8 db3e
00000090: bf55 5fbe dc13 d53d 25ad cb3e c490 0bbd
000000a0: c554 b23e 54aa 13bd 9a05 303e 5eef 8fbd
000000b0: 7356 7e3f 7df3 72bd c84b 3ebe 5a11 323d
000000c0: 702f b13f 3ded babd 85c0 2b3f 5840 82bd
000000d0: 8d91 05be 17bf 173f e365 c63d ec80 b03e
000000e0: c3ed 93bd 3ee3 ca3e 0819 873d c418 1b3e
000000f0: 32b5 293f c399 853d 06c0 f5bc 3b3e 98bd
00000100: ae9d ebbd 3300 9d3c 13c0 cbbe 40a0 cf3d
00000110: 68dd a3bd d787 dd3d 7d68 683e ffe5 a3bb
00000120: 176b 16bd b565 33bd 20c5 d2bd 1085 aabc
00000130: abc2 86be b5e1 85bd 799d 87bd 9510 8f3d
00000140: d1f9 c53d 19b9 afbd 8c7f 26bd a58a ea3d
00000150: d922 02be 2824 543e b312 923d 776f 083e
00000160: 2bf7 af3c 3077 afbe 87cb 8abd 9f41 f4bc
00000170: 36e0 dcbe c874 abbe 3bcd d4be d460 92bd
00000180: a1f7 92bd 0b64 1dbd af5d d93d 335e c2be
00000190: 6be1 4eba 7f4c aabe 7dbc d9be 0030 c3be
000001a0: 70ca 6abe 6676 6cbe 78e0 3dbe 7509 483d
000001b0: 8a84 81be 1d16 e8be a38f 10be 4533 d43c
000001c0: 02e2 8bbe b518 0d3e c769 07bf 7bde 4f3e
000001d0: f569 6cbd 7d14 98be 1341 253e 3a7d 1fbe
000001e0: 8b1e 9bbd b6ce cabd 52d3 8fbe 9a5d 633b
000001f0: d4a6 cfbe a6d1 43be 2833 a1be 3b78 91be
00000200: bad8 9a3d 71ca 803e 82a2 c6bd adef ce3d
00000210: 4026 87bd efe7 7ebd 051c bc3d 61bd c6bd
00000220: 5380 13be bcd6 233e 33c5 38bd 0eb0 3e3e
00000230: a34c 373d 9c99 04be 902c 1dbe cc1c 13bb
00000240: c02b efbd deea 7fbd dc53 753d c6a4 79bd
00000250: 5e24 383e 414a b4bd 7415 0e3e 4b55 13be
00000260: 3da9 e9bc f768 00be b307 113e ecc9 f53c
00000270: 1159 70be 3ff6 023e 8123 2ebd a86d f13d
00000280: 2113 35be 9fab 37bd 2d1f f43c 9e59 42be
00000290: f3fe 0e3b b8d1 83be 2d0a 263e d07f 2abe
000002a0: d4ef 36be b1ad 353e 1d2c 513d cbb7 bd3c
000002b0: d7bc e73c dfd6 103e 836c ed3d ea4c 1bbd
000002c0: 3e67 a73d 1c6e f2bd 0bd8 553e f02c a3bc
000002d0: 56bc c1bd d034 fabd 08b4 d0bd 9297 073e
000002e0: 2927 b33d 1361 683c ce47 f13d 40e5 b8bd
000002f0: 8d48 9bbd 13e5 a7bd bf23 263e ae5b a23c
00000300: f4e8 203b fd5a 1c3d a3c7 d63e 1983 133d
00000310: 8875 cd3d cdc1 8b3d 2840 a0bd 0a32 a93e
00000320: 0407 5c3d 84b5 92bd d076 0a3f 01f9 a13c
00000330: 19fa a53e a23c 973e ecf8 383d 647c 25be
00000340: 7b56 853c 2eed 45be 7106 b7bd 19e6 ad3d
00000350: d12c a43c f596 00be d2f8 1cbd 17af d2bc
00000360: 2d17 183d 8e97 d03e 0fed 593d 61e0 3dbc
00000370: 037b ba3c 354e 343f 1907 743f 97f0 1e3e
00000380: ab70 0c3d 55b7 933d 16a7 323e c12a 9c3e
00000390: 0468 a63c e26a 693e 0950 e73e 4475 3fbe
000003a0: 457d ce3e 4512 12be 6f81 253e 678a 83bb
000003b0: f3ad 6b3f 870a 3dbe 4b35 b83c ea84 eebd
000003c0: d5a9 c33f 30a0 3ebd 3525 513f 8e36 9bbd
000003d0: a1d7 f33d 02e9 173f f0b0 4f3e 3b30 c63e
000003e0: e47e 593d 4acd ed3e 3e1f ae3d ede1 893e
000003f0: b49a f53e 7208 873d 0f58 dfbc 5239 d83c

lstm.weight_ih_l1 f4 [256, 64]
0.046463836 -0.43602753 0.78245723 0.353873 0.70727366 -0.23145613 0.008725535 0.2382814
-0.16708112 0.44366 0.8625729 0.1509941 -1.0488951 0.72111166 -0.19873418 0.04056342
-0.045244813 -0.36678594 0.12812784 0.2179042 -0.578084 -0.086957775 -0.42569157 -0.18149436
0.01521375 -0.07683623 -0.34277225 -0.432149 0.34312436 0.17899846 -0.046897866 -0.6294297
-0.08105913 0.79187965 -0.48307192 0.5490515 -0.1122763 0.38187352 -0.97186214 0.7987431
0.37986252 0.15325767 -0.07393548 -0.16275461 1.1448052 -0.368625 0.20295636 0.29523194
1.0881194 -0.041979823 -0.44288257 -0.20364481 -0.19288734 -0.5187468 -0.28934938 -0.42509776
-0.48810554 -0.8196244 -0.17869094 0.2688674 0.7026837 -0.041019835 -0.35743234 -0.06348858
0.1760296 -0.3260371 0.3660387 0.16317013 0.26980683 -0.21378012 -0.12557743 0.054038096
-0.12566568 0.13647637 0.23006348 -0.11238112 -0.6228607 0.1544852 -0.267353 0.12772688
-0.091076136 -0.15259837 -0.031284604 -0.060209837 -0.033773508 -0.21367607 -0.4647788 -0.22120349
-0.2690516 0.5367998 -0.44765386 -0.25949717 0.2326137 -0.5741381 0.6709249 -0.19127016
-0.22911718 0.1711445 -0.25125104 0.359743 -0.060337078 0.089399226 -0.24688756 0.21924457
0.16699684 0.07356913 -0.19266722 -0.20335937 -0.5659387 -0.2816737 -0.15623355 0.02874149
-0.4658569 0.05344899 -0.54946816 -0.09733884 0.03162078 0.20071812 0.21966475 0.019287473
-0.28636217 -0.4795644 -0.29892325 0.2903194 0.18099806 0.35285622 0.062474884 -0.24352375
0.068904065 -0.381312 0.35155064 0.19489013 0.07419108 -0.27262607 -0.24971859 0.05545559
-0.02115849 0.19253428 0.25772732 0.0442463 -0.7430198 0.21901122 -0.53800964 0.09009649
-0.2301106 -0.060318477 0.08769009 -0.22538061 0.17227532 -0.056499258 -0.19556352 -0.45358044
-0.5389409 0.40677702 -0.23593743 -0.266966 0.0012480132 -0.41018742 0.50754607 0.07217735
-0.14640537 0.19177139 -0.1632479 0.2433251 -0.20557004 0.16239387 -0.28012204 0.14949392
0.21428044 0.003402173 -0.08229701 -0.45297188 -0.38330173 -0.18530968 -0.2586328 -0.28685987
-0.5198208 0.11274381 -0.47060314 -0.39653382 -0.14809094 0.1394427 0.20255263 0.011602132
-0.30533823 -0.48964688 -0.15599445 0.4578708 0.035964277 0.28168252 0.2223844 -0.17889574
0.11320528 -0.13411957 0.009827096 0.20562084 0.18045776 -0.14249559 0.1598172 0.21607548
-0.16666088 0.15886018 0.2443973 -0.13327605 -0.57153386 -0.057700515 -0.11348072 -0.1114111
0.050909642 -0.005335777 0.011919247 -0.018171998 -0.028696196 -0.11803282 -0.044172768 -0.024333626
-0.16517349 -0.31524995 0.08400329 0.16467401 -0.2689304 0.1640054 -0.3719081 -0.045376055
-0.083945446 0.14506453 -0.028231386 -0.08062243 -0.097723134 0.15609697 -0.6144466 -0.40404227
0.2430729 0.22628427 -0.05692969 -0.08561179 0.6749364 0.5587749 -0.16695252 0.24324365
0.80962837 -0.080009155 0.58620197 0.062542714 0.11829217 -0.4353072 -0.1776556 -0.13045236
0.021288011 -0.2509851 -0.2655754 0.10907561 0.22711106 -0.26276982 0.33348104 -0.017296087
00000000: dd50 3e3d 003f dfbe 1e4f 483f d82e b53e
00000010: e30f 353f d602 6dbe 8cf5 0e3c 0a00 743e
00000020: 5017 2bbe 6727 e33e 94d1 5c3f 339e 1a3e
00000030: 3242 86bf c69a 383f f980 4bbe d425 263d
00000040: a052 39bd 5ecb bbbe f233 033e 4722 5f3e
00000050: 50fd 13bf eb16 b2bd 3ff4 d9be a8d9 39be
00000060: 1843 793c 505c 9dbd d87f afbe a242 ddbe
00000070: ffad af3e 5f4b 373e fa17 40bd 4e22 21bf
00000080: 5402 a6bd a0b8 4a3f 3455 f7be a48e 0c3f
00000090: 1ef1 e5bd ed84 c33e f5cb 78bf 6e7a 4c3f
000000a0: 577d c23e 94ef 1c3e 7c6b 97bd 25a9 26be
000000b0: fa88 923f 6abc bcbe cbd3 4f3e a428 973e
000000c0: 7f47 8b3f 09f3 2bbd 81c1 e2be 4488 50be
000000d0: 4284 45be 97cc 04bf 9a25 94be 6aa6 d9be
000000e0: f8e8 f9be e8d2 51bf c2fa 36be fda8 893e
000000f0: 14e3 333f 6a04 28bd 5f01 b7be 4d06 82bd
00000100: 1a41 343e 56ee a6be 6d69 bb3e 1216 273e
00000110: 1f24 8a3e 2de9 5abe 5f97 00be 0d57 5d3d
00000120: 81ae 00be 76c0 0b3e c395 6b3e 1328 e6bd
00000130: cd73 1fbf 5e31 1e3e 7ee2 88be d6ca 023e
00000140: 2086 babd bf42 1cbe 4924 00bd 979e 76bd
00000150: 1756 0abd e6cd 5abe 7df7 edbe 2b83 62be
00000160: 22c1 89be b66b 093f e332 e5be d0dc 84be
00000170: 4932 6e3e b7fa 12bf bcc1 2b3f 53dc 43be
00000180: b29d 6abe 8140 2f3e faa3 80be 3c30 b83e
00000190: 0324 77bd f116 b73d 18d0 7cbe a681 603e
000001a0: 3801 2b3e 69ab 963d 8e4a 45be 703d 50be
000001b0: 5ce1 10bf 8937 90be b0fb 1fbe 4673 eb3c
000001c0: cc84 eebe 54ed 5a3d f2a9 0cbf 9659 c7bd
000001d0: ca84 013d 0d89 4d3e ccef 603e c300 9e3c
000001e0: 109e 92be 7789 f5be 780c 99be bfa4 943e
000001f0: 8e57 393e 92a9 b43e aae5 7f3d 4a5e 79be
00000200: 931d 8d3d 543b c3be 72fe b33e 4791 473e
00000210: 7ef1 973d a595 8bbe 3bb6 7fbe 6725 633d
00000220: 9254 adbc b527 453e d6f4 833e 9c3b 353d
00000230: 8c36 3ebf 7a44 603e 00bb 09bf 8284 b83d
00000240: 1da2 6bbe 8210 77bd dd96 b33d 2dca 66be
00000250: f168 303e c46b 67bd ce41 48be b23b e8be
00000260: 08f8 09bf 1445 d03e 9599 71be c4af 88be
00000270: 6094 a33a 1604 d2be 8aee 013f b8d1 933d
00000280: 4aeb 15be b85f 443e 752a 27be 372a 793e
00000290: f480 52be 944a 263e 286c 8fbe ef14 193e
000002a0: 556c 5b3e fef6 5e3b 568b a8bd eeeb e7be
000002b0: 2040 c4be d2c1 3dbe 856b 84be 4cdf 92be
000002c0: fa12 05bf 3ae6 e63d e5f2 f0be 7b06 cbbe
000002d0: 27a5 17be 11ca 0e3e f569 4f3e de16 3e3c
000002e0: 4b55 9cbe ffb2 fabe 02bd 1fbe 0b6e ea3e
000002f0: 474f 133d b138 903e bcb8 633e 7230 37be
00000300: 2bd8 e73d a456 09be d401 213c 458e 523e
00000310: ebc9 383e 5dea 11be 1fa7 233e e442 5d3e
00000320: 26a9 2abe 3eac 223e 4943 7a3e 8479 08be
00000330: 0b50 12bf 6057 6cbd 9468 e8bd 812b e4bd
00000340: a186 503d bed7 aebb f248 433c 71dd 94bc
00000350: 4914 ebbc 31bb f1bd 81ee 34bd 5057 c7bc
00000360: 3d23 29be 7168 a1be eb09 ac3d 4ea0 283e
00000370: 3fb1 89be 08f1 273e bd6a bebe 3edc 39bd
00000380: 97eb abbd cc8b 143e 8245 e7bc 5f1d a5bd
00000390: 1123 c8bd e2d7 1f3e 5f4c 1dbf a1de cebe
000003a0: 1ae8 783e 10b7 673e 1b2f 69bd 3c55 afbd
000003b0: a2c8 2c3f df0b 0f3f 9af5 2abe dd14 793e
000003c0: ce43 4f3f d7db a3bd 5511 163f 6516 803d
000003d0: 2a43 f23d 96e0 debe 59eb 35be 4e95 05be
000003e0: 3264 ae3c 1e81 80be 80f9 87be 0963 df3d
000003f0: cd8f 683e c489 86be 07be aa3e 86b0 8dbc

lstm.weight_hh_l1 f4 [256, 64]
0.027509587 -0.25074735 -0.42172518 0.3257256 -0.13393526 0.22621495 -0.056437284 -0.057671435
-0.26222405 0.09584918 0.08638337 -0.16793638 -0.26223996 0.24999501 0.19829367 0.23491554
-0.25718972 0.21098436 0.3586655 -0.34680703 -0.317965 -0.008623046 -0.033340573 -0.28067452
0.18945476 0.0063274293 -0.25844043 -0.08293664 0.11106574 0.33390823 0.06359035 0.0917766
0.06657568 0.043804776 0.482353 -0.15010335 -0.431217 -0.22149542 0.26773188 -0.29587847
-0.283287 0.37758482 -0.34165552 -0.08078002 -0.14561825 0.11827992 0.18837284 0.27959034
-0.08820657 -0.00022126216 0.062080003 -0.097835846 0.28759342 -0.18781342 0.25068477 0.10678399
-0.14919363 -0.60113925 -0.029480556 0.11951478 -0.07219096 -0.21949914 -0.00717913 0.2741151
0.8539939 -0.23484966 -0.34460923 0.45884073 -0.25247526 0.171791 -0.40500998 0.1451951
0.069355346 0.04688938 -0.07224563 -0.286976 -0.33047378 0.17660959 -0.24310574 0.42805117
-0.12068046 0.22250932 0.3153212 -0.03153788 -0.18147796 -0.054655008 0.49224818 -0.48832598
0.41168472 -0.038498 -0.07467318 -0.29818836 0.16695286 0.34476665 0.44471684 0.45510122
0.3173769 0.084913276 0.6973816 -0.18812904 -0.27828202 -0.09862908 0.32140577 -0.35602334
-0.121073395 0.02732746 -0.10916266 -0.081511 -0.24831118 0.27356514 0.30265537 -0.23264213
-0.3059685 0.16243017 0.21606407 -0.23127675 0.14164793 -0.11248731 0.36273408 0.28798258
-0.23007382 -0.6879471 -0.1978964 0.19596207 0.009379784 -0.23471789 0.032520007 -0.07929411
0.6781431 0.10081872 -0.32701033 0.38989812 -0.21302655 0.41272575 -0.63607097 0.3074255
-0.0384081 -0.06779096 -0.19714679 -0.3857686 -0.37188584 0.5403101 0.13507262 0.36143237
-0.47363248 0.5436642 0.55176854 -0.12317175 -0.21172038 -0.16998698 0.6469576 -0.3911365
0.51241595 -0.30218372 -0.122999586 -0.49241495 0.4775336 0.23503251 0.5532892 0.70720875
0.045582436 -0.010089519 0.5985072 -0.2439476 -0.5751735 -0.34656444 0.47709668 -0.35600242
0.20866606 0.28456524 0.12978871 -0.31888926 -0.52431923 0.24262112 0.33394647 -0.41628683
-0.3176818 0.33413717 0.44771373 -0.5288977 0.5707066 -0.474634 0.31132892 0.5810412
-0.4606211 -0.60699904 -0.016654767 0.60718536 -0.15910752 -0.4711121 0.29336163 -0.01933032
0.24290809 -0.0035739741 0.06656206 0.20080332 -0.26534572 0.29647523 -0.20328894 0.17544447
0.09449006 0.03507743 -0.065000005 -0.101866834 -0.30008912 0.20224674 -0.15009579 0.09309911
-0.19640085 0.33030903 0.12095131 0.0011060421 -0.23049958 -0.16626562 0.1625272 -0.15462466
0.23088112 -0.032968 0.13020797 -0.13687104 0.23425455 0.28452882 0.33284754 0.07885122
0.17592864 0.055110987 0.28410053 -0.27192605 -0.32386878 -0.15332536 0.13636592 -0.053015016
0.257722 -0.03347512 -0.10584107 -0.039575875 -0.06068732 0.25645465 0.1912821 -0.0011645607
-0.13045244 0.019497193 0.20256782 -0.08947112 0.28245178 -0.08379637 0.2484522 0.1495641
-0.24696109 -0.112539984 -0.11180946 0.1685957 -0.08096657 -0.25394675 0.20669582 -0.28004858
00000000: c95b e13c f561 80be 5dec d7be 81c5 a63e
00000010: 5326 09be e4a4 673e c82a 67bd e238 6cbd
00000020: 3b42 86be 934c c43d c4e9 b03d 84f7 2bbe
00000030: 5144 86be b1fe 7f3e 7f0d 4b3e b38d 703e
00000040: 5fae 83be 490c 583e 01a3 b73e b190 b1be
00000050: 4fcc a2be ad47 0dbc 2090 08bd 92b4 8fbe
00000060: 6e00 423e 5356 cf3b 4e52 84be afda a9bd
00000070: 6f76 e33d 05f6 aa3e a83b 823d 5ff5 bb3d
00000080: d558 883d a36c 333d f9f6 f63e b1b4 19be
00000090: 7ac8 dcbe b2cf 62be 2714 893e 627d 97be
000000a0: fe0a 91be cc52 c13e 79ed aebe ff6f a5bd
000000b0: f31c 15be be3c f23d cfe4 403e 7726 8f3e
000000c0: a5a5 b4bd 9c02 68b9 9a47 7e3d 295e c8bd
000000d0: 723f 933e 2952 40be c159 803e 91b1 da3d
000000e0: 37c6 18be 43e4 19bf 3581 f1bc 2ac4 f43d
000000f0: dbd8 93bd 62c4 60be e83e ebbb d058 8c3e
00000100: 589f 5a3f 6e7c 70be 9f70 b0be 2ced ea3e
00000110: 7044 81be fbe9 2f3e 785d cfbe 06ae 143e
00000120: 2d0a 8e3d 140f 403d 84f5 93bd 85ee 92be
00000130: dc33 a9be 25d9 343e b6f0 78be 8629 db3e
00000140: 5127 f7bd 7cd9 633e c871 a13e dd2d 01bd
00000150: 5cd5 39be eedd 5fbd f407 fc3e dd05 fabe
00000160: 57c8 d23e 14b0 1dbd 41ee 98bd 25ac 98be
00000170: b1f5 2a3e 4185 b03e edb1 e33e 0703 e93e
00000180: 3a7f a23e 03e7 ad3d 9a87 323f e6a4 40be
00000190: fb7a 8ebe 0bfe c9bd 4c8f a43e b148 b6be
000001a0: 54f5 f7bd d6dd df3c ac90 dfbd 3def a6bd
000001b0: 4945 7ebe bb10 8c3e a5f5 9a3e bd39 6ebe
000001c0: e7a7 9cbe 1854 263e e63f 5d3e d0d3 6cbe
000001d0: 280c 113e bf5f e6bd 48b8 b93e 7472 933e
000001e0: 7998 6bbe 4d1d 30bf 5ba5 4abe 48aa 483e
000001f0: aaad 193c e359 70be b333 053d f364 a2bd
00000200: c99a 2d3f 0c7a ce3d e66d a7be baa0 c73e
00000210: a223 5abe ca50 d33e 8cd5 22bf e066 9d3e
00000220: d051 1dbd fdd5 8abd d9e0 49be 7683 c5be
00000230: d267 bebe c351 0a3f 7a50 0a3e aa0d b93e
00000240: f57f f2be 942d 0b3f b440 0d3f 7841 fcbd
00000250: 3acd 58be 1111 2ebe 039f 253f 0b43 c8be
00000260: b12d 033f d3b7 9abe 35e7 fbbd d01d fcbe
00000270: 497f f43e 5dac 703e 5ca4 0d3f a20b 353f
00000280: a6b4 3a3d 834e 25bc c537 193f 66cd 79be
00000290: 923e 13bf e570 b1be 0446 f43e f345 b6be
000002a0: 8eac 553e 89b2 913e 55e7 043e 7445 a3be
000002b0: c939 06bf ac71 783e 08fb aa3e 8c23 d5be
000002c0: 30a7 a2be 0714 ab3e bc3a e53e d765 07bf
000002d0: d419 123f 3a03 f3be 8166 9f3e 1ebf 143f
000002e0: 87d6 ebbe 4a64 1bbf 946f 88bc 8070 1b3f
000002f0: 15ed 22be 9b35 f1be 7f33 963e 9f5a 9ebc
00000300: e6bc 783e 5639 6abb b051 883d 639f 4d3e
00000310: 65db 87be 9acb 973e fa2a 50be b7a7 333e
00000320: 0184 c13d 5aad 0f3d b91e 85bd 8f9f d0bd
00000330: 48a5 99be c519 4f3e b6b2 19be bfaa be3d
00000340: 4e1d 49be 441e a93e 52b5 f73d 9df8 903a
00000350: 1508 6cbe 8941 2abe 886d 263e ed55 1ebe
00000360: 1a6c 6c3e 7409 07bd 3d55 053e ec27 0cbe
00000370: 6de0 6f3e c3ad 913e fe6a aa3e c07c a13d
00000380: a326 343e 0fbc 613d a075 913e e439 8bbe
00000390: 21d2 a5be 5301 1dbe 82a3 0b3e 4626 59bd
000003a0: 23f4 833e 351d 09bd 34c3 d8bd 501a 22bd
000003b0: 4493 78bd 064e 833e 74df 433e 2ca4 98ba
000003c0: 5395 05be 94b8 9f3c f06d 4f3e a23c b7bd
000003d0: 859d 903e 6e9d abbd 416a 7e3e 5527 193e
000003e0: 5ee3 7cbe 5d7b e6bd 5cfc e4bd 5aa4 2c3e
000003f0: cdd1 a5bd 4f05 82be 12a8 533e 8762 8fbe

lstm.bias_ih_l1 f4 [256]
0.3223338 0.23553303 0.4867955 0.14909966 -0.008583399 0.14355107 0.10857997 -0.17825624
0.2189632 0.35528052 -0.1356469 -0.14166585 -0.073531546 0.058978036 0.055051137 0.32878935
0.038699128 0.0002626294 0.06374643 0.3238069 -0.039560076 0.055876672 0.029461496 0.08134263
-0.008545446 -0.023439627 0.08470432 0.14302745 -0.011524754 0.25055036 -0.061510257 0.0048529343
0.28560004 0.017400227 0.50199074 -0.06315575 0.17706192 0.04861637 0.07828685 -0.024250511
-0.040905975 -0.09268503 0.15497024 0.072703496 0.12641816 -0.0047308784 0.007620077 0.60574347
0.29532444 0.022881424 0.21322876 0.21887173 0.006481644 0.16221264 0.001910203 0.04160992
0.19993821 0.37511832 0.059774693 -0.038781453 0.071467444 0.04457304 0.045859586 0.0406698
-0.10493589 -0.09250377 -0.040234167 0.10217089 0.15203609 0.07189449 -0.0855317 -0.0009986605
-0.10398504 -0.06932889 0.13979746 0.28537834 0.19758394 0.021424804 -0.098602474 -0.08877834
-0.031870022 0.05960302 0.17737268 -0.11530958 0.06832492 -0.00287684 -0.08483104 0.061904985
0.2192916 0.07497903 0.084214926 0.0453825 0.022450237 -0.0389292 -0.11676357 0.077399746
-0.057598915 0.026762446 -0.023477672 0.01904854 0.01992551 0.005056182 -0.0030088 0.11585162
-0.15074453 0.33296803 -0.07122709 0.12266589 0.011662736 0.12512825 0.14688131 -0.11429345
-0.014908399 -0.14094338 0.06574896 0.1607515 -0.02951776 0.19086805 0.06768966 0.114501014
0.08034687 -0.17084543 0.08797377 0.1306361 -0.094389364 0.10850101 -0.08559647 0.042374007
0.031939305 0.081717804 0.103260554 0.09440667 -0.12632917 0.13218537 0.073329315 0.10212119
-0.0030789666 0.008336663 -0.11842582 -0.07172877 -0.043408185 0.043967552 -0.072214395 0.081559874
-0.20191936 0.059575293 0.06320236 0.08433772 -0.054456167 -0.10375614 -0.015207502 -0.0006248431
0.1677122 0.016178854 -0.027225705 -0.15013786 0.1547686 0.04548917 0.049975373 0.018431041
-0.0035552345 0.024806302 -0.015148394 -0.108561054 -0.01252496 -0.117818706 0.18648036 -0.17802384
0.09195992 0.058192667 0.14449026 -0.05786921 0.018855104 0.09755327 0.13472681 -0.02514659
-0.16684209 -0.048169695 0.04313221 -0.04529502 0.18910924 -0.05587826 0.06000392 0.11162074
-0.0023804929 0.10061458 -0.002181915 -0.08643187 -0.081604734 -0.035027303 -0.09319757 -0.0033401502
0.15256318 0.25462458 0.3884357 0.094788656 -0.09447029 0.07848213 0.034748342 0.061626703
0.04880385 0.086344324 -0.21054432 0.12991074 -0.15073654 0.05344803 0.021192295 0.12603892
0.013769634 0.011435567 -0.03740754 0.27702913 0.11145206 0.016653743 0.024017714 0.06857842
-0.060577426 0.08677417 0.037356626 0.049257345 0.10540957 0.19505374 0.010726272 -0.06536621
0.3140465 0.1279068 0.28259706 -0.094185665 0.06927907 0.017589618 0.102029696 -0.11908104
0.077575624 -0.061003264 0.13508435 -0.18364957 -0.010317191 -0.15606883 0.065465644 0.3325188
0.21195203 0.0490076 0.052117556 -0.04644641 0.12967537 -0.10435724 0.12809204 -0.008259904
-0.033089597 0.12469976 0.15111268 0.05567509 0.15361202 -0.14708994 -0.09749569 0.23834874
00000000: f008 a53e 922f 713e 433d f93e 95ad 183e
00000010: 62a1 0cbc 0dff 123e 2d5f de3d ce88 36be
00000020: e437 603e 54e7 b53e 05e7 0abe da10 11be
00000030: b597 96bd f492 713d 4d7d 613d 1457 a83e
00000040: fa82 1e3d 85b1 8939 7d8d 823d 05ca a53e
00000050: bf09 22bd f0de 643d 3c59 f13c f796 a63d
00000060: 3302 0cbc 7604 c0bc 7579 ad3d ca75 123e
00000070: 52d2 3cbc 2348 803e 2ef2 7bbd 5d05 9f3b
00000080: 2b3a 923e ec8a 8e3c 7782 003f cd57 81bd
00000090: b84f 353e f521 473d db54 a03d 02a9 c6bc
000000a0: 068d 27bd a6d1 bdbd 85b0 1e3e 92e5 943d
000000b0: c373 013e 7c05 9bbb d7b1 f93b 0112 1b3f
000000c0: c434 973e d371 bb3c a458 5a3e e91f 603e
000000d0: f963 d43b 121b 263e c75f fa3a 2a6f 2a3d
000000e0: 9abc 4c3e 820f c03e 4fd6 743d 4dd9 1ebd
000000f0: 865d 923d 3892 363d 43d7 3b3d 6095 263d
00000100: a1e8 d6bd 9e72 bdbd 95cc 24bd f93e d13d
00000110: 59af 1b3e 6b3d 933d 3e2b afbd 7ce5 82ba
00000120: 1cf6 d4bd 4efc 8dbd 1127 0f3e 1c1d 923e
00000130: 7253 4a3e 1283 af3c 18f0 c9bd 6bd1 b5bd
00000140: 248a 02bd 4c22 743d 2fa1 353e 6e27 ecbd
00000150: f0ed 8b3d 5e89 3cbb e5bb adbd 1590 7d3d
00000160: fa8d 603e 9b8e 993d e078 ac3d 00e3 393d
00000170: 8fe9 b73c 3a74 1fbd bd21 efbd c283 9e3d
00000180: d7ec 6bbd eb3c db3c 3f54 c0bc af0b 9c3c
00000190: d33a a33c 54ae a53b 4a2f 45bb 9d43 ed3d
000001a0: c65c 1abe c97a aa3e 82df 91bd 4138 fb3d
000001b0: 0f15 3f3c 9f21 003e 0e68 163e af12 eabd
000001c0: 5c42 74bc 7653 10be 64a7 863d 0b9c 243e
000001d0: 3bcf f1bc ea72 433e e0a0 8a3d 827f ea3d
000001e0: e68c a43d 1bf2 2ebe 982b b43d 78c5 053e
000001f0: 364f c1bd c735 de3d 344d afbd 5e90 2d3d
00000200: cad2 023d aa5b a73d 457a d33d 4958 c13d
00000210: 6f5c 01be 9a5b 073e ae2d 963d ea24 d13d
00000220: 7dc8 49bb 8096 083c 3c89 f2bd 89e6 92bd
00000230: c8cc 31bd 5217 343d 24e5 93bd dd08 a73d
00000240: f3c3 4ebe 3905 743d 3d70 813d 41b9 ac3d
00000250: 6e0d 5fbd 197e d4bd e328 79bc 83cc 23ba
00000260: bfbc 2b3e 8489 843c 7108 dfbc bdbd 19be
00000270: a97b 1e3e da52 3a3d fab2 4c3d b2fc 963c
00000280: f0fe 68bb 9636 cb3c f830 78bc 4255 debd
00000290: 7d35 4dbc ef4a f1bd b5f4 3e3e e24b 36be
000002a0: 7c55 bc3d 6f5b 6e3d 41f5 133e 4408 6dbd
000002b0: 0576 9a3c 02ca c73d d3f5 093e 3900 cebc
000002c0: a7d8 2abe 964d 45bd 66ab 303d 4587 39bd
000002d0: daa5 413e 9ae0 64bd acc6 753d 6a99 e43d
000002e0: 0b02 1cbb 040f ce3d 76fe 0ebb 3103 b1bd
000002f0: 6220 a7bd ca78 0fbd 5ede bebd 6ce6 5abb
00000300: 8639 1c3e 275e 823e 0be1 c63e 8e20 c23d
00000310: a479 c1bd 3dbb a03d 4754 0e3d 486c 7c3d
00000320: 8ce6 473d 4bd5 b03d ee98 57be 5207 053e
00000330: ae5a 1abe 52ec 5a3d 779b ad3c 5910 013e
00000340: 089a 613c 3f5c 3b3c a638 19bd c3d6 8d3e
00000350: fa40 e43d 6e6d 883c ccc0 c43c d872 8c3d
00000360: 0920 78bd a8b6 b13d 4303 193d 12c2 493d
00000370: f9e0 d73d 2bbc 473e 3fbd 2f3c b8de 85bd
00000380: b4ca a03e 00fa 023e 90b0 903e 6ae4 c0bd
00000390: 2fe2 8d3d 1a18 903c f2f4 d03d c3e0 f3bd
000003a0: f8df 9e3d 8fde 79bd 8d53 0a3e a20e 3cbe
000003b0: 6f09 29bc 82d0 1fbe da12 863d e73f aa3e
000003c0: f409 593e 31bc 483d 3879 553d 973e 3ebd
000003d0: 9fc9 043e 40b9 d5bd 8f2a 033e 8c54 07bc
000003e0: f588 07bd 9662 ff3d 48bd 1a3e 900b 643d
000003f0: 784c 1d3e bf9e 16be d2ab c7bd b111 743e

lstm.bias_hh_l1 f4 [256]
0.37542564 0.41205406 0.70974886 0.33711126 0.008309716 -0.039636444 0.0031607104 -0.07322092
0.1763247 0.44392693 0.042197604 0.019219432 -0.005652429 -0.06303309 0.23834985 0.34915546
0.005314437 0.09043967 0.03724769 0.37574986 -0.12503187 -0.06213381 -0.08230591 0.10837317
-0.027795795 -0.024906259 -0.0005589698 0.09254015 0.015834784 0.11951854 0.038350366 -0.06702368
0.5089863 0.19414684 0.5137011 -0.024341907 0.09496468 0.094354115 0.06567083 -0.033306915
-0.09506812 0.12576671 0.27102938 0.055923972 -0.05803289 0.12599994 0.010551548 0.47777626
0.07206147 0.056535356 -0.021573404 0.089962766 0.1698307 0.066711664 -0.052753553 0.049069967
0.17050114 0.34761196 0.25074247 0.030409526 0.20214055 0.041546643 -0.09485351 0.17379689
-0.0055333637 -0.051090054 0.014509741 0.02118857 0.10426947 0.11763163 -0.119567715 -0.011896871
-0.058527846 -0.26916763 0.14616017 0.09020451 0.26541644 0.101317875 -0.097686514 0.004739863
0.052085232 0.16091284 0.10033526 -0.04443785 -0.005702891 0.03601025 -0.10517705 0.05212921
0.08593122 -0.08590252 0.1483254 0.20652874 0.14894137 -0.042383924 -0.16378637 -0.06933774
-0.0017853241 -0.07432162 -0.12389271 0.16609694 0.09918049 0.107571386 0.061484396 -0.07617944
-0.037406363 0.310034 0.01994745 0.16162318 -0.019783756 -0.026218927 -0.032356117 -0.061760925
-0.10241296 -0.080284104 0.19277541 0.15560342 -0.011141587 0.0017708133 0.1020695 0.059513766
0.16029198 -0.07311722 0.05594241 0.08710731 0.033087924 0.02635029 -0.017535567 0.018067356
0.12852225 0.119557634 0.047305144 -0.036354076 -0.10509258 0.103762805 -0.01103412 0.036243264
-0.038050897 0.056657758 -0.15281972 0.07666045 -0.016496073 -0.015546758 -0.07174453 -0.043021664
-0.15612186 0.12164585 0.006003864 -0.092551626 0.15981524 0.08117633 -0.08687606 0.022104578
0.05269564 0.0039073336 0.11138961 0.08322522 -0.039864045 -0.092296906 0.011209621 -0.067970395
-0.044319473 0.0037336275 0.11150505 0.037819423 -0.15953436 -0.160798 0.18591167 -0.1555734
-0.0093042655 -0.084338896 0.04967797 -0.15849113 0.09729083 0.13535555 0.118964754 -0.031655118
-0.12778787 0.063061334 0.047302477 -0.13617979 0.10913719 -0.060248766 0.19653817 0.0010744854
-0.10525235 0.048574224 0.039881654 0.09298838 -0.035424665 0.00642426 0.093603045 -0.01756409
0.07643403 0.11493819 0.41456214 0.13651264 -0.16189325 0.098495536 0.050069854 0.04863414
0.06413429 0.0018958075 -0.16471907 -0.061875332 0.055419624 -0.11922707 0.1541253 0.14528383
-0.02141097 0.042133413 -0.09069923 0.18357539 0.12051632 0.0108062215 -0.03566255 0.14070883
-0.03288596 0.016407473 0.04098179 0.058874093 -0.063021295 0.04164565 -0.21878767 0.1057119
0.36160576 0.10312593 0.23761827 -0.123294674 0.053538144 0.03202812 0.0747979 0.002027504
-0.1492262 0.06587142 0.2596567 -0.06107648 -0.0886115 0.017036447 0.06361003 0.24136335
0.12874839 -0.09013845 0.11659892 -0.08257151 -0.06694708 -0.15620501 -0.0447202 0.059481923
-0.060346562 0.10184672 0.23712504 -0.078015 0.16536173 -0.06256712 0.051457442 0.18729223
00000000: ca37 c03e c0f8 d23e 1ab2 353f d999 ac3e
00000010: 7a25 083c d359 22bd ec23 4f3b daf4 95bd
00000020: 768e 343e 644a e33e 65d7 2c3d 1272 9d3c
00000030: 0338 b9bb 7e17 81bd fc11 743e 81c4 b23e
00000040: bb24 ae3b 6f38 b93d 0991 183d 4962 c03e
00000050: 5b08 00be 0680 7ebd 0090 a8bd c1f2 dd3d
00000060: 02b4 e3bc 3608 ccbc d487 12ba b185 bd3d
00000070: f3b7 813c 23c6 f43d 4615 1d3d b643 89bd
00000080: ed4c 023f 6ece 463e ea81 033f ae68 c7bc
00000090: d87c c23d bb3c c13d 6e7e 863d d56c 08bd
000000a0: 13b3 c2bd fdc8 003e 5dc4 8a3e 8910 653d
000000b0: e5b3 6dbd 2106 013e 66e0 2c3c 179f f43e
000000c0: f794 933d 9e91 673d b5ba b0bc 663e b83d
000000d0: 19e8 2d3e 20a0 883d 1c14 58bd 97fd 483d
000000e0: da97 2e3e 32fa b13e 5161 803e 661d f93c
000000f0: effd 4e3e d02c 2a3d 8f42 c2bd d0f7 313e
00000100: 3851 b5bb ce43 51bd 44ba 6d3c a793 ad3c
00000110: 3b8b d53d dae8 f03d ebdf f4bd 18eb 42bc
00000120: e5ba 6fbd 57d0 89be 03ab 153e 24bd b83d
00000130: aae4 873e bf7f cf3d de0f c8bd da50 9b3b
00000140: 5357 553d 56c6 243e 937c cd3d 7704 36bd
00000150: 51df babb 7c7f 133d 1167 d7bd 7085 553d
00000160: b5fc af3d a9ed afbd 9de2 173e 457c 533e
00000170: 1684 183e c49a 2dbd 9db7 27be f200 8ebd
00000180: 8901 eaba ef35 98bd 76bb fdbd 5115 2a3e
00000190: 241f cb3d 634e dc3d 10d7 7b3d f703 9cbd
000001a0: 6a37 19bd c7bc 9e3e d668 a33c 8c80 253e
000001b0: 8b11 a2bc 13c9 d6bc d987 04bd 06f9 7cbd
000001c0: e3bd d1bd fe6b a4bd eb66 453e 8156 1f3e
000001d0: 348b 36bc a21a e83a d009 d13d b5c4 733d
000001e0: 9523 243e 7bbe 95bd de23 653d 5165 b23d
000001f0: 3487 073d 90dc d73c c0a6 8fbc fe01 943c
00000200: 569b 033e a2da f43d 0ac3 413d 03e8 14bd
00000210: c73a d7bd 9881 d43d 74c8 34bc d173 143d
00000220: 42db 1bbd f711 683d c67c 1cbe 2700 9d3d
00000230: c622 87bc d4b7 7ebc ccee 92bd 7c37 30bd
00000240: 69de 1fbe 7621 f93d 10bc c43b b58b bdbd
00000250: 9ba6 233e c73f a63d 13ec b1bd a914 b53c
00000260: 62d7 573d 1709 803b 3c20 e43d fc71 aa3d
00000270: 7b48 23bd 2906 bdbd 8fa8 373c 1034 8bbd
00000280: 5688 35bd e0af 743b c25c e43d 8ae8 1a3d
00000290: fa5c 23be 3ba8 24be a15f 3e3e a24e 1fbe
000002a0: eb70 18bc dfb9 acbd 217b 4b3d 804b 22be
000002b0: 6a40 c73d a59a 0a3e cba3 f33d cca8 01bd
000002c0: d3da 02be 4d26 813d 3ec0 413d b772 0bbe
000002d0: 5283 df3d 69c7 76bd 4d41 493e bfd5 8c3a
000002e0: 8b8e d7bd c4f5 463d f25a 233d b170 be3d
000002f0: 7419 11bd 9982 d23b f4b2 bf3d 91e2 8fbc
00000300: 7289 9c3d b764 eb3d 7d41 d43e f8c9 0b3e
00000310: 58c7 25be 07b8 c93d 0c16 4d3d 9834 473d
00000320: d758 833d be7c f83a 1eac 28be fd70 7dbd
00000330: b0ff 623d 522d f4bd 06d3 1d3e 49c5 143e
00000340: 0f66 afbc 1694 2c3d 85c0 b9bd 30fb 3b3e
00000350: 43d1 f63d 940c 313c e512 12bd fa15 103e
00000360: 6eb3 06bd f768 863c 85dc 273d f625 713d
00000370: 4f11 81bd a194 2a3d e009 60be 7b7f d83d
00000380: 6424 b93e b033 d33d 3452 733e eb81 fcbd
00000390: d04a 5b3d eb2f 033d a42f 993d dfdf 043b
000003a0: c1ce 18be 98e7 863d b9f1 843e 552b 7abd
000003b0: f279 b5bd 0590 8b3c fa45 823d f427 773e
000003c0: 9ed6 033e 829a b8bd 6acb ee3d 401b a9bd
000003d0: 8d1b 89bd 35f4 1fbe 872c 37bd 51a3 733d
000003e0: f52d 77bd 0395 d03d e8d0 723e 54c6 9fbd
000003f0: 9654 293e 3123 80bd 0ac5 523d 89c9 3f3e
