api/data/models/GLOBAL_1h_lstm.pth (torch, 211317 bytes, 10 tensors)

lstm.weight_ih_l0 f4 [256, 5]
00000000: b8cd 933f 9668 0f3f 777e 3f3f 3d4d 763f
00000010: 09b1 733f 9545 453f 3def 1e3f 26db 1b3f
00000020: 18cc 533f 1b87 1b3f b7c0 20be 77c8 60bd
00000030: 0e08 bbbe 3615 2bbe 0cfc 00bf 2d64 a7be
00000040: 3fb2 303d e374 5bbd 3946 b8be 3331 8abe
00000050: 164f e63e 2ebf 513e 6a54 273e 6815 ca3d
00000060: 29a8 5e3e 7ffb 0a3e b9df 143f 3be6 003f
00000070: bdf6 e83d 82cb 503f c6d8 da3f 3f01 b53e
00000080: 28e6 243f 05cf 303f 28fc 5e3f a0eb dd3f
00000090: d7cc 7b3f 26c5 783f 92b9 623f 034e b13f
000000a0: c2d9 64bf 2a6e b43e 4568 2d3e 6f1e ea3e
000000b0: c70e ad3d 2b3a 4abe 819a 993e 4547 38bb
000000c0: 6bac e2be 4d68 84bd 6412 d93f 552e 743f
000000d0: cee7 673f 95da 413f 5884 8f3f c029 463e
000000e0: a9ee 213f 417a fe3e 4727 2e3f 5640 ec3e
000000f0: 0432 e33f 9cd7 a53f 0121 aa3f ff3c a23f
00000100: 79cf cf3f 1cbd 9f3e cf7a 843f 6d5e 7f3f
00000110: baac 5c3f e64f 8f3f fa49 2a3d e700 d33e
00000120: 2a86 3a3c b654 aa3e 2446 d03d ad67 9cbd
00000130: 89d0 1dbe 7b10 273e 85d1 a4bd 4fb9 73be
00000140: 05b4 9c3d 268d e13e 999f fb3e dfa4 bd3d
00000150: c679 143f 5db5 d4be 1bd5 9ebd 1aed 923c
00000160: 2ded 87be dfdc 90be 683a 8c3f 0dd4 793f
00000170: ae2b 673f c262 9c3f 1520 703f 09fc 1dbe
00000180: a1e2 bf3e 3874 a53d 5530 acbe 26ec 3bbe
00000190: 404b 573f a1fd 063f a723 c03e f995 2e3f
000001a0: d241 d53e 060e 2cbf da6b 5f3e ddd3 bebe
000001b0: 023d 533e bbe0 ccbd 798b a3bd 5396 50bd
000001c0: 4fda 753e dbd7 d2bc eebf b13c 5246 98be
000001d0: b369 fbbd 1cfc 873b 2675 76be a842 95bd
000001e0: 5f2f 91bd cbde f23d 500b 29be 6a8a cb3d
000001f0: 1ec2 57be 8ccd 693d 63ae c9bd 8d8b adbc
00000200: efcd 8cbc e949 cfbd 8862 dabd 00a1 edbd
00000210: 90b3 0b3d 2d94 57be 4062 6bbd 98d0 493f
00000220: 1637 943f e57b 8b3f b882 823f fd55 a03f
00000230: 9af7 413d afaf 993e 1b46 0c3e eeac d5bc
00000240: 6cce 443e b175 23be 0336 753b dbc9 ea3c
00000250: 73b7 363e ff05 c0be 1464 fabe 0bab e53d
00000260: e3d9 d3bc a931 2ebb fc5e bcbe 345b 8a3d
00000270: 083c 653e 502b 913e 0f66 bd3d 3815 a63d
00000280: f037 76be 172e 0abd 76a4 c13e f067 fbbc
00000290: 3367 c1bd 6a29 e7be 90f1 83bd 28b1 9d3e
000002a0: f4ce f9be 930d 4dbe 9a59 0a40 1494 bd3f
000002b0: 30a8 b13f 71e1 853f 5381 0640 592b 47be
000002c0: ab7a 023e 58ef 913e d12a 213e 2738 b4be
000002d0: a7ca 13bf a96a a0bd ab3d 71be 3d94 83be
000002e0: a2ce 99be c234 813e fe00 0a3f 335d f73e
000002f0: 6b1c cf3e 2778 2d3f 3443 8abb 79fe c43e
00000300: 5eb7 823e 2d2c bbbe 6fd9 c13e 29a2 613f
00000310: c5d3 1d3e b2ba f33e 864e 133f 8780 bc3e
00000320: 82cc 34be 39dc 00be 8655 a7be b9bb c0bc
00000330: e538 87be 683b af3f d87c 223f cde1 4d3f
00000340: bab7 9a3f 81bb 4f3f b58a b43d 06c9 d93e
00000350: 4121 953e 7178 083f 70bf 213f ca42 a9be
00000360: da80 4d3d 291c 24be a4cb 14be 8f73 ebbd
00000370: fde4 e2be 42e8 2639 6a63 1dbe 21c7 d2be
00000380: dce6 b9be 41e7 043f 2dbd 1b3d df93 6dbd
00000390: cec3 4b3e c77f 1a3d a80d 3d3f 30d6 323f
000003a0: 4b0e 5c3f 3fbe a83f 084f 863f c914 0d3f
000003b0: dd83 8f3e f105 c93e 03f5 bdbe 40d4 b53d
000003c0: 6656 5a3e efc0 493e b7e2 61bd 4db6 7b3d
000003d0: f508 313e dbd9 d33d 3d0e f73d 1b79 0f3e
000003e0: f39d 4cbd 5dd0 7e3b 708c 03be a9c1 11bc
000003f0: 27cb c63e d445 803e f1c4 9c3d 8d1d 953f
1.1547155 0.5601896 0.74802345 0.96211606 0.9519201 0.770593 0.620838 0.6088127
0.827333 0.6075303 -0.15698515 -0.05487868 -0.36529583 -0.1670731 -0.50384593 -0.32693616
0.04313874 -0.05357827 -0.35991076 -0.2699066 0.44982213 0.20483086 0.16340795 0.09867364
0.21743836 0.135725 0.58153874 0.50351304 0.113751866 0.8156053 1.7097404 0.35352513
0.6441369 0.69065887 0.8710351 1.7337532 0.98359436 0.97175825 0.8856441 1.3851932
-0.8939477 0.35240299 0.16934307 0.45726344 0.08450084 -0.19748752 0.3000069 -0.0028118652
-0.4427217 -0.06465206 1.6958737 0.953832 0.9058808 0.75724155 1.1212263 0.19351864
0.6325479 0.49702647 0.6802868 0.46142834 1.7749639 1.2956424 1.3291322 1.2674865
1.6235191 0.31198967 1.0349978 0.9975346 0.8620106 1.1196258 0.041574456 0.41211626
0.011384526 0.33267754 0.10169628 -0.07636962 -0.15411581 0.1631488 -0.08047775 -0.23801158
0.076515235 0.44053 0.491452 0.09259962 0.5799831 -0.4154462 -0.077554904 0.017935324
-0.26548138 -0.2829351 1.0955324 0.9758919 0.90301025 1.2217638 0.93798953 -0.15428175
0.37477592 0.080788076 -0.33630624 -0.18351802 0.840992 0.52730757 0.375272 0.6819759
0.4165178 -0.672089 0.21818486 -0.37271014 0.20628741 -0.100038014 -0.07985587 -0.05092461
0.2400906 -0.025737694 0.021697965 -0.2974115 -0.1227602 0.004149927 -0.24068126 -0.07288104
-0.070891134 0.11858901 -0.16508222 0.0993851 -0.21070144 0.05708079 -0.09847715 -0.021184707
-0.01718804 -0.10121519 -0.106633246 -0.11602974 0.03410679 -0.21052618 -0.057466745 0.78833914
1.1579311 1.0897185 1.0196142 1.2526242 0.047355272 0.30016848 0.13698618 -0.026083436
0.19219369 -0.15962864 0.0037416227 0.028660705 0.17843418 -0.37504575 -0.4890448 0.112142645
-0.025860732 -0.0026579893 -0.36791217 0.06755677 0.22386181 0.28353357 0.09247982 0.08109516
-0.24044776 -0.03373536 0.37820786 -0.03068921 -0.09443512 -0.45148784 -0.06442559 0.30799222
-0.48790705 -0.2002471 2.1617188 1.4810815 1.3879452 1.0459424 2.1016433 -0.1945013
0.12742107 0.28502917 0.1573899 -0.3519909 -0.577311 -0.07832844 -0.2355868 -0.25699034
-0.3004046 0.25235564 0.53907764 0.48313293 0.4045137 0.6776146 -0.004219437 0.38475397
0.25530523 -0.3655714 0.378612 0.8813806 0.15412815 0.47603375 0.5754169 0.3681681
-0.17656139 -0.12584008 -0.32682437 -0.023527013 -0.26410595 1.3690004 0.63471746 0.8042267
1.2087319 0.81145483 0.08815519 0.4253618 0.29126933 0.5330878 0.63182735 -0.3305877
0.05017171 -0.16026367 -0.14530808 -0.114966504 -0.4431533 0.00015917516 -0.15369955 -0.41167548
-0.36308944 0.51915365 0.03802221 -0.05800235 0.19898912 0.037719514 0.7384896 0.69858074
0.8595931 1.3183059 1.0492868 0.5510984 0.2803029 0.39262345 -0.37100992 0.08878374
0.21322021 0.19702505 -0.055147853 0.061453152 0.17288573 0.10344287 0.120632626 0.14011042
-0.04995532 0.0038881518 -0.12846541 -0.00889627 0.38826868 0.25053275 0.07654751 1.1649643

lstm.weight_hh_l0 f4 [256, 64]
00000000: e88a 5e3e 78bd 173f ed11 663e 2842 453f
00000010: 939e 81bf 3197 8e3f 37d9 113f 7729 9b3e
00000020: 17cf 70be 8703 4ebf 1d72 dd3d a31d 0dbf
00000030: 303a 4a3d c51a 7b3f b076 8abe 10e7 b93e
00000040: f414 a83f e3cc 1cbf 3f87 38bf 3aaf 573f
00000050: 861b 5a3f 7daf a9be 5638 fc3e 79f4 243f
00000060: 0567 703e 3f4c acbe c75c 37bf 2339 3e3f
00000070: e425 b6bd 30a8 0abf 865f d7be d545 413f
00000080: a461 053f f3d7 5fbf 478c 1ebf a9b9 053f
00000090: 2e44 23bf 52b8 903f 8388 9abf e9cd 8f3d
000000a0: ad7e b43e c79e 98be 60bf fc3e ab6a 443f
000000b0: 4afa 20bf 6e74 f1be 8ffc b93e ce8b 83be
000000c0: 4124 ad3e 54ab 47bf 7375 c83e b390 543f
000000d0: fcf7 3a3f 2b75 9dbe 20f6 cabe ce01 f7be
000000e0: b160 703f 7d5c 57bf 8507 853f 6ae9 c73e
000000f0: dc4d 0dbf 3f28 3f3e 074c 22bf 5943 9fbe
00000100: 855b 8ebe 5b06 fcbe 1418 d83e 8996 d53e
00000110: 5361 6cbe 5fbd 97be 99a5 a6be 3967 c73d
00000120: 7ceb b6be bcac e5be 380a e13d 8f48 b93e
00000130: a514 243e 4024 1fbe 6891 1cbe 8480 4d3e
00000140: 16d4 d73d db01 e0be be48 953e 8bda d33e
00000150: 0225 25be a019 d7be 13d8 c8bd 7671 cb3e
00000160: 5472 0f3e 608e 98bd 9f4d cf3c 8558 20bf
00000170: df88 403c 5846 2fbc 639e d0be 9e7c 443e
00000180: e98b 243e 2f5e 32be 91de 0d3f 27d1 213d
00000190: 464f fdbe 013b 283e c0ef 01be e5dc f6be
000001a0: 63ee 673e 4124 cb3e ef74 d7be 65ce 103f
000001b0: 560d ecbe e6cd 12bd 6109 37be b651 c4be
000001c0: c02e 623e 51a4 c5be 6a7a 4a3e 2b16 e9be
000001d0: 16d0 5c3e 326b 2ebf 8373 aa3e 1351 023f
000001e0: 92c7 b6bd ce7b 06bf 9900 1b3e 23ab 0cbf
000001f0: 9525 e4be f6ce c13e c133 6fbe 37ff f03e
00000200: c9de 27be c3b2 39be da90 f53e 0bc7 c8bd
00000210: 0589 4f3c 0631 263d a3b2 da3b e108 633e
00000220: 512e a23d 8dbc d63e ce81 8cbe 4ae3 4abd
00000230: 1011 8a3e b844 a4bd 798c 7e3d e764 fabd
00000240: 3bb1 b1bd 4c64 123e 5564 343e 5df6 b4be
00000250: bcd3 58be 8278 4bbe 7588 2dbd 3b8a d4be
00000260: ed3d 203d 2b52 a33e fcac e13e 4f6c 7f3d
00000270: b2d0 5ebd ab6b b4be bbf0 61be b469 cabe
00000280: 333b 4fbe da0a c5bd a9e2 60be 06ef 2ebc
00000290: c059 c6bd cb3d c2bd 030d fb3d c98d 5bbb
000002a0: a5e4 0bbf 4872 70bd dffd 443e 7a97 ebbe
000002b0: 0f75 013f e0e8 48be b8b6 b1be fc57 f73c
000002c0: ca6f bd3e b20d b73e d8ef 6f3d 9cdc f4bc
000002d0: 0b90 13bf bef8 eb3c 89b5 d43d 3bbe 223e
000002e0: 734e d8be f34d adbc b7f2 04be 3d9e 033f
000002f0: 5b7d f83d c4be 78bd 3c2b 3e3d 7b28 93bc
00000300: 6b0b 7d3e 493a 17bd b458 65be bf43 13bc
00000310: c5d6 523e 6bcd 083d 4a65 1c3e 9c71 53be
00000320: afde 433e bbde 453e 5b06 093e ae1d 083e
00000330: 1184 02be a4c3 2fbd a0d0 d9bc 2307 5bbd
00000340: e314 6dbe ec9a 633e 5462 60be 4a83 91be
00000350: a68e 53bd 6079 943e cbe1 03be b198 06be
00000360: 9eb9 2abd 3a28 973d 622a 193e ac1d 53bc
00000370: ef8e dbbd 3a60 3c3d 2237 923e 6e01 47bd
00000380: 253b f2bd 34fd 113d a82e 52bd 5c80 adbd
00000390: 4692 0e3d 464e febd 86e4 883d b996 633c
000003a0: c0b9 bd3b 65d3 25be c5c9 63be dbfd a8bd
000003b0: 1c44 b03c 1e97 da3d d293 0a3d 9525 2b3e
000003c0: 204e 8cbd b76a ec3d 76fb a0be 992e 8e3e
000003d0: 42ec 1bbd 7703 883e 20ca 9fbe 7fdf 41be
000003e0: 2339 b2bb 4105 443e 531b 8dbe 74b0 8d3d
000003f0: 01da fe3d 5266 8abe 70ea 943e 1ded 14bc
0.21732676 0.5927348 0.22467776 0.7705407 -1.0126518 1.113989 0.5697207 0.30305073
-0.23516499 -0.8047413 0.10812781 -0.5512335 0.0493719 0.9808772 -0.27043676 0.363091
1.3131394 -0.6125013 -0.7208137 0.8425175 0.8519825 -0.331417 0.4926173 0.64435536
0.23476799 -0.3365192 -0.7162594 0.74305934 -0.08893946 -0.54162884 -0.42065066 0.7549718
0.5210211 -0.8743889 -0.61932796 0.5223642 -0.6377591 1.130625 -1.207291 0.07021696
0.35252896 -0.29808637 0.49364758 0.7672526 -0.6288191 -0.4715914 0.363255 -0.256926
0.33816722 -0.779958 0.39152107 0.83033293 0.73034644 -0.30753455 -0.39640903 -0.48243564
0.9389754 -0.841255 1.039292 0.39045268 -0.5519693 0.18667696 -0.6339726 -0.3110607
-0.278042 -0.492236 0.4220587 0.41716412 -0.23084001 -0.29636666 -0.32548216 0.09736485
-0.35726535 -0.44858348 0.10988277 0.3618817 0.160235 -0.15541172 -0.15289843 0.20068556
0.10538499 -0.43751416 0.2915706 0.41377673 -0.16127399 -0.42011738 -0.09806838 0.39735
0.14008456 -0.07449031 0.025305567 -0.6263507 0.011751383 -0.010697924 -0.4074584 0.19188163
0.16068996 -0.1741874 0.55417734 0.039506104 -0.49474543 0.16428758 -0.12689114 -0.48215404
0.22649531 0.39676097 -0.420814 0.56564933 -0.46103925 -0.03584089 -0.17874672 -0.3834359
0.22088146 -0.38601926 0.1977326 -0.45524725 0.21563753 -0.6813232 0.33291253 0.5090496
-0.08924784 -0.5253266 0.15136947 -0.54948634 -0.44559923 0.3785321 -0.23359586 0.47069713
-0.1639358 -0.18134598 0.47962075 -0.098035894 0.012666945 0.040574096 0.006674127 0.22171356
0.079189904 0.41940728 -0.27442783 -0.049533166 0.26966143 -0.080209196 0.062145684 -0.12226277
-0.08676382 0.14296073 0.17616399 -0.3534421 -0.2117452 -0.19870189 -0.042366464 -0.4151171
0.039121557 0.31898627 0.4407729 0.06235915 -0.054398246 -0.35238394 -0.22064488 -0.3953377
-0.20237426 -0.096212104 -0.21961464 -0.010677105 -0.09685087 -0.09484442 0.12258341 -0.0033501259
-0.5464576 -0.058702737 0.19237469 -0.46014005 0.5056924 -0.19620085 -0.34709716 0.030193321
0.3699935 0.35752636 0.058578342 -0.029890351 -0.5764167 0.028805133 0.103861876 0.1589288
-0.42247352 -0.021155333 -0.12983213 0.5141333 0.12133285 -0.060728803 0.04642795 -0.017963639
0.24711387 -0.03692082 -0.22397119 -0.00898832 0.2058974 0.033399027 0.15273014 -0.20648807
0.19127916 0.19323246 0.1338133 0.13292572 -0.12745692 -0.042911187 -0.026588738 -0.053473603
-0.23152499 0.22227067 -0.21912509 -0.28420478 -0.051649712 0.28998852 -0.12879102 -0.13144185
-0.041680925 0.073807195 0.14957574 -0.012885492 -0.10720622 0.045990206 0.28557688 -0.048585348
-0.11827687 0.035641864 -0.051314026 -0.08471748 0.034807466 -0.12417273 0.066842124 0.013890916
0.0057899654 -0.16193922 -0.22244938 -0.08251544 0.021516852 0.106733546 0.03383238 0.16713555
-0.06850839 0.11543792 -0.3144185 0.27769926 -0.03806711 0.26565143 -0.31208897 -0.18932913
-0.00543894 0.19142629 -0.2755991 0.069184214 0.12443925 -0.2703119 0.29085112 -0.009089735

lstm.bias_ih_l0 f4 [256]
00000000: 0791 203f 2acc ea3e 2765 a6bd 3ebd 5fbe
00000010: 0f2d a73e a395 563f 19ea 173f e241 a53f
00000020: acb6 ca3d 4c2e 3ebd 1ce5 763f 0c93 313f
00000030: cf2e c43f 81b7 873f 0817 a63e 371c aabe
00000040: cc11 0f3f 39c0 80be 0f81 743f ada2 c93c
00000050: a9d0 093f 860f 1abc 9bf3 01be 920c 80bd
00000060: 790d 4bbe c9f8 97be 6318 43be c869 9e3f
00000070: 2ed2 353d 1226 7abe 6917 08bd aa39 8b3d
00000080: 9dd0 a9bd b83c 623d e0c1 0240 6514 08be
00000090: 7644 eebd 491e 213f 5949 e93e 775f 253f
000000a0: 404c ecbd 9ac9 503f 9d9d 0c3f 25b4 8dbe
000000b0: bbe6 29be 0172 873d 2e81 5d3f c03d e13d
000000c0: feae b53e 9039 0b3e 6069 10be 4a1a 7e3f
000000d0: 6970 5fbd 2193 96bd 70ba 583e 412a 1f3f
000000e0: 75a2 08be 8772 51be b2ff 5e3f 5264 3a3f
000000f0: f0ab 2dbe b8e2 3d3d 2022 1abe 3ed1 c03e
00000100: c4f1 a1be 6a7e f9be e68f bc3d b201 25be
00000110: 094e dcbe bb7c 82be 2355 cabe b4c2 fdbe
00000120: 5927 80be 0a48 62bd ec95 46be 438b b3be
00000130: c41f edbe d4af c5be 0f3a 7e3d a5f7 5e3c
00000140: 63ff c6be 6072 e5bd 6f45 fdbe 5751 03be
00000150: f041 fabe 7bd7 bc3d d7e1 37be 23b2 963d
00000160: ec15 a23e c83b 9fbe cde4 643e 27c2 14bf
00000170: 663f b9bd 9eac 88be ca7e 3b3e 6a25 4ebe
00000180: 9be7 6bbd 04d5 9bbd 831f ddbe b299 b43e
00000190: 6ede 90bc 36ce a8be 6f7c 64be c61d 9abe
000001a0: 2fb6 513d 8f9d 19bf bab0 c1be 1598 ad3d
000001b0: a9bb 02be 15e1 82be 7f38 ebbe 3594 46be
000001c0: db4f 94be a5c0 8f3d 63d9 353e e06d 7fbe
000001d0: 2fdf 443e 3de2 0abe 64b4 a5be be0a dcbd
000001e0: 7d2d 69be 6b77 a33b 15c1 01bf c924 e5be
000001f0: c364 893d d72f 933d 85da 1f3e 1af1 9fbe
00000200: 003a 9ebe 97a1 10be 237f 243e 6ecf 283e
00000210: 0309 863d f30a e4bd 3c64 a6be 6a05 373e
00000220: 10db b2bd df1d 1ebe 2509 46be 24d7 743d
00000230: bf74 693e 244a 24be b459 84bd 7bba 2d3d
00000240: 3d06 57bc 633d e0bd 6d65 4c3e 10bb 173e
00000250: 37e6 77be b46b a43a ca4b b53c 4c1a e13d
00000260: fc2f 2abc d057 8e3c 1543 a93d 1438 b23c
00000270: c25c 6abe 58fc 9fbd 756f 30be 690d 02be
00000280: 8d03 f33c 305b 80bd 597f bcbd 09ca 703d
00000290: 6604 8fbd d383 9bbd e9ae 373b 9915 55be
000002a0: 0512 a73c d3a1 883e e459 29be 7171 e93d
000002b0: fb5f 343d 8a65 1c3d 6ca6 81bd edf5 debd
000002c0: d35c 6c3e 3b86 a1bd 675d 383c d522 48be
000002d0: 54d3 a9bc 350b 593c 6778 913e 4410 c23d
000002e0: 7818 86bd 8408 debd 6401 d6bd 997e 47bc
000002f0: 7ab8 2fbe 3bb1 2a3e ac11 f13c 9b96 923c
00000300: 0b6c 373f 94bc f33e 8d8c 1cbd 51cc 3abe
00000310: 06c0 633e 8554 3e3f 6aa6 133f 6409 983f
00000320: 35dc a4bd 6beb e9bd ba24 493f ffb1 0d3f
00000330: 3547 bd3f 86b1 893f e25a 283e 5b56 46be
00000340: de01 423f 5577 8ebd ea5d 833f 7a8a c5bd
00000350: 202c 083f 5174 80bd fd3c 55bd 4213 04be
00000360: 4235 8bbc 5d83 3bbe b7d0 1fbe aef2 8f3f
00000370: 89ca b13d 8f2e 83be d554 0dbe d26a 02be
00000380: 0662 58be 0ea4 09be 9cff f63f 7624 5abe
00000390: e55a 24be b778 353f cdf5 f33e 9229 f93e
000003a0: af2b 7cbe 0ba3 153f 3689 af3e db94 8dbe
000003b0: b81b 33be d2e9 ad3d 26f9 5a3f 063f 653e
000003c0: fd12 523e 3636 95bd b1ec 0dbe 6c69 5e3f
000003d0: b2ba 4bbd c11f 61b9 e39c 513e 3a5e 123f
000003e0: 16fb 953d 79e0 07bd 6d4e 823f 72b6 1b3f
000003f0: f4c4 4abe 467a fa3d 72fe 553d 811b 273e
0.62721294 0.4585889 -0.08124762 -0.21849534 0.32651564 0.8382208 0.5934158 1.2910731
0.09898123 -0.04643087 0.96443343 0.69365 1.5326785 1.0602876 0.32439446 -0.3322465
0.5588653 -0.25146654 0.9550943 0.024613703 0.53834015 -0.009403115 -0.12690584 -0.062523976
-0.19829358 -0.29681996 -0.19052272 1.2376032 0.044389896 -0.24428585 -0.03322545 0.06798108
-0.08291743 0.055233687 2.0430832 -0.1328903 -0.11634152 0.62936836 0.45563772 0.6459879
-0.11537981 0.8155762 0.54928 -0.27676502 -0.16591923 0.066135414 0.8652524 0.10998106
0.3548507 0.13596177 -0.14102697 0.99258864 -0.054550562 -0.07352281 0.2116487 0.6217385
-0.13343222 -0.20453845 0.8710891 0.72809327 -0.1696012 0.046358794 -0.1505208 0.3765964
-0.31629765 -0.4872926 0.09207134 -0.16113928 -0.43028286 -0.25485787 -0.3951808 -0.4956261
-0.2503002 -0.055244483 -0.19393128 -0.35067186 -0.46313298 -0.3861071 0.062067088 0.013608848
-0.3886672 -0.11203456 -0.49467036 -0.12823997 -0.4887843 0.09220787 -0.17957245 0.07358196
0.3165735 -0.31100297 0.22352906 -0.5810875 -0.090452954 -0.26694196 0.18310085 -0.2013146
-0.057593923 -0.07608989 -0.43188104 0.3527351 -0.017684188 -0.32969826 -0.22313093 -0.3010084
0.051199134 -0.6000604 -0.37830144 0.08476273 -0.12766899 -0.2556235 -0.4594154 -0.19392474
-0.28967175 0.07019166 0.17758708 -0.24944258 0.19225763 -0.13562866 -0.3236419 -0.107442364
-0.22771259 0.004988601 -0.50685245 -0.44754627 0.06708672 0.07186859 0.15610702 -0.31238633
-0.30903625 -0.14124142 0.16064124 0.16485378 0.065446876 -0.11134901 -0.32498348 0.17873159
-0.08733189 -0.15441082 -0.19339426 0.059775487 0.22798441 -0.16043907 -0.06462422 0.04241417
-0.013124046 -0.109492086 0.19960566 0.14817452 -0.24208914 0.0012544305 0.022130866 0.10991344
-0.010387417 0.017375857 0.08264748 0.021755256 -0.22886947 -0.078118026 -0.17230017 -0.12700428
0.02966478 -0.06267393 -0.09203977 0.058786426 -0.06983261 -0.07593503 0.0028027839 -0.2080902
0.020394335 0.26685962 -0.16538197 0.1139859 0.044036847 0.038182773 -0.063305706 -0.1088675
0.23082285 -0.078869306 0.011252738 -0.19544537 -0.020730652 0.013247301 0.28412172 0.09475759
-0.06547636 -0.10841468 -0.10449484 -0.012176179 -0.17160216 0.1666917 0.029427372 0.01789408
0.71649235 0.4760481 -0.038219977 -0.18242003 0.2224122 0.74347717 0.576758 1.1877866
-0.08049814 -0.114218555 0.78571665 0.55349725 1.4787356 1.0757301 0.16440919 -0.1936888
0.757841 -0.069563545 1.0263035 -0.09645553 0.5319233 -0.062721856 -0.052060116 -0.12897971
-0.016993169 -0.1831183 -0.15606962 1.1245935 0.08681209 -0.2562146 -0.13801892 -0.12736061
-0.21131143 -0.13441488 1.9296756 -0.21302971 -0.16050299 0.7088732 0.4764847 0.48664528
-0.24626039 0.5845191 0.3428437 -0.2765263 -0.17491043 0.08491863 0.8553642 0.22387323
0.20515056 -0.072857305 -0.13859822 0.8687961 -0.049738593 -0.00021469501 0.20470004 0.5717503
0.073232815 -0.03317306 1.0180184 0.60825264 -0.19801694 0.12230353 0.05224461 0.16319086

lstm.bias_hh_l0 f4 [256]
00000000: 4bfe 193f 748a e93e b4a2 69be 5f42 3bbe
00000010: 9d24 883e 6b10 703f af08 493f 60d0 a93f
00000020: 3ecb f1bc 64d0 80bc c859 6b3f 6413 163f
00000030: 17a0 b53f bfec 863f dce9 a83e 8b64 98be
00000040: 62c9 0e3f 5bfa a9bd 135b 853f 8e57 0bbe
00000050: c551 123f 59bd ec3d 358d 94ba 6e6c 6cbe
00000060: 8755 92be d7c8 aabe 0d33 1c3d eca8 963f
00000070: b5ab 193e 6475 bcbd 3c45 33be 42b8 06be
00000080: 5fd6 edbd 3eef 22be a6b4 ef3f 1bf6 9bbe
00000090: 9b2b 9ebe ad63 4a3f fdfb ca3e ce1b f43e
000000a0: a127 30be 34c2 413f 85ed 043f 8a33 7abe
000000b0: 16d7 8bbe 49db af3d 5cf8 773f ce56 083e
000000c0: 08d8 c83e fe66 c5bc 7a72 5cbd 8a9a 543f
000000d0: 3f9d 83bc 7a12 013d 1ccf 363e 9f24 2e3f
000000e0: 47e7 ca3d e72e 95be 4093 4b3f d2b3 3b3f
000000f0: 646e 21be 68b9 c53d 529e 72be b8d3 b73e
00000100: 7039 9bbe 1376 04bf 03a8 373e 5ce1 a13c
00000110: 6df5 e0be 1de7 96be db62 0cbf 4c09 d9be
00000120: b43d d8bc 133e 963b 2a19 a9be c3d5 dabe
00000130: f243 92be 7c91 d0be 75e5 c93d 6a6f 103e
00000140: e526 c3be f6dc 18bd 4961 04bf 4780 dd3c
00000150: 4a49 10bf b4b7 113e 65bc f3bd 610d bfbd
00000160: cdf3 373e 6fca 21be 9c3c ba3e 46e8 f6be
00000170: 8be1 3abd cf87 79be 6179 f83d ae2d 11be
00000180: b93f f4bd 97a9 13be d53d eabe f44c d33e
00000190: 3aab a7bd b8af a6be 98cd c7be 70da 88be
000001a0: e0c7 a8bd 49b3 c8be 0a13 86be 2b13 cbbc
000001b0: 59de 63bd 929e 74be 6160 c6be 6d4b 50be
000001c0: 161a 4cbe dcf9 313e 5c94 49bd 5b4e 9ebe
000001d0: 2520 3e3e c8ed 05be ca9a d2be 7be4 09be
000001e0: ffd4 08be 10ab 0b3e b86a acbe 53c1 bcbe
000001f0: 317d f23c fbb6 1bbe 3916 90bc 7e1d 8bbe
00000200: 9fbb 10be e649 febd b797 3f3d 9fe6 a83d
00000210: 0389 473d 7f62 d5bd 9624 37be 56e8 433e
00000220: e1a0 0dbe 85c7 01be 05ee 73be e3a8 4d3e
00000230: 53e6 e03d d85f e6bd 3470 40bd 4acc c6bd
00000240: 1551 2abe b5b3 0abe 03a7 973e b199 2e3d
00000250: 0db6 2bbd 6de2 31be 6593 29bc 5bb5 1d3e
00000260: 012d 023d 6693 993d 83f7 a5bd 3ba2 2c3d
00000270: 0613 53bc 3053 93bd 49ae bbbd 0e09 3dbd
00000280: 4d41 433d e42d a3bd cfed 71bd 2d4f a039
00000290: fa4b 0dbe bf57 b9bc c59d 6e3e 0db5 12be
000002a0: ada6 923d 1cf9 083e e45f 9ebd 9a68 3bbc
000002b0: dab1 dfbd 461d 233e 7c80 51be 7c80 05be
000002c0: dc9c e43d 56e2 36be d4d2 723d 7137 97be
000002d0: 379a 443d 4c22 0bbe 3cc6 a33d 3f83 4d3e
000002e0: e7b2 34be 6e12 403d 0135 5abe 6ae0 b0bd
000002f0: f41a 9ebd 0134 5f3e 3562 32bd 5623 403e
00000300: e5a9 3c3f 2458 103f 1f3f 0abd 2405 9ebd
00000310: 0422 b33e e94f 533f dc5c 2a3f d851 953f
00000320: 600b 743d cd52 473d 6a16 743f 9b4c 283f
00000330: 7aca bd3f ba05 9c3f f6a0 643e 31b8 0ebe
00000340: 5acb 203f 18df 08be 752f 723f b4da 13be
00000350: 249b e33e 09d9 f13c 5e4a 18be a939 c3bd
00000360: f707 4bbe c932 64be 1365 ecbd ce26 8a3f
00000370: 4cee 5b3e 4eac afbd 906b f7bd edda f43b
00000380: 46bd 4cbe 94f4 37be b647 f13f 6a20 5fbe
00000390: 05df ecbd b537 293f 0b53 943e cf99 033f
000003a0: 4154 44be 654e 1a3f 70b5 ec3e 8f38 72be
000003b0: 7699 07be ed6f 453d ead0 7e3f a453 173d
000003c0: dfd2 503e 72ce 8b3c 7ef2 b4bd 8ee0 4f3f
000003d0: f085 e6bd ba6b 1ebe 3062 bfbb 34fb fa3e
000003e0: 5994 293d 06ed 37be 2ffa 5d3f 6b10 3d3f
000003f0: 69e9 f0bd fecd 40bd b91f 0fbe 5bdf 163e
0.60153645 0.45613444 -0.22815973 -0.18287037 0.26590434 0.9377505 0.78528875 1.3266716
-0.029515859 -0.015724368 0.9193387 0.5862334 1.418948 1.0540999 0.3299092 -0.29764208
0.55776036 -0.08299705 1.0418419 -0.13607618 0.5715602 0.11559553 -0.0011333587 -0.23088238
-0.28580877 -0.33356354 0.038134623 1.1770301 0.15006907 -0.09202078 -0.1750688 -0.13156226
-0.11613154 -0.15911576 1.8727005 -0.304612 -0.30892643 0.79058343 0.39645377 0.47677463
-0.17202617 0.75686955 0.51924926 -0.24433723 -0.27312535 0.08586747 0.9686334 0.13314363
0.3922732 -0.024096962 -0.05382011 0.8304831 -0.016066192 0.03151176 0.17852443 0.6802463
0.09907394 -0.29137346 0.7952156 0.7332126 -0.15764767 0.09654504 -0.23693207 0.35903716
-0.3031726 -0.51742667 0.17935185 0.01976078 -0.43937245 -0.294732 -0.5483834 -0.42389905
-0.02639661 0.0045850365 -0.3302701 -0.42741212 -0.28567463 -0.40735996 0.098582186 0.14105001
-0.38115612 -0.0373201 -0.51710945 0.027038706 -0.5636183 0.14230233 -0.11901168 -0.09328724
0.17964096 -0.15799879 0.36374366 -0.48224086 -0.04562525 -0.24368213 0.12132526 -0.14177582
-0.11926217 -0.14420162 -0.457503 0.41269648 -0.08186956 -0.32555938 -0.39024043 -0.26729155
-0.08241248 -0.39199284 -0.261864 -0.024789413 -0.05563197 -0.23888615 -0.38745406 -0.20341273
-0.19931826 0.1738047 -0.049213752 -0.30919155 0.1856695 -0.13078988 -0.4113372 -0.13466065
-0.13362502 0.13639474 -0.3367517 -0.36866245 0.029600712 -0.1520652 -0.017588722 -0.27170938
-0.14134072 -0.12416439 0.046775546 0.082471125 0.04871465 -0.10419177 -0.1788505 0.19131598
-0.13830902 -0.12673767 -0.23821266 0.20083956 0.10981431 -0.112487495 -0.046982005 -0.09706934
-0.16632493 -0.13545115 0.29619607 0.04262704 -0.041921664 -0.17371531 -0.010350083 0.15401213
0.0317812 0.07498817 -0.0810385 0.042146903 -0.0128829535 -0.07193601 -0.09164102 -0.046151213
0.047669698 -0.07967737 -0.059064683 0.0003057657 -0.13798514 -0.022624848 0.23302372 -0.14326878
0.07160697 0.13376278 -0.077331334 -0.011438513 -0.10922594 0.15929136 -0.20459169 -0.13037294
0.11162731 -0.17859778 0.059283093 -0.29534486 0.047998633 -0.13587302 0.079967946 0.20069598
-0.17646371 0.046892576 -0.21309282 -0.086365536 -0.07719985 0.21797182 -0.04355069 0.1876348
0.7369674 0.5638449 -0.033751603 -0.07715824 0.3498689 0.8254381 0.6654794 1.1665602
0.05958116 0.04866295 0.953467 0.6574189 1.4827416 1.2189248 0.22327027 -0.13937451
0.6281029 -0.13366354 0.94603664 -0.14438897 0.444543 0.029522436 -0.14872119 -0.09532482
-0.19827257 -0.22284998 -0.11542716 1.0793092 0.21477622 -0.085777864 -0.12081063 0.007472387
-0.19994077 -0.17964393 1.885001 -0.21789709 -0.11565975 0.6610063 0.28969607 0.5140657
-0.19172765 0.6027587 0.46232176 -0.23654388 -0.13242134 0.048202444 0.9953753 0.036945
0.20392941 0.017066214 -0.08835314 0.8120202 -0.11256015 -0.15470782 -0.0058405623 0.49019778
0.04140124 -0.17961511 0.86709875 0.73853177 -0.117632695 -0.04707145 -0.13976945 0.14733641

lstm.weight_ih_l1 f4 [256, 64]
00000000: 7b64 16be f915 4cbd 77da c63d e9eb 08be
00000010: 45b4 debe d180 453f 958b 823e 8130 e33e
00000020: 982e e53d 9e45 65be 4486 9cbe 93b5 c8be
00000030: 68b9 eebd 5dc0 123f 75ee 873e cbf4 7abe
00000040: 2b70 6c3e 84df 06bd 6061 f7be d042 953e
00000050: c621 3d3d f230 22bd 9315 dfbc 47d7 ab3d
00000060: d385 93be 19d4 c7be 72a4 413e 0acd 513e
00000070: e313 be3e 0070 3f3c dd79 9b3d 0188 b63e
00000080: 0a4d 203f 4298 14bf b25c 57be 5c00 25bf
00000090: 1e7b 3b3d 6319 c03e aae3 2dbf 38dc b0be
000000a0: 1c9d e3bd 651e ec3d 7fb7 a43e 8e09 aabd
000000b0: a4a1 353e 6615 873e 3e8c b0be 674a 40be
000000c0: 0963 0dbe 373e c8be 74bb 283f 6332 0f3e
000000d0: fa10 5dbe 65b4 34bd 084f 263f 7eba 183e
000000e0: ec7a 6e3d 41db 593e 2ec6 dc3e d2c7 883e
000000f0: 01ad de3b 9891 1c3e a05a 92bd a2ce 8cbe
00000100: 44ce 023e 3674 ca3d df38 00be 760b 383d
00000110: 84b1 1ebe c0db 7d3d bfa8 ee3d 78b6 2e3e
00000120: b2e6 433c e169 3ebe 0cd7 a1bd bc49 80be
00000130: 8902 1d3e 0bd5 a63e e137 c8bd a22e cd3c
00000140: 481c 983e ae5b efbd 9687 debe fcf8 543e
00000150: ff53 923e 493d fbbb 2b31 3e3e 4006 44bd
00000160: 9e5e 8dbd 4643 00bc 4214 16be 3921 383e
00000170: 21b1 1c3e e635 283b f911 9bbc 3dc8 793e
00000180: 7a87 e13c 0a2c 04be bd3f 0dbe 68fd 03be
00000190: 1c5a ce3c 0bb4 953e 530e 41be 459d 00bd
000001a0: ce7c 573d 10b9 64be c6c8 a43d 6cab bfbc
000001b0: efff 00be 5621 77be 2d91 cd3d 63e8 093d
000001c0: a4af 41be 6b3e 2dbe 2807 d63d 4d89 7b3e
000001d0: db1f 923d c6ff 0fbc fc0e 76be f464 9dbe
000001e0: f24a 9e3e 87ea a0bd 9b6f 833e fa4a 303e
000001f0: 9cba 16be de45 6bbb 4480 38be 6fa1 9fbc
00000200: bd88 d43e f3b0 1d3f dddf b23d 1829 ab3d
00000210: 85e5 f4be 953b 493f 4c14 f03e c491 023c
00000220: 3559 9d3e 9684 b5bc 6555 c2bc 5810 cabe
00000230: cd9c b5bd 9c3b 183f 371e 0dbd feb5 3d3e
00000240: 2b92 323f a1b9 2fbe b106 3fbf 0aa5 cc3d
00000250: 0c9e cd3e 25f2 373e 14fb e93d 4728 dc3d
00000260: 5e17 033e fd8f 8ebe 2df2 3cbe 76b7 393f
00000270: 144d 323e 7f08 06be 9911 70bd 50d6 083f
00000280: 456c 723e e3ca 2bbf 8469 53bf ac41 d03d
00000290: ac48 c53d 9381 223f fe51 06bf 6e4e d73e
000002a0: cae9 91be 48b0 e5be a005 ba3e ddce f43c
000002b0: 5fb5 85be 4727 0cbe 589e 0e3f a42f db3d
000002c0: 5d44 36be cd7c 02be 9e57 a1bd 94fc 5c3f
000002d0: ea40 5a3e f2b7 163e 2d25 cebe 5b3f fbbe
000002e0: 83dd 2f3f a05a ec3b 99fb 2e3f 4e05 113f
000002f0: 8ccf 313c 8fb3 c4be b741 89bd e366 d0be
00000300: 7872 3d3e cd42 f13e 8b46 973e ac2b d83d
00000310: 1e6c bcbd 705d e33e 037d b43e 0ba9 53be
00000320: 9d46 503d e572 5abd 383b 2bbd 9836 47be
00000330: a7a2 8fbe 0e06 2e3e aa8c b7bd 8aac 213e
00000340: af3a 363e 7d72 71be 2a78 00bf c691 0d3e
00000350: 97fd 4d3e ef1c 983d ad92 173e 9106 093d
00000360: 5e68 fb3d f643 a1bc 3ab4 9abe 57da ac3e
00000370: 492f 3d3d 08d6 1cbd 71aa 02be 5b6b 043e
00000380: 8098 6bbd feb3 a2be a553 55be 31fc 303c
00000390: 407d 8bbe 79cd 073e 36de e03c b1e1 963d
000003a0: 1901 b13d 1ec0 92be 3e29 c73d 7a02 4d3e
000003b0: 4be7 5b3c a005 f83d 9228 083f 7c21 f53d
000003c0: 44b5 ea3d c7e5 5cbd 5d75 08be 0d38 253f
000003d0: 3cf0 7a3e 18d5 043d ccdd 84be dd8f c7be
000003e0: 8484 263e 9b5a 73ba e433 c13d cabf 193e
000003f0: d026 50be 42e6 9c3b 45b1 af3d 647f b1bd
-0.14686768 -0.049825642 0.097096376 -0.13371243 -0.4349691 0.77149683 0.25497118 0.44372943
0.11190528 -0.22389838 -0.30571187 -0.3920103 -0.11656457 0.57324773 0.26549116 -0.24507444
0.23089664 -0.032928005 -0.4831648 0.29152536 0.046174787 -0.03959746 -0.027231967 0.0839067
-0.28813037 -0.39029005 0.18910387 0.20488372 0.37124547 0.011684418 0.07591603 0.35650638
0.6261755 -0.58044827 -0.21031454 -0.64453673 0.04577171 0.3751937 -0.6792551 -0.34543014
-0.111139506 0.11529235 0.32171246 -0.08302604 0.17737442 0.26383513 -0.34481996 -0.18778382
-0.1380731 -0.39109966 0.6591103 0.13984065 -0.21588507 -0.04411735 0.6496434 0.14914891
0.058222696 0.21275045 0.4311995 0.2671495 0.006795526 0.15289915 -0.071461916 -0.27501398
0.12773997 0.09885447 -0.12521695 0.044932805 -0.15497404 0.061977148 0.116532795 0.17061794
0.0119568575 -0.18595077 -0.07902345 -0.25056255 0.15332998 0.32584414 -0.09776283 0.02504665
0.29709077 -0.116874084 -0.4346282 0.20798105 0.2857971 -0.007667218 0.18573444 -0.047857523
-0.069028124 -0.007828539 -0.14656165 0.17981423 0.15301944 0.0025666892 -0.018929468 0.24392791
0.02753042 -0.12907425 -0.13793845 -0.12889636 0.025189452 0.29238924 -0.1885312 -0.031399984
0.052609257 -0.2233622 0.08046107 -0.02339717 -0.12597631 -0.2413381 0.10037456 0.033668887
-0.18914658 -0.16918342 0.10450584 0.24564095 0.07134982 -0.0087890085 -0.24029154 -0.30741084
0.30916554 -0.078572325 0.25671086 0.17216101 -0.14719623 -0.0035899798 -0.1801768 -0.019486157
0.41510573 0.6159813 0.08734105 0.083574474 -0.4783136 0.7860654 0.46890485 0.007969324
0.30732122 -0.022157948 -0.02372236 -0.39465594 -0.08867798 0.59465957 -0.034452643 0.18526456
0.69754285 -0.17160656 -0.74619585 0.09992416 0.40159643 0.17963465 0.114248425 0.1074987
0.12801883 -0.2784423 -0.18451758 0.72545564 0.17412215 -0.13089179 -0.058610532 0.53452015
0.23674114 -0.67106456 -0.8258288 0.10168776 0.09633002 0.63478965 -0.5246886 0.42052025
-0.2849868 -0.44861054 0.36332417 0.029883796 -0.26114938 -0.13686858 0.55710363 0.10702446
-0.17799516 -0.1274292 -0.0787804 0.86322904 0.21313825 0.14718607 -0.40262738 -0.49071774
0.68697375 0.007212952 0.6835266 0.5664872 0.010852706 -0.38418242 -0.06701987 -0.40703496
0.18500698 0.47121277 0.29546008 0.10555205 -0.09200309 0.44407225 0.35251626 -0.20669954
0.050848592 -0.05333223 -0.041804522 -0.1945442 -0.2805378 0.16994497 -0.089623764 0.15788475
0.17795824 -0.2357883 -0.50183356 0.1382514 0.20116268 0.07427394 0.14802046 0.033453528
0.12275766 -0.019685727 -0.30215627 0.3376033 0.046187673 -0.038290054 -0.1276033 0.12931578
-0.057518482 -0.31777948 -0.20832689 0.010802315 -0.27243996 0.13261975 0.027449708 0.07367266
0.086427875 -0.286622 0.09724663 0.20020476 0.013421844 0.12110448 0.53186905 0.11969277
0.11460355 -0.05393007 -0.1332602 0.6453865 0.24505705 0.032429785 -0.25950468 -0.38976946
0.16261488 -0.00092832156 0.094337255 0.15014568 -0.20327306 0.004788191 0.08578733 -0.08666876

lstm.weight_hh_l1 f4 [256, 64]
00000000: c4a0 aebe 81b4 0ebf 5bb2 ab3e 68b3 983d
00000010: 767f 97be af85 983e cb2e 653e d14d 38be
00000020: a7ac 13bf 8eee 1d3f 33fc 1abe f20b 863d
00000030: 72f4 173f 429f 1c3e b930 3abc be5f 53be
00000040: 4c35 eb3d 953f 1b3e ed50 bebe 23e4 823e
00000050: bed6 8dbe f356 eabe 015a c23e 3a74 c93e
00000060: c2a1 9cbe 438e 04bf 01a2 d3be 1c1d cf3e
00000070: 7bfe 463f 2afb c6be 86bd ca3e 3226 46be
00000080: f4c6 13bb cee3 5f3e c69e d83e dd28 24be
00000090: 84f5 c33e cf76 d3be 25e3 ae3b 4482 46be
000000a0: 24eb 6fbe 6e5d 283e e2bf aa3e c9d8 b53e
000000b0: d141 583e cdcf d63e b7b3 a23e 6063 bb3e
000000c0: 0c2e 663f 3013 0a3f 9d1a 83be 1661 903d
000000d0: 8e48 a33e d2f8 89bd 77a8 733e 533c 96bc
000000e0: 7a6d 213f 414c 91be e397 a0bd e468 d6be
000000f0: 025d 4dbe 632d 8c3e 9414 023f adea 24be
00000100: 681c 2b3e 5362 d5bc 60c0 17be 5688 903d
00000110: c385 a53d 5ac9 133e ca44 01be 6da4 d53d
00000120: 2cf1 c3bc 4ad8 7e3d 70c6 5fbe dccc 20bd
00000130: e356 d73d 328e 933d 75b8 50bd e5ef 29bd
00000140: 2521 bb3d 755c e33d 302a babd 7f48 39bd
00000150: 6d8f ed3d 1289 2bbe 37fa e83d 3db1 d53d
00000160: a58a d7bd baf3 c8bc 68d7 42be 2731 41bd
00000170: ea2d 0b3e 53ef 3cbc 6116 5abd f7fe aebd
00000180: 0967 c73c 9233 febd 5258 f3bc 24a6 213c
00000190: 4b5f e7bd d6ee e33b 8cd1 86be 75fa 87be
000001a0: 437a 833e 26fe c03d a15b dabd 5bf0 513d
000001b0: 4d3a 0b3e 2b49 e03d bdad a2bd 037b 363b
000001c0: 89bc e8bd 7916 9c3e d872 7dbe 95a7 a23d
000001d0: 6fe6 c73d fe13 4c3c c074 3f3e a05d d73c
000001e0: 5ff9 d7bb 539b 15be f2d2 9cbd 246e f6bc
000001f0: b7d6 d13d 9f92 89bd 14c4 6f3e 2388 093d
00000200: e455 42bc 3924 f4bd 2b2a 693d f7b1 89bd
00000210: 0e46 91be f8c2 a83e 6596 dcbe 161d 02bf
00000220: 3184 703e 3ff8 7abc a2f3 9abd 38ff 7c3e
00000230: e0e3 e73d fcd4 f6bb a09b 03be 926f acbd
00000240: e97b c1be a555 b53d 632a b8bd 9787 48bd
00000250: e5a8 1d3d 0981 82be 58e1 583e ecf7 d4bd
00000260: 8bea 5cbe 0764 1ebe 5f0e aebe b431 adbd
00000270: b7e0 dc3e 200e 42be addc a53d c7a0 27be
00000280: 91b3 52be 34f8 adbb dcc9 00ba dfce 6ebc
00000290: 3c6e a73d 4118 cfbd dcfa 16be eeaf 6b3e
000002a0: 5206 cabd 3983 4f3e cae6 18bd 1d6d dc3e
000002b0: fca3 743d e27e 0b3e 4f9a 0f3e aa63 843d
000002c0: 69b8 df3d ff77 db3d c17b 05bf 287e eb3d
000002d0: 5a51 a53d 6040 31be c9f0 a2bc fd06 76be
000002e0: c6b2 3a3f 4527 29be 872b 89bd 61e7 9ebb
000002f0: 1f1b 4dbe 9ab1 0c3e 7817 1ebd 4643 55be
00000300: 73e0 35be 2431 01be f1c0 833c 9240 5dbe
00000310: 04f8 9fbe 973f 163e 6580 9bbe d694 bd3d
00000320: cefd 0f3b b66d 3f3e 3485 0d3e 4af7 163f
00000330: 048c 9a3d edee d93d a083 213e cf26 d63b
00000340: 4543 bfbe d1cd bb3e 0bde 7cbe 79dd 883e
00000350: 127f e2bd 9dd4 9cbe 6b30 ad3d 0cc8 52bc
00000360: 3e17 973b dc67 32be 9dd3 413b dc17 ce3d
00000370: 54a6 203f d273 b6bd 51e6 d03d 9282 cfbd
00000380: 61ba 53be 05cd ef3e 328c df3d 704a 8ebe
00000390: 8189 703e 7cba 03bd d498 44be 026d d93e
000003a0: e158 033e 09e3 6d3e c8ee 5c3e 0f93 033e
000003b0: b4b4 1c3e 94aa 4b3e ad5f ab3e 41a3 bb3e
000003c0: 0481 86bd 931b 56bd 237e 0c3e 96e8 73be
000003d0: fe94 893e 528b 203e 004c ce3d fc3b 9ebd
000003e0: 4463 433f ed04 a3bd 01a1 3cbd 07a7 ca3c
000003f0: cfd5 62be 3245 083e d407 a13e b2a5 5abe
-0.3410703 -0.5574418 0.33534512 0.07456094 -0.29589432 0.29789492 0.22381131 -0.17998435
-0.5768532 0.6169213 -0.15135269 0.06545247 0.5935737 0.15295127 -0.011364155 -0.20641991
0.11484775 0.15160973 -0.37171116 0.2556468 -0.27702898 -0.45769462 0.37959293 0.39346486
-0.3059216 -0.51779574 -0.41334537 0.40451896 0.77732056 -0.38863498 0.3959772 -0.19350508
-0.0022549005 0.21864244 0.42308635 -0.16031213 0.3827325 -0.4130158 0.0053371363 -0.1938563
-0.23429543 0.1644189 0.3334952 0.35516956 0.21118857 0.41955414 0.31777737 0.36599255
0.8991401 0.5393553 -0.25606242 0.07049768 0.31891292 -0.06736912 0.23794733 -0.018339312
0.6305767 -0.2837849 -0.0784147 -0.418769 -0.20055011 0.27378377 0.5081265 -0.16105147
0.16710055 -0.026047861 -0.14819479 0.07057254 0.08082154 0.14432278 -0.12623897 0.10431752
-0.02391871 0.062217988 -0.21853042 -0.03925787 0.10514619 0.07204856 -0.050957162 -0.041488547
0.09137181 0.11101619 -0.09090078 -0.045235153 0.11599622 -0.16751507 0.1137585 0.10434196
-0.10524491 -0.02453028 -0.19027483 -0.047166016 0.13591734 -0.011531669 -0.053244 -0.085447244
0.024341123 -0.1241218 -0.0297052 0.009866271 -0.112974726 0.0069559617 -0.26331747 -0.2655827
0.25679216 0.09423475 -0.10662008 0.05125461 0.13596459 0.10951456 -0.07943294 0.0027844317
-0.11364085 0.30485895 -0.2475084 0.0794212 0.097607486 0.012455938 0.1869688 0.026289761
-0.0065910066 -0.14610033 -0.07657422 -0.030081816 0.10246032 -0.06717419 0.23414642 0.033577096
-0.011861298 -0.119209714 0.05692498 -0.06723397 -0.2837376 0.3296125 -0.43083492 -0.5082563
0.23487927 -0.015317976 -0.075660005 0.24706733 0.113227606 -0.007532714 -0.12852335 -0.08419718
-0.37789848 0.08854226 -0.089924596 -0.048957434 0.03849115 -0.2548907 0.21179712 -0.1039885
-0.21573846 -0.15467845 -0.3399534 -0.08456746 0.43140194 -0.18950701 0.08098731 -0.16369925
-0.20576312 -0.005309129 -0.0004912892 -0.014575689 0.081753224 -0.10112048 -0.14744133 0.2301633
-0.09864487 0.20264901 -0.037329473 0.43051997 0.0597267 0.1362262 0.14023708 0.06464322
0.10923845 0.10716247 -0.5214196 0.11498672 0.08072157 -0.17309713 -0.019890206 -0.24026103
0.72929037 -0.16518886 -0.06697755 -0.00484936 -0.20029877 0.13739625 -0.0385966 -0.20826444
-0.17761402 -0.12616402 0.016083213 -0.21606663 -0.31243908 0.14672695 -0.30371395 0.09256904
0.0021971348 0.18694195 0.13820344 0.58971083 0.07546237 0.106412746 0.15772867 0.006535388
-0.3735601 0.36680463 -0.24694078 0.2673147 -0.11059393 -0.3063096 0.084565006 -0.012865078
0.004610925 -0.17422432 0.0029575594 0.100631446 0.62753797 -0.0890881 0.10200179 -0.10132326
-0.20676567 0.46836105 0.10915412 -0.27791166 0.23489954 -0.032160267 -0.19198924 0.4246598
0.12826873 0.23231138 0.21575463 0.12849067 0.15303308 0.19889289 0.33471432 0.3664799
-0.065675765 -0.05227239 0.13719992 -0.23819193 0.26871485 0.15678146 0.100730896 -0.07726285
0.7632334 -0.07959924 -0.046051983 0.024737848 -0.22151874 0.13307646 0.31451285 -0.2135227

lstm.bias_ih_l1 f4 [256]
00000000: 3c29 063f fe77 ce3d 3872 0b3e e8a7 763e
00000010: 2ea8 913d e9a6 a23c 25f5 2abe 0875 a63e
00000020: 2808 9c3d c5ad 153e a7f8 32be 64eb ee3d
00000030: 4554 583d 5778 85bd d887 8fbd dfed 4cbd
00000040: 4410 0a3e 888c 1b3d 1cef 5ebd 6276 ab3d
00000050: 1333 4c3e d292 3b3e 1779 eabb b52a 853d
00000060: 600c 203c 21e6 aa3e 71d6 fb3d 0308 04bd
00000070: ff6c e13d 9973 753d 56a7 b03d 7246 c83d
00000080: e9c8 793e 8d56 d43e 6578 03bd b9aa 6abd
00000090: b271 fe3c a381 d83d 235b 77be 54fb 39be
000000a0: 8aba a23e 0d48 e33d 6a83 673c 8be9 133e
000000b0: b012 d53d 4aeb 453c d8ac 913d 2b8e da3d
000000c0: 0c71 2f3f edcb e3bd 7fdd 0ebe 54ce 603e
000000d0: c1a7 48be af24 8c3b 88d4 123f db98 6c3e
000000e0: 8eed 393e e050 1a3e 1a3b debd 7bf5 9b3e
000000f0: bebd e33d a88e 413e febf 1f3e 19a4 2fbe
00000100: 4685 10be d9d7 533e d111 53bc afba 543d
00000110: 3232 083e 27d3 5c3d ace0 adbd adba d7bd
00000120: 0da7 02bd 8686 943e 9a3b f5bd fe39 12be
00000130: 26ec f13e d6ad 703e 3581 1fbe 09e7 663d
00000140: 6578 56be 9a8c 2c3e 5438 87bd bbd1 343c
00000150: 42ba b13e 813f 9fbd fe86 94bd 05b0 233e
00000160: bf77 283e 4c48 833e 9dbf 38bd a6c8 1a3e
00000170: 5f0d 0ebd e35e 393e 9ccc 713e 151d 543e
00000180: eaea bebd 30ef 07be beb8 543e f18f fa3d
00000190: fab3 4bbd 0bd1 773e 0c50 313e d48b 473e
000001a0: 17ef 12be 07be 423e a212 6a3e b10b 3dbe
000001b0: a702 933d 6f43 1b3e 77f9 8c3e b352 093e
000001c0: 4560 6dbd d743 363e 69e3 343d a08e 5dbe
000001d0: f88b 833e 909e 02bd b9ff b9bd c2da a4bd
000001e0: 6eaf 40be 2e85 64bc 4564 493e ab1c 9f3e
000001f0: 1e06 293d cd81 6b3e dd5a b53d 4e06 02bd
00000200: 289e de3c b8b4 e2bd 9e9d 413b 16c9 313e
00000210: 43e1 843c 041d cf3d cce9 bd3d b9b8 eabc
00000220: 44f3 b3bd 0269 673d 6807 60bd a2bf 5dbd
00000230: 2783 e43d 7a7b 3b3e c84b b9bc e002 2ebc
00000240: d834 e1bc 6edf b93d 48a1 c0bd 0fe5 3e3e
00000250: bfce 8fbe ab67 773d af36 6dbb 2a5f e03d
00000260: 3c07 abbd 7caf 56be 6ba0 04be d395 a03d
00000270: 7ce9 2d3a aef9 1dbd 022f 9dbd d74a 8cbe
00000280: 67d9 713c 3b51 c13b 3ff1 91bd c406 ae3b
00000290: 50db 203e 4e3b 0bbe b444 8e3d 5e4b cfbb
000002a0: c67c 443c 4ebc 0e3e 9994 3f3e 97f5 d4bd
000002b0: 2c14 b5bc c81c 99bd 2d7f a33d a3ea a1bc
000002c0: 63bd 143d a3e0 7c3d 71a0 f3bd d0b3 523e
000002d0: 413d fabd 7370 8f3d 7b70 513e 81f6 abbd
000002e0: 6a47 2d3d d7b0 02bd f6cd 8a3d 8184 92bd
000002f0: 1e79 0cbe 3c2c 763d b7f6 093d 5917 453d
00000300: 2329 dd3e 7f69 49bd c273 a73d 26e5 563c
00000310: 392a 763d 9eb1 19be 4bb1 05bd 0ee3 843e
00000320: 0532 6e3e 48c5 e0bd d61d 8ebd d462 e43d
00000330: c05d 2a3e c217 d5bd 6e8f 64bd 9d33 293e
00000340: ccb3 30bd 6bad 44be 5c88 123d 1609 9fbd
00000350: b1aa dbbd 55e9 303e d98c e23c e40d 1cbe
00000360: 9572 2b3c b063 5dbd 781d 20be ac53 c93a
00000370: 2257 8e3d b0c9 9fbd d599 973b 785d e9bd
00000380: a0c9 923c 6e96 023f 2344 643e 4327 d9bd
00000390: 9c8c c1bd f754 2f3e a5a1 2cbc 9d7f 5f3e
000003a0: 0a54 ee3d e8aa 063d 9060 ff3d e413 123e
000003b0: 9f6b f83d 51e9 4bbe a41d a6bd 656c 103c
000003c0: f640 c23e 7549 80bc 8e83 b23d 61cc 743e
000003d0: 5880 823c 7426 8fbb 5498 953d febb 233e
000003e0: 41b4 413e 6208 bb3d f5b4 1e3d 2403 4cbe
000003f0: f0eb 71bd cd13 dcbd 7637 00be f1aa 333d
0.5240667 0.100814804 0.1361779 0.24087489 0.07112156 0.01985498 -0.16695078 0.32511163
0.07618743 0.14617069 -0.17477666 0.11665991 0.05281474 -0.06517094 -0.07008332 -0.05003154
0.13482767 0.037975818 -0.05442725 0.08372189 0.19941358 0.18317726 -0.0071555483 0.06502286
0.009768575 0.333787 0.12296761 -0.032234203 0.110071175 0.059924696 0.08625667 0.097790614
0.24393047 0.41472283 -0.03209724 -0.05729172 0.031060074 0.10571601 -0.2415586 -0.1816228
0.31782943 0.11097727 0.014130453 0.14444558 0.10403955 0.012080023 0.071130455 0.10671648
0.6853187 -0.1112288 -0.13951682 0.21953708 -0.19595243 0.004276834 0.57355547 0.23105185
0.18157026 0.15069914 -0.108511165 0.30460724 0.11120175 0.18902075 0.15600583 -0.17152442
-0.1411334 0.20687808 -0.012882666 0.051935848 0.13300398 0.053912308 -0.084901184 -0.105336525
-0.031897593 0.29008883 -0.11974259 -0.14279935 0.4725048 0.23503813 -0.15576632 0.056372676
-0.20944364 0.1685051 -0.066025406 0.011036332 0.34712416 -0.07775784 -0.0725231 0.15985115
0.1645193 0.25641096 -0.04510461 0.15115604 -0.03468072 0.18102603 0.23613209 0.20714219
-0.0932215 -0.13274837 0.20773599 0.12234486 -0.049732186 0.24200837 0.17315692 0.19486934
-0.14349018 0.19017802 0.2285867 -0.18461491 0.0717824 0.15162443 0.27534077 0.13410453
-0.057953138 0.17799316 0.044162188 -0.21636438 0.25692725 -0.0318895 -0.09081978 -0.08049537
-0.18816921 -0.013947768 0.19667156 0.3107656 0.0412656 0.22998734 0.088552214 -0.031744294
0.027175024 -0.110696256 0.002954341 0.17361864 0.016220694 0.10112956 0.09273109 -0.028652536
-0.087866336 0.056496628 -0.054694563 -0.054137833 0.11157828 0.18308821 -0.022619143 -0.010620803
-0.027491018 0.09075819 -0.09405762 0.18642066 -0.28087422 0.0604016 -0.0036195924 0.10955651
-0.08350989 -0.2096538 -0.1295182 0.07841077 0.0006634218 -0.03856819 -0.07674982 -0.27400848
0.014761305 0.005899576 -0.07126092 0.005310865 0.15708661 -0.13596842 0.06946698 -0.006326123
0.011992639 0.1393902 0.1870903 -0.10398405 -0.022104345 -0.07476193 0.07983241 -0.019765204
0.036313426 0.061737668 -0.11895836 0.20576406 -0.122187145 0.0700387 0.20453064 -0.08396626
0.042304434 -0.03190693 0.06777565 -0.07154179 -0.13718078 0.06010078 0.03368255 0.04811797
0.43195447 -0.049172875 0.08176376 0.013116157 0.06009886 -0.15009162 -0.032639783 0.2595448
0.23261268 -0.109751284 -0.069392845 0.111516625 0.16637325 -0.10404922 -0.055800848 0.16523595
-0.043140218 -0.19206779 0.035774574 -0.07765405 -0.10725916 0.17276509 0.027655052 -0.15239674
0.01046433 -0.054050148 -0.15636241 0.0015360019 0.06950213 -0.07802141 0.0046264925 -0.11394781
0.017918408 0.5101079 0.22291617 -0.10603192 -0.09450647 0.17122255 -0.010536586 0.21826024
0.11637123 0.032877833 0.1246959 0.142654 0.12129902 -0.19913222 -0.08111122 0.008814906
0.37940186 -0.015660027 0.08716498 0.2390609 0.01593034 -0.0043685976 0.07304445 0.15989682
0.18916418 0.09132458 0.038746793 -0.19923073 -0.0590629 -0.10745964 -0.12521157 0.043864194

lstm.bias_hh_l1 f4 [256]
00000000: a855 ac3e b0e6 c93d c50c 493e c543 b83d
00000010: 1b8c 2e3e 2a00 ea3d b5f8 06be 3e24 983e
00000020: 3599 7c3e cf1c 503e 9921 f4bd b9d8 3c3d
00000030: ce86 47ba 4fa8 033e 233a 86bd 75a6 343d
00000040: 7c08 323d d9bd fe3c b642 273d 8544 6d3e
00000050: 7bcc 8c3e 9064 04bd df34 87bd b95f b93d
00000060: 295c 9ebd 489e 693e 7144 ebbd 43b5 163e
00000070: 7d57 5e3e 2703 073b 2b8e 163e 6a53 c33d
00000080: 0f6f 023d 5de7 cf3e 0d4b 263d 032a 8a3d
00000090: fb75 dc3d 7714 ae3d 0936 70be d8cb 90bd
000000a0: 96c7 9c3e b75e 653d 9a97 113e f359 0e3e
000000b0: 160b 9f3d cb7d d03d 522e 6b3e d1d8 7d3d
000000c0: e27c 343f fc21 21be eb4d 1bbc f17e a43e
000000d0: 15f7 7abe 4477 9b3c 76ee 233f 4d08 c33d
000000e0: 2291 2e3e 1079 603e aa6e 93bd abac 3d3e
000000f0: 82ae 043e d8e1 ac3e 1277 023e 3b39 35be
00000100: 784e d9bc 1b2c 8d3e 51b0 32bd 201f 10bd
00000110: 31f1 1f3d 4fa9 7f3d 2e5b b9bd c1fe bdbd
00000120: 6d6c 2fbe bfe0 433e f76f 92bd 4c73 21be
00000130: b4e5 d13e 8006 5d3d df3f 763c 1773 c0bb
00000140: 71d3 4abe d9d3 e73d 5338 bb3d ba9c 6c3b
00000150: 1f94 243e 4567 01be c00c b43c 64ee 68bd
00000160: cb3c 2b3e 3fe7 6c3e 09fa 263e 5459 803d
00000170: fa2c 55bb 2da7 d53d 1abd 0f3e 594f fa3d
00000180: da72 89be a8c1 21be 9acb 683e b447 843c
00000190: 916d db3d 95da 5b3e 282c af3e 669c 443e
000001a0: 247e 7bbe c6c8 7c3d c6c2 5a3e 777c 17be
000001b0: bd33 c93d 3c34 4d3c f97b a23e 6666 863d
000001c0: 6d11 02be ae17 813e 23dc 463d eeed 55be
000001d0: 849d 393e 420d 4cbe f945 8bbd 2bbc 5ebe
000001e0: c6ce 67be b893 96bd 5b9f 993d 4853 d13e
000001f0: cdbe bc3d a6aa f33d b90a d53d 0c0c 0cbd
00000200: ed61 58be 0c25 adbd 0863 dbbc b086 35bd
00000210: 2dac efbc 3c8c 9e3d 6f84 2b3e 1571 513d
00000220: f477 0ebd 901a 073e f526 393c 0eb0 2dbd
00000230: b321 6e3c b80c 2d3e d6b5 d73d bdb4 873d
00000240: d83d 99bc 1efd bb3c 140d 13be 4b19 f43d
00000250: 12b0 09be cf86 343d 5e0b b03b 969b eb3d
00000260: a7b1 0dbe 4dec 06be a974 d4bc bd1b aa3d
00000270: eb7e bb3d e6f3 23be 18ef af3d f1a8 43be
00000280: 7e46 293d 2967 8ebd b9ee db3d e83a 1bbe
00000290: e47d 6b3e 3456 9ebc beff 1f3d 6c62 cd3c
000002a0: 4e8a 17be 661f 063d 4a6d 903c b515 d8bd
000002b0: 26fc 973d d7af 203e 6577 0f3d 1987 023c
000002c0: 5f59 b73d ca41 8abd 8fa6 94bb 8254 403e
000002d0: 0b05 1d3c 0e95 253e 3117 733e cefd 9d3c
000002e0: 86d4 083e 209a bd3d f895 a8bd b069 533c
000002f0: 8834 19be 22c7 073e f033 873d 5b1e bcbd
00000300: ffcd c63e 61e0 5e3d 33c6 bbbc 8400 89bd
00000310: 3dc2 683c 6cbb 92bd f22e 293e 9f87 463e
00000320: b38c 273e e754 06be 3177 a83d da4b e93c
00000330: 1657 9e3c 2f34 82bd 1d62 6cbd a1fe 153e
00000340: 79d3 b8bc 0b90 84bc 31a7 a23c 7c03 e6bd
00000350: f746 13be 958d 4a3d b39e 03bd 6152 9fbd
00000360: bcc1 d8bd e048 c0bd 7951 aebc a2bf 25be
00000370: 068d ef3d 8f4a 10be 75b1 d7bd 32c4 3cbe
00000380: c9f7 643e d61e cc3e e7fb b73d 45e6 61bd
00000390: 282b c7bd 9910 4e3d 03ca 803d 9680 ee3c
000003a0: 2486 723d 7e63 43be af00 b0bd 7820 d53d
000003b0: d9cc 89bd 2dd0 d13c 6ea0 b3bd 37c5 423d
000003c0: 0511 843e 2097 563e d670 583d 2b4a 683e
000003d0: 6a01 64bd ed21 e5bd f6cb 7a3d 6ed8 6a3e
000003e0: 737d 373e 466c 513e 7bb8 aa3d f74d acbd
000003f0: 5875 4bbe 66c9 4ebe 3a54 003d 51c1 3f3e
0.336591 0.09858453 0.19633777 0.08997301 0.17045633 0.114258125 -0.13180812 0.2971515
0.24667819 0.2032349 -0.11920471 0.04610512 -0.0007611335 0.12857173 -0.065540574 0.04410406
0.043465123 0.031096386 0.040835105 0.2317067 0.27499756 -0.032322466 -0.06601881 0.09051461
-0.07732422 0.22814286 -0.114876635 0.14717583 0.21713062 0.0020601244 0.1470267 0.09537394
0.031844195 0.40606204 0.040598918 0.06746294 0.107646905 0.08499997 -0.23458113 -0.0707013
0.30621022 0.05599853 0.14217988 0.139015 0.07765786 0.10180243 0.22966889 0.06197435
0.70503056 -0.1573562 -0.009479026 0.321281 -0.24508317 0.018977769 0.6403574 0.095230676
0.17047551 0.21921182 -0.07198842 0.18522899 0.12957194 0.33766055 0.12740734 -0.17697613
-0.026526675 0.27572712 -0.04362518 -0.035185933 0.039048377 0.062417325 -0.09050594 -0.09277106
-0.17131205 0.19128703 -0.07150262 -0.15766639 0.40995562 0.053961277 0.0150298765 -0.005873095
-0.19807221 0.113197036 0.09141602 0.0036104158 0.16072129 -0.1263705 0.021978736 -0.056867972
0.1672241 0.23135088 0.16306318 0.06267038 -0.0032528029 0.10432277 0.1403698 0.122221656
-0.26845437 -0.1579653 0.22733918 0.016147472 0.107142575 0.21470101 0.34213376 0.19200286
-0.24559838 0.06171491 0.21363363 -0.14793573 0.098243214 0.012524661 0.3173521 0.065625
-0.1270196 0.2521338 0.048549782 -0.20891544 0.18126494 -0.19926932 -0.068004556 -0.21751468
-0.22637472 -0.07352394 0.07501098 0.4088385 0.0921608 0.11897783 0.10402436 -0.034191176
-0.21131106 -0.08454332 -0.02678062 -0.0443179 -0.029256904 0.07741591 0.16749738 0.051133234
-0.034782365 0.13193727 0.011300792 -0.042404227 0.014534402 0.16899383 0.10532729 0.0662627
-0.018706247 0.022947844 -0.14360458 0.11918887 -0.13446072 0.044073876 0.005372449 0.11504285
-0.138373 -0.13176079 -0.025934534 0.08306072 0.09155067 -0.16011009 0.085905254 -0.19107415
0.041326992 -0.0695327 0.10738892 -0.1515919 0.22997242 -0.019328214 0.039062254 0.025071345
-0.14798853 0.032744788 0.017630238 -0.10551015 0.074211404 0.15692078 0.035025973 0.00796678
0.08952593 -0.067508295 -0.004536457 0.18782237 0.009583722 0.16170141 0.23739316 0.019286063
0.13362321 0.09257913 -0.08231729 0.012903616 -0.14961445 0.13259557 0.06601703 -0.09185477
0.38829038 0.054413203 -0.022921657 -0.066895515 0.014206466 -0.07164654 0.16521814 0.19387673
0.16362266 -0.13118325 0.08225859 0.028478552 0.019328635 -0.063576095 -0.057710756 0.14647914
-0.022561776 -0.016181966 0.019855114 -0.11231133 -0.1438254 0.04945143 -0.03213377 -0.077793844
-0.10583827 -0.093889 -0.021279084 -0.16186383 0.1169682 -0.14090942 -0.10531894 -0.18434218
0.22360148 0.39867276 0.089835934 -0.055151243 -0.09725028 0.050308798 0.06288531 0.029114049
0.059209958 -0.19080922 -0.085938804 0.104065835 -0.06728525 0.025611961 -0.08770834 0.04755136
0.25794235 0.20956087 0.052841984 0.22684543 -0.05566541 -0.111881115 0.06122967 0.22934124
0.17918949 0.2045146 0.08335968 -0.08413308 -0.19868982 -0.20194015 0.031330325 0.18726088
