api/data/models/GLOBAL_1h_lstm.pth (torch, 211061 bytes, 10 tensors)

lstm.weight_ih_l0 f4 [256, 5]
000000 34 dc 60 3f f1 39 8e 3e e2 50 b9 3e eb 78 9a 3d
       0.87836003 0.2777858 0.3619452 0.075425945
000010 5e 32 df 3e c0 9e 57 3b 57 fa cb bd 4a e1 06 3e
       0.43593115 0.003290102 -0.09959858 0.13171878
000020 c5 5b 7a 3e 62 5f 99 be 05 bd 59 3f 1a 99 bb 3e
       0.2444907 -0.29955584 0.85054046 0.36640245
000030 e3 e6 e0 3e e1 86 43 3f 3e a5 36 3f 6a 8a 2e 3f
       0.43926153 0.76377684 0.7134589 0.68179953
000040 d4 0e 9c 3e a7 4b 4c 3e ba ee 38 3f 1c c2 ca 3e
       0.30480063 0.19950734 0.7223927 0.3960122
000050 7c cd 85 be fe 05 87 bd 8d 62 ad 3d 69 a7 42 be
       -0.26133335 -0.0659294 0.08466063 -0.19009174
000060 52 47 7c bd 7b 5b 39 be 8b 10 9b 3a bc 2a fe 3d
       -0.061591454 -0.18101303 0.0011830492 0.12410495
000070 ea 19 48 be 1e d9 14 be 58 22 6d 3f f1 03 0b 3f
       -0.19541135 -0.14535949 0.9263053 0.5430289
000080 0c 9e 2f 3f 52 1d 47 3f 72 3c 2b 3f 69 ad 88 3e
       0.68600535 0.77779114 0.6688911 0.266948
000090 7d 5a ca 3d 3c 76 13 3e 32 52 79 3e be d9 55 3e
       0.098805405 0.14400572 0.24347761 0.20883843
0000a0 9c a9 14 3f fc f6 05 3f 2c 9d 83 3e 83 4e 85 3f
       0.58071303 0.52329993 0.2570585 1.0414585
0000b0 e7 f6 23 3e 26 af af bb 9f a0 2e bc b7 bc dc 3d
       0.16012155 -0.0053614555 -0.010658412 0.10778182
0000c0 af 53 10 bd fc 4b af bd e3 7b 00 be 43 6f 46 be
       -0.035236057 -0.08559415 -0.12547259 -0.1937838
0000d0 ca 81 6c 3e 15 07 e3 be f5 57 c6 3d bd ea 8e 3d
       0.23096386 -0.4434134 0.09684745 0.069783665
0000e0 72 4f 64 3e 0b d0 89 bd 16 a5 f5 3e a3 55 f6 3d
       0.22295931 -0.06729134 0.47977513 0.12028053
0000f0 5b e1 1a 3e 32 fc 44 be 2b 76 04 bd 18 a1 03 be
       0.15125029 -0.1923683 -0.032339256 -0.12854421
000100 37 01 0d be 3e 33 98 3e fa 9e fc 3e e0 1b 24 3f
       -0.13769995 0.29726595 0.4934004 0.64105034
000110 7b 51 09 3f 65 54 f4 3e 18 f2 a5 3e a9 71 1d 3f
       0.53639954 0.47720638 0.32411265 0.61501557
000120 ac be 80 3f 66 c0 02 3f 3d 32 4d 3f 40 b4 c8 3d
       1.0058188 0.51074827 0.8015478 0.09800005
000130 86 85 3b be 2c ec 80 be aa d7 b6 bc cf d9 2f bd
       -0.18312654 -0.25180185 -0.022319634 -0.042932328
000140 4e 1c 82 3e 08 f2 fc 3d fe ad 26 3d 03 92 d6 3e
       0.2541222 0.12350851 0.040693276 0.41908273
000150 42 2b b0 3d db 53 4d 3f 29 7f 1c 3f 34 2d e3 3e
       0.08602001 0.8020608 0.6113153 0.44370425
000160 95 56 0b 3f 86 51 6e 3f f3 48 70 be 0f e5 22 bd
       0.5442899 0.93093145 -0.23465328 -0.03976923
000170 a7 b1 f0 bd 18 89 90 be ff fe 8d be b6 84 be be
       -0.117526345 -0.28229594 -0.2773361 -0.37210625
000180 43 f9 73 3d f5 b9 7e bc ac 6c 70 3d 2f d4 05 bd
       0.059563886 -0.015547265 0.058697388 -0.032673057
000190 78 8e e3 be 4b 68 6f be 46 16 36 be 9c 12 95 be
       -0.44444633 -0.23379628 -0.17781934 -0.2911576
0001a0 f0 4b 45 be 0b 67 3b be e5 0f b1 3e 55 d4 2c be
       -0.19267249 -0.18301027 0.3458244 -0.16877873
0001b0 80 5d ac bd e9 ff 26 bd d7 31 3d 3e 13 61 85 3d
       -0.08416271 -0.0407714 0.18476044 0.06512656
0001c0 b2 32 d2 3e 60 31 ae 3e b5 e3 9c 3c ed 0e d1 be
       0.41054302 0.34022045 0.019151548 -0.408317
0001d0 7a 22 b2 bd e2 d6 69 3d 86 d2 d0 3c 6e f6 cc be
       -0.08697982 0.057089694 0.02549101 -0.4003176
0001e0 12 9a cd 3f d4 97 bb 3e 5a c7 32 3f cf cf 0a be
       1.6062644 0.36639273 0.69835436 -0.13555835
0001f0 35 1d 2b 3f 50 be 76 be c1 3f 25 bc 6f 07 35 3e
       0.6684144 -0.24096036 -0.010086001 0.17678617
000200 8c 64 bb bd 1b 49 18 3e e5 40 a4 be 21 88 ff 39
       -0.09150037 0.14871638 -0.3208076 0.00048738814
000210 59 4d f8 3d 5b 79 7e 3d 8f 0d 45 bd 9c 69 87 bd
       0.12124128 0.062127452 -0.048108634 -0.0661194
000220 aa 14 37 3d 07 1d e9 3b bd 4c 42 3d 46 b0 46 bc
       0.04469744 0.007114056 0.047436465 -0.012126988
000230 98 74 b2 be 66 f9 ec bd 2a db 5a 3e 28 af 22 be
       -0.3485458 -0.115710065 0.21372667 -0.1588713
000240 50 77 8a 3d ea 8e 19 3e 1c 70 28 be 12 4c d3 3d
       0.06761038 0.14995924 -0.16449016 0.10317244
000250 0d 2c ac be 72 c6 32 bd 3c 3b 37 3e 81 3d 8b 3c
       -0.33627358 -0.043646283 0.1789369 0.0169971
000260 a5 e1 7c 3d 9e 0d ce 3d 24 d2 fd bd a8 c3 ce be
       0.06173863 0.10061191 -0.12393597 -0.4038365
000270 8f 25 c4 3b 96 6f 2c 3e 91 24 d9 3d 26 ec f8 bd
       0.0059859226 0.16839442 0.106026776 -0.12154417
000280 89 6f 50 3f 56 84 2e 3f d6 a7 44 3f d5 cc 76 3f
       0.8142019 0.6817068 0.768186 0.964063
000290 a7 41 51 3f c0 68 bf be 84 06 a1 3c 16 20 96 bd
       0.817408 -0.37384605 0.019656427 -0.07330339
0002a0 62 92 03 3e 01 30 e5 bc 0e 45 7d 3d 33 7c 5d 3e
       0.1284881 -0.027976992 0.061833434 0.2162941
0002b0 3b 56 6d 3e e5 2f e4 3e 4b 4e a4 bd 44 df 47 3f
       0.23177426 0.4456779 -0.08022746 0.7807505
0002c0 39 69 8a 3f c6 df 0c 3f 9a 7d 9c 3f 73 ac 25 3f
       1.0813361 0.5502895 1.222583 0.6471626
0002d0 2a 37 cc be 67 6c ed bd 89 2d 6b 3e f9 bc 9c be
       -0.39885837 -0.11592942 0.22966589 -0.30612925
0002e0 89 02 19 bd a5 ae e1 3f 77 b2 d8 3e 00 16 b8 3e
       -0.037355933 1.7631422 0.42323658 0.35954285
0002f0 66 25 09 3f 2b 4a 93 3e 23 7b 9f be 5d 8f 01 bd
       0.5357269 0.28767523 -0.31148633 -0.031630863
000300 2d fb 7d 3e a2 86 e6 3d 20 e1 95 bd 51 ea 8f be
       0.24802847 0.11256148 -0.0731833 -0.28108457
000310 bf 36 1c 3f 4f df f4 3e 0c ad 58 3f d8 ad 2c 3f
       0.61021036 0.4782662 0.8463905 0.67452765
000320 fe bb af 3d b6 94 1c 3f 1d 48 7a 3f 9c 12 1d 3f
       0.085807785 0.61164415 0.97766286 0.6135652
000330 bb 4e 53 3f 4e d5 27 3f ae ad 15 3f 51 64 1a 3f
       0.8254201 0.6555985 0.5846814 0.6030932
000340 a2 cc 24 3f 46 2c bb 3e 41 8a 60 bf 6e c4 0a 3f
       0.64374745 0.36557215 -0.8771096 0.5420598
000350 ea f9 96 bd 45 be fa 3e af 28 17 3f e6 ef 45 3f
       -0.07371886 0.4897329 0.59046453 0.7731918
000360 06 c2 52 3f 4b 9b 2b 3f c3 52 8d 3f 77 ec 40 3f
       0.82327306 0.67033833 1.1040882 0.75360817
000370 32 4f 3e 3d be e5 b1 3e fb 56 83 3e 86 78 c3 3e
       0.046462245 0.34745592 0.25652298 0.3817789
000380 91 50 06 3f 28 96 08 bd 0a bd 84 3e e4 82 09 3f
       0.52466685 -0.033346325 0.25925475 0.5371535
000390 0b 85 86 3e c6 82 e0 3e d8 5d a1 3e 23 ac f9 bb
       0.2627338 0.43849772 0.3151691 -0.0076193972
0003a0 3f e8 28 3e 37 f7 58 3d 1f 7c ee bc 94 ee 8e be
       0.16494845 0.052970137 -0.02911192 -0.27916396
0003b0 88 5c d4 3b 7d 1b e2 3d 61 6e d3 bd b8 fc 03 3e
       0.006480757 0.11040399 -0.103237875 0.12889373
0003c0 d0 c2 3d 3f ec fe 76 3e 6a a3 1d 3e 6a eb 63 3f
       0.74125385 0.24120682 0.15394369 0.8903109
0003d0 d2 23 bc 3e d3 0a a3 3f 07 ab 36 3f 7e 1c 0f 3f
       0.3674608 1.2737678 0.71354717 0.5590285
0003e0 f2 be 8d 3f 68 ab 35 3f 3e dc 02 bf ff c4 3d bd
       1.1073897 0.7096467 -0.5111731 -0.04633045
0003f0 9e 79 1c bd ab bc 1f be f0 2f 82 be ad eb 9d 3f
       -0.03820192 -0.15599315 -0.25427198 1.2337548

lstm.weight_hh_l0 f4 [256, 64]
000000 fe 5b ec 3d 76 a7 70 3c 18 38 5f 3e 2c 46 b8 3d
       0.115409836 0.014688363 0.21798742 0.08997759
000010 31 c1 1e 3f a0 e4 86 bb b2 a2 bc be ac 1f 60 3d
       0.62013537 -0.0041166097 -0.36842877 0.054717705
000020 43 c1 35 be 81 bb 8e 3e 02 15 83 be f2 e7 89 be
       -0.17749505 0.2787743 -0.25601965 -0.26934773
000030 0c 3e d2 3d 10 17 79 be 61 cd 51 3f c5 6a be be
       0.10265741 -0.24325204 0.8195401 -0.37190834
000040 c0 ff 25 be 82 bc 45 3d 74 a8 c5 be 26 6a d8 3e
       -0.16210842 0.04827548 -0.38605082 0.42268485
000050 8e f1 b4 be 2f ba d3 bd b2 8a ac be b1 9c ab be
       -0.35340542 -0.10338246 -0.33699566 -0.33517984
000060 69 12 95 3c 4f 7b 00 3f e4 cc a9 3e 04 dd 55 3e
       0.018197255 0.50188154 0.33164132 0.20885092
000070 76 dd c4 3e 7a b3 83 bd 5e 12 f2 be 2a c6 d6 be
       0.3845021 -0.06430717 -0.47279638 -0.41948062
000080 07 50 32 be 75 cc d2 be 9f d1 f6 3e 4a 4d fe 3b
       -0.1741334 -0.41171613 0.48206803 0.0077606784
000090 f1 d7 99 be 03 0b b5 be 8c 5a 0d bf f7 23 0d 3f
       -0.30047563 -0.35359964 -0.5521629 0.55133003
0000a0 04 0a 40 3f 4e a7 9c 3e 4d c5 bf 3e 12 59 a8 bd
       0.7501528 0.30596393 0.37455216 -0.08220114
0000b0 66 b3 77 3d 5c b8 b4 3e 91 ad 3b 3e cf 3d b3 be
       0.060473822 0.35296905 0.18327929 -0.35008094
0000c0 ed c3 dd be 62 9b f7 bd d2 5a 98 be fc e6 77 be
       -0.43313542 -0.12090184 -0.2975679 -0.24209207
0000d0 2a 18 9b 3e e2 b5 98 3e f9 c8 2f 3f dd d5 b0 bd
       0.30291873 0.29826266 0.68666035 -0.08634541
0000e0 a0 03 7b 3e 8b 20 bd bd f8 ce 25 bf bf ff ec bd
       0.24513102 -0.09234723 -0.64768934 -0.11572217
0000f0 b7 37 85 be be 9f 25 bf 6f 65 29 be af 50 d2 3e
       -0.2601907 -0.6469687 -0.165426 0.41077182
000100 17 b9 3c be 8b 8e 99 bc 4c 0e dd bd a3 4a 59 3d
       -0.18429981 -0.018744728 -0.107937425 0.053049695
000110 95 e2 3b be ac 4d d7 3d 2f 12 64 3e 75 3d 31 bd
       -0.18348153 0.105128616 0.22272561 -0.0432715
000120 ac 52 07 be dc 3e 08 be 9a ac 6a b9 83 5a b1 bd
       -0.1321513 -0.13305229 -0.00022380278 -0.08659842
000130 ef c8 f8 bd 02 03 1f 3e 27 bb be be 41 ff e7 bd
       -0.121477 0.15528491 -0.3725216 -0.11327983
000140 d3 55 bf bd 6d 4f ca bd 87 96 f2 bb bb 02 0d be
       -0.093425415 -0.098784305 -0.007403198 -0.13770573
000150 40 63 dd 3d 0b 6e 37 bc 5f a0 55 bd c7 41 11 3e
       0.10809946 -0.01119567 -0.052154895 0.14185248
000160 f4 7a 8a be d8 86 c5 bd c7 1b 20 be 99 20 1d 3b
       -0.2704693 -0.0964486 -0.15635596 0.0023975729
000170 d3 32 43 be 93 88 8b bd 61 3f 40 bd 12 cc 54 3e
       -0.19062357 -0.06813159 -0.046935443 0.20780972
000180 76 c3 96 be e0 6b ee 3d d6 53 fc 3c 90 69 9d bd
       -0.29446 0.11641669 0.030801695 -0.0768615
000190 e1 8c b4 3d ac db b4 3e 79 ff 80 3d 03 4a 01 3e
       0.08815933 0.35323846 0.062987275 0.1262589
0001a0 6d 9c 01 be 5a c0 1e 3e d4 8c 88 bb 4f bf 17 be
       -0.12657328 0.15503064 -0.0041671786 -0.14819072
0001b0 aa e6 c1 3c 6a 8f 35 3e 50 52 8f be 37 b1 6a 3d
       0.02366956 0.1773049 -0.27992487 0.05729791
0001c0 30 81 06 be c4 9d 3e 3e 7e 93 dc 3c a4 15 17 3e
       -0.13135219 0.1861487 0.026925799 0.14754349
0001d0 74 45 d9 3d 74 99 16 be 03 e9 c5 bd cb 99 7f 3c
       0.1060895 -0.14706975 -0.09663584 0.015600632
0001e0 c8 69 b2 3d c5 8d da bd 53 af 19 bc 5f d1 79 3c
       0.087115824 -0.10671572 -0.009380179 0.015247672
0001f0 a4 0f 76 3c a2 ba ed 3c f7 70 f7 bd ce 81 2d bd
       0.015018377 0.029019658 -0.12082093 -0.04236012
000200 5c e4 4d 3e 84 e1 b4 3e 5f ec bb 3e 03 1f 08 be
       0.20106643 0.35328305 0.36703774 -0.1329308
000210 ae e4 1d 3f ce 8e f7 bc 10 13 d6 be fa e8 5c be
       0.6167706 -0.030219462 -0.4181142 -0.21573249
000220 53 8e 5d be a4 7c 15 3f 44 0d af be 46 24 89 bd
       -0.21636324 0.5839331 -0.34189808 -0.06696372
000230 02 3a 7d 3e 84 f2 76 be d0 cd 14 3f d4 7e 41 bf
       0.2472916 -0.2411595 0.58126545 -0.7558415
000240 90 8d 20 bd 34 9f ee 3e 97 28 fd be 2e 6c a1 3e
       -0.039197505 0.46605837 -0.4944503 0.31527847
000250 08 18 a0 be 97 fb 8a 3e 08 95 97 be 8c 46 cc be
       -0.31268334 0.27145073 -0.2960589 -0.39897573
000260 a0 6c d5 3d 37 bc 30 3e 5f 05 a5 3d a4 9b 27 3e
       0.10421109 0.17259298 0.08057665 0.16367966
000270 5e 8f d2 3e 3a 99 35 bd a2 d3 a4 be 54 57 c5 be
       0.41125005 -0.04433558 -0.32192713 -0.3854319
000280 b5 d1 84 3d e0 6b 0b bf e2 b3 21 3f e9 c3 c6 bd
       0.06485311 -0.5446148 0.63165104 -0.09705336
000290 5d 9c 2d be bf 9f 34 be be 84 0c bf 06 99 fd 3e
       -0.16954179 -0.17639063 -0.5489005 0.4953081
0002a0 78 19 7a 3e 47 0a aa 3e dd 5e 25 3e 83 65 73 be
       0.24423778 0.33210966 0.16149469 -0.23769192
0002b0 82 19 9c 3b fb 0a 15 bc 4c 5f f2 3e 41 e5 61 be
       0.004763783 -0.009096856 0.4733833 -0.2206011
0002c0 6b 56 41 bf d0 fd 4a be 00 53 42 be c6 5a 82 be
       -0.7552249 -0.19823384 -0.18976974 -0.2545988
0002d0 48 53 40 3f c3 bc 23 bd a3 4b 29 3f 8b 87 21 bc
       0.7512708 -0.03997494 0.6613104 -0.009858976
0002e0 8e 4f 8a be e3 ad 8e be 26 e0 68 bf 7d 05 d6 be
       -0.2701382 -0.2786704 -0.90967023 -0.41801062
0002f0 a8 9e 8c be 34 4b 2c bf 2c 93 3b be b5 45 17 3f
       -0.27464795 -0.6730225 -0.1831786 0.5909074
000300 88 52 e0 be 30 cc 5c 3e e0 3f 12 be a4 f9 f8 3b
       -0.43812966 0.21562266 -0.14282179 0.007598119
000310 8c 1a 65 3e fd 3f 48 3e 02 70 c8 be cd 8b 45 3e
       0.22373408 0.1955566 -0.39147955 0.19291611
000320 a8 d0 bb be 55 62 cc 3c 8c 0a c0 be c0 09 7c be
       -0.3668263 0.024949232 -0.37508047 -0.24613094
000330 3e 95 92 3e 98 75 92 3d 02 e9 20 3f b9 de e1 be
       0.28629488 0.071513355 0.6285554 -0.44115236
000340 d8 af e2 3e c3 76 4b be 4e f8 ad be db ad 57 bd
       0.44274783 -0.19869523 -0.33978504 -0.052656036
000350 32 61 25 be 1c 34 06 3e d2 c8 c5 be e4 4f 39 3d
       -0.16150358 0.13105816 -0.38629776 0.045242205
000360 d7 71 d5 be b5 7e 7c bc 8f 09 cd bc 02 6a 4f bd
       -0.41688415 -0.015411069 -0.025028972 -0.050638206
000370 f7 8b ff 3d 7b 7d 3f be a3 85 64 be 21 c6 14 3d
       0.12477868 -0.18700211 -0.22316603 0.036321763
000380 00 5e c6 be 34 b5 21 be 43 6d d1 3e a0 9f c1 be
       -0.3874359 -0.1579178 0.40903673 -0.37817097
000390 cc cf 55 3e 18 de d5 3e 2c 74 93 be c2 e9 8e 3e
       0.2088005 0.41771007 -0.2879957 0.27912718
0003a0 09 64 f8 3e 1a af 18 3f 07 ec 49 3e ae d4 fd be
       0.4851382 0.59642184 0.19718944 -0.49576324
0003b0 ab 4d d5 3e f4 63 cb 3e c2 68 2d 3e 0a 63 47 3e
       0.41660818 0.39724696 0.16934493 0.19471374
0003c0 ba 08 f2 be ca 8a 86 3e 27 d4 6d 3e 3a 48 1d 3e
       -0.47272283 0.26277763 0.23225461 0.15359583
0003d0 83 07 0b 3f b2 6c 2b be e9 d7 dd 3e 63 37 0e be
       0.54308337 -0.16740683 0.4332879 -0.13888316
0003e0 7a 33 e9 bd eb 3e 1e bf 5d 2f b9 be 78 54 d6 3c
       -0.113867715 -0.61814755 -0.36168948 0.026163325
0003f0 84 03 98 3d 7d ea 54 be dc 59 b8 be 71 27 1b 3f
       0.074225456 -0.20792575 -0.36006057 0.6060706

lstm.bias_ih_l0 f4 [256]
000000 95 ed 01 3f 67 60 40 be 97 9b 1c 3f ba 27 81 3e
       0.50753146 -0.18786775 0.6117491 0.2522562
000010 9e 07 01 be d3 7a 07 3e 18 35 4c 3f d5 da b2 3e
       -0.12600562 0.13230447 0.79768515 0.3493258
000020 9d c7 21 3e f0 36 d6 bd 2d b5 13 3e 56 11 fd bc
       0.15798803 -0.10459697 0.14424582 -0.030892055
000030 1b 47 02 bd 3c 92 2c 3f 47 31 9b 3f 49 bc 86 3d
       -0.031806093 0.67410636 1.2124413 0.06578881
000040 60 af a6 3e ee 41 43 3f e7 a9 f2 bd 47 d9 21 3e
       0.32555676 0.76272476 -0.118488126 0.15805541
000050 8e 57 17 be dc 75 39 3d 95 7c 3f 3e 0d e5 3b be
       -0.14779493 0.045278415 0.18699868 -0.18349095
000060 7f 44 47 3f 7f 04 54 be d2 c0 31 be e9 c4 74 be
       0.7783889 -0.2070484 -0.17358711 -0.2390324
000070 5a 76 23 bd 6c f8 24 be 1e 4f b0 bd 50 67 ca bd
       -0.03990779 -0.1611039 -0.086088404 -0.098829865
000080 5b 39 81 3f d9 ef 50 be bf ac 10 bd fb 91 20 3f
       1.0095628 -0.20403995 -0.035320994 0.6272275
000090 15 de c7 bd 2d 92 4b 3d 7d 40 80 bc 1a 59 31 3f
       -0.09759156 0.04969995 -0.01565575 0.69276583
0000a0 eb 19 87 3f d4 3b 15 3f 65 2c cb 3e 2e 21 4a 3f
       1.0554785 0.58294415 0.39682308 0.7895688
0000b0 af 21 2f 3f 88 68 ca 3e 21 ac dc bc ee f9 c4 3d
       0.6841077 0.39532876 -0.026937546 0.09617983
0000c0 bd 88 75 3e 1d 7f 52 3f 02 c4 9e be df ad 65 3f
       0.23977943 0.8222521 -0.31008917 0.8971843
0000d0 7b 4f 0e 3f d1 69 74 bd 34 c2 1c 3f 75 b1 04 3e
       0.5559003 -0.059671227 0.6123383 0.1295832
0000e0 d6 e2 65 3e c2 27 66 bd 09 69 79 3e 67 54 69 3e
       0.22449812 -0.05619026 0.24356474 0.22786103
0000f0 e9 00 8c be 2c dc aa 3e a5 fc 06 3e fe 0f 6a 3f
       -0.27344444 0.33371103 0.13182314 0.9143065
000100 2b c5 b3 bd a2 1e ec bd 6d 9e e7 be 87 5e d3 be
       -0.08777841 -0.1152928 -0.45238057 -0.41283056
000110 b4 4a 07 bc 6b b8 05 bd 71 b9 ea be 84 9f fd bd
       -0.008257557 -0.032646578 -0.45844606 -0.12383941
000120 bd d9 d8 be 0a c7 8c 3e 71 eb 06 bd 90 e0 a7 be
       -0.4235362 0.27495605 -0.03293938 -0.32788515
000130 97 fa 7a be e7 cd c9 be 88 f0 5f be ea 09 ba 3d
       -0.24509655 -0.39414904 -0.21869099 0.09083922
000140 0a f3 b1 be 01 e9 c9 be 81 5b ce bd 43 1a 69 be
       -0.34755737 -0.3943558 -0.10076047 -0.22763924
000150 ef 64 32 be 20 aa a4 bd 86 4b c9 be 14 36 f2 3c
       -0.17421316 -0.08040261 -0.39315432 0.029566802
000160 7a 6c 0c be 77 12 81 3e c8 d7 47 bd d0 af b7 3d
       -0.13713256 0.252094 -0.04878977 0.089690804
000170 0f 83 7c bd 01 b2 8a 3e 2b d2 3b be 21 c3 79 bd
       -0.061648425 0.2708893 -0.18341891 -0.060977105
000180 a4 eb c5 be a7 70 18 be 97 cf a3 bd ce 18 08 bf
       -0.38656342 -0.14886723 -0.07998579 -0.5316285
000190 ad 45 72 3d cf 48 b8 be 8a 32 d1 3d 41 81 da be
       0.05914848 -0.3599305 0.10214718 -0.42676738
0001a0 fb cd d3 be 63 a7 6d be 29 07 13 be 63 e0 5f be
       -0.41368088 -0.23208384 -0.143582 -0.2186294
0001b0 51 c9 96 be 80 43 67 be 1f 2c 4e bc 49 e2 94 3e
       -0.29450467 -0.22584343 -0.0125837615 0.29078892
0001c0 72 4c d3 be 6b 87 a0 be de 7a 26 be c0 24 a9 be
       -0.4126926 -0.31353316 -0.16257808 -0.3303585
0001d0 8f 61 2b be 9e 1d be bd 85 03 ae be b2 d7 ca 3c
       -0.16736434 -0.09282993 -0.3398706 0.024761055
0001e0 2e 2d 55 bd cf cf be bb 3d 44 b2 3d 1b 51 68 bd
       -0.05204504 -0.0058231126 0.08704422 -0.056717973
0001f0 cb 08 66 be 83 a5 e3 3e 4b 4d 2f be b9 54 91 be
       -0.22464292 0.44462213 -0.17119329 -0.2838495
000200 b5 dc 63 3e 94 13 b7 bd b4 7c b5 3d 2c 74 99 bd
       0.22252162 -0.08939281 0.08861676 -0.07492861
000210 30 15 3d 3d 48 e4 3f be 34 78 c9 ba 3a 1f 60 be
       0.046162784 -0.18739426 -0.0015370906 -0.21886912
000220 fc 1e 24 3d 8e 30 a2 3d 2f af 93 3d e8 c4 0c 3d
       0.04006861 0.07919417 0.07211148 0.034367472
000230 94 a0 05 be 04 60 69 be aa 5d 0b bd a7 55 d7 bc
       -0.13049537 -0.22790533 -0.034024872 -0.02628596
000240 92 8b f5 bc 67 4f 6e 3e 94 c6 f0 bd 51 90 55 3e
       -0.029973779 0.23272477 -0.11756626 0.20855834
000250 c5 eb 04 bd e4 9d 32 3c a3 11 9d bb 77 4d 67 bd
       -0.03245141 0.010901902 -0.004793362 -0.05647036
000260 95 e2 92 3e 8e 86 c5 bd 90 c3 b2 bb de ab 7e 3c
       0.28688493 -0.09644805 -0.005455442 0.015543906
000270 d3 c8 0e 3e 86 5e 1e 3d 44 12 37 bc 5c ec f3 bd
       0.13943796 0.038664363 -0.011173788 -0.11910316
000280 e2 52 37 3e a2 f5 8d 3d df 48 fd 3c ee 05 0f 3e
       0.17902711 0.06931616 0.030918537 0.13967106
000290 c7 3a 23 be 2c 9e d3 bd f9 b9 b1 bc b7 0e 7d bc
       -0.1594039 -0.10332903 -0.021695124 -0.015445403
0002a0 f3 9d 0f be 0b 04 4c be 49 28 0a bc 1c 43 e3 3d
       -0.14025097 -0.19923417 -0.008432456 0.110967845
0002b0 1a 61 e0 bd bf 5e 27 be 8b 7c a9 3d 94 29 10 be
       -0.10956021 -0.16344737 0.08275708 -0.14078361
0002c0 38 af 87 3d 8e 65 8c be fa ea b2 bc c0 35 81 be
       0.06625217 -0.2742123 -0.021840561 -0.2523632
0002d0 34 7e cb 3c 1e ac f2 3d 53 30 2f be 35 3a ca bd
       0.024840452 0.11849235 -0.17108278 -0.09874383
0002e0 7c 16 6b bd f3 61 da 3d de 67 bd bd 00 33 85 bd
       -0.05739449 0.106632136 -0.09248327 -0.06503868
0002f0 ae 8b be bd 39 f2 aa be 4a 55 dc 3d 3e 62 ec bd
       -0.093039855 -0.33387926 0.10758455 -0.11542176
000300 e9 e7 0d 3f 2a 2e 96 bc 40 68 4c 3f 4d 8f 97 3d
       0.5543199 -0.01833256 0.7984657 0.07400379
000310 ac 07 8e bd 32 1d ef 3d 33 f6 75 3f b1 35 b3 3e
       -0.06935057 0.116754904 0.96078795 0.350019
000320 89 ea 9c 3e 48 38 06 be 63 ab 83 3b 51 4a 13 be
       0.30647686 -0.13107407 0.0040182336 -0.14383818
000330 e6 f8 80 bc 40 ed de 3e af 29 8b 3f 90 94 73 3d
       -0.015743684 0.43540382 1.0872096 0.059467852
000340 82 d5 de 3d 7d 78 0f 3f a2 94 24 be fb 3a 1e 3d
       0.10880567 0.56043226 -0.16072324 0.038630467
000350 f6 29 87 be b5 79 47 3d 26 d3 b7 3e 09 d6 a8 bd
       -0.263992 0.048700053 0.3590328 -0.08243949
000360 8b 31 0a 3f ac 4d 60 bd af ab 0b be e9 f9 84 bd
       0.53981847 -0.054761574 -0.13639711 -0.06492979
000370 8f e0 17 be fb 14 01 3e 70 7f 10 be c0 b1 a8 bd
       -0.14831756 0.1260566 -0.14111114 -0.08237028
000380 3b 62 80 3f 08 b2 9d be 20 56 15 be 13 d1 10 3f
       1.0029978 -0.3079989 -0.14583635 0.5656902
000390 42 18 f5 bd 39 64 1b 3c e3 ab f3 bc 99 dc 15 3f
       -0.119675174 0.009484344 -0.029745048 0.5853973
0003a0 da a0 4c 3f 44 a7 1c 3f 8a f5 97 3e 4e e2 33 3f
       0.7993294 0.6119273 0.2967952 0.7026719
0003b0 3c 02 26 3f 15 07 ba 3e a9 68 c9 bc da fd b3 bc
       0.6484716 0.36333528 -0.024586039 -0.021971632
0003c0 65 6e 06 3e ac 43 04 3f 32 8e a3 be d9 18 7c 3f
       0.1312805 0.5166576 -0.31944424 0.98475415
0003d0 34 02 b8 3e 38 d0 07 be b8 cf 1d 3f 6a f0 b6 bc
       0.3593918 -0.13263023 0.6164508 -0.022331435
0003e0 cc 66 81 3e e3 03 34 be f9 80 85 bd a5 56 29 3e
       0.2527374 -0.17579608 -0.0651874 0.16536959
0003f0 32 f9 c5 be 93 f1 89 3d ac 96 cb 3c 81 4d 4b 3f
       -0.38666683 0.0673553 0.02485212 0.79415137

lstm.bias_hh_l0 f4 [256]
000000 1c e6 23 3f f0 fd 00 be 4f 1d 3f 3f 1c dd 51 3e
       0.64022994 -0.1259687 0.74654096 0.20494503
000010 2e ad 3f 3d 7d 23 06 3e a8 33 43 3f 37 66 d2 3e
       0.046796016 0.13099475 0.76250696 0.4109361
000020 4b 65 65 3e 1a 38 cb 3c ad 42 99 3d e3 ad 14 be
       0.22401921 0.024807025 0.074834205 -0.14519458
000030 e3 89 27 3d bf 60 22 3f 87 57 89 3f 47 d3 68 3c
       0.040902983 0.6342887 1.0729836 0.014210529
000040 be 92 9b 3e 32 86 2f 3f 0d 6e 2e be 39 d0 de bb
       0.30385393 0.6856414 -0.17034169 -0.0067997244
000050 48 3f a0 be f9 77 76 3d f8 80 d6 3e ac 72 97 bd
       -0.3129828 0.06017301 0.4189527 -0.07394919
000060 b3 24 44 3f b6 87 88 bd c4 b4 86 be 5b b4 76 be
       0.766185 -0.0666651 -0.26309788 -0.24092238
000070 36 73 34 3d ba f9 37 be fa 31 d9 bc 4a 96 b9 bd
       0.044055186 -0.17966357 -0.026513088 -0.090618685
000080 d2 d0 73 3f 7d 29 38 be 9b c3 49 be f1 60 2e 3f
       0.9524051 -0.17984577 -0.19703524 0.6811667
000090 b0 8b dd bc 67 26 60 3e b1 bf 87 bd 56 8d 49 3f
       -0.027044147 0.2188965 -0.06628359 0.78731287
0000a0 e9 eb 62 3f 4e cb 21 3f 3a 6c 04 3f a2 a2 58 3f
       0.8864122 0.63200843 0.5172764 0.8462316
0000b0 6f c1 1d 3f bb 60 0f 3f ef 80 01 bd f5 9c 78 bd
       0.6162328 0.56006974 -0.0316171 -0.06069656
0000c0 7b 4c d4 3e f3 77 2f 3f 54 da b5 be 01 4c 82 3f
       0.414646 0.68542403 -0.35518134 1.0179445
0000d0 91 fc 2f 3f ac 4e 3c 3a 78 4a 28 3f aa ea b6 bd
       0.6874476 0.0007183354 0.6573863 -0.08931477
0000e0 b8 4f 00 3e c0 35 1e be 5a 79 50 3e 9a fe 9e 3d
       0.1253041 -0.15450191 0.20358792 0.07763405
0000f0 73 05 b0 be 18 4d ae 3e ec 9e 98 3d 26 e8 30 3f
       -0.34379157 0.34043193 0.07452187 0.6910423
000100 eb b5 17 be db 73 80 3c 7f 20 8c be 7b 11 f0 be
       -0.1481549 0.015680244 -0.27368543 -0.46888337
000110 44 f2 ce bd a6 5a 2b be 22 74 01 bf 03 48 f8 bd
       -0.10104802 -0.16733798 -0.5056783 -0.1212311
000120 bf 2f bd be ef 77 69 3e 24 86 f9 bd 54 75 de be
       -0.3695049 0.22799657 -0.121837884 -0.4344889
000130 bd b9 bc bd c9 e4 91 be c6 05 26 be f9 34 8a 3d
       -0.09215114 -0.28494862 -0.1621314 0.06748385
000140 70 24 a0 be 9b 05 92 be 94 62 23 3d ad 9c 00 be
       -0.312778 -0.28519902 0.039888933 -0.12559767
000150 92 52 84 be 61 2f 38 be 68 a3 cb be 43 a6 4b 3d
       -0.25844246 -0.17986824 -0.39773107 0.049719106
000160 d2 41 c4 bd a5 cc ec 3d dd 64 c6 bd b5 59 6c 3e
       -0.09582867 0.1156247 -0.09687207 0.23081096
000170 3d 8c 19 bd c9 71 99 3e 40 cb 9b bd c6 82 c7 3d
       -0.037487257 0.29969624 -0.07607126 0.0974174
000180 36 e6 a1 be d7 80 41 be 49 52 85 bd 5c 81 b9 be
       -0.3162095 -0.18896805 -0.06509835 -0.36231506
000190 c3 8d 43 bd 9f 5d b3 be c2 99 94 3d f7 4b f7 be
       -0.047742616 -0.35032365 0.072558895 -0.48300144
0001a0 fd fb b7 be 69 6e 37 be 29 77 99 be 07 f7 9f be
       -0.3593444 -0.17913212 -0.29973724 -0.31243154
0001b0 a9 ad d0 be 08 47 44 be cc c7 06 be ab ca 44 3e
       -0.40757492 -0.19167721 -0.13162154 0.19217937
0001c0 fa 9d f7 be 41 f8 b7 be b6 6a 45 be 3a 94 b2 be
       -0.48362714 -0.3593159 -0.19278988 -0.34878713
0001d0 53 ee f9 bd 9a 15 2b be b3 7b ce be d7 19 a0 3c
       -0.1220366 -0.16707459 -0.4032875 0.019543571
0001e0 4e 35 07 be 75 2f 3f 3e cd fb d9 3d 3d a4 25 be
       -0.13203928 0.18670447 0.1064373 -0.16175933
0001f0 96 68 a4 be 5d 57 de 3e a4 55 80 bd 36 48 f6 be
       -0.32111043 0.43426028 -0.06266335 -0.48101968
000200 f9 d6 2a 3e 64 da 84 3d d4 7a a4 3d bb 48 01 bd
       0.16683568 0.06486967 0.0803124 -0.0315635
000210 ea 5f b8 3d 86 65 32 be 83 ad 33 3e 02 c1 23 be
       0.09002669 -0.1742154 0.17546658 -0.15991595
000220 5b 5b 86 3e 18 9a ce bd e7 79 d3 3d c2 da 49 3e
       0.26241574 -0.10087985 0.103259854 0.19712356
000230 1d de 93 bd 7a 94 28 be 30 56 dd 3c 9a 5e 01 be
       -0.07220099 -0.1646289 0.027018636 -0.12633744
000240 cd 40 f5 bd 27 00 34 3e 9a 7b 83 bc d1 87 f0 3d
       -0.119752504 0.17578183 -0.016050149 0.11744655
000250 3a ff 35 be 6a a6 9d 3c 51 16 bc 3d 72 5d 1a be
       -0.17773142 0.019244391 0.09183944 -0.15074709
000260 ac 9b 7a 3e 7e 79 e0 3d 96 a4 7b bd ef 19 bc 3d
       0.24473447 0.10960673 -0.06143626 0.09184634
000270 09 d7 15 3e 93 8d 97 bd 3b e2 10 3e 15 62 f6 bb
       0.1463281 -0.0740005 0.141488 -0.0075190165
000280 0a c3 5d 3e 64 d4 d0 bd e4 c2 16 3c dc d1 4a 3e
       0.21656433 -0.1019676 0.009201739 0.19806617
000290 75 89 3b bd 0b b5 83 be 00 f0 05 3e 8b 20 02 be
       -0.045785386 -0.25724062 0.13079834 -0.12707727
0002a0 3d 69 4f 3c e9 fa 0c be 77 17 05 be 5b ca 88 3e
       0.012659368 -0.1376759 -0.12997232 0.26716885
0002b0 ca cd 49 bd 49 22 45 be d4 93 38 3d c7 b0 a3 bd
       -0.04926852 -0.1925136 0.045062855 -0.07992702
0002c0 50 47 41 3d 7e b5 f6 bd ba 21 d7 bd a0 fa 52 be
       0.04718715 -0.12046336 -0.1050448 -0.20603418
0002d0 2d d3 8a bd af 1a 01 bd 19 07 ef bc cf 51 ba bd
       -0.0677856 -0.031519588 -0.02917819 -0.09097635
0002e0 60 88 19 be 0d 09 2a bd 10 bb 89 3d 35 cc 51 be
       -0.14993429 -0.041512538 0.067251325 -0.20488055
0002f0 9b 84 16 be fa 28 90 be 1b 78 28 bd da 30 89 bd
       -0.14699022 -0.28156263 -0.041130167 -0.06698771
000300 a9 a8 10 3f 0d 4f bb bd 12 ab 40 3f 1e 90 5d 3e
       0.56507355 -0.09145937 0.7526103 0.21637008
000310 d1 65 81 3c 22 43 b3 3d 91 c9 6e 3f d9 47 b1 3e
       0.01579562 0.08753039 0.93276316 0.34625128
000320 59 a0 16 3e 61 5b bb bd d0 62 c4 3d 54 ac f4 bc
       0.14709605 -0.091482885 0.095891595 -0.029867329
000330 e4 f7 1e 3d 8a 6c 28 3f fb 28 8f 3f 97 02 99 bc
       0.038810626 0.6579062 1.1184381 -0.018677993
000340 e8 4a 80 3e d4 6c 13 3f 4e 1b 2f be 9d d3 62 3d
       0.2505715 0.57587934 -0.1710026 0.05537759
000350 88 c4 3b be 4a 9a b8 3d 5c 7b 8e 3e 97 52 a0 bd
       -0.1833669 0.09013803 0.2782849 -0.07828253
000360 75 fa 20 3f 28 73 39 be 39 7e 1d be 25 ab 40 be
       0.6288217 -0.18110335 -0.15380181 -0.18815286
000370 7f 6c 1f be e2 44 d4 3d fe b1 18 bd f7 c4 04 be
       -0.15568732 0.10364701 -0.03727912 -0.12965761
000380 50 b8 5b 3f 9a e5 fa bd c8 30 63 be 8b 5f 2f 3f
       0.85828114 -0.12250824 -0.22186577 0.6850516
000390 a6 b1 c6 bd 63 26 c5 3c 8a 25 e9 bc 5b c5 15 3f
       -0.097018525 0.024066156 -0.028460283 0.58504266
0003a0 fa c1 4b 3f d4 7a 13 3f 76 8b bb 3e 1e f1 3a 3f
       0.7959286 0.57609296 0.36629838 0.73024166
0003b0 27 97 f7 3e 9b 2b bb 3e ff 87 0b 3e 63 b6 15 bd
       0.48357508 0.36556706 0.13626097 -0.03655089
0003c0 44 76 70 3e 96 f5 08 3f a7 e4 23 be 04 58 73 3f
       0.23482615 0.53499734 -0.16005193 0.95056176
0003d0 76 5e e5 3e 72 95 8e bc 8c 89 06 3f a9 73 9d 3d
       0.4479863 -0.017405245 0.5255363 0.07688076
0003e0 50 5c 5b 3e 09 10 40 bd 95 35 18 bd 29 ec 97 3d
       0.21421933 -0.046890292 -0.037160475 0.07418091
0003f0 1d 0d 7c be f2 df 51 3d e2 bf db bd b7 0e 3d 3f
       -0.24614377 0.05123896 -0.10729958 0.7385058

lstm.weight_ih_l1 f4 [256, 64]
000000 68 eb 08 3f 56 73 32 be 64 e9 10 3f 7e 98 65 bc
       0.534842 -0.1742681 0.56606126 -0.014013408
000010 36 98 c3 3e 07 40 f1 3d 7d 1f b2 bd 46 7d 37 3d
       0.38202065 0.1177979 -0.08697412 0.044797204
000020 33 6c 95 3d de 29 43 3e 13 15 1c be 91 5a 73 3e
       0.07296028 0.1905894 -0.15242414 0.23765017
000030 fa 68 b7 3d 62 1c 80 be 7c 54 27 3f 9c b0 0d be
       0.089555696 -0.25021654 0.6536329 -0.13836902
000040 dd a2 d2 be 2d 15 a8 3e f5 4c 21 be d8 5a 9e 3d
       -0.4113988 0.32828656 -0.15752013 0.07732171
000050 39 a8 8b 3d 57 f0 83 3c 49 4b ba 3e fd 40 9d 3d
       0.06819195 0.016105814 0.36385563 0.07678411
000060 38 fb ac 3d 8a ca 01 be d8 79 52 bd 17 2b 9e be
       0.08446354 -0.12674919 -0.05138573 -0.3089225
000070 f4 6f 99 3e 37 ff fd bd 2d 8f 3a 3c 26 98 04 3e
       0.29968226 -0.12402194 0.011386675 0.12948665
000080 4f 23 0d 3c a0 5d 16 be 3a 2f ae bd 86 97 9a 3e
       0.008614375 -0.14684153 -0.085051015 0.30193728
000090 44 44 b0 bc f7 ac 23 bf 10 cf cd bd 1d e4 cd 3e
       -0.021516927 -0.639358 -0.1004926 0.402131
0000a0 ce 8d 03 3f 32 f2 5c 3e 0c 5e ff 3e c2 cd d9 bd
       0.5138825 0.21576765 0.4987644 -0.10634948
0000b0 23 d9 9b 3d 5e 07 34 3e 47 f0 a7 be 36 5d 54 bd
       0.07609775 0.17580935 -0.32800505 -0.051846705
0000c0 87 66 58 be c6 d2 f5 be cd 22 0c 3e b3 71 ab be
       -0.21132861 -0.4801237 0.1368515 -0.33485183
0000d0 b1 7a a0 3e 6d 13 b4 3d 28 29 33 3e 0b 81 cf 3d
       0.31343606 0.08792768 0.17496169 0.10132035
0000e0 2b 43 15 be c5 bb 32 3d 4b cb 8e be 55 5b ba be
       -0.14576404 0.043636102 -0.27889475 -0.36397806
0000f0 02 66 62 bd ba 2f 16 be f0 b5 76 bd 95 37 93 3e
       -0.055273063 -0.14666644 -0.060232103 0.28753343
000100 65 03 e6 bd b1 25 70 be de f1 0d be 23 14 82 bd
       -0.11231116 -0.23451878 -0.13861796 -0.06351497
000110 2f d5 ee bd 51 dc ac bc 11 1a 6e be 53 63 fb 3c
       -0.11661755 -0.021101149 -0.23252131 0.03068701
000120 fe c0 ca bd 45 4e 89 3b 35 26 b4 bd 94 4c 37 3e
       -0.099000916 0.0041902387 -0.0879635 0.17900306
000130 2a 96 e3 3c 09 20 84 3e c1 5c 8f 3e 53 4b 0f 3e
       0.027781565 0.2580569 0.28000453 0.13993578
000140 6c 40 81 bc b9 09 fa 3d ae f5 9f 3c b9 c7 9a bd
       -0.015777789 0.12208886 0.019526329 -0.07557625
000150 c2 1f aa bc 26 b3 e3 bd 6f ec 84 3d d4 56 05 3d
       -0.020767096 -0.11118154 0.06490409 0.03255351
000160 2c f5 14 3e 6f 86 20 be 87 e4 03 be 4d bb f1 bd
       0.1454665 -0.15676282 -0.12880145 -0.11803303
000170 73 00 56 bd 86 e0 1d 3e 50 d6 04 be b0 e4 c2 3d
       -0.052246522 0.1541768 -0.12972379 0.09516275
000180 f4 bd c3 bd 8c 3d df 3d ea 38 0d be 8f 7c e6 bb
       -0.09557715 0.10900411 -0.13791242 -0.0070338915
000190 dc da ad 3d 4b 83 af be 2d 8a 59 3e eb 69 87 3e
       0.0848901 -0.34279856 0.21244116 0.26447996
0001a0 14 39 d4 3e cf 67 2d 3c 9c 25 3d 3d bf 7f 36 be
       0.41449797 0.010583832 0.046178445 -0.17822169
0001b0 21 af 58 3e 5b f9 98 3e 82 4e 67 3d a1 d6 2c 3e
       0.21160556 0.29877743 0.056471355 0.1687875
0001c0 86 dd c2 bd 92 3a 81 3d 2e c3 79 3e 06 e7 d3 be
       -0.095149085 0.063099995 0.24390861 -0.41387194
0001d0 d0 d1 a4 3d 1f c7 00 be 73 8c 79 3d 1d f3 40 3e
       0.08047831 -0.12575959 0.06092496 0.1884274
0001e0 6e 44 9a be 53 df c3 bd c9 c5 a7 bd 03 ec ed bd
       -0.30130333 -0.0956408 -0.081920214 -0.11617281
0001f0 a7 f6 0d 3e 93 c6 0a 3e c7 4e fa bd 2a 18 80 bd
       0.13863622 0.13552313 -0.12222057 -0.06254609
000200 69 e9 10 bd 81 8e 09 3e 07 e6 3e be ea 87 b3 bd
       -0.035378847 0.13433267 -0.18642436 -0.08766158
000210 ed 00 83 3e b8 60 d5 bc 76 69 b4 be 67 8b 5e 3e
       0.25586644 -0.026047096 -0.3523671 0.21732865
000220 bf ad 86 be e2 78 14 3e 83 72 36 bd d6 36 da be
       -0.26304433 0.14499238 -0.0445428 -0.42619962
000230 34 73 4a 3e d2 fb 3e 3e 2c 48 92 3d e6 07 cd 3c
       0.19770509 0.1865075 0.07142672 0.02502818
000240 6e 35 92 3d f3 a2 55 be 15 b0 85 be f8 4f 6d bd
       0.07139097 -0.20862941 -0.26110902 -0.057937592
000250 f3 81 47 3d ad 32 d6 3d 00 41 18 bd 43 d3 b5 bd
       0.048707914 0.104588844 -0.037171364 -0.088781856
000260 01 c6 54 3d 03 14 51 3e 13 8f 71 3e 75 38 a9 3e
       0.051946644 0.2041779 0.23589735 0.33050886
000270 6b 89 e5 bc 50 8d c3 be e7 d9 11 be 83 a5 e2 be
       -0.028019628 -0.3819375 -0.1424328 -0.442669
000280 89 b0 c7 bd 94 b7 a4 bd f6 3a 77 3d 60 d7 55 be
       -0.09750468 -0.08042827 0.060358964 -0.2088294
000290 7b 96 e6 bd cd 9e 61 be bd 77 df be 81 e5 ff 3d
       -0.112591706 -0.22033234 -0.4364604 0.12494946
0002a0 39 05 d3 3d b7 a3 e0 3d dd 84 23 3e 4b 2c da bd
       0.103037305 0.10968726 0.15968652 -0.106529795
0002b0 e0 51 f4 3c 7c 47 a6 bd 16 75 af 3d f4 ac 01 be
       0.029824197 -0.08119103 0.08567254 -0.12663633
0002c0 b6 a8 b3 3c 0e 86 0a 3e b4 7e fc bd 64 a7 a3 bd
       0.021931034 0.135277 -0.12328854 -0.079909116
0002d0 30 54 63 3e 9d f5 9f 3c 39 23 17 3e 6e a7 b3 be
       0.22200084 0.019526297 0.1475953 -0.35088676
0002e0 71 b3 00 3e 42 6c 5f be 77 f7 19 be 08 bf 25 3e
       0.12568451 -0.21818641 -0.15035807 0.16186154
0002f0 f3 c2 3b 3d 8a 85 2b bd 6c 1c e0 bd 3b a7 12 3e
       0.045840215 -0.0418754 -0.10942921 0.14321606
000300 b2 23 b6 3e c8 29 0e be a8 d1 d6 3e 12 8d 9a be
       0.35574108 -0.13883126 0.4195683 -0.30185753
000310 c1 22 a1 3d a5 18 6f 3c 69 ba 43 3e 38 c1 b8 be
       0.07867957 0.014593278 0.19114079 -0.36084914
000320 7d ed 83 3e cc 31 90 3e d4 64 80 3e b5 87 59 3e
       0.25767127 0.28162992 0.25076926 0.21243174
000330 7a 80 0c be 66 84 7b be 5d 6d 88 3e 76 8b 23 bd
       -0.13720885 -0.24562225 0.26645938 -0.039927922
000340 51 2e 8a be c2 de 05 3f 17 ee 5b be 58 4f 65 3e
       -0.26988462 0.52293026 -0.21477543 0.22393548
000350 64 51 f7 bd d6 ab 47 be 72 b9 aa 3e 9c e8 1c 3e
       -0.12076071 -0.19499144 0.3334461 0.15323108
000360 61 54 27 3e b0 7d 44 bd 95 84 4a bd cb c9 7b be
       0.16340782 -0.047971427 -0.049442846 -0.24588697
000370 3a 41 70 be 4a f0 6a bc 2d 5c 2e 3e 55 4e e4 3c
       -0.23462382 -0.014339516 0.1702735 0.027869383
000380 2f c6 f2 3e e8 49 82 3c a6 38 23 be b5 69 9e 3e
       0.47416827 0.015904382 -0.15939578 0.30940023
000390 5e ee f2 bd 81 2b 2b bf b2 9d a0 bd 46 4b b8 3d
       -0.11861871 -0.66863257 -0.07842578 0.08998732
0003a0 3a c4 85 3e 52 0d d3 bd e3 b2 96 be 0d d0 54 3e
       0.2612627 -0.10305275 -0.29433355 0.2078249
0003b0 fe fe a0 bd 77 81 a5 bd be 56 8e bd 6c 1f 84 be
       -0.07861136 -0.08081334 -0.069501385 -0.25805223
0003c0 00 db 19 3e 8d 30 05 bf 11 e6 0f 3d ab ce eb be
       0.15024948 -0.5202721 0.035131518 -0.46056113
0003d0 cc 55 2f be 74 3c ac be e2 b7 b4 bd 97 53 b9 3e
       -0.17122573 -0.33639872 -0.08824135 0.36196586
0003e0 04 38 45 3e 74 87 1a 3e 65 8b 01 3e 68 5e 35 be
       0.1925965 0.15090734 0.12650831 -0.17711794
0003f0 88 0f 97 bd e2 d8 1f bc 04 05 d6 bd 19 37 7d be
       -0.07376009 -0.009756299 -0.104501754 -0.2472805

lstm.weight_hh_l1 f4 [256, 64]
000000 39 11 fb 3d 86 02 0d bf 93 44 c3 3e 9b d9 7e be
       0.12259144 -0.55081975 0.38138255 -0.24887697
000010 16 a0 9f 3e 73 ec 1d bb 5f b9 85 3d 35 3b 7c be
       0.31176823 -0.0024097234 0.06529497 -0.2463196
000020 39 97 69 be 9f 47 b9 be e9 bc d4 3e 44 e3 e0 3e
       -0.22811593 -0.36187455 0.41550377 0.4392339
000030 88 dc 89 be e2 bd 7c be 13 46 68 3e 9c c7 fc 3e
       -0.26926064 -0.2468181 0.22682981 0.4937104
000040 5c 32 3c be 93 8e 86 3d 3f 66 a8 3e 5f 65 d4 3d
       -0.18378586 0.065701626 0.32890508 0.103708975
000050 00 32 c6 be 0d 06 01 3f 9e e9 f5 3c 5c 52 95 3e
       -0.38710022 0.5039986 0.030018624 0.29164398
000060 2d d4 ea bd 22 97 44 bd 76 fa 7e 3e c0 2f 86 3e
       -0.114662506 -0.047995694 0.24900231 0.26208305
000070 28 14 10 be 93 80 04 bf 77 c7 47 be 43 fd f1 bc
       -0.14070189 -0.5175869 -0.19509684 -0.02953971
000080 6d 52 e1 3e ea 3d 3d bd bd e1 0e be b1 39 a8 be
       0.44008198 -0.046201624 -0.139533 -0.32856515
000090 03 f1 af be 3f 19 c7 be 26 f7 94 be 7b f9 95 3e
       -0.34363565 -0.3888645 -0.2909481 0.292919
0000a0 cb 3d 1c be 4b ec f0 be 2a 29 4d 3e 4b 44 e2 3d
       -0.15257947 -0.47055277 0.20035234 0.11048182
0000b0 a9 27 79 3e 31 92 76 be 57 d0 f7 be 6f d3 1b 3e
       0.24331535 -0.24079205 -0.48401138 0.15217374
0000c0 67 13 91 3c 5b 99 d8 3e e6 26 77 be 87 25 fe be
       0.017709447 0.423045 -0.24135932 -0.49638006
0000d0 52 c8 f0 be db 9b 01 bf 57 09 fe 3d bf 51 af bd
       -0.47027832 -0.5062844 0.12404125 -0.08560514
0000e0 50 b0 a0 3e df c9 77 be 5b 2d 15 3e 6d d8 c0 bd
       0.31384516 -0.24198101 0.14568083 -0.0941628
0000f0 b9 cb c1 3e fb 8c ba be 39 d2 70 be 39 1d d6 bd
       0.3785074 -0.36435685 -0.23517694 -0.104547925
000100 2e 4b 62 be c9 cf 17 3b e5 3c 85 3c 9d 03 8e bd
       -0.22098991 0.002316462 0.016264388 -0.06934283
000110 1b 77 43 3d eb 85 d6 bd 9d 5b 47 3d 86 68 02 3e
       0.04772101 -0.104747616 0.048671354 0.12735185
000120 52 2f 8a 3d cd 85 da 3d 71 66 5d bd 31 0c 84 bd
       0.06747307 0.10670052 -0.054052774 -0.06447638
000130 4b ee ba 3c f8 3b 32 be b5 da 41 3c 5d 7a 3e be
       0.022818705 -0.17405689 0.011831929 -0.18601365
000140 fe 8e 67 bb 2f 73 aa be 74 25 f6 bd b7 8f 9a bc
       -0.0035333033 -0.33291003 -0.12018862 -0.018867357
000150 d7 00 85 bd c4 be 44 3e e5 91 aa 3c aa 0b 6f bd
       -0.06494301 0.19213396 0.020821521 -0.058360733
000160 20 ee c3 bc 99 df ce bd 2c 35 54 3d 63 27 9e bd
       -0.023917258 -0.101012416 0.05180852 -0.07722356
000170 fa 91 e6 bd 91 3c c0 3d de 5c a1 3d 49 dc 81 3d
       -0.112583116 0.09386552 0.07879041 0.06340844
000180 89 5a 1a bd 0b ac 07 3e 5a 73 55 3d c0 75 d3 3d
       -0.037683997 0.13249223 0.05211196 0.103251934
000190 81 40 4e 3d d8 db 0d be 35 5d 31 bd 66 0a eb 3c
       0.050354484 -0.13853395 -0.04330178 0.028691482
0001a0 6c b3 dd bd b4 c0 60 3d bc 75 4e bd 25 bc 6d be
       -0.10825238 0.054871276 -0.05040525 -0.23216303
0001b0 73 c2 10 3e 88 26 cd bd 4b 7b 06 3e 1d d8 7c 3e
       0.14136676 -0.10017115 0.1313297 0.24691816
0001c0 8e 0d 17 be a1 90 de 3a 40 14 35 be 1d 9c 7a bd
       -0.14751264 0.0016980359 -0.17683506 -0.061184037
0001d0 34 1a 00 3d 23 7b be bd 67 7d 33 3e ab 8d 06 3e
       0.03127499 -0.0930083 0.17528306 0.1313998
0001e0 f6 8c b0 bc 2e 70 81 bd 48 b8 83 bd 0a af 69 3d
       -0.02155159 -0.06320225 -0.06431633 0.057051696
0001f0 6f e3 a3 bd df ca 8a bd 68 e2 4f 3d db 36 37 be
       -0.08002364 -0.06776976 0.050753027 -0.1789202
000200 c0 7e cc ba 07 f4 f4 bd 10 e9 d7 3d 61 4a f4 bd
       -0.0015601739 -0.11960607 0.105425 -0.11928249
000210 18 58 71 3e 13 50 31 3e 0a 74 24 be b0 69 04 be
       0.23568761 0.17315702 -0.1605989 -0.12930942
000220 de a1 e4 3c c2 a6 14 be cf b0 12 3e 64 19 44 3e
       0.027909216 -0.14516738 0.1432526 0.19150311
000230 b3 4b f1 bd 69 e5 d8 bd 7c 99 3c be 51 d4 2b be
       -0.117820166 -0.105906315 -0.18417925 -0.16780211
000240 29 c8 bc 3d 81 a7 ca be 50 d0 f0 3d 22 3f 47 3e
       0.09217865 -0.3958092 0.117584825 0.19457677
000250 65 0c 9c bb 6f 0e 88 3e f9 87 26 3e 16 57 29 3e
       -0.0047622197 0.26573512 0.16262807 0.16537127
000260 10 37 73 bc af 36 05 be 80 f9 aa be fb e5 91 3d
       -0.014844671 -0.13009141 -0.33393478 0.071239434
000270 f8 c6 c0 bd 38 42 cd bb 3e 4d 38 bd 7b 0b 00 3e
       -0.0941295 -0.0062639974 -0.04499554 0.1250438
000280 3f 87 ae 3d 04 df 29 bd 68 39 9a bd cb 41 b5 3c
       0.0852189 -0.04147245 -0.075304806 0.0221261
000290 a7 6d 19 bc 3d de dc bc 56 10 28 be 1b 53 de bc
       -0.009364522 -0.02696144 -0.16412482 -0.027139237
0002a0 57 fa be bd 2c ef 17 be 4e 1f 49 3e 07 88 ba be
       -0.09325092 -0.1483733 0.19640848 -0.36431906
0002b0 15 96 6a 3e 91 c7 b9 bd 59 b6 ac bd 86 4d f8 3c
       0.22908814 -0.090712674 -0.084332176 0.030310404
0002c0 a2 e0 1c be 18 a6 5a 3d 5e 63 16 be 38 0a b8 be
       -0.15320066 0.053381056 -0.14686343 -0.35945296
0002d0 eb 62 11 be c4 5c 0e be 7f cb b8 3e b3 39 81 be
       -0.1419789 -0.13902575 0.36092755 -0.25239334
0002e0 b7 d4 65 bd 90 2c 2f be 23 4a 5d 3e c4 28 fd 3c
       -0.056111064 -0.17106843 0.21610312 0.030903228
0002f0 21 70 7e be c7 b7 0d bc c8 6c 16 3c 09 9b b5 be
       -0.24847461 -0.008649773 0.009181209 -0.35469845
000300 c5 7e dc 3e 31 ef 3d be e7 a5 97 3d 3a 7a 6c be
       0.43065467 -0.18548276 0.0740469 -0.230935
000310 90 da 9c be 36 09 bf 3e 98 a4 47 bc 24 68 c7 bd
       -0.306355 0.37311715 -0.012185238 -0.0973666
000320 d1 3d 3c be 9a db 82 be 9e c4 81 3e 96 cf 72 3e
       -0.18382956 -0.25558168 0.2534532 0.23712
000330 a1 37 27 be ab 4b 1c be 66 2f 58 3e 76 9b dd 3d
       -0.16329814 -0.1526324 0.21111831 0.108206674
000340 e2 a2 ca 3d 21 b3 9b 3d df 4b c2 3d ed ef d6 3c
       0.09894349 0.076025255 0.094871275 0.026237452
000350 4f 58 3a be 74 50 32 3f e6 7c 05 3c c1 3f 93 3e
       -0.1819775 0.6965401 0.008147454 0.28759578
000360 74 59 5d 3d 21 b4 25 3e 85 0e de bc 55 8a 89 be
       0.054040387 0.16181995 -0.027106533 -0.2686335
000370 07 88 83 3e cf c6 ad be 26 9e a0 bd 9f 14 5d 3e
       0.25689718 -0.3394074 -0.078426644 0.21589898
000380 6f 8e 85 3e 32 cc ef bc 73 ec bb bd 87 ee 10 be
       0.2608523 -0.029272173 -0.091759585 -0.14153491
000390 40 c6 5d be 46 e7 ca bd 6b aa 62 3b 1b 39 78 3e
       -0.21657658 -0.09907393 0.003458644 0.24240534
0003a0 9d 91 d1 bd 54 6e ca bd d1 b3 81 3e 44 fe 18 3e
       -0.10232852 -0.09884325 0.25332502 0.14940745
0003b0 cf 0a 39 be d3 f0 28 3e f9 a0 9f be b8 a8 89 3e
       -0.1807053 0.16498117 -0.311775 0.26886535
0003c0 be e5 62 3e b9 f9 35 3e b9 49 ba bd b1 49 aa be
       0.22157952 0.17771043 -0.09096093 -0.33259347
0003d0 39 4c 38 be 1b c9 70 be 91 9f 43 3e e9 fe 95 3e
       -0.17997827 -0.23514216 0.19103839 0.29296044
0003e0 05 10 8a 3e e4 2d f2 bc 65 3a 0a be b9 f8 b7 be
       0.26965347 -0.029562898 -0.13498838 -0.35931948
0003f0 7b 02 6d 3e 11 39 b3 bd 0b ed b7 bd 00 45 14 3e
       0.23145477 -0.08751119 -0.08980759 0.14479446

lstm.bias_ih_l1 f4 [256]
000000 de 96 9e 3e 22 9e d2 bb 63 96 80 3d 2e f5 47 3e
       0.30974478 -0.0064275423 0.06278684 0.19527122
000010 cd 24 f3 bc 2b f9 d8 bc 99 95 81 3e 85 7f 44 3c
       -0.029680634 -0.026486 0.25309446 0.011993294
000020 ed 8b e8 3c cd fe c4 3d 97 60 9b 3e ac 32 02 3e
       0.028387034 0.09618912 0.3034713 0.12714642
000030 49 94 9d 3e ae 39 5c 3d d6 d1 33 bb 07 e9 1e bc
       0.30777195 0.053765945 -0.0027438304 -0.009699113
000040 c9 da 14 3d 65 d1 0a 3e 2e 65 12 3e a4 07 d6 3e
       0.036341462 0.1355644 0.1429641 0.41802704
000050 0a b2 52 3e e5 df 0d bd e4 48 96 bc ab 6d 06 3e
       0.20575729 -0.03463735 -0.018345304 0.13127773
000060 ed 48 3f 3d c8 b0 8c bd d3 42 09 be 66 80 48 3d
       0.046700407 -0.06869656 -0.13404398 0.048950575
000070 18 e9 4b 3e 09 58 46 bb 92 e1 c9 3d 09 83 32 3e
       0.19913137 -0.0030264875 0.09857477 0.17432798
000080 7c 8d 85 3e 49 dc 7c 3e e6 1e fe bd 22 dd 7f 3c
       0.26084507 0.24693407 -0.12408237 0.015616687
000090 1f a7 38 3d 8f d8 3d 3e 52 a3 e9 3d da 04 43 3e
       0.045081254 0.18539642 0.11408104 0.1904482
0000a0 ba 7d 1c 3f 91 61 5a bd f5 e7 6b 3d 1e 28 47 be
       0.61129344 -0.053315703 0.05759426 -0.19448897
0000b0 dc 1e b4 3d c5 26 f4 bd 2f a2 59 bb 91 a0 16 3f
       0.087949485 -0.11921457 -0.0033208241 0.58838755
0000c0 4d 32 9d 3e ee d5 08 be 33 98 97 3d da 0e a0 bd
       0.3070244 -0.13362858 0.074020766 -0.07815333
0000d0 08 2a 12 3b e1 81 6b 3d 7c e4 5f 3d ac b9 0b be
       0.0022302885 0.05749691 0.05466126 -0.13645047
0000e0 b1 ad 1c 3d ad 9e aa 3d 7a 31 c0 bc 78 b7 ff 3d
       0.038251583 0.08331046 -0.023461092 0.12486166
0000f0 bf 09 f3 3e 47 39 19 3e c1 42 ec 3d 0c ee 13 bc
       0.47468373 0.14963256 0.1153617 -0.009028923
000100 32 8c da bd 93 27 9d 3d 94 3a 4a 3d 7f 26 de 3d
       -0.106712714 0.07673564 0.04937227 0.10847186
000110 98 50 27 3e e1 5d 6b 3e 3d a6 7e be ac 55 9b 3e
       0.16339338 0.2298503 -0.24868102 0.303388
000120 a4 79 6e be 9b cd 18 3e 5b 71 d4 3e 0f a1 37 3e
       -0.2328859 0.14922182 0.41492733 0.17932533
000130 86 c7 87 3d 16 97 75 be b9 e0 d8 3d 5d e1 23 be
       0.06629853 -0.23983416 0.105897374 -0.16003938
000140 24 ed 08 3e ee 31 18 be 30 a8 43 3d 1d 42 51 be
       0.13371712 -0.14862797 0.047767818 -0.20435376
000150 3b b2 6c 3e a8 18 5c 3d fc 95 1c be dd 2e 08 3e
       0.23114865 0.05373445 -0.1529159 0.13299127
000160 d1 02 36 3e ba ec 2d 3d 8b 9c 2e bc af 89 e9 bd
       0.17774512 0.04246209 -0.01065744 -0.11403214
000170 63 59 fb bd e5 19 96 3e c2 76 b9 3d d9 a5 a4 bd
       -0.122729085 0.2931663 0.090558544 -0.080394454
000180 95 fb 8d bd 09 2e d7 bd ba 9d 76 3e a5 2f 53 3e
       -0.06932751 -0.105068274 0.24083605 0.20623644
000190 ea 97 75 3e 26 b8 64 be 8b e4 8d 3e 6a b1 6e 3d
       0.23983732 -0.22335872 0.27713427 0.058274664
0001a0 91 80 1e be 26 e3 5e 3e 7a 35 99 3e a3 b5 84 3e
       -0.15478732 0.21766338 0.29923612 0.25919828
0001b0 a9 d0 9d bd a2 16 02 3e 08 53 29 3e 6e e7 08 3d
       -0.077058144 0.12703946 0.1653558 0.033423834
0001c0 60 dc 03 be 93 55 99 3e 9b e8 68 3d 20 35 0b 3e
       -0.12877035 0.299481 0.056862455 0.13594484
0001d0 7f bc 21 3e 0d 8a 16 3e 37 df 1d be 73 8f f1 bd
       0.15794562 0.147011 -0.15417181 -0.11794939
0001e0 ab 33 f3 bc 3f d0 39 3e 74 d3 80 bd 8a c5 83 bd
       -0.029687723 0.18145846 -0.062903315 -0.06434162
0001f0 67 2f c0 bd 71 57 83 3e 20 aa 83 3e 1b 9e 9f 3d
       -0.09384041 0.2565265 0.25715733 0.07793828
000200 df 79 db bc e5 32 f5 3c 16 2e 1a 3e 7d 94 88 3d
       -0.026791511 0.029931495 0.15056643 0.06668947
000210 8d 34 00 3e 9f cf a2 3c c3 ed 21 be 9d b4 99 bd
       0.12520047 0.019874392 -0.15813355 -0.075051524
000220 c2 e7 20 bd ea 97 76 be 19 ec 0f 3e 12 fc 96 bb
       -0.03928352 -0.24081388 0.14054908 -0.004607686
000230 e3 36 3e be 72 e2 8a bd 18 e0 d7 3d 53 58 fe 3c
       -0.18575625 -0.06781472 0.10540789 0.031047976
000240 f5 19 19 3e bb a9 cc bd 54 f2 0f 3e 82 ed 8b bc
       0.14951308 -0.09993311 0.14057285 -0.017081026
000250 27 69 c5 bc 37 fc f3 bc a6 5b 86 3e 2d 0d 60 3e
       -0.024097992 -0.029783351 0.26241797 0.21880026
000260 c2 40 1b be c2 4f a5 3c b8 b0 09 be f4 be c5 3c
       -0.15161422 0.020179633 -0.13446319 0.024138905
000270 82 fe 72 bd 16 ca b2 3d 5c 25 a5 bd 79 4d c8 bd
       -0.05932475 0.08729951 -0.08063766 -0.09780402
000280 b0 17 8a 3d 6a 5e ff bd 0b 0e 97 bd 99 b3 1a be
       0.06742799 -0.1246918 -0.07375725 -0.15107574
000290 43 c8 20 3d 73 22 07 3e c4 bf cf bd c8 64 d5 3d
       0.039253484 0.13196735 -0.10143998 0.10419613
0002a0 64 35 8d 3c fa 92 f7 3c 9f 02 a1 3d 7a c0 56 bd
       0.017237373 0.030221451 0.07861828 -0.052429654
0002b0 6c 48 ae 3c 44 4d 9c bd c4 11 c1 bd 9f 3a 3a bd
       0.021274768 -0.07631925 -0.09427217 -0.04546606
0002c0 03 87 c7 bb 71 7c 23 bd 46 35 ad 3c 41 1f 50 bc
       -0.0060890927 -0.0399136 0.021143567 -0.012702764
0002d0 94 93 57 be 8f ed 08 be 93 6a 18 3e 39 00 0d be
       -0.2105239 -0.13371871 0.14884405 -0.13769616
0002e0 c3 73 11 3e b8 f9 8b bd 84 2b f2 3d 23 16 26 3c
       0.14204316 -0.068347394 0.11824706 0.010137114
0002f0 48 ce 44 3c 6a b7 04 3d b3 6f e6 3c 1d a0 f0 bc
       0.012012072 0.03240148 0.028129434 -0.029373223
000300 dc 83 2a 3e 48 3f 9e bd 63 ed 2c be 78 05 97 3e
       0.16651863 -0.07726914 -0.16887431 0.2949636
000310 3b 8f 5c 3e cb 9f 96 3e d7 04 02 3c cd 55 27 bc
       0.21539013 0.29418787 0.007935724 -0.010213328
000320 43 38 28 be bc cf 1b bb 0e 88 92 bd 38 f4 68 be
       -0.16427712 -0.0023774942 -0.071548566 -0.22749412
000330 47 3a 3c be 4a b5 54 be 2c ef 36 bd 8a 78 15 3e
       -0.18381606 -0.20772281 -0.044661686 0.14596763
000340 6c 59 af 3c fb 26 f8 3b a2 4f da bc 4d 61 7c 3e
       0.021404944 0.007573006 -0.0266493 0.24646492
000350 72 24 60 3d 9a d1 38 3e ce 9a 04 be af 56 51 be
       0.054722257 0.18048707 -0.12949678 -0.20443223
000360 2e 08 cc 3d c7 6f 8f 3d 9e fb f2 3d aa 79 ee 3c
       0.09962498 0.07003742 0.118643984 0.029110748
000370 21 73 02 3f e6 40 91 bd 2a 97 11 be fe 7b 9c 3e
       0.5095692 -0.070924565 -0.14217821 0.3056335
000380 2c e6 96 3e 64 bd bd 3e 8f f2 98 3d cf 28 cb bd
       0.29472482 0.37058556 0.074681394 -0.09919893
000390 19 f1 7d 3d da 9b 8d 3e e1 90 f3 ba 72 a4 63 bd
       0.061997507 0.27657968 -0.0018582606 -0.05557675
0003a0 e4 fd 47 3d 10 b7 ee bb 9d a6 43 bd 88 65 66 3e
       0.048826113 -0.0072850063 -0.047766317 0.22499669
0003b0 91 9c 26 be 9d 9b 22 be 0e 0f 81 3a 9c 78 d7 bd
       -0.16270663 -0.15879674 0.0009846406 -0.10521051
0003c0 cc 2e 71 3e f3 05 64 3d 75 33 3f bd 00 eb 83 3d
       0.23553008 0.055669736 -0.046679933 0.06441307
0003d0 5c a2 82 3d 56 6b 8a bd 71 5f d2 bc 73 1a ee bd
       0.06378624 -0.06758754 -0.025680276 -0.116261385
0003e0 7b c9 58 bd 55 56 b3 bd d7 a6 c8 bd be c1 31 3e
       -0.05292652 -0.08756701 -0.09797447 0.17359063
0003f0 8b 10 92 3d 09 ad bf bd a1 7f 83 bd d8 0f e8 3c
       0.071320616 -0.09359176 -0.06420828 0.028327867
