api/data/models/SOL_USDT_1h_lstm.pth (torch, 211349 bytes, 9 tensors)

lstm.weight_ih_l0 f4 [256, 6]
0	0xbde43543	-0.11142971
1	0xbdc05bc6	-0.093925044
2	0x3c9fc25b	0.019501856
3	0x3df564aa	0.11982091
4	0x3cc47ae2	0.023984376
5	0xbdd35525	-0.103189744
6	0x3d2104bf	0.039311167
7	0x3d292150	0.041291535
8	0xbd829650	-0.06376326
9	0xbdf4a144	-0.119448215
10	0xbcde1127	-0.027107788
11	0x3cb9f5e8	0.022700265
12	0x3e01ce96	0.12676463
13	0x3d86fbe3	0.06591012
14	0x3d0bfae5	0.03417482
15	0xbd4f9f93	-0.05068929
16	0x3bb6e149	0.0055810553
17	0x3d07bdb5	0.033139903
18	0xbd4de3b0	-0.050265968
19	0x3cd9e792	0.02659968
20	0x3d78381d	0.06060039
21	0xbc5062df	-0.012718885
22	0x3d8b184d	0.067917444
23	0xbc82d543	-0.015970832
24	0x3d68f925	0.056878228
25	0x3dff17da	0.12455721
26	0xbe076636	-0.13222584
27	0x3cc13043	0.023582583
28	0xbde2c6dd	-0.110730864
29	0xbc4d6ffa	-0.012538904
30	0x3de9550d	0.11393175
31	0x3e099db9	0.13439073
32	0xbd9c8d0d	-0.07644091
33	0x3d455d79	0.048184846
34	0xbbf3631c	-0.0074275862
35	0x3cfeadb5	0.03108869
36	0x3c568904	0.0130941905
37	0xbd00c397	-0.03143653
38	0x3e105a8e	0.14097044
39	0xbd8e440f	-0.06946575
40	0xbd99d739	-0.075117536
41	0xbda3d891	-0.08000291
42	0x3d9782d6	0.07398002
43	0xbdaacaeb	-0.08339485
44	0xbc5dedf8	-0.013545506
45	0xbda0e512	-0.07856192
46	0xbd9ff255	-0.07809893
47	0xbc3ecfdd	-0.011646238
48	0x3d8f6eaf	0.07003533
49	0xbd2275e4	-0.03966321
50	0xbc9aaeb5	-0.018882135
51	0xbd9f382c	-0.07774386
52	0xbdf37a2c	-0.11888537
53	0xbd72f1a1	-0.059312467
54	0x3dd84b9d	0.10561297
55	0x3d08027f	0.033205505
56	0x3c9a122c	0.018807493
57	0xbd2caeb6	-0.042158805
58	0x3dbdd0c8	0.092683375
59	0xbd340436	-0.04394933
60	0x3d8552b4	0.06509915
61	0x3dc69e98	0.09698218
62	0x3e0238f1	0.12717034
63	0xbdc4c10d	-0.09607134
64	0x3db8300a	0.08993538
65	0xbcbdadbd	-0.023154134
66	0x3d35947e	0.044331066
67	0xbccef73c	-0.025264375
68	0xbc1c7c8d	-0.00955118
69	0x3dd225bc	0.102611035
70	0xbd840bfb	-0.064475976
71	0x3e0e30ee	0.13885853
72	0xbd1dc3db	-0.03851686
73	0xbd628127	-0.05529895
74	0x3cf05f6c	0.029342376
75	0xbcc112cd	-0.023568535
76	0x3db3dd63	0.087824605
77	0xbda165bf	-0.07880735
78	0x3d8ce282	0.068791404
79	0x3d9e2f00	0.07723808
80	0xbd5050a0	-0.05085814
81	0x3d87b8c3	0.066270374
82	0x3dd0bb03	0.1019192
83	0x3dfa5256	0.122227356
84	0x3d271c58	0.040798515
85	0x3e47f840	0.19528294
86	0x3e253e78	0.16137111
87	0xbc868376	-0.016420107
88	0x3dd746d3	0.105115555
89	0x3dd54486	0.104134604
90	0x3d913580	0.070902824
91	0x3df7d1c0	0.121005535
92	0x3b406f49	0.0029363206
93	0x3e209b18	0.15684164
94	0x3da581ba	0.08081384
95	0x3d7bc60c	0.06146817
96	0x3d8d61e8	0.0690344
97	0xbc3e2321	-0.011605055
98	0xbd2ceca0	-0.04221785
99	0x3ddc45c4	0.10755494
100	0xbd6d3a5b	-0.05791698
101	0xbda93bde	-0.08263372
102	0xbc8a70f6	-0.016899567
103	0x3d96db89	0.07366092
104	0x3d7c362b	0.061575096
105	0x3e05ed39	0.13078775
106	0x3c519cc7	0.012793726
107	0xbc18e377	-0.009331576
108	0x3ded0546	0.115732715
109	0x3d1ea454	0.038730934
110	0x3d078a09	0.033090625
111	0x3de9fdc9	0.11425359
112	0x3dc210da	0.094758704
113	0x3e291297	0.16510998
114	0xbd242494	-0.040073946
115	0x3cd9292f	0.026508896
116	0xbd6a5a44	-0.05721499
117	0x3e384ea4	0.17998749
118	0x3c769551	0.015050248
119	0x39e019c0	0.00042743795
120	0x3da8fb8c	0.08251104
121	0xbe1f08e1	-0.15530731
122	0xbc3fccbb	-0.011706526
123	0x3ce3f1ba	0.027825225
124	0x3ddc1576	0.10746281
125	0xbdc8f970	-0.098132014
126	0x3e0a78c5	0.13522632
127	0x3d780377	0.06055018
128	0xbdb0a754	-0.08625665
129	0x3d83c310	0.064336896
130	0x3c200776	0.009767404
131	0xbd9dd632	-0.0770687
132	0x3dac425e	0.08411096
133	0x3dbe5ec5	0.092954196
134	0x3ca284f3	0.019838786
135	0x3d79ff6b	0.0610346
136	0xbb852239	-0.0040629175
137	0xbdc6a420	-0.09699273
138	0xbdece7e5	-0.11567668
139	0xbc5f99a1	-0.013647468
140	0xbd95f05b	-0.07321235
141	0xbd879b76	-0.06621449
142	0x3b755ab7	0.0037438103
143	0xbbc4b565	-0.006003069
144	0x3e1d4717	0.1535915
145	0x3e22db79	0.15904035
146	0x3d5d6d53	0.054059338
147	0x3dec6fd3	0.11544766
148	0x3e26a4b1	0.16273762
149	0x3e086832	0.13320997
150	0xbe07ad46	-0.13249692
151	0x3e0630a0	0.13104486
152	0xbde3c8cd	-0.11122284
153	0x3c2d441e	0.010575322
154	0xbe0469c7	-0.12930976
155	0xbdb09f15	-0.086240925
156	0x3dc497bc	0.095992535
157	0x3b4349b2	0.0029798565
158	0x3e0dd006	0.13848886
159	0xbd2b6daf	-0.04185265
160	0xbcfadd4b	-0.030623099
161	0x3d64e773	0.05588479
162	0x3d36b5e4	0.04460706
163	0x3d4c60df	0.04989707
164	0x3cb0301b	0.021507313
165	0xbe06f9a6	-0.13181171
166	0xbe075ffd	-0.1322021
167	0x3dc47819	0.09593219
168	0xbc0a0295	-0.008423467
169	0xbdf1e52c	-0.11811289
170	0xbd012eec	-0.03153889
171	0xbdad896b	-0.08473476
172	0x3da4fd7a	0.08056159
173	0x3dcdb3f9	0.10044093
174	0xbdd67b19	-0.10472698
175	0x3da27a11	0.079334386
176	0x3c68d196	0.014210125
177	0xbddd0d05	-0.10793499
178	0xbdcd48e3	-0.10023668
179	0x3d29b27e	0.04142999
180	0x3c0c6e74	0.008571256
181	0xbd0ab820	-0.033867
182	0x3ccbaf9c	0.02486401
183	0xbd85ec01	-0.06539155
184	0x3e337fd9	0.17529239
185	0xbc032d57	-0.008006415
186	0xbd661b90	-0.05617863
187	0xbdc3fe44	-0.09569982
188	0x3df997a3	0.121871255
189	0xbc2c1bdb	-0.010504688
190	0x3df19c2d	0.11797366
191	0x3d89be34	0.067257315
192	0x3d4377bc	0.04772161
193	0x3d24bcb1	0.040219013
194	0x3d907f05	0.07055477
195	0x3d872e46	0.06600623
196	0x3d972f35	0.07382051
197	0xbbac6f00	-0.0052622557
198	0x3cb269ca	0.02177896
199	0x3d8a433d	0.06751106
200	0xbd512419	-0.051059816
201	0xbd98bb3e	-0.074575886
202	0x3e167ee9	0.1469685
203	0x3bb06ec7	0.0053842994
204	0x3d8f9aee	0.07011972
205	0xbc063ea6	-0.0081936475
206	0xbdfd2c66	-0.12361984
207	0xbe0aa41b	-0.13539164
208	0xbdd1cd8d	-0.10244284
209	0x3c8dc1d4	0.017304339
210	0x3d2a3e3d	0.04156326
211	0x3e474959	0.19461574
212	0x3d752c90	0.05985695
213	0xbd8c71b0	-0.06857622
214	0xbd85b08c	-0.06527814
215	0x3e116d6e	0.142019
216	0x3e308d4c	0.172414
217	0x3e1ddaa0	0.1541543
218	0x3e2a24cc	0.166156
219	0xbd004fbe	-0.031326048
220	0x3dd2d824	0.10295132
221	0xbbd43562	-0.0064760903
222	0x3d1608e1	0.03662956
223	0x3b859654	0.0040767584
224	0xbc64226f	-0.013924225
225	0x3d1596cb	0.03652076
226	0xbdef2b84	-0.11678222
227	0xbda664f6	-0.081247255
228	0x3dab0905	0.0835133
229	0x3db2a7ee	0.08723436
230	0x3dfdc516	0.12391107
231	0x3def5907	0.116869025
232	0xbd88be68	-0.06676942
233	0x3e017003	0.12640385
234	0xbdb06f30	-0.08614957
235	0x3c7d5e5c	0.015464392
236	0x3d79ef5e	0.061019294
237	0xbce369d4	-0.027760424
238	0x3d8e2faf	0.06942689
239	0x3d2556de	0.040366046
240	0x3d0361e0	0.032075763
241	0x3e57bfac	0.21069211
242	0x3e084cf2	0.13310602
243	0x3c179842	0.00925261
244	0xb7fe5fa0	-3.0323688e-05
245	0x3d99bf7b	0.07507225
246	0xbced8b7d	-0.028997177
247	0xbd318cfb	-0.04334734
248	0x3cea475e	0.028598484
249	0x3df8d05a	0.12149115
250	0x3d927ff1	0.07153309
251	0xbd2e9811	-0.04262549
252	0x3e1d9042	0.15387061
253	0x3e0fe345	0.1405154
254	0x3d9ebb50	0.07750571
255	0x3a119e07	0.0005554859

lstm.weight_hh_l0 f4 [256, 64]
0	0xbd928f71	-0.071562655
1	0x3cb47543	0.022028571
2	0xbd6a555d	-0.057210315
3	0x3c075ba2	0.008261593
4	0xbdc04e53	-0.09389939
5	0x3d93eb9f	0.072226755
6	0xbd8834e4	-0.06650713
7	0x3d9fd4a8	0.07804233
8	0x3dd3bf8e	0.103392705
9	0xbdb409dc	-0.08790943
10	0x3c27d7ab	0.01024429
11	0xbd328b8f	-0.043590125
12	0xbcef993a	-0.029247869
13	0xbd42525f	-0.047441836
14	0x3d9a6a18	0.07539767
15	0x3dabc6d4	0.08387533
16	0xbd433015	-0.047653276
17	0x3dbdf7a3	0.092757486
18	0x3e1e4cc0	0.15458965
19	0xbe00b5ac	-0.12569302
20	0xbdacf838	-0.084457815
21	0x3e093937	0.13400732
22	0xbd202384	-0.03909637
23	0x3cba9f62	0.022781078
24	0x3c555983	0.01302183
25	0x3daf7c63	0.08568647
26	0xbd702d13	-0.058636736
27	0xbd8bd52c	-0.06827769
28	0x3dc2b3c2	0.09506942
29	0x3c6dd3ea	0.014515856
30	0x3e074ca6	0.13212833
31	0xbb2a0653	-0.002594371
32	0x3d5264a6	0.051365517
33	0xbd05f5ec	-0.032705233
34	0xbdc519fd	-0.096240975
35	0x3c3f453e	0.0116742235
36	0x3d6d5275	0.057939965
37	0x3e2e1285	0.16999252
38	0xbe1bcd9c	-0.15215153
39	0xbd96c5c5	-0.0736194
40	0xbd9b707b	-0.07589813
41	0xbdc65ba1	-0.096854456
42	0x3cdcc1a5	0.026947806
43	0x3d292c1f	0.041301843
44	0x3e01b254	0.12665683
45	0x3dcb99fa	0.09941478
46	0xbd5671a8	-0.052354485
47	0xbcd659a2	-0.026165787
48	0x3da40a4f	0.08009779
49	0xbd56a666	-0.052404784
50	0xbdb79c0a	-0.08965309
51	0x3ce2aeb3	0.027671194
52	0xbded280d	-0.11579905
53	0xbd516e24	-0.05113043
54	0x3d647138	0.055772036
55	0x3dd52ef4	0.10409346
56	0x3e11040f	0.14161704
57	0x3d058124	0.03259386
58	0xbc6f2bfa	-0.014597887
59	0x3c9b638c	0.018968366
60	0x3de9d9ce	0.11418496
61	0xbe15b562	-0.14619973
62	0xbd5a28fb	-0.05326174
63	0x3dd82662	0.10554196
64	0x3d870843	0.06593373
65	0xbc0ebd53	-0.008712131
66	0xbe0a607d	-0.1351337
67	0xbd86ba72	-0.0657853
68	0x3dcb64dd	0.099313475
69	0x3df33af0	0.11876476
70	0xba034a11	-0.000500829
71	0x3db76485	0.089547195
72	0xbcc61145	-0.024178157
73	0xbe02edf4	-0.12786084
74	0x3e1d0d82	0.15337184
75	0xbda2962b	-0.079387985
76	0xbde32ffe	-0.11093138
77	0x3d718900	0.058968544
78	0xbd8ffd21	-0.070307024
79	0x3a23e868	0.0006252588
80	0x3d564685	0.052313346
81	0x3e199f86	0.1500226
82	0xbdd74d5f	-0.10512804
83	0xbd87db17	-0.06633585
84	0xbd6ebfe5	-0.058288474
85	0x3decc2ff	0.1156063
86	0x3dec2aed	0.11531625
87	0x3d408358	0.04700026
88	0xbd48b65e	-0.049002044
89	0xbc171728	-0.0092218295
90	0xbd4864f3	-0.048924398
91	0xbdbcb45d	-0.09214089
92	0x3dcbd179	0.09952063
93	0x3e0f8645	0.14016064
94	0xbd83cb86	-0.064353034
95	0xbce7de26	-0.02830417
96	0x3dfff86c	0.124985546
97	0xbd496bd3	-0.049175095
98	0x3dbde32a	0.09271844
99	0x3cbd4426	0.023103785
100	0x3e0ae856	0.13565192
101	0x3df980dd	0.12182782
102	0x3d5882ce	0.05285912
103	0x3dc465f8	0.095897615
104	0x3ce6b4a9	0.028162317
105	0x3c3a4ed7	0.011371336
106	0x3d2a6f0f	0.04160982
107	0x3dda3039	0.10653729
108	0x3e059db0	0.13048434
109	0xbdb55e13	-0.08855834
110	0xbcaf8634	-0.021426298
111	0x3996518c	0.00028670987
112	0xbd183aa1	-0.037165288
113	0xbdc7d31f	-0.09757065
114	0x3dcae710	0.09907353
115	0x3de7e157	0.11322277
116	0x3da26813	0.07930007
117	0x3d9e5774	0.07731524
118	0xbe340906	-0.17581567
119	0xbc118a85	-0.008883123
120	0x3c946ac4	0.018117316
121	0x3c9e0c16	0.019292872
122	0xbcc27bb3	-0.023740625
123	0x3ba1a841	0.0049333875
124	0xbdb701da	-0.089359
125	0x3b34fa72	0.0027615097
126	0x3d543337	0.051806655
127	0x3dd1a814	0.102371365
128	0xbd997947	-0.07493835
129	0x3df19d0a	0.11797531
130	0xbd23584e	-0.039879136
131	0x3e07faab	0.13279216
132	0xbd0f3d99	-0.034970853
133	0x3dbff6c2	0.09373237
134	0xbe089245	-0.13337047
135	0xbd4da7a4	-0.050208703
136	0xbd614b80	-0.055003643
137	0xbdd39c63	-0.10332563
138	0x3cd4f6f7	0.025996668
139	0x3e153065	0.14569242
140	0xbb037ca9	-0.0020063317
141	0xbd082e8d	-0.03324752
142	0xbca8822e	-0.020569887
143	0x3cfeeda9	0.031119185
144	0xbdb11c07	-0.08647924
145	0xbdd42cfe	-0.10360144
146	0x3e12c507	0.14332972
147	0x3d849195	0.0647308
148	0xbda43546	-0.080179736
149	0x3dda4884	0.106583625
150	0xbbeb15c5	-0.007174226
151	0xbd85bd83	-0.06530287
152	0x3c7dcfef	0.01549147
153	0x3d8ad9c0	0.06779814
154	0x3d983e68	0.07433778
155	0x3cc9fa8c	0.024655603
156	0x3c9a1293	0.018807685
157	0xbda73fb0	-0.08166444
158	0x3db60fa8	0.08889705
159	0x3b9e77ec	0.004836073
160	0x3b2da9a4	0.0026498819
161	0x3d88e36f	0.066840045
162	0x3d5b3d6b	0.05352537
163	0xbd1bdd4e	-0.03805285
164	0xbdb7da3f	-0.08977174
165	0x3d97f474	0.074196726
166	0xbe05f1c1	-0.13080503
167	0xbd9811e9	-0.07425291
168	0xbc5f1515	-0.013615866
169	0x3de6c9dc	0.1126897
170	0xbd531433	-0.051532935
171	0xbd878f45	-0.06619123
172	0x3d4775b1	0.048696224
173	0x3dd7c103	0.10534861
174	0xbdace76e	-0.08442579
175	0x3dcccf33	0.100004576
176	0x3c0de8a5	0.008661424
177	0x3d2c50d7	0.042069282
178	0xbdbcc4be	-0.09217213
179	0xbe24a0d1	-0.16076972
180	0xbd983c59	-0.074333854
181	0xbde8c8b3	-0.11366405
182	0xbcb2fe31	-0.021849724
183	0x3d8fbfea	0.070190266
184	0x3df117e7	0.11772137
185	0x3b7ef2d6	0.0038902066
186	0xbda85200	-0.08218765
187	0x3d38a860	0.04508245
188	0x3e016823	0.12637381
189	0x3c4f0042	0.012634339
190	0xbcf04a8a	-0.029332418
191	0xbd6c7521	-0.05772889
192	0x3e0fc6b8	0.14040649
193	0xbdaddf6f	-0.08489882
194	0xbc76077c	-0.015016433
195	0xbc884d7b	-0.016638508
196	0x3e058ef8	0.1304282
197	0xbda04175	-0.07824985
198	0xbc419bf7	-0.01181697
199	0xbdbd2e21	-0.09237314
200	0x3e1937c0	0.14962673
201	0xbdaa7c6d	-0.083245136
202	0x3db629b1	0.08894671
203	0xbd0cd321	-0.034381036
204	0x3d82c691	0.0638553
205	0x3d2c5a37	0.042078223
206	0xbd73cf7b	-0.05952404
207	0x3dec93b6	0.11551611
208	0x3dc8c0c3	0.098023914
209	0x3e0a73ce	0.13520738
210	0x3dc5b2e1	0.09653259
211	0x3aabeb1c	0.0013116333
212	0x3e1d3839	0.15353478
213	0x3be8c536	0.0071035875
214	0x3dcab215	0.09897248
215	0xbbe9afcb	-0.007131552
216	0xbe1c3f85	-0.15258606
217	0x3cffdb40	0.031232476
218	0x3cea5552	0.028605137
219	0xbdc295d1	-0.095012315
220	0xbdfda971	-0.12385834
221	0xbdc7ee7d	-0.09762285
222	0x3dbbf81b	0.09178182
223	0xbdcc85c2	-0.0998645
224	0xbd9af12c	-0.07565531
225	0x3daf7e12	0.08568968
226	0xbd60ec70	-0.054912984
227	0xbddde935	-0.10835496
228	0xbe1b9639	-0.15194024
229	0xbd2af692	-0.041739054
230	0xbde47232	-0.111545935
231	0xbd8432c9	-0.06454999
232	0x3bd6702b	0.006544133
233	0xbb1ed5bc	-0.0024236282
234	0xbd4eea77	-0.05051657
235	0xbcc64f93	-0.024207866
236	0x3d546ee0	0.05186355
237	0xbe063cef	-0.13109182
238	0x3d8c6499	0.06855125
239	0x3daca298	0.0842945
240	0xbe36b707	-0.17843257
241	0x3e157cbd	0.14598365
242	0xbd9628b3	-0.073319815
243	0xbd72313b	-0.05912898
244	0xbdf89aa1	-0.12138868
245	0xbd891129	-0.06692726
246	0x3d9051b0	0.07046831
247	0xbc879328	-0.016549662
248	0xbb60d06a	-0.0034303912
249	0xbe0e6422	-0.13905385
250	0xbdcd2908	-0.10017592
251	0x3c879406	0.016550075
252	0xbe056f1a	-0.13030663
253	0x3d198c96	0.03748759
254	0x3de23c58	0.11046666
255	0x3bb583ff	0.005539417

lstm.bias_ih_l0 f4 [256]
0	0x3db9e665	0.090771474
1	0xbdb88939	-0.09010548
2	0x3d0c3411	0.034229342
3	0xbdcfb6b8	-0.10142273
4	0x3dbafd14	0.09130302
5	0x3cb25177	0.021767361
6	0x3b267025	0.0025396433
7	0x3d62dd51	0.055386845
8	0xbd7a9755	-0.061179478
9	0x3e0e0fe7	0.13873254
10	0xbce1b67a	-0.027552832
11	0x3dd39d54	0.10332742
12	0xbca1428f	-0.019685058
13	0xbda15662	-0.07877804
14	0x3e3eb179	0.18622388
15	0xbc17fd93	-0.009276765
16	0x3bebe390	0.0071987584
17	0x3cb9025d	0.022584135
18	0xbce70d09	-0.028204458
19	0xbd82198b	-0.06352528
20	0xbd9d55e8	-0.07682401
21	0xbda6d0fb	-0.081453286
22	0xbdb6d1fb	-0.08926769
23	0xbd5f6f5e	-0.054549567
24	0x3e183963	0.14865641
25	0x3b75545c	0.0037434315
26	0x3d857da3	0.06518104
27	0xbdf9a4ac	-0.12189612
28	0x3d3bd80c	0.045860335
29	0x3daeac5f	0.08528971
30	0x3cadc954	0.021214165
31	0x3d8c648f	0.068551175
32	0x3c0db72b	0.008649628
33	0xbd396bcf	-0.04526883
34	0x3d82f4cf	0.0639435
35	0xbce16360	-0.027513206
36	0x3c7f30d8	0.01557561
37	0xbd28ceb4	-0.041212752
38	0x3dfb1ecb	0.12261733
39	0xb99a9ac5	-0.0002948848
40	0xbd4e0ef2	-0.05030722
41	0x3e12a755	0.14321645
42	0x3ce96640	0.02849114
43	0x3e0c2c3e	0.13688752
44	0xbc816bcf	-0.015798477
45	0x3da1c824	0.07899502
46	0xbca832ab	-0.020531973
47	0x3d840438	0.06446117
48	0x3e0f957c	0.14021868
49	0xbc24e6c3	-0.0100647835
50	0x3d940a65	0.07228545
51	0x3da44ca7	0.08022433
52	0xbdc39a01	-0.09550858
53	0xbd9bb13a	-0.07602163
54	0x3ca22565	0.019793222
55	0xbdaaf3af	-0.0834726
56	0xbd904637	-0.070446424
57	0x3d8fbe55	0.07018725
58	0xbdbf59ea	-0.093433216
59	0xbd818c49	-0.063255854
60	0xbba0bd11	-0.004905351
61	0xbdad3002	-0.084564224
62	0xbd8ecab5	-0.06972257
63	0x3cae339c	0.021264844
64	0x3d97de5e	0.0741546
65	0xbb92346d	-0.004461816
66	0x3df20c99	0.11818809
67	0x3dd61c22	0.10454585
68	0xbd1bd0dd	-0.038040984
69	0xbddd0645	-0.107922114
70	0xbde6f774	-0.11277667
71	0x3c0a4844	0.008440081
72	0x3d878ce5	0.066186704
73	0xbd997622	-0.07493235
74	0x3e15a3e8	0.14613307
75	0xbd912369	-0.07086832
76	0xbd86a559	-0.06574506
77	0x3d0d381b	0.034477334
78	0x3dc8611a	0.09784146
79	0x3cf58f35	0.029975513
80	0x3c950ffc	0.018196099
81	0xbb975186	-0.0046178726
82	0xbd0ade88	-0.03390363
83	0x3d855671	0.06510628
84	0x3d325c8c	0.04354529
85	0xbce336f9	-0.027736174
86	0x3c4ce613	0.012506026
87	0xbd549e4a	-0.05190877
88	0x3d6d58cf	0.057946023
89	0xbd8c1dcc	-0.06841621
90	0x3d849eca	0.06475599
91	0x3b720768	0.0036930684
92	0x3d13342a	0.03593842
93	0x3c7b3643	0.015332761
94	0x3ce6a850	0.02815643
95	0x3dee96e1	0.116498716
96	0xbdc88aeb	-0.097921215
97	0xbc98ed53	-0.018667853
98	0xbd92ed42	-0.071741596
99	0xbd26de57	-0.040739384
100	0x3e14610e	0.14490148
101	0x3d3e87df	0.046516296
102	0x3d00ddca	0.031461515
103	0x3dce373e	0.1006913
104	0xbdb74588	-0.08948809
105	0x3da66b39	0.0812592
106	0x3d84cae5	0.064840116
107	0x3ddbf43a	0.10739942
108	0xbd719b4d	-0.058985997
109	0x3cef8d48	0.029242173
110	0x3c3ca23f	0.011513292
111	0xbd90e626	-0.07075147
112	0xbde1e4e5	-0.11029986
113	0x3dbb4e6f	0.091458194
114	0x3dbf7e9d	0.093503214
115	0xbcc14340	-0.023591638
116	0xbd1eec11	-0.03879935
117	0xbc491dd8	-0.012275182
118	0xbdccd925	-0.100023545
119	0xbb816874	-0.0039492194
120	0xbdae3d26	-0.08507757
121	0x3dd2f281	0.1030016
122	0xbdba9de2	-0.09112145
123	0x3d862bdd	0.06551335
124	0x3dd71b6b	0.105032764
125	0xbd0c1b9c	-0.034206018
126	0x3d9b773a	0.075911
127	0x3d038937	0.03211328
128	0xbb667dce	-0.00351702
129	0x3dc573bf	0.096412174
130	0xbd87853e	-0.06617211
131	0xbd7f179c	-0.062278375
132	0x3d6423d4	0.05569823
133	0xbcbc5f1f	-0.022994576
134	0x3dca820e	0.09888087
135	0x3c8d952e	0.017283048
136	0xbc5e4d9a	-0.013568306
137	0x3d2cad29	0.042157326
138	0xbd7f942c	-0.062397167
139	0x3da05ce5	0.07830218
140	0xbdee5c46	-0.116386935
141	0x3de9e4b7	0.11420577
142	0x3d2c2402	0.042026527
143	0xbd6967ef	-0.056983884
144	0xbcc25b82	-0.023725275
145	0xbcd168ab	-0.025562605
146	0xbc0b8abd	-0.0085169645
147	0xbde75427	-0.11295348
148	0xbdcaff8b	-0.09912022
149	0x3c6b5465	0.014363383
150	0xbbc44edf	-0.0059908475
151	0x3dd28ab0	0.10280359
152	0x3d567b7f	0.05236387
153	0x3db98af5	0.09059707
154	0xbdf0f728	-0.11765891
155	0x3d860cbf	0.065454
156	0x3dc741fb	0.09729382
157	0x3decb0d8	0.11557168
158	0x3b9aa52f	0.0047193985
159	0xbc63e856	-0.013910374
160	0x3d9baf6a	0.07601817
161	0xbd22569d	-0.039633382
162	0xbdbb71b1	-0.09152544
163	0xbd83b8b2	-0.06431712
164	0x3be8fb10	0.007110007
165	0x3d74c574	0.05975862
166	0x3d87c208	0.066288054
167	0xbd012cb4	-0.031536773
168	0xbd0346ea	-0.03205005
169	0x3d3c1f91	0.04592854
170	0xbdb96771	-0.09052933
171	0x3de8a53a	0.113596395
172	0xbd4657bc	-0.048423514
173	0x3d79203e	0.060821764
174	0xbd3b3f7a	-0.045714833
175	0x3d6d3e33	0.057920646
176	0xbd34c131	-0.044129554
177	0xbc56faa8	-0.013121285
178	0x3dc5edab	0.09664472
179	0xbd1fc993	-0.039010596
180	0xbdc55460	-0.09635234
181	0xbda17d27	-0.07885199
182	0xbc1d17ea	-0.009588221
183	0x3d26f0a7	0.040756848
184	0xbd92b1c8	-0.07162815
185	0x3d1e7b55	0.038691837
186	0xbc073974	-0.008253444
187	0xbc2437ce	-0.0100230705
188	0xbbbabf05	-0.005699041
189	0xbd66e0ba	-0.05636666
190	0xbde25312	-0.11051001
191	0x3dcb5892	0.09929003
192	0xbd0372d2	-0.032091923
193	0x3c39eba2	0.011347683
194	0xbd14c054	-0.03631623
195	0x3dc3be57	0.09557789
196	0x3db40227	0.08789473
197	0x3ded407b	0.11584564
198	0xbd244b57	-0.040110912
199	0xbd0d8ca4	-0.034557953
200	0xbda04500	-0.07825661
201	0x3e011aa3	0.12607817
202	0x3c9f509c	0.019447617
203	0x3d9bb8c4	0.076036006
204	0x3d8ba46d	0.06818471
205	0xbdd2a2aa	-0.10284932
206	0x3c288886	0.010286456
207	0xbcfdf658	-0.031001255
208	0x3db4ee1d	0.08834479
209	0x3d493147	0.04911926
210	0x3e1b5b21	0.15171482
211	0x3dd09762	0.10185124
212	0x3cc3dddf	0.023909507
213	0xbd9d417b	-0.07678505
214	0x3dbd3fcb	0.09240683
215	0xbd8f9756	-0.07011287
216	0x3c901fbc	0.017593257
217	0x3da7ec18	0.08199328
218	0x3dc88d8e	0.097926244
219	0xbdf643fe	-0.12024687
220	0x3c176756	0.009240946
221	0xbd91ce4e	-0.071194276
222	0x3da449d1	0.08021892
223	0x3d735e2a	0.059415974
224	0xbd950481	-0.0727625
225	0x3e021702	0.1270409
226	0xbd36f024	-0.04466261
227	0x3dd2e945	0.10298399
228	0x3d2b8929	0.041878853
229	0xbdac9053	-0.08425965
230	0xbceb464f	-0.02872005
231	0x3c34b0b9	0.011028462
232	0xbdb62791	-0.088942654
233	0xbcbf0992	-0.023319993
234	0x3d95e7a2	0.07319571
235	0x3dbae23b	0.09125181
236	0xbd1c7185	-0.0381942
237	0x3ce1fd20	0.02758652
238	0x3c0c0efd	0.008548495
239	0x3d665e26	0.05624213
240	0xbc9c0764	-0.019046493
241	0x3d4bb87a	0.049736477
242	0xbb418772	-0.0029530195
243	0xbc938b87	-0.018010868
244	0xbddf5d29	-0.10906441
245	0xbda99522	-0.08280398
246	0xbd4eca12	-0.050485678
247	0x3dc8dd6e	0.09807859
248	0x3e13f82d	0.1445014
249	0xbd408884	-0.04700519
250	0xbcf1fc4c	-0.02953925
251	0xbd39c5e7	-0.04535475
252	0x3c95a408	0.018266693
253	0x3db90c79	0.09035582
254	0xbdc3db0e	-0.09563266
255	0xbd5c5d88	-0.053800136

lstm.bias_hh_l0 f4 [256]
0	0xbcc8713d	-0.024468059
1	0xbcb2da83	-0.02183271
2	0xbb1dc39f	-0.0024072898
3	0x3d7bcbe3	0.06147374
4	0x3d349f3c	0.04409717
5	0x3d98f16a	0.07467921
6	0xbd279314	-0.04091175
7	0xbd6932b7	-0.05693313
8	0xbd626709	-0.055274043
9	0xbc93fc5c	-0.01806467
10	0x3e05e6e5	0.1307636
11	0x3dfa6f92	0.122283116
12	0xbcee52e1	-0.029092254
13	0x3d8b5722	0.06803729
14	0xbd04df1d	-0.03243934
15	0x3e03cefe	0.1287193
16	0x3e059f28	0.13048995
17	0x3c45030c	0.012024652
18	0xbd50c7ad	-0.050971676
19	0xbcda6df4	-0.026663758
20	0xbd1f7606	-0.038930915
21	0xbc140d8f	-0.009036436
22	0xbdcd64fb	-0.10029026
23	0xbbf15b73	-0.007365638
24	0x3da8ce93	0.08242526
25	0x3ce7146e	0.028207984
26	0x3dda6125	0.1066306
27	0x3df03c1e	0.117302164
28	0xbd8be1c2	-0.06830169
29	0x3c862988	0.016377226
30	0xb99b9a8e	-0.00029679056
31	0x3d8f0588	0.06983477
32	0xbcba2342	-0.02272189
33	0xbcbdd06f	-0.023170678
34	0x3d50132f	0.050799545
35	0x3dcc9eab	0.09991201
36	0x3e2da313	0.16956739
37	0xbd705d20	-0.05868256
38	0xbd0080a3	-0.031372678
39	0xbd8d1dfc	-0.06890485
40	0x3d78b482	0.06071902
41	0x3db08dac	0.08620772
42	0x3d515e76	0.051115476
43	0x3da4cc44	0.08046773
44	0x3d748416	0.05969628
45	0x3d86e358	0.06586331
46	0x3dd5d0cc	0.104402155
47	0x3d6a6780	0.05722761
48	0xbd6562db	-0.05600248
49	0x3dad3d91	0.084590085
50	0xbd1501ae	-0.036378555
51	0x3d9fef00	0.078092575
52	0x3d176415	0.03696068
53	0xbdc1ad56	-0.09456889
54	0xbda2bb5a	-0.07945891
55	0xbdce912f	-0.10086285
56	0xbc60b771	-0.013715611
57	0x3dd055f5	0.10172645
58	0xbddb7ba2	-0.107169405
59	0xbd9e143d	-0.07718704
60	0x3b492b5a	0.0030696006
61	0x3c206abc	0.009791072
62	0x3daeffeb	0.08544906
63	0x3e001ffe	0.12512204
64	0x3cf21b76	0.02955411
65	0x3dacb5be	0.08433102
66	0x3ded2109	0.115785666
67	0xbc673ed9	-0.014114105
68	0xbd81f159	-0.063448615
69	0x3da6fa21	0.08153177
70	0xbc8d95a2	-0.017283265
71	0xbda21a02	-0.07915117
72	0xbe059525	-0.13045175
73	0x3b715a41	0.0036827477
74	0xbdc7e582	-0.09760572
75	0xbb15e267	-0.0022870542
76	0xbd6502f8	-0.055911034
77	0x3d257ed5	0.04040416
78	0xbcc072f7	-0.02349232
79	0x3d117085	0.035507698
80	0xbcf0c943	-0.029392844
81	0xbc9b352c	-0.018946253
82	0xbc3ac6c2	-0.011399927
83	0xbda4dd17	-0.08049982
84	0xbcee7659	-0.029109167
85	0xbd36b084	-0.044601932
86	0x3dacd6bb	0.08439394
87	0xbca9334a	-0.02065434
88	0xb6d76400	-6.419141e-06
89	0x3dc6b21c	0.097019404
90	0x3dc54602	0.096324936
91	0xbb81aa8e	-0.0039570993
92	0xbdec3722	-0.11533953
93	0x3de7a9bc	0.11311671
94	0xbd740c39	-0.05958197
95	0xbb5b18cf	-0.0033431535
96	0x3ce9d7ec	0.028545342
97	0xbd1809cc	-0.037118718
98	0x3e00ca72	0.12577227
99	0x3d8ac017	0.067749195
100	0xbd17219e	-0.036897294
101	0x3dc1dd21	0.09466005
102	0x3c1d8ba4	0.009615812
103	0x3d6c9abb	0.05776475
104	0x3e04af80	0.12957573
105	0xbda3d0c5	-0.07998804
106	0xbd16af30	-0.036788166
107	0x3c4406b9	0.011964493
108	0xbd8d115e	-0.06888078
109	0x3d3035b9	0.043019984
110	0xbd91398b	-0.070910536
111	0xbdc4ec56	-0.0961539
112	0xbd5bdb03	-0.053675663
113	0x3d99aa99	0.07503242
114	0xbd4cc394	-0.049991205
115	0x3d2beb6d	0.041972566
116	0xbd96ff17	-0.07372873
117	0x3ca2f97b	0.019894352
118	0x3d9b5f85	0.07586578
119	0x3df558f2	0.119798556
120	0x3d110b83	0.03541137
121	0x3c7dc7c9	0.015489527
122	0xbdba9878	-0.09111112
123	0x3e127771	0.14303376
124	0x3d2cb0cf	0.042160805
125	0xbc7c0c31	-0.015383766
126	0x3da0fcfa	0.078607515
127	0x3d18ec51	0.037334744
128	0xbd7cbbb8	-0.06170246
129	0xbc8d4d7c	-0.017248861
130	0xbdeca236	-0.11554377
131	0xbd9e13ad	-0.077185966
132	0x3dae21d7	0.08502548
133	0x3dd7a24f	0.10529005
134	0xbda0dbee	-0.07854448
135	0xbc858f73	-0.016303753
136	0xbbf2d68b	-0.0074108294
137	0x3c521b8e	0.012823952
138	0xbdbb3472	-0.091408625
139	0xbdf2c455	-0.118538536
140	0xbcd8933e	-0.026437398
141	0x3cf84bf8	0.030309662
142	0xbd95c6fa	-0.073133424
143	0x3cfcf342	0.030877713
144	0x3d43faa5	0.047846455
145	0xbca07a24	-0.019589491
146	0xbdd398fc	-0.10331914
147	0x3d944c8f	0.07241165
148	0x3dc858c5	0.097825564
149	0x3cf79c46	0.030225884
150	0x3dbdfadc	0.09276363
151	0x3db7b430	0.08969915
152	0x3d0a2a26	0.033731602
153	0x3de6887d	0.11256502
154	0x3d5fa43b	0.05459998
155	0xbdd8794f	-0.10570013
156	0xbccb0094	-0.02478055
157	0x3df9e083	0.12201025
158	0x3cb8b1e2	0.022545759
159	0xbdae4b05	-0.085104026
160	0x3dbac734	0.09120026
161	0xbb285a6e	-0.0025688666
162	0x3dd58e87	0.104275756
163	0xbc63aa0f	-0.013895526
164	0x3dde2e72	0.108487025
165	0xbd872fee	-0.06600939
166	0xbd9e1713	-0.07719245
167	0xbdb198d2	-0.08671726
168	0xbe02baed	-0.12766619
169	0xbda5cb7c	-0.08095452
170	0x3b319769	0.0027098304
171	0xbd8ff2c0	-0.07028723
172	0x3d8c53c0	0.068519115
173	0xbcb37e91	-0.021910938
174	0xbd05cc53	-0.032665562
175	0xbd993e54	-0.07482591
176	0x3ca103d8	0.019655153
177	0x3d35b64f	0.044363316
178	0x3c04bf9d	0.008102325
179	0x3d63741d	0.055530656
180	0x3d3548ca	0.04425887
181	0x3d088769	0.033332262
182	0x3d265345	0.040606756
183	0x3d3374af	0.04381245
184	0x3d860f99	0.06545944
185	0xbd4c45c3	-0.049871217
186	0x3cac3284	0.021020181
187	0xbc4c9cea	-0.012488583
188	0xbcd83b23	-0.026395386
189	0x3de04085	0.10949806
190	0xbc903dd4	-0.017607607
191	0x3b4676fa	0.0030283318
192	0xbddd9a99	-0.10820503
193	0x3e040929	0.1289412
194	0xbde8edb0	-0.1137346
195	0x3a8937e1	0.0010468924
196	0x3cbf6a7a	0.023366202
197	0x3dd6d9a7	0.10490733
198	0x3d9dc360	0.077032804
199	0xbdaf4392	-0.0855781
200	0x3de16d06	0.11007123
201	0xbc17f342	-0.009274306
202	0x3e0a5439	0.13508691
203	0x3df66cc8	0.12032467
204	0x3db7489e	0.089493975
205	0xbda9df92	-0.08294596
206	0xbcb15d52	-0.021650944
207	0xbdb5682c	-0.0885776
208	0xbd2f4307	-0.04278853
209	0xbd839e4d	-0.06426678
210	0xbc2c7188	-0.010525115
211	0xbd8a210e	-0.06744586
212	0x3c37b090	0.011211529
213	0xbd9dd9db	-0.07707568
214	0xbd9fe93b	-0.07808157
215	0x3d24133d	0.04005741
216	0x3e27463e	0.16335389
217	0xbe068167	-0.131353
218	0xbd1407b5	-0.036140162
219	0x3d80e16d	0.062929966
220	0xbd5db569	-0.054128084
221	0x3d77033d	0.060305823
222	0xbd5fc9cd	-0.05463581
223	0xbdd56957	-0.104204826
224	0x3df77363	0.12082555
225	0x3d2ee740	0.042701006
226	0xbc979106	-0.01850177
227	0x3dc05bb0	0.09392488
228	0xbcde99b1	-0.027172895
229	0xbcfedb97	-0.031110568
230	0xbce0a570	-0.027422637
231	0xbda2a22c	-0.07941088
232	0x3dff14ee	0.12455164
233	0xbd9ba5ad	-0.075999595
234	0xbd0d8076	-0.034546338
235	0x3d85a2af	0.0652517
236	0x3d51924b	0.051164906
237	0x3dcafbbf	0.09911298
238	0x3d367c42	0.044552095
239	0x3dee196e	0.11625944
240	0xbb00def8	-0.001966415
241	0x3e1266d6	0.14297041
242	0xbdfe796a	-0.12425502
243	0xbd9217c9	-0.07133443
244	0xbd9d3ac0	-0.07677221
245	0xbc8ac1f9	-0.016938196
246	0xbcc50619	-0.02405076
247	0xbd90284a	-0.070389345
248	0x3dd13dff	0.10216903
249	0x3d8ce85c	0.068802565
250	0xbda19a66	-0.07890777
251	0x3d8f0664	0.06983641
252	0x3df06bfd	0.11739347
253	0x3d7e8f35	0.06214829
254	0xbd2d8811	-0.04236609
255	0x3dc3a344	0.09552625

lstm.weight_ih_l1 f4 [256, 64]
0	0xbd8bc9e6	-0.068256184
1	0x3e2090e5	0.15680273
2	0x3cfd26f5	0.030902365
3	0x3ccad0ae	0.02475771
4	0x3e1f1063	0.15533595
5	0xba359016	-0.00069260725
6	0xbd38d1b1	-0.045121852
7	0x3d949c67	0.07256394
8	0x3d2a06c7	0.04151037
9	0x3d0cb81a	0.03435526
10	0xbd5e911b	-0.054337602
11	0x3d9d212d	0.076723434
12	0xbda18bde	-0.07888006
13	0xbc3c9bff	-0.011511802
14	0x3d9511cf	0.07278787
15	0xbd87f49d	-0.06638453
16	0x3ddc4075	0.10754482
17	0xbccee2f5	-0.025254706
18	0x3e3726e8	0.17885935
19	0xbdab2a1e	-0.083576426
20	0x3e04feac	0.12987775
21	0x3d065389	0.03279451
22	0x3d486adb	0.04893003
23	0xbc63374b	-0.013868163
24	0xbe282683	-0.16420941
25	0x3d6c8978	0.057748288
26	0x3d099c62	0.033596404
27	0xbd7385d6	-0.059453808
28	0xbdc3f0ca	-0.09567411
29	0x3d9ab79d	0.07554553
30	0xbdb1353a	-0.0865273
31	0xbd08f8b0	-0.033440292
32	0xbbcfa2e8	-0.0063365586
33	0xbcdda9a1	-0.027058424
34	0xbdb9ee08	-0.09078604
35	0x3cb480de	0.022034105
36	0x3ca4f374	0.020135619
37	0x3df48d87	0.11941057
38	0x3da74c98	0.08168906
39	0xbdd6a0e6	-0.10479908
40	0x3c91d23f	0.017800448
41	0x3dfe3b94	0.124137074
42	0x3e03ede3	0.12883715
43	0xbd9e7bce	-0.077384576
44	0xbd8957ec	-0.06706223
45	0xbd4d8db5	-0.05018397
46	0x3dc23a79	0.09483809
47	0xbcf85bd1	-0.030317219
48	0xbd776484	-0.060398594
49	0x3cfb10bc	0.030647628
50	0x3da1fc50	0.07909453
51	0x3d829926	0.06376867
52	0x3ba5fda8	0.0050656386
53	0xbde34075	-0.110962786
54	0xbd569034	-0.052383617
55	0xbcaac33c	-0.020845048
56	0xbd235486	-0.03987553
57	0xbb7f1361	-0.0038921463
58	0x3c94609f	0.018112479
59	0x3e392a29	0.18082489
60	0xbd83ac0c	-0.064293
61	0x3dc17d9b	0.094477855
62	0x3d8dbf37	0.06921237
63	0x3e1086bc	0.14113897
64	0x3da546bb	0.080701314
65	0x3cd02cea	0.025412042
66	0x3ddc99a7	0.10771494
67	0x3de34151	0.110964425
68	0x3db2f819	0.08738727
69	0xbe0a4c93	-0.13505773
70	0xbdb80c41	-0.08986712
71	0xbd91bfeb	-0.071166836
72	0xbd84b4d4	-0.06479803
73	0x3e18cd8c	0.1492216
74	0xbdd9ff9e	-0.10644458
75	0x3c2e3c65	0.010634516
76	0x3dc03648	0.09385353
77	0xbc3e85f1	-0.011628614
78	0xbc0f6f24	-0.008754525
79	0x3dd72cb0	0.1050657
80	0xbe0c03d2	-0.13673332
81	0xbd485ffa	-0.048919655
82	0x3de41d27	0.11138373
83	0xbdbc8b88	-0.09206301
84	0x3e10f15e	0.14154574
85	0x3d69caa1	0.057078008
86	0x3d0f7969	0.035027895
87	0x3d3b724a	0.04576329
88	0xbe34363e	-0.17598817
89	0xbd1da389	-0.038486037
90	0xbd81aa33	-0.06331291
91	0x3d71d158	0.059037536
92	0xbb0c1b38	-0.0021378528
93	0x39f03c35	0.00045821225
94	0xbd446cc0	-0.047955275
95	0xbe09624c	-0.13416404
96	0xbdb00290	-0.08594239
97	0xbde2b6dc	-0.11070034
98	0x3cd81a0f	0.026379613
99	0x3e2430c5	0.16034229
100	0x3ae265f7	0.001727282
101	0x3ce46197	0.027878566
102	0x3d9b9860	0.075974226
103	0xbd68d35c	-0.056842193
104	0xba3375e2	-0.0006845874
105	0xbd6e9a84	-0.058252826
106	0x3e230fc3	0.15923981
107	0xbcdb09ef	-0.026738135
108	0xbdc09d5e	-0.094050154
109	0xbd0aada9	-0.03385702
110	0xbdd65dd9	-0.10467119
111	0xbc4de30d	-0.01256634
112	0x3d24cb69	0.04023305
113	0xbd9e0016	-0.0771486
114	0x3dc8d598	0.09806365
115	0xbdb191de	-0.086704
116	0x3ba774a9	0.0051103425
117	0xbd96304e	-0.07333432
118	0xbdba05dc	-0.09083149
119	0xbe01ce80	-0.1267643
120	0xbd634648	-0.055486947
121	0xbcc3cc0a	-0.023901004
122	0xbcd8a456	-0.026445549
123	0xbc89fd84	-0.016844518
124	0xbdc8da82	-0.09807302
125	0x3d9f3da0	0.07775426
126	0xba68698f	-0.0008865827
127	0x3d86d74e	0.06584035
128	0x3d371b37	0.04470369
129	0x3dc992a8	0.098424256
130	0xbd01747c	-0.03160523
131	0xbd079c76	-0.033108197
132	0xbdc29f5b	-0.09503051
133	0xbd03cb53	-0.032176327
134	0xbe015711	-0.1263087
135	0xbb5aa0dd	-0.0033360042
136	0xbc9790d8	-0.018501684
137	0xbd8cf19f	-0.06882023
138	0x3dc010b8	0.09378189
139	0xbd817d8d	-0.06322775
140	0x3cdfdda5	0.027327368
141	0xbccfa33c	-0.02534639
142	0x3e366a38	0.17813957
143	0x3cbea310	0.023271114
144	0xbb10ca9e	-0.0022093426
145	0xbe25bcf1	-0.16185357
146	0xbd73655d	-0.05942284
147	0x3da64f5a	0.08120604
148	0xbcd413ed	-0.025888408
149	0xbc6988ad	-0.014253777
150	0xbd8e8b12	-0.06960119
151	0x3e068cc7	0.1313964
152	0xbd9023a7	-0.0703805
153	0xbd445255	-0.04793008
154	0x3dc43d36	0.095819876
155	0xbde74726	-0.11292867
156	0xbd6611a8	-0.056169182
157	0x3d6b9355	0.057513554
158	0xbd9374d3	-0.07200017
159	0xbcb3fed8	-0.021972105
160	0xbd633da2	-0.0554787
161	0x3db028fe	0.08601569
162	0x3d0bec44	0.034160867
163	0x3d3dfbb6	0.04638263
164	0xbe1ac05c	-0.15112442
165	0x3d71db12	0.059046812
166	0x3d3c0ca6	0.0459105
167	0x3d455fdf	0.048187133
168	0x3d8e30ed	0.069429256
169	0xbc1b2e42	-0.009471478
170	0x3dba2e89	0.09090907
171	0xbdd88576	-0.10572331
172	0x3dcec305	0.10095791
173	0x3c15ae54	0.009135801
174	0xbc871b08	-0.016492382
175	0x3de343cf	0.11096918
176	0xbd97f485	-0.07419685
177	0x3db85c44	0.09001973
178	0xbdc4b5ee	-0.09605013
179	0x3d4cffea	0.050048746
180	0xbc5678ee	-0.013090355
181	0x3cb0295d	0.021504099
182	0xbcb294ae	-0.021799412
183	0xbc7f5601	-0.01558447
184	0x3d9e5831	0.07731665
185	0xbd32abf9	-0.043621037
186	0xbd4d073a	-0.05005572
187	0x3dcc7e47	0.09985023
188	0xbd34d482	-0.044147976
189	0x3d47b464	0.04875602
190	0xbe099442	-0.13435462
191	0xbd0e3d9c	-0.034726724
192	0xbdad3c6b	-0.084587894
193	0x3e1466c8	0.14492333
194	0x3dae6652	0.0851561
195	0xbd051810	-0.03249365
196	0x3d224177	0.039613213
197	0x3e049a2e	0.1294944
198	0x3d9a3726	0.0753005
199	0xbd81ecc6	-0.06343989
200	0xbd6944d9	-0.056950424
201	0x3cdd924c	0.027047299
202	0xbcf36bcd	-0.02971449
203	0x3c13bfd8	0.009017907
204	0x3d8b3540	0.06797266
205	0x3d6799b2	0.05654306
206	0xbdab7a0a	-0.083728865
207	0xbdaabc3e	-0.083366856
208	0x3d2c65c1	0.042089228
209	0xbd9ba808	-0.07600409
210	0xbdb20913	-0.08693137
211	0x3e0a891e	0.13528869
212	0x3ca682af	0.020325987
213	0xbda8c299	-0.082402416
214	0xbdc7a801	-0.09748841
215	0x3dc0a145	0.0940576
216	0xbd624c1c	-0.055248365
217	0x3d784480	0.0606122
218	0xbc71b147	-0.014751739
219	0xbca489cb	-0.020085236
220	0xbc74c308	-0.014939077
221	0x3db08a51	0.08620132
222	0xbdd965b9	-0.10615105
223	0x3da61f67	0.08111458
224	0xbe0d732d	-0.13813467
225	0xbd1bbb86	-0.038020633
226	0x3d0e5b3a	0.03475497
227	0xbde5612d	-0.112001754
228	0x3dc443e9	0.09583265
229	0x3d954659	0.072888084
230	0x3e0bc473	0.13649158
231	0x3dea49db	0.11439868
232	0x3d1ce93b	0.038308363
233	0x3d47ab61	0.048747424
234	0xbd0a2802	-0.03372956
235	0xbdff70ae	-0.12472664
236	0xbde71f23	-0.11285236
237	0xbdd6df38	-0.10491794
238	0x3d82ae68	0.063809216
239	0x3dcbcb35	0.09950868
240	0xbc63d424	-0.013905559
241	0xbdb79306	-0.08963589
242	0x3db31539	0.08744282
243	0xbd5ecf9a	-0.054397203
244	0xbc1320af	-0.00897996
245	0xbc1cd820	-0.009573013
246	0x3b013955	0.001971801
247	0xbc1b4436	-0.009476712
248	0xbdd54b57	-0.104147606
249	0x3cb9d6a6	0.02268536
250	0xbc85b184	-0.016319998
251	0x3d18344d	0.037159253
252	0xbc8e2de4	-0.017355867
253	0x3dbc9f78	0.09210104
254	0x3d96e8ae	0.07368599
255	0xbe1103c1	-0.14161588

lstm.weight_hh_l1 f4 [256, 64]
0	0x3c9341d6	0.017975729
1	0x3da1340c	0.07871255
2	0xbcc9e34e	-0.02464452
3	0x3d428e14	0.047498778
4	0x3bf8c745	0.007592114
5	0xbdbf85db	-0.09351703
6	0x3d94fb0e	0.072744474
7	0x3c55b1a3	0.01304284
8	0xbd86bcdd	-0.065789916
9	0x3d1e8b96	0.03870734
10	0xbc539030	-0.012912795
11	0xbd543d01	-0.05181599
12	0xbe0ffc01	-0.14060976
13	0x3da25873	0.079270266
14	0xbbb7d94b	-0.00561062
15	0xbc34dbfd	-0.011038777
16	0x3d0d6834	0.034523204
17	0xbd45ade0	-0.048261523
18	0xbd963a8f	-0.07335388
19	0xbb8cca94	-0.00429661
20	0x3db40887	0.08790689
21	0xbd978872	-0.07399072
22	0xbe0b48a4	-0.13601929
23	0xbd7d4050	-0.06182891
24	0xbd56c3b3	-0.052432727
25	0xbd8f0a3c	-0.06984374
26	0xbcc54e7b	-0.024085274
27	0x3d93feba	0.072263196
28	0xbd6514c3	-0.055928003
29	0x3c867c53	0.016416704
30	0x3c7f54f3	0.015584218
31	0xbd241c72	-0.04006619
32	0x3d4bd32c	0.049761936
33	0x3dcb9baa	0.099418
34	0x3d6db9c2	0.05803848
35	0x3e25843c	0.16163725
36	0xbe02a8fa	-0.12759772
37	0xbd147a52	-0.036249466
38	0xbd22ee4e	-0.039778046
39	0xbd43d964	-0.04781474
40	0x3c038336	0.008026889
41	0xbdbf0c1d	-0.09328482
42	0xbd727f8e	-0.059203677
43	0xbe0f0e78	-0.13970363
44	0x3d706445	0.058689374
45	0x3d66e778	0.05637309
46	0xbda78042	-0.0817876
47	0x3d0a45da	0.033758022
48	0xbd851060	-0.06497264
49	0x3acc12fd	0.0015569624
50	0x3d9f6271	0.07782448
51	0x3dc31e07	0.09527212
52	0x3e3979fa	0.18112937
53	0xbe2ac697	-0.16677319
54	0xbd13ebdf	-0.036113616
55	0x3b5ef6fc	0.0034021726
56	0x3e10f705	0.1415673
57	0x3dbe3ae5	0.09288577
58	0x3ddc7add	0.10765622
59	0x3d8f0316	0.069830105
60	0x3d5c5cac	0.053799316
61	0x3c04b02a	0.008098641
62	0x3d132f6b	0.035933893
63	0xbdaf1a09	-0.08549888
64	0xbd44b066	-0.04801979
65	0x3d32066c	0.043463156
66	0x3dc17ad5	0.094472565
67	0x3df00c88	0.1172114
68	0xbdaf6949	-0.085650034
69	0x3d5cc7c9	0.053901467
70	0xbb9a2ef4	-0.0047053043
71	0x3d72597f	0.05916738
72	0xbe00b44b	-0.12568776
73	0x3de1e24c	0.11029491
74	0xbe0e0693	-0.13869695
75	0x3cad0ace	0.021123316
76	0xbda2eb6b	-0.07955059
77	0xbc8c15d2	-0.017100248
78	0xbd59815e	-0.05310189
79	0xbdf78eb3	-0.120877646
80	0x3df1c8f5	0.11805908
81	0xbdf5a22b	-0.11993822
82	0xbdf24f43	-0.11831524
83	0x3d9d69b0	0.07686174
84	0xbd97523e	-0.07388733
85	0xbdde97a5	-0.10868768
86	0xbe0feb51	-0.1405461
87	0x3cebf091	0.028801234
88	0x3c83cf61	0.016090097
89	0xbc8bb7f5	-0.017055491
90	0x3d1d0dcf	0.038343247
91	0x3d718174	0.058961347
92	0x3d71b00a	0.059005775
93	0xbe0686fe	-0.13137433
94	0xbdbd12e8	-0.09232122
95	0xbd8635a0	-0.06553197
96	0x3c41bb98	0.011824511
97	0xbd8b26d9	-0.06794519
98	0x3d563fc4	0.052306905
99	0xbb36b661	-0.0027879702
100	0x3dfe2edb	0.12411281
101	0xbd6d44e6	-0.057927035
102	0xbc6096ae	-0.0137078
103	0x3e02e7be	0.12783715
104	0x3da2d43e	0.07950638
105	0xbd44b096	-0.048019968
106	0x3c4197fc	0.011816021
107	0xbcda91a4	-0.026680775
108	0xbb3361e4	-0.002737158
109	0x3d932e5a	0.07186575
110	0x3c879a30	0.016553015
111	0xbd9f7aff	-0.077871315
112	0x3d7e13d0	0.062030613
113	0xbdebba93	-0.115101956
114	0x3de080da	0.109620765
115	0xbc221fd4	-0.009895284
116	0x3b84d2f0	0.004053466
117	0xbe0d6966	-0.13809738
118	0x3db2c22c	0.087284416
119	0x3de612cc	0.11234054
120	0xbd90c62d	-0.07069049
121	0x3d5f0cfe	0.05445575
122	0xbc73e2e4	-0.014885638
123	0xbcfe9c99	-0.031080531
124	0xbda868c8	-0.082231104
125	0x3db08786	0.08619599
126	0xbcaa4104	-0.020782955
127	0x3d052d47	0.032513883
128	0xbd8f7411	-0.0700456
129	0xbdf1bd53	-0.11803689
130	0xbd40205e	-0.046905868
131	0x3defcfa7	0.117095284
132	0xbdbf2b04	-0.093343765
133	0x3dd0b2df	0.10190367
134	0x3d8976ed	0.067121364
135	0x3dc87881	0.09788609
136	0x3c0cb61c	0.00858834
137	0xbd868ca6	-0.06569795
138	0x3d4a00eb	0.04931728
139	0xbdbedad8	-0.09319085
140	0x3d65f0c7	0.056137826
141	0xbd4fa4b5	-0.050694186
142	0xb93a3cd4	-0.00017761003
143	0xbb1c6c26	-0.0023868172
144	0xbc8f4e70	-0.017493457
145	0xbd771c7b	-0.060329895
146	0xbd56523c	-0.05232452
147	0xbdfa172f	-0.12211453
148	0xbdf70ef5	-0.120634
149	0x3d325de3	0.04354657
150	0x3d4a7247	0.04942539
151	0xbd37e57e	-0.044896595
152	0xbd3814af	-0.0449416
153	0x3da8b48d	0.08237562
154	0xbdaac952	-0.0833918
155	0xbd454c10	-0.048168242
156	0x3d8deab4	0.06929532
157	0xbe0978d8	-0.13425004
158	0x3d7cd35c	0.061725006
159	0xbc01dd13	-0.007926243
160	0xbdd32b43	-0.10310986
161	0xbb87b341	-0.004141242
162	0xbd634f3b	-0.055495482
163	0xbda4e268	-0.08050996
164	0x3cf30aa9	0.02966817
165	0xbda41a8e	-0.080128774
166	0xbda2b421	-0.07944513
167	0x3d2bc3e3	0.04193486
168	0xbd898300	-0.067144394
169	0xbcbe841a	-0.02325635
170	0xbde7cb84	-0.113181144
171	0x3dc2179b	0.09477159
172	0xbc5fbdd3	-0.013656097
173	0xbae967ce	-0.0017807425
174	0x3ddc40d7	0.10754555
175	0x3d8f75ee	0.07004915
176	0xbc8ae72e	-0.016955938
177	0x3bf06e05	0.007337334
178	0xbd962c2a	-0.073326424
179	0x3c3caafd	0.011515376
180	0xbd802554	-0.0625712
181	0x3d4d46bf	0.050116297
182	0x3d458035	0.04821797
183	0x3d902bd3	0.07039609
184	0x3b48cd7f	0.0030640063
185	0x3d75c3a8	0.060001045
186	0x3c0d9cc9	0.0086433375
187	0xbd500708	-0.050787956
188	0x3dc5cb42	0.09657909
189	0x3bed7265	0.007246303
190	0xbd4e7e72	-0.050413556
191	0x3d05ee4b	0.032697957
192	0x3d55719b	0.052110296
193	0x3dbce25b	0.092228614
194	0x3d915fc2	0.070983425
195	0x3d0f65f0	0.035009325
196	0x3defbce2	0.117059484
197	0xbddb10dd	-0.10696576
198	0xbd876722	-0.06611468
199	0x3de59cbf	0.112115376
200	0x3d0b18c8	0.03395918
201	0x3d039d75	0.032132585
202	0x3c27547a	0.010213012
203	0xbdf6ac17	-0.12044542
204	0xbd878829	-0.06617767
205	0x3d0465b8	0.03232357
206	0x3d341638	0.043966502
207	0xbd1af194	-0.037828043
208	0xbcd94fc2	-0.02652729
209	0xbcb5bc7f	-0.022184609
210	0x3b1d0053	0.0023956492
211	0xbd9a955e	-0.07548021
212	0x3d739163	0.059464823
213	0x3cbdc513	0.023165261
214	0x3daad841	0.083420284
215	0xbdbf291a	-0.093340114
216	0xbd9bec74	-0.07613459
217	0xbd0295a9	-0.03188101
218	0x3d557980	0.052117825
219	0xbcf5cd35	-0.030005077
220	0x3cace0b3	0.021103239
221	0xbdd173c1	-0.102271564
222	0x3c908fff	0.017646788
223	0xbd5c2aa2	-0.053751595
224	0xbd6963da	-0.05697999
225	0x3ded6c40	0.11592913
226	0x3d576f81	0.052596573
227	0xbdde01a6	-0.10840158
228	0x3c97ede9	0.018546062
229	0xbd993843	-0.07481434
230	0x3d820278	0.06348127
231	0xbda498ab	-0.080369316
232	0x3c3d7c5f	0.011565297
233	0xbd08af47	-0.033370283
234	0x3d175fbe	0.03695654
235	0x3deb7316	0.1149656
236	0x3dd12886	0.10212807
237	0xbdf63a87	-0.12022882
238	0x3dda8dd9	0.106715865
239	0xbcfde0b5	-0.030990938
240	0xbcddb51b	-0.027063897
241	0xbde28def	-0.11062228
242	0xbde0e4d2	-0.10981144
243	0xbdf42178	-0.11920446
244	0x3d0d58c2	0.034508474
245	0x3b5cb527	0.003367731
246	0xbdc7a70b	-0.09748658
247	0x3d0bc1db	0.03412042
248	0xbb3d5e1d	-0.0028895207
249	0xbd4093e1	-0.04701603
250	0xbc70b3d8	-0.014691316
251	0xbdd70253	-0.1049849
252	0x3d2ccade	0.042185657
253	0x3d123de6	0.035703562
254	0x3c898cf6	0.016790848
255	0xbd36df98	-0.04464683

lstm.bias_ih_l1 f4 [256]
0	0x3de4a562	0.11164357
1	0x3d38a6ee	0.04508107
2	0x3d48a66b	0.048986834
3	0x3d42d828	0.047569424
4	0x3d697be8	0.05700293
5	0xbde7b0aa	-0.11312993
6	0xbd5f9605	-0.05458643
7	0xbd73ef86	-0.0595546
8	0x3c519d2e	0.012793822
9	0xbdda5a93	-0.10661807
10	0x3e0174c9	0.12642206
11	0x3d465560	0.048421264
12	0x3e097a5a	0.1342558
13	0x3da097d6	0.078414604
14	0x3de32e7e	0.11092852
15	0x3da917f4	0.08256522
16	0xbd9f1f41	-0.07769633
17	0x3cad2448	0.021135464
18	0x3d833017	0.06405657
19	0xbdad9a36	-0.08476679
20	0xbd1fa9b1	-0.03898019
21	0xbd3aec54	-0.045635536
22	0xbcd777bf	-0.026302217
23	0xbd7e6c0a	-0.062114753
24	0x3d3bd617	0.04585847
25	0xbddff9e0	-0.10936332
26	0x3d6ac3db	0.05731569
27	0xbd01ec89	-0.031719718
28	0xbddecd46	-0.108789966
29	0xbce18e85	-0.027533779
30	0xbcfab5f8	-0.030604348
31	0xbdcbcdb9	-0.09951348
32	0xbdb5e848	-0.08882195
33	0x3dbe1843	0.09281971
34	0xbddb2c42	-0.10701801
35	0x3dbb0f2d	0.09133754
36	0xbbef45bc	-0.007302014
37	0x3d53d3ab	0.051715534
38	0x3cfcb010	0.030845672
39	0xbd0dbb5b	-0.034602504
40	0x3dd4ce13	0.10390868
41	0x3da1d181	0.07901288
42	0xbcdb8a71	-0.026799412
43	0xbd0efca6	-0.034908913
44	0x3d673379	0.056445573
45	0xbbf597bb	-0.0074948943
46	0xbd20672c	-0.039160892
47	0xbd733b80	-0.059382915
48	0x3d953b8e	0.0728675
49	0xbd46cb0f	-0.048533496
50	0x3ddfaa58	0.10921162
51	0x3d439ebb	0.0477588
52	0x3d70703d	0.05870079
53	0xbddbd6b7	-0.10734313
54	0xbc8ef8cb	-0.017452618
55	0xbdf6a5d1	-0.12043346
56	0x3befd28c	0.0073188003
57	0x3de8f779	0.11375327
58	0x3d48b423	0.048999917
59	0xbd1ebe4c	-0.0387557
60	0x3d9333cc	0.07187614
61	0x3d846ccf	0.06466066
62	0x3c6bb5a4	0.014386568
63	0x3c9d927f	0.019234894
64	0xbdd19a7f	-0.10234546
65	0x3dc12855	0.09431521
66	0xbde0b53c	-0.10972068
67	0x3db280e2	0.08715989
68	0xbd887724	-0.06663349
69	0xbcf1e7e0	-0.029529512
70	0xbcd34b58	-0.025792763
71	0x3ddaa8e5	0.10676745
72	0xbd11b197	-0.035569753
73	0xbd93ee8a	-0.07223232
74	0xbd7ad15e	-0.061234824
75	0x3d93fcaf	0.0722593
76	0x3c642c70	0.01392661
77	0x3d48edd6	0.049054943
78	0x3d38ddb5	0.04513331
79	0xbcfa5ae6	-0.030560922
80	0xbdcb0bd7	-0.09914368
81	0xbde1dab9	-0.11028046
82	0xbd833015	-0.06405655
83	0xbdba2cb1	-0.090905555
84	0xbd8c09a4	-0.06837776
85	0x3c7d6927	0.015466965
86	0xbc0cda59	-0.00859698
87	0xbb9ad1a5	-0.0047246986
88	0xbe0b3d6e	-0.13597652
89	0xbda4c921	-0.08046175
90	0xbd9e3e08	-0.07726675
91	0xbd33231e	-0.043734662
92	0xbc32be25	-0.010909592
93	0xbdc850d2	-0.0978104
94	0xbdeef3e3	-0.116676114
95	0x3d754dab	0.059888523
96	0x3d682611	0.056676928
97	0x3dc95d15	0.09832207
98	0xbb47dcf4	-0.0030496689
99	0xbd5975de	-0.053090923
100	0x3ddf7fea	0.109130695
101	0x3d677ad6	0.05651363
102	0xbe006f78	-0.12542522
103	0x3d6a1805	0.057151813
104	0x3d5dcedd	0.05415236
105	0xbd909a7f	-0.07060718
106	0x3bce16b8	0.0062893294
107	0x3d2b4e17	0.04182252
108	0xbe02ef29	-0.12786545
109	0xbddb7262	-0.10715176
110	0x3ddf51e5	0.10904292
111	0x3e070ef7	0.13189302
112	0x3d290289	0.041262183
113	0xbd2622a6	-0.040560387
114	0xbdd4a313	-0.103826664
115	0x3d878f09	0.06619079
116	0x3d5b7dbf	0.053586718
117	0x3d1afe48	0.037840158
118	0xbd8f4094	-0.06994739
119	0xbde8c334	-0.11365357
120	0x3d89c898	0.06727713
121	0x3d75508c	0.05989127
122	0x3df93b97	0.12169569
123	0xbdf970f6	-0.12179749
124	0x3da77570	0.08176696
125	0x3c9a1094	0.018806733
126	0xbcf2b405	-0.029626856
127	0xbd6d50f9	-0.05793855
128	0x3cc4ee95	0.024039546
129	0xbc7aa830	-0.015298888
130	0xbd24a3a8	-0.040195137
131	0x3dd75680	0.105145454
132	0x3dc406a4	0.09571579
133	0xbdc5ece0	-0.09664321
134	0x3da99110	0.082796216
135	0xbdd8e1d4	-0.10589948
136	0x3d28156d	0.04103606
137	0x3b8bee1d	0.0042703287
138	0xbd8bb2e5	-0.06821231
139	0xbd4ae70d	-0.049536753
140	0x3c1b1751	0.009466008
141	0xbd955d49	-0.07293183
142	0xbdedf03c	-0.11618087
143	0x3cb7fa1b	0.022458127
144	0x3d30741b	0.043079477
145	0xbd90c0e9	-0.07068045
146	0xbd89443f	-0.0670247
147	0x3da14f51	0.078764565
148	0x3cb7728a	0.022393484
149	0x3c89354b	0.016749045
150	0x3d8356fc	0.06413075
151	0xbd7898fd	-0.060692776
152	0xbcb5093f	-0.022099135
153	0x3df9fe5d	0.12206719
154	0x3d9a4b6a	0.07533915
155	0x3e02776e	0.12740871
156	0x3dd411e2	0.103549734
157	0x3cad357c	0.021143667
158	0x3d9db8fc	0.077012986
159	0x3db0c20f	0.08630764
160	0x3d9e8288	0.077397406
161	0xbb679bae	-0.0035340595
162	0xbc21a59b	-0.009866144
163	0xbd05e24c	-0.032686517
164	0xbdabf96e	-0.08397184
165	0x3d99001b	0.07470723
166	0xbd1aa5d3	-0.0377558
167	0xbdf28c81	-0.11843205
168	0x3d02e3ee	0.031955652
169	0xbd107959	-0.035271976
170	0xbcf7afbd	-0.030235166
171	0x3dc525fc	0.096263856
172	0x3cf0f858	0.029415295
173	0xbd4a6242	-0.049410112
174	0x3dd96e03	0.10616686
175	0x3d30a320	0.043124318
176	0x3d9e64dd	0.07734082
177	0xbc87b70a	-0.016566772
178	0xbc46e2e8	-0.01213906
179	0x3d132cbf	0.035931345
180	0xbdf1c0df	-0.11804365
181	0xbbe83a18	-0.0070870034
182	0xbd1da5aa	-0.038488068
183	0xbdbf0bd3	-0.09328427
184	0xbd993918	-0.07481593
185	0x3ace2b0e	0.0015729384
186	0x3dc005f4	0.093761355
187	0xbde7dd1b	-0.113214694
188	0x3daba23c	0.08380553
189	0xbdac31d1	-0.08407939
190	0xbce31c31	-0.027723404
191	0x3dd9b811	0.10630811
192	0xbdc8b518	-0.09800166
193	0x3d7ecee2	0.062209018
194	0x3dd4f57a	0.103983834
195	0xbdce3bdd	-0.10070012
196	0xbd09ed94	-0.033673838
197	0xbd01583d	-0.03157829
198	0xbd829684	-0.06376365
199	0xbd418fe5	-0.04725637
200	0x3dec0c3e	0.115257725
201	0xbce6d1cb	-0.028176209
202	0xbda8b9d9	-0.082385726
203	0x3db7c1a6	0.089724824
204	0x3ba847bd	0.005135505
205	0x3db015cf	0.0859791
206	0xbde7a44a	-0.113106325
207	0xbc4663d1	-0.012108759
208	0xbde1c669	-0.11024172
209	0xbd991a87	-0.07475763
210	0xbdc2c402	-0.09510042
211	0xbc1dbe54	-0.009627897
212	0x39a5513f	0.00031531785
213	0x3d0d412b	0.034485977
214	0x3def3fe0	0.11682105
215	0xbdee66c3	-0.11640694
216	0x3cbf9849	0.023388045
217	0x3cf6269a	0.030047704
218	0xbdd4a80b	-0.10383614
219	0xbd9170e9	-0.07101614
220	0xbb831a73	-0.0040009557
221	0x3d895f2b	0.06707605
222	0x3e0faa9c	0.14029926
223	0xbda5636f	-0.08075606
224	0xbd39fb01	-0.04540539
225	0x3d7b2656	0.061315857
226	0x3d1700f4	0.036866143
227	0xbce14fc9	-0.027503865
228	0x3dd74184	0.10510543
229	0x3e1a16b1	0.15047719
230	0x3dd0346c	0.10166249
231	0xbdbb252d	-0.0913795
232	0x3e0362fb	0.12830727
233	0x3df8cb9b	0.1214821
234	0x3d0ac02b	0.033874672
235	0xbdf656b1	-0.12028254
236	0x3c01fdce	0.007934047
237	0x3c0c35e9	0.008557775
238	0xbdfd374b	-0.12364062
239	0x3c9df8eb	0.019283732
240	0x3dc9fc79	0.098626085
241	0x3db54717	0.0885145
242	0xbdb380e3	-0.087648176
243	0x3c633bbc	0.013869222
244	0x3d96f600	0.073711395
245	0x3c72e5af	0.014825269
246	0x3c795a16	0.015219232
247	0xbceffc34	-0.029295065
248	0x3deef082	0.11666967
249	0xbe043096	-0.12909159
250	0xbd67c3e4	-0.0565833
251	0xbdb95364	-0.090491086
252	0xbdb9e1f2	-0.09076299
253	0xbc88bc7f	-0.016691444
254	0x3d6cd3d2	0.057819195
255	0x3de130b7	0.1099562
