api/data/models/SOL_TRY_1h_lstm.pth (torch, 211077 bytes, 10 tensors)

lstm.weight_ih_l0 f4 [256, 5]
00000000: 61d4 a1bd 8847 c53d fff5 743d 443d b93d
00000010: 7a34 6cbd 3b79 be3d 0402 d73d 7ab8 ba3d
00000020: 316f 36bc 1136 82bd dc89 ee3b 2c3c 1eba
00000030: 5b75 a3bd b394 8d3d 8a1f bfbd 65ca e2bc
00000040: d077 9d3d e370 82bd 00fa be3d 5cf5 ad3b
00000050: 853b 913d d4a3 26bd 775d cb3d b919 1abd
00000060: 782c 893d 02bb 74bd 4831 86bc 7ff5 7fbd
00000070: 09d4 db3c 476d 9abd e9a4 d93d 4752 483d
00000080: b236 2c3c a9d0 fb3d 5f20 b63d 1471 ad3d
00000090: 8b2f 0b3d c0a8 e23d 27a4 c13d 6443 88bd
000000a0: 8380 c73d fbef 8dbc 306f 083d 1a4e ccbd
000000b0: 4488 e93d 8b3e 193e fec3 76bd 5a28 fe3d
000000c0: b6db 9a3c cfd5 7fbc 6771 27bc 9b61 9b3d
000000d0: 8a5e b0bd 3157 6abc 9480 d1bd f0ed 40bd
000000e0: 3f52 b13d e83b 4e3c 4c21 b3bd 5cd7 6f3d
000000f0: fb28 9c3c a43b e1bd ad39 143c 26da 413d
00000100: 87c9 d73d 05ad 15bd 8740 3a3d 6a4c 9c3a
00000110: b8a3 813d 9dc4 4e3c 6e3a 003e 13d1 b8bd
00000120: 1167 a739 6123 9bbb 599a 34bd 313c 953d
00000130: 1776 40bc 0695 2b3c adbb 973d 60b3 54bd
00000140: 3ca8 2c3b afa1 053c 0bbd 8d3d 866d 643d
00000150: 0ae3 4b3d 8b10 953d d4e1 f3bd 0ada 97bd
00000160: 2d53 11bd 4a4b 8dbd f4ee 073e 4213 e53d
00000170: 31d9 983d 13af b83c 5265 0b3e 70e4 413d
00000180: 7b51 d03d 37a0 d83d 4759 40bd 7e63 d6bd
00000190: dec0 c23d bfa2 3dbd b713 913d cd0a 7bbd
000001a0: 36b1 543d 98c0 9e3d 7091 ca3d 2fbd d33d
000001b0: 8a4a 62bd bea0 243c aaa3 d8bd bdc0 ce3d
000001c0: 55f9 523d ffb4 b03d a83c 35bc 362a 88bc
000001d0: 522f 42bd 95b3 853c c06c aa3d 50b4 bc3d
000001e0: 8ceb 113e ac8a b63d 355a 5e3c fdcb 053e
000001f0: 15e0 49bd 7eed 243b 665d 81bd edab 20bd
00000200: edcd 393d 625c 64bd 831f e43c 9441 ea3d
00000210: 3896 9cbd d9ef 43bc e349 c23d 2821 0f3d
00000220: 51de 273d 1e8b ebbd 7c69 743d a2f6 db3d
00000230: b5f9 babc 8190 fd3c dc85 d93d 2df2 c5bc
00000240: 7b02 1e3d c00f 18bd cf9c 8dbd 6e14 cebc
00000250: 4123 98bd 0b4d 3b3d 6154 a3bc 96d5 583d
00000260: 0c16 23bd 90b0 73bd 415c 8e3c ddef 2bbd
00000270: 9887 cbbd 54d8 46bc 47b6 f03d 91ef 963d
00000280: d638 d53c a03c 583d c887 4c3d 2a16 ff3d
00000290: 8114 eabc 0eee a6bb 46d7 8d3a ed11 a83d
000002a0: bbb3 e63d 268a b83d ce90 4fbc 2cf1 a83c
000002b0: 28fb 5f3b 4e63 d23d 128c ad3c 4537 143b
000002c0: 5bb7 98bd 2f1f 63bb d1e7 66bd 94a6 4e3d
000002d0: 201e 313d 2765 ecbc bc7b 47bd 077b c93b
000002e0: edd4 b6bc 357e be3d c093 f7bb 45e0 3fbd
000002f0: e6e8 c23b fdb0 343c b16b 9d3d 85b4 313d
00000300: 2613 7abd 8826 8d3d 44c6 e03c e7ad fe3a
00000310: 4cc4 c13d 64cc 5bbd 382e 77bc b8fe 2b3d
00000320: 0e8d bfbd 41ca d63d 80b4 7b3c 1230 adbb
00000330: 36c4 c1bd 4cca a7bd 0922 8dbd 9d53 ee3b
00000340: 4f88 b8bc 7283 053e e68c d4bb 61cd c33d
00000350: f1a5 dd3d fb2c 0a3e cf36 c73d 0e30 95bc
00000360: ae9e b13d 40c1 cdbd 45f0 c03d 57b9 b6bd
00000370: 5734 24bd de08 cf3d 22b2 a1bd 6aa8 003b
00000380: 4851 2cbd fd4c bd3d 570d 7c3b a237 643c
00000390: 6305 3e3d f9db 30bd 499f 43bd 2d93 d13d
000003a0: 3a0c 98bd c1f7 d13c 6428 90bd 16fc 183d
000003b0: 3001 88bc e897 d63d 9e02 573d 81b9 b13d
000003c0: 0dfc 6b3d d14a 87bc 6c6c c23c efb5 ab3d
000003d0: d84d a9bd e0f6 aa3d de3e df3d b669 e33b
000003e0: 9705 023c 0265 8cbd cdd7 fb3d b64e 693d
000003f0: a6a5 b4bd db7e b43d bd7c 9c3d e6c8 5dbd
-0.07901836 0.09632784 0.059804913 0.090448886 -0.057667233 0.093004666 0.10498431 0.09117217
-0.011134909 -0.063579686 0.0072796177 -0.0006036188 -0.07981368 0.06913128 -0.093321875 -0.0276844
0.07688868 -0.06369188 0.093250275 0.00530879 0.070914306 -0.040683582 0.099299364 -0.037622187
0.06697935 -0.059748657 -0.016380921 -0.062489983 0.026834505 -0.07540374 0.10627157 0.04890659
0.010511087 0.12295658 0.08892893 0.084688336 0.033980887 0.11067343 0.09455138 -0.06653479
0.097413085 -0.017326346 0.03330916 -0.09975834 0.11402944 0.14965264 -0.060245506 0.1241004
0.018903594 -0.015614941 -0.010219908 0.07586976 -0.08611782 -0.014303015 -0.102296025 -0.047101915
0.08658265 0.012587525 -0.08746585 0.058554992 0.01906251 -0.10997704 0.009046954 0.047327183
0.10536485 -0.036541957 0.045471694 0.0011924629 0.06330055 0.012620118 0.12522289 -0.09024253
0.00031929513 -0.004734442 -0.04409251 0.07286871 -0.011746905 0.010472542 0.07408843 -0.051928878
0.0026345393 0.008156224 0.06920823 0.055768512 0.04977707 0.07278546 -0.11908308 -0.074146345
-0.035479713 -0.06899126 0.13274747 0.11185314 0.07463301 0.02254442 0.1361287 0.047336996
0.10171791 0.105774336 -0.04696014 -0.104681954 0.09509443 -0.046297785 0.070838384 -0.061289597
0.051926814 0.07751578 0.09891021 0.10338818 -0.055246867 0.01004809 -0.105780914 0.10095356
0.051507313 0.08628272 -0.011061825 -0.01662169 -0.04740841 0.016320983 0.08321524 0.092140794
0.1425001 0.08913168 0.013571312 0.13066097 -0.049285967 0.002516597 -0.063166425 -0.03922646
0.0453624 -0.055752166 0.027847057 0.11438289 -0.076458395 -0.01195904 0.09486749 0.03494373
0.0409835 -0.11501144 0.05967091 0.10740401 -0.022824148 0.030952694 0.10621235 -0.02416333
0.038576584 -0.037124395 -0.069146745 -0.025156226 -0.07428599 0.04572777 -0.019937696 0.052938066
-0.039815947 -0.059494555 0.017377974 -0.0419768 -0.09937972 -0.012136538 0.11753517 0.073699124
0.026028078 0.05279219 0.04993418 0.12455399 -0.02857423 -0.0050942963 0.0010821603 0.08206544
0.112647496 0.09010725 -0.0126688015 0.020622812 0.00341768 0.10272847 0.021184955 0.002261595
-0.07456847 -0.0034656038 -0.05637342 0.05045183 0.04324162 -0.028856827 -0.048701987 0.006148699
-0.022318328 0.09301416 -0.007555455 -0.04684474 0.005948174 0.011028525 0.07686556 0.043385047
-0.061053418 0.06892115 0.02743829 0.0019430489 0.09461269 -0.05366172 -0.015086703 0.041990966
-0.09353076 0.104877956 0.015362859 -0.0052852714 -0.094612524 -0.08192882 -0.06891257 0.007273151
-0.022525935 0.13038424 -0.006486523 0.09560657 0.108226664 0.13493721 0.09727251 -0.01821139
0.08672844 -0.10046625 0.09420828 -0.089220695 -0.040088978 0.10109113 -0.07895304 0.0019631633
-0.042069703 0.092432 0.00384601 0.0139292795 0.046391856 -0.043178532 -0.047759328 0.1023315
-0.07424207 0.025630834 -0.07038954 0.037349783 -0.016602129 0.104781926 0.05249273 0.0867796
0.05761342 -0.016515167 0.02373334 0.083843105 -0.08266801 0.08347869 0.10900663 0.006940092
0.007935903 -0.06855203 0.1229702 0.05695983 -0.088206574 0.08813258 0.076409794 -0.05414667

lstm.weight_hh_l0 f4 [256, 64]
00000000: a5cb e63d 5796 afbd 804e 98bd b735 b13d
00000010: b5c9 b3bd 9d57 b6bd dd70 d9bd 10f4 babd
00000020: a498 dc3c c898 c2bd 0f2e d5bc 5a53 d0bd
00000030: 4e21 683d a55d 763d 55f9 fabd a5fd 943d
00000040: 828b be3d c8e8 883d 2043 eebb 36f3 b0bd
00000050: 030b 393d 9be2 353d 8ffd c23d 8d71 d03c
00000060: 9504 153d 7136 783d 9f56 393d 95f9 1dbd
00000070: b30f dc3d 1d13 81bd a558 97bd ee74 28bd
00000080: e366 eb3d 1cda 123c fa86 21bd 2781 8f3d
00000090: 0492 0e3d eb2c d03d 4fc3 c9bd fa97 443b
000000a0: f709 943d 62f4 91bd d336 643c 2b88 a1bd
000000b0: 2992 8c3d 7a1b 813c acf5 8a3d bd2e 93bd
000000c0: c5c9 b1bd 08cb 81bd 6f54 debd 3022 eabd
000000d0: 507d acbc 6e2f d23d 582f c73c ded5 9a3d
000000e0: 0176 03be c320 10be 59db 373c 85e9 c6bd
000000f0: eb8f 81bd efe6 69bd 40da 7b3c 58e8 8fbd
00000100: 8979 86bd df21 5abd 4f4c 393d ede3 573d
00000110: a769 7f3d edbb f13d 42f8 85bd 948f 0a3e
00000120: 2f6b e23a fcf5 f2bd 90a1 e73c 8f72 0bbe
00000130: 56e8 9a3d 94f3 abbd e4c9 b9bd dc54 ae3a
00000140: 8bb2 e2bd 975e 81bd ddab 0dbe 194e 9cbb
00000150: ba32 5f3c 740f 6c3d 91db debd 4f9a 2a3d
00000160: dcb5 7e3d d446 393c ae33 db3d 0056 223d
00000170: 3579 2fbd 64fa 6a3d d4f4 8ebc 652a 823c
00000180: df36 3c3c e791 aebd 1156 58bd dc47 3abd
00000190: 8727 033e 8746 7e3d 9033 b3bc 4225 be3d
000001a0: 5152 e63c 88a5 e7bd 167d fe3d 6b69 a4bd
000001b0: 0d00 8f3d 9f98 53bd e047 9dbd 1bc0 2f3d
000001c0: 13fe 0abe ba96 11be d81b 203c 0a19 1f3d
000001d0: 95ae 19bd 810d a73d ec67 c73d c199 8d3b
000001e0: ef19 9ebc 904f cebd e602 a43d 0596 c33d
000001f0: e57c 793d 82e5 063d 3d39 98bd 269f 88bd
00000200: f507 dcbd aea8 0a3e 0556 9d3d ae20 c13d
00000210: 3e25 b9bd 7abc 063e 0880 61bd 309b 61bc
00000220: c841 b23d f220 6c3d 8edf 0f3e b295 08be
00000230: 568a cf3c 0c4c 273d 1c5a 4a3b a317 70bd
00000240: 0046 9a3d db39 eebd 33b1 ae3d 088b 3a3d
00000250: 03e8 9e3c 508e 033d 12ce 813d 4899 6bbd
00000260: 1e67 54bd f04b c53d ab19 823d 58f8 d43d
00000270: b316 0f3c eb47 7c3d 8551 ca3d c9d8 823d
00000280: f2d6 71bd 8d10 ccbd f558 053e 1d8e ed3d
00000290: 794c f13d b8c3 b63b 4d41 cdbd 47b3 e93d
000002a0: 886f 1e3d 016e 63bd c8b4 903d 184f a1bd
000002b0: d198 e13c f4fa 8f3d 63a3 c63d fcfc e2bc
000002c0: c30d cbbc bb3a c83d b5e9 0d3c 2c5d 15be
000002d0: 5843 cebd f8f2 23bd fc36 22bd 8adb a0bb
000002e0: 9377 f0bd 1396 523d 37fa f7bc 0d23 2fbb
000002f0: b6b3 9bbd 4e20 43bc 84f4 d6bd 184b a23d
00000300: 3210 b6bd 14a0 183e e36c ac3c e4ad babd
00000310: 1c19 bfbd 2c1a 9cbd 8148 00be 0373 b9bd
00000320: d794 0f3d 7cde 863d d58b 103d 21fc cebd
00000330: 5be0 fc3d 963a 403c f497 843c 0249 0bbe
00000340: 0266 2b3d 53d6 fe3b ee45 383d b063 8ebd
00000350: 8d87 f53d ef1b 3fbd aaca a6bc d7a8 40bd
00000360: 96a5 73bd 16c3 f23d 1616 013e a067 bdbd
00000370: 0166 d03d 771f 0bbe f5ff df3d a3ff ed3d
00000380: d33d 9c3d dd55 3fbd e8e4 a83d b6f6 07be
00000390: 25d3 3abc e9b4 433d 7fba b13c 117f d93d
000003a0: 6ece ba3c 0409 0dbe 2baa 8f3d 8b71 f2bb
000003b0: 3424 733d 0d87 b03c c147 9fbd 0ce3 11be
000003c0: e8ed c43d 3e3f 9abc fc78 86bd 51c5 0dbe
000003d0: 297e 0d3d 45cc c73b ae81 0b3d c9da eabd
000003e0: 4dc3 b33d 2cf0 523c bd96 15bd 3599 0b3d
000003f0: d979 c2bd d681 ffbb b031 c33d f674 0e3d
0.11269311 -0.08573597 -0.07436848 0.086528234 -0.08778707 -0.0890343 -0.1061723 -0.091285825
0.026928253 -0.09501797 -0.026022939 -0.10172148 0.056672387 0.0601479 -0.122545876 0.07274941
0.09303953 0.066850245 -0.0072711855 -0.08640139 0.045176517 0.04440556 0.09521019 0.02544477
0.036381323 0.060598794 0.045248624 -0.038568098 0.10745182 -0.06302474 -0.073899545 -0.041127138
0.114942335 0.008963134 -0.039435364 0.07007056 0.03480722 0.101648174 -0.09851705 0.0029997812
0.07228463 -0.071266904 0.013929087 -0.078873 0.06863815 0.015760172 0.067851394 -0.07186649
-0.086810626 -0.06337553 -0.10855948 -0.11432302 -0.021055847 0.10262953 0.024314567 0.07560323
-0.12837984 -0.14074998 0.01122173 -0.09712509 -0.06326278 -0.057105 0.015371859 -0.07026738
-0.0656615 -0.05325496 0.04523879 0.0527076 0.062356617 0.11803422 -0.06541492 0.13531333
0.0017274375 -0.11863324 0.028275281 -0.1361792 0.07563846 -0.08396068 -0.09071711 0.0013300437
-0.110692106 -0.0631687 -0.13835092 -0.004770052 0.013622934 0.057631925 -0.10881723 0.041651066
0.062185153 0.011308391 0.107032165 0.039632797 -0.0428402 0.057367697 -0.017450728 0.015889356
0.011487692 -0.085239224 -0.052816454 -0.045478687 0.12808047 0.06207898 -0.021875173 0.0928445
0.028115423 -0.113108695 0.12426202 -0.080279194 0.069824316 -0.051659223 -0.07679725 0.042907815
-0.13573484 -0.14217654 0.0097722635 0.03884224 -0.03752001 0.081568725 0.097366184 0.0043213074
-0.019299475 -0.10073769 0.08008365 0.09550098 0.060910124 0.03293372 -0.07432792 -0.0667098
-0.10743705 0.13540909 0.076824225 0.09430061 -0.090403065 0.13157836 -0.05505374 -0.01376991
0.08703953 0.057648607 0.14050123 -0.13338354 0.025334518 0.04084401 0.0030876463 -0.05861629
0.07532883 -0.11632129 0.08529892 0.045542747 0.019397741 0.03211814 0.06338133 -0.057519227
-0.051856153 0.096336246 0.06352552 0.1039893 0.008733439 0.061592024 0.0987883 0.06389005
-0.05904288 -0.09964094 0.13022216 0.115993716 0.11782164 0.0055775307 -0.10022221 0.114111476
0.038680583 -0.05552483 0.07065731 -0.07876414 0.027538689 0.070302874 0.09699132 -0.027708523
-0.024786836 0.09776827 0.008661677 -0.14586323 -0.100714386 -0.040026635 -0.03960322 -0.0049089836
-0.11741557 0.051412653 -0.030270679 -0.0026723773 -0.076026365 -0.0119095575 -0.104958564 0.07924479
-0.08889808 0.14904815 0.021048015 -0.09115198 -0.09330961 -0.076221794 -0.12527658 -0.0905514
0.035054054 0.06585404 0.035289604 -0.101066835 0.1234748 0.011732718 0.016185738 -0.13602069
0.04184533 0.0077770143 0.044988565 -0.06952608 0.11988745 -0.0466575 -0.02036031 -0.04703602
-0.059484087 0.11853616 0.12606081 -0.092482805 0.10175706 -0.13586222 0.10937492 0.116210245
0.076289795 -0.046712745 0.082467854 -0.13277707 -0.01140288 0.04777995 0.021695374 0.10619939
0.022803511 -0.1377297 0.07014879 -0.0073987893 0.059360698 0.021548772 -0.07777358 -0.14246768
0.096156895 -0.018828984 -0.06566045 -0.13844801 0.034544144 0.006097349 0.03405922 -0.11467511
0.08777485 0.012874644 -0.03652071 0.034081656 -0.09495897 -0.00779746 0.095309615 0.03477951

lstm.bias_ih_l0 f4 [256]
00000000: fa13 e8bc d8ad 103e 1ccf d93d 820b d63c
00000010: 0fbd 86bc 367c e43d ebd4 463c e522 b3bc
00000020: 7812 c1bc 3ea0 efbc 810d 2f3c 4737 7ebd
00000030: 2da3 babd 40f9 2fbc a64a 573d bc07 923d
00000040: 92bf 13bc 4dc5 b9bd f736 623d 84ff a3bd
00000050: 0a2e 153e c5e9 623d e973 85ba aa64 f0bd
00000060: 5a54 07bb 61e9 943d 2f7d 11bc 1378 b3b9
00000070: 09a8 d63d 3c54 aabd 433e 02bd 847b ebbb
00000080: 2158 aebd 4f6f 693c 59ae d43c 501d 063d
00000090: bea5 af3d 637b 9dbd 808c 6f3b 3bf4 083d
000000a0: 3dd4 093e 1973 a0bd f983 1c3e cf8b 083e
000000b0: 301d d439 dcad 623d ab78 a3bd 9ed8 ff3d
000000c0: 5ca8 a33d a3a7 b03d 7a1d b2bd 146c 4bbd
000000d0: 45f3 5abd bd3d fabd 3dd3 063d 88f6 3fbd
000000e0: 3f8f 98bc b69e 643d 5d42 103d d411 fd3d
000000f0: b75f 853d a04c 40bd 333b 92bc 583e 7cbd
00000100: 6129 b7bd 2cf5 83bd ba68 0fbd be98 cb3c
00000110: e4b1 ad3d 0917 d3bc c141 b4bd 289c 9ebd
00000120: 4bf5 61bd 2070 b2bd 90e8 af3d 85d2 b1bd
00000130: 44cb c83c 1400 8abd 7076 1b3e 33be 063e
00000140: 1c9b 993d 2b2c 8b3c 5e93 afbd bd7d 01bd
00000150: ddb2 1b3d 204f d03d 795c 423d 5bd6 253d
00000160: 8a64 e83d 2ef6 6abd f58c b6bd 7bb1 f83d
00000170: 6c37 a9bc 6f17 bcbd a627 fabd 2805 773c
00000180: f339 083c a5ad 26bd e2c4 93bc c05a 8bbd
00000190: ea75 e0bc 7429 98bd e66b 9dbb b07e 673d
000001a0: 1b1f fa3c 2d34 2f3d 37d5 8cbd 47ed 913d
000001b0: ca1a 62bd 045c aebd 90ba c03b 073b 043d
000001c0: f020 8cbd f426 d53d dd96 89bd 144c 013e
000001d0: 1e9a 77bd 8b46 c8bd 4f0c a63d f787 9dbd
000001e0: 2658 f93c 7f76 d73c c17e 933d 17c6 8e3d
000001f0: 3c2e 883d 06bc 00bd 6db2 1cbd 3978 bf3c
00000200: d5f9 103d 7de0 833d 9be9 a9bd 87aa f8bd
00000210: faf0 93bc aac1 d33c 10b8 06bc 6339 1b3e
00000220: 0ab0 47bd 9035 18be 5f6d 44bd 93f9 7d3d
00000230: 3d9c 263d d810 d03d f6c3 9bbd 4786 c53d
00000240: 73a3 ffbd 643b 71bc 36ae 4dbd 24ed b8bd
00000250: b1a6 0d3e 7a7b 33bc 1497 d3bd 00d2 fbbd
00000260: bf79 12be b118 873d 938f 24bd a5c2 033e
00000270: 386f de3d d6af 6bbd fb2e a03d b070 cabd
00000280: 46bd 73bd 0ab0 d3bd f278 a43d 99e3 8abd
00000290: 0bbc 693b 8836 8fbd fb21 443d a953 debc
000002a0: 1820 07be eacc e0bd 63e7 fb3d df3d 04bd
000002b0: 55f2 bbbd a7cb 823d a998 0dbd bfcb 95bd
000002c0: 8232 13be 7b95 2ebd 3fd5 433d c7a2 debd
000002d0: ab3e a1bd 069d 0d3a 8598 90bd 5fac b03d
000002e0: 6331 f9bc ba41 30bd 1533 0abe 242c d43d
000002f0: f7cd d8bd 6a88 0f3e fca0 07be 51bf 08be
00000300: 98ca cfba 90f1 ac3d f063 cf3d bd6d 84bc
00000310: 36aa a73d 014a aa3d cde0 663d 011c ec3d
00000320: 58f3 2dbc d4e0 a9bc 58ed f43d 4468 89bd
00000330: 7f0f ccbd 513e bcbd 4934 8d3b 9544 b3bd
00000340: f38b 033e 38d5 acbd 4eee 96bd 3209 8bbd
00000350: bcbb 88bd 3933 743d 5436 00be d274 c3bd
00000360: dea7 f73d 02e5 943c 0d90 9abd 0670 c73d
00000370: 0c33 133e 9e8c e23d 372c a2bd 103c 443d
00000380: e093 783d 389d 593c 32aa 81bd 9c2e 71bd
00000390: 3965 c5bd 71fe c13c 2247 a3bc 09e5 c43d
000003a0: f5f1 ab3d b3cc 283c 5376 ed3d 29fc 8abb
000003b0: f376 fe3c 054d 1dbb 3682 233d e6ce 463d
000003c0: f38e a9bb aaf6 0ebc b4c6 e13d dc7d b0bb
000003d0: 8e8f 003e c06c b43d 17cc 93bd e049 dbbc
000003e0: cf16 d83d 0fe3 863d 53c6 56bd a014 55bd
000003f0: 0d91 b73c 69d8 c63c 03c0 b8bd ed74 cebb
-0.028329838 0.14128816 0.10635206 0.026128534 -0.016447572 0.11156504 0.012135725 -0.021867225
-0.023568377 -0.029251214 0.010684372 -0.062064435 -0.091131546 -0.010740578 0.052561425 0.071303815
-0.009017842 -0.09070835 0.0552282 -0.0800772 0.14568344 0.05539872 -0.0010181639 -0.1173795
-0.0020649643 0.07271076 -0.008879944 -0.00034231003 0.10481269 -0.08316848 -0.03179766 -0.007186355
-0.08512903 0.014247729 0.025962042 0.0327428 0.08576535 -0.0768955 0.003655225 0.03343604
0.13459869 -0.07834453 0.15284719 0.13334583 0.00040457537 0.055341586 -0.07982 0.12492488
0.079910964 0.08625724 -0.086970285 -0.04966362 -0.053454656 -0.12218807 0.032916296 -0.04686597
-0.018622993 0.05581542 0.03521954 0.12356916 0.06512397 -0.046948075 -0.017850494 -0.061582893
-0.08943439 -0.06443247 -0.035011984 0.024853107 0.084811956 -0.02576782 -0.08801604 -0.07744628
-0.05516557 -0.087127924 0.0858928 -0.086827315 0.024510987 -0.06738296 0.15181899 0.13158493
0.07500288 0.016988834 -0.0857303 -0.031614054 0.038012374 0.10171342 0.04745147 0.04048763
0.11347301 -0.05736368 -0.08913604 0.12143227 -0.02065631 -0.09184157 -0.122145936 0.015076913
0.008314597 -0.040692944 -0.018038217 -0.068044186 -0.027399976 -0.074297816 -0.0048041223 0.056517303
0.03053241 0.042774368 -0.06876605 0.07125335 -0.05520133 -0.08513644 0.005881615 0.032282855
-0.0684222 0.1040782 -0.06718228 0.12626678 -0.060449712 -0.0977908 0.081078164 -0.07691949
0.03043754 0.02630162 0.07201911 0.069713764 0.066494435 -0.031429313 -0.038256098 0.023372756
0.03539451 0.06439302 -0.0829651 -0.121419005 -0.018059243 0.025849182 -0.008222595 0.1515861
-0.04875187 -0.14864182 -0.047955867 0.06200559 0.040676344 0.10159463 -0.07605736 0.09644752
-0.12482347 -0.0147236325 -0.05021497 -0.09029606 0.13833119 -0.010954732 -0.1033155 -0.12295914
-0.14304255 0.065965064 -0.040175986 0.1286722 0.10861057 -0.057540737 0.07821461 -0.09884775
-0.059506677 -0.10336311 0.08030881 -0.06781692 0.003566506 -0.06992823 0.04788397 -0.027139502
-0.13195837 -0.10976584 0.12299993 -0.032285567 -0.091770805 0.063865 -0.034569416 -0.07314252
-0.14374736 -0.042623024 0.04781079 -0.10870891 -0.07873281 0.00054021215 -0.07060341 0.08626627
-0.030419057 -0.04303143 -0.13496049 0.10359982 -0.1058616 0.14016882 -0.13245004 -0.13354231
-0.0015853224 0.08444512 0.101264834 -0.016165609 0.08186762 0.083148964 0.05636673 0.11528779
-0.0106171 -0.02073709 0.11959332 -0.0670934 -0.09963893 -0.091915734 0.0043092114 -0.08753315
0.12846355 -0.08439106 -0.07369672 -0.06788863 -0.066764325 0.059619162 -0.12520725 -0.09543766
0.12092565 0.018175606 -0.07547007 0.09738164 0.14374942 0.11061977 -0.079185896 0.047908843
0.0606879 0.013282113 -0.0633129 -0.05888234 -0.09638447 0.023680897 -0.01993138 0.096139975
0.08395759 0.01030271 0.11594834 -0.0042414856 0.031062579 -0.0024002206 0.0399191 0.048537157
-0.0051745116 -0.0087258015 0.11024228 -0.0053860974 0.12554762 0.08809805 -0.072166614 -0.026768625
0.105512254 0.06586277 -0.05243523 -0.052021623 0.022408033 0.024273114 -0.09020998 -0.0063005597

lstm.bias_hh_l0 f4 [256]
00000000: 8ed5 363a b989 343d 4cb8 94bd ef24 713d
00000010: e63e 123e 7c00 9a3d d779 c1bd c97b 86bd
00000020: 9776 a3bd 4328 02bd 9304 dd3d 6580 a1bd
00000030: 03dc 223c 9f46 e13d 966e 0dbc 74fa b3bd
00000040: d8c4 90bd 67e0 b23d 7840 a0bc b0e2 b2bd
00000050: 3b68 073e 88c3 8dbd 0cad 403b 4a2f afbd
00000060: ebc4 b6bd f405 67bc 1074 6f3c d9fb 753d
00000070: c7f0 a6bd 272a 443c c4db 3fbb 734f 423d
00000080: b26d 873d 18f2 883c e38d 533d 1030 c0bd
00000090: f2d8 623d 05d8 8e3d e9c4 183d b4cc d1bd
000000a0: 2900 7bbd 0354 a3bd ef46 163e f34a a4bd
000000b0: d737 ef3d 857f 98bd 4b19 073e 52e1 fa3d
000000c0: 0ba8 06bd 86f3 b5bd dd44 07bd e8ec c43d
000000d0: db5d 093e 7b64 963d 7798 313d 6dc8 8f3d
000000e0: 2bd2 3ebd 369e fb3d 0548 3cbb aad0 be3c
000000f0: 2d51 7f3d 04a4 fd3d 88c4 04bd 5ac9 fdbc
00000100: 49c0 79bb 4408 a03c 3936 c23d 9bf9 f93b
00000110: d187 dc3c ebea f13d fb4a 173c 9a04 c43d
00000120: 720d debd 289e b63d d265 9c3c 5280 923d
00000130: 1ce1 7fb9 551c 5a3d 0f29 9e3d 99b1 8dbd
00000140: d40c a53a f1e2 d8bd 1df5 063e 5cd8 ba3c
00000150: 3c9d 123e c83b 3cbc 49a0 363c 1aed b13d
00000160: 7f7a b13d 20cf 9ebc 3867 9a3d a36a 453d
00000170: 4a43 6c3d 4b18 bb3d c02f 733d 787d 73bd
00000180: 0014 b2bc b69e af3d 5baf 563d 30f1 fb3b
00000190: acb6 b1bd bc56 e63c ca9a f63d ec3d b73c
000001a0: 959e 8b3d 611f debc f1f0 d53d a2f0 093e
000001b0: 6284 d83d 4fa4 19bd eefd 8cbc 2e61 fc3d
000001c0: 9e88 98bd 668b da3b c564 163e db72 94bd
000001d0: 5a72 6bbd 5707 c2bd 155e 05be 54f2 49bd
000001e0: 0dfe 39bd 9f94 05bc 7b7d b8bd 1432 67bd
000001f0: ec1d b3bd 3657 043e 8859 b33d 6fdd 1b3e
00000200: 0522 13bd 5e1a a83d 2329 6e3d 3d1c 12be
00000210: 44d8 babd d129 e73c b1f9 79bc 01ec 36bd
00000220: 3165 db3d 3496 01bd 81f2 7e3d 138c cebd
00000230: d5ee b2bb acfb 12bc 9a63 b8bd 7893 13be
00000240: aace 7bbd 2322 6ebd 1a54 3fbd 4efd d73d
00000250: f34a 0f3e 109f a63c d53b ed3c 156c 213d
00000260: 5ee6 6dbc f2ab f33d f6ba fb3d 3c58 cabd
00000270: e078 153e 521f 59bd 3906 84bd 382e fb3d
00000280: cfca 00bc 2198 8bbc 9277 353d a567 9a3d
00000290: 9484 363c 4585 453c 743d 91bd e439 67bd
000002a0: 44e5 febd afc4 84bc 33da 73bd 2bbc febd
000002b0: 0713 eabd cc1a 9b3d 4dbe 4c3d 5537 2abc
000002c0: a196 f5bd 8f2a 06be 6f14 11bc b6b7 abbd
000002d0: b323 febc bfb8 edbd db1c af3d 9954 95bd
000002e0: 502a 21bd eea2 01bd 476e 353d 1af9 043d
000002f0: 29f4 ab3d 344f ca3c 8b44 a93d 6581 e1bd
00000300: 4129 c83c a070 cabc 23b8 52bd 6e3b 833d
00000310: ee8e 0b3e 928a 923d f91f 693d 2d5c bf3d
00000320: fcc8 913c c97e 103e b5b7 fabc 5c08 94bb
00000330: 87d6 b1bd 55d0 9c3d 465b c63d 35b2 3bbd
00000340: 5807 763d f888 b93d 769c 093d d43f 5cbd
00000350: 6a27 1b3e 2cb1 c23d 93fc b8bd 1e5b a6bd
00000360: b99d 0d3e 526c 7ebd 0313 72bd ec2f 4d3d
00000370: df08 373d dd0c 173d 7d1e 813d 609e 44bd
00000380: de7c 84bd f475 9c3c 2a51 143e 2df3 b0bd
00000390: bf0f a23d 2e51 85bd ca3d c6bc d1af c9bd
000003a0: e96e a1bd c05d 953d 6b24 7f3d 138b a1bd
000003b0: 3947 74bd c64f 743d c6b0 80bd e7f3 133e
000003c0: 7013 90bd 5900 c4bb 75d2 5a3c 70f8 483d
000003d0: 9990 d53d 78a5 7f3d 81b2 b3bd 0768 da3d
000003e0: de3f 973d 1fe0 dc3d a53a a53d 618a cb3d
000003f0: cf9a 893c 3af4 e93d 2bc3 cabd 77ea 973d
0.0006974571 0.044076655 -0.07261714 0.058873113 0.14281806 0.07519624 -0.09447067 -0.06566579
-0.079816036 -0.031776678 0.10791888 -0.078858174 0.00994015 0.10999798 -0.008632323 -0.087880045
-0.07068795 0.087342076 -0.019561991 -0.087346435 0.13223355 -0.0692206 0.002940002 -0.085539415
-0.08924278 -0.01410054 0.014615074 0.060054634 -0.081513934 0.0119729405 -0.0029275278 0.04743905
0.066127196 0.016717002 0.051648986 -0.09384167 0.055382676 0.06974796 0.037297163 -0.10244122
-0.06127945 -0.07975008 0.14675497 -0.08022108 0.116805725 -0.074461974 0.13193242 0.12250008
-0.032875102 -0.08884339 -0.033024658 0.09615499 0.1341471 0.07343384 0.043358292 0.0702065
-0.04658715 0.12286036 -0.002872945 0.023292858 0.062333275 0.12384799 -0.03241399 -0.030979801
-0.0038108996 0.019535191 0.094829984 0.0076286322 0.026920231 0.11812385 0.009234185 0.0957119
-0.10842408 0.08916885 0.01909152 0.071533814 -0.00024402555 0.053249676 0.07722675 -0.0691864
0.0012592324 -0.10590161 0.13179441 0.022808246 0.14317793 -0.011488862 0.011146613 0.08687802
0.086659424 -0.019385874 0.07539219 0.0481974 0.05768136 0.09135493 0.05937171 -0.05944583
-0.021738052 0.085751936 0.052413326 0.007688664 -0.0867742 0.02811753 0.120412424 0.022368394
0.068173565 -0.027114572 0.104463466 0.134707 0.10572125 -0.037510213 -0.017210927 0.12323223
-0.07447933 0.0066694496 0.14686878 -0.072484694 -0.0574821 -0.09474056 -0.1302417 -0.049303368
-0.045408297 -0.00815311 -0.090083085 -0.056444243 -0.087459415 0.12923893 0.08757311 0.15221189
-0.035921115 0.08208154 0.0581447 -0.14268585 -0.09123281 0.028218182 -0.015257285 -0.044658665
0.1071266 -0.031637385 0.06224299 -0.10085311 -0.0054606 -0.008971136 -0.090033725 -0.14411724
-0.061476387 -0.058138024 -0.046711065 0.10546361 0.13993435 0.020339519 0.028959194 0.039409716
-0.014520256 0.1189803 0.12291519 -0.098801106 0.14596891 -0.053008385 -0.064464994 0.12264675
-0.007860853 -0.017040314 0.044303484 0.075393 0.0111400075 0.0120557 -0.070917994 -0.056451693
-0.12446073 -0.016207067 -0.059534263 -0.12438234 -0.114294104 0.075734705 0.049986172 -0.010389169
-0.11991621 -0.13102172 -0.008854969 -0.083846495 -0.031022882 -0.11607503 0.085504256 -0.07291526
-0.039346993 -0.031649522 0.04429462 0.032464124 0.08396179 0.02469597 0.08265027 -0.11011008
0.024433734 -0.024711907 -0.051445138 0.0640782 0.13628742 0.071553364 0.056915257 0.09343753
0.017796032 0.14110865 -0.030605176 -0.004517598 -0.08683496 0.07656924 0.09685378 -0.04582425
0.060065597 0.09059328 0.03359648 -0.05377181 0.15151754 0.09506449 -0.0903255 -0.08122848
0.13829698 -0.06211502 -0.059100162 0.05009453 0.044686195 0.0368775 0.06304643 -0.0480026
-0.06469129 0.019099213 0.14484087 -0.08640132 0.079131596 -0.065096244 -0.024199385 -0.098479874
-0.078824826 0.07293272 0.06229059 -0.078878544 -0.059638236 0.05964639 -0.06283717 0.1444851
-0.070349574 -0.0059814868 0.013355841 0.049065053 0.104279704 0.062413663 -0.08774281 0.10664373
0.073852286 0.10784935 0.08067826 0.09938503 0.016797451 0.11423536 -0.099005066 0.074177675

lstm.weight_ih_l1 f4 [256, 64]
00000000: f57b 1d3c 7bf0 b6bd 576d d13d 807d 00bd
00000010: bdb0 733d 526f 9fbd 5b1a cfbd 2c48 8a3d
00000020: b097 a4bd be8b 5fbc 1c69 c2bd 1162 04be
00000030: 8e53 0e3e 1f21 c23d 6051 cbbd 5e8c ddba
00000040: 2d01 e9bc 8393 e8bd 2a0d edbd 64b1 bcb9
00000050: 296e 33bd 319c 37bd e08e 813d 6601 afbd
00000060: 7218 48bc 4159 b93d ba8f 9fbd d99b 873d
00000070: 3875 8ebd 5ec1 e9bd 1e55 11be 0db1 f6bc
00000080: 64ca 1b3d 8ecb 983b ed14 c2bc ff48 a13c
00000090: 3a43 2dbd 15ab 653c 5276 9cbd 60ca 70bd
000000a0: 908b 0abc 70c2 00be d3b4 9bbd 3d99 07be
000000b0: 738e c7bd 4ceb 96bd ac68 d6bd cade acbd
000000c0: 642c 6b3d a76f 4dbd 4b23 0e3d 600e 4fbd
000000d0: e9d7 c93d c5fc 103e 4750 803d 3d77 923d
000000e0: 6cb4 c8bd 7646 5f3d 3dce d7bd 2134 d9bb
000000f0: da59 dc3d f350 b53d 9763 983d 860d 7c3d
00000100: 5773 60bd 746b 303d 37f1 863b 1951 743d
00000110: c264 d2bd 98dd fbbc 76eb cfbd 5358 8cbd
00000120: 4c52 08bd b5c5 fc3d d05c d2bd 4373 2a3d
00000130: b952 113d 5a76 e0bd 3a23 063e f06b 963d
00000140: 1d6e 613c 91fb 17b9 ec8b a2bd ee96 2f3c
00000150: 0ac5 283d 425a 6b3d f34b c1bb dd80 68bd
00000160: 7e09 063e f9e0 8e3d 5cb8 e1bd 31a7 a6bd
00000170: 4ff1 e33c 953a ec3c b05b cf3d d484 cfbd
00000180: 59cf a03d 9148 013e fc0e 283c f6e8 d6bc
00000190: e93e 183d 3f49 ac3d d374 2c3d 18b8 813d
000001a0: 0c46 c7bd 26c1 bfbd 8ae4 6b3c 1d0a d93d
000001b0: 5c09 b43c de4b 503d 4d01 253c 26f5 73bd
000001c0: 61ff 84bd 35cb f4ba 7429 e63d ebdd fe3d
000001d0: c7da 3d3c a3ea 80bd 5270 ed3d cefa 953d
000001e0: 5a50 a83d 0416 94bb b128 ff3d 6a0c dcbd
000001f0: 4df2 35bc ded8 cebd 12aa 0f3d bb50 3cbc
00000200: 5022 043c d223 30bd 2de4 c9bd e5f7 a53c
00000210: aab0 b63d 09fd b2bd 939f 23bd d781 9fbd
00000220: c623 afbd f5dd 59bd f46b ae3d d11e 59bd
00000230: f0ed 7abd f0b4 1d3d 9acb 2cbd 3963 613d
00000240: 8fa8 a83c 060b 483d 7586 dcbb 69e7 7b3d
00000250: 7e9c 6e3d ffb8 38bc 4c5c d03d 9522 9bbd
00000260: 4936 8c3d 3da7 0f3e 1aff a5bb 7545 dabd
00000270: 4608 3bbc 491f d43d b6cc eebd 2661 d9bc
00000280: 9f1d 193d 2b6e 0bbe 2eec 003d 2c8c 963d
00000290: 0c5f 043e 8046 16bd 857b 603d 5802 c3bc
000002a0: 1c38 1e3d 5520 72bd be6e d2bc dca6 a23d
000002b0: 0e0d c9bd 6294 a7bd 85ac a0bd b773 be3d
000002c0: 429e c03d 63be cabd e45b c4bd a83f 5d3d
000002d0: 4d30 3f3c 1dff 98bd b4aa 0ebe 38f2 0cbe
000002e0: e131 c03d 769d 9a3d bfc8 853d 3129 a0bc
000002f0: 8b60 9fbb c541 0e3e 51cc 903d 62a9 e2bd
00000300: 9fcf b83c fd51 8fbd 8483 b5bc e018 0abe
00000310: 03c1 1dbd 4de0 8dbb 3fbd b33d 3fec 2b3d
00000320: ad9b 81bc 211f 32bd fbb8 4c3d 62ad e0bd
00000330: 0993 8c3d 3038 143d ab81 f53c be73 babd
00000340: c821 53bd 0293 413d 3241 babd 968c 123e
00000350: 6064 b03d 9968 d13d 163c 963c 9c1f 8bbd
00000360: 4181 e43a 4e1a c43d e84f 9c3b 3e42 b8bd
00000370: ab2d 22bd db42 543d 18d5 c33c 813b 083e
00000380: fcdd 0d3c 69ab f7bd dcbd a8bd 899a 823c
00000390: 0913 bbbd bb04 d2bd 3933 e0bd 610a 1f3d
000003a0: f270 763d 60d0 c23d 503d 81bc 6967 17be
000003b0: 243f 8abd 0646 8c3d 1030 c63c 6af6 8bbd
000003c0: ba8e f33c 13d1 babd 275a 7a3d c4d5 063c
000003d0: dd55 4ebd 8ad3 4ebc 6982 f2bb 21f3 ed3c
000003e0: f04d 993d 8e24 e1bd 638b a1bb 7588 183d
000003f0: cdff 8bbd 0de8 073e 082a 06bc b618 85bd
0.009612073 -0.08932587 0.10225933 -0.031369686 0.059494723 -0.077849045 -0.10112449 0.06752047
-0.080367446 -0.013644157 -0.09492704 -0.12928034 0.13899061 0.094789736 -0.099276304 -0.0016902795
-0.028442943 -0.11356261 -0.115747765 -0.0003599032 -0.04380623 -0.04482669 0.06326079 -0.085451886
-0.0122128595 0.09050227 -0.077910855 0.066215225 -0.069559515 -0.11413835 -0.14192626 -0.030113721
0.03803481 0.0046629375 -0.023691619 0.019688128 -0.04230044 0.01401784 -0.07639755 -0.05878675
-0.008456126 -0.12574172 -0.07602849 -0.1324205 -0.09743967 -0.07369098 -0.10469183 -0.08440931
0.05741538 -0.050155308 0.034701627 -0.05055082 0.09855635 0.14158924 0.06265312 0.07151649
-0.09800038 0.054510556 -0.10537384 -0.0066285287 0.10759325 0.088533305 0.0744087 0.061536334
-0.054797497 0.043071225 0.0041181105 0.059647653 -0.10273124 -0.030745313 -0.101523325 -0.06852784
-0.03328161 0.12342397 -0.10271609 0.04161383 0.03547928 -0.10960074 0.13099375 0.07344806
0.013759163 -0.00014494198 -0.07936844 0.010717137 0.041203536 0.057459123 -0.0058989464 -0.05676352
0.13089558 0.06976504 -0.11021492 -0.08137358 0.027825026 0.028836528 0.1012491 -0.10132757
0.078520484 0.12625338 0.010257479 -0.026234131 0.03716937 0.08412408 0.0421036 0.06333941
-0.09730157 -0.09363012 0.01439775 0.10597632 0.02197712 0.050853603 0.010071111 -0.059559964
-0.06494022 -0.0018676283 0.11238375 0.12444671 0.011587805 -0.062947534 0.11593689 0.07323228
0.08218451 -0.004519226 0.12458933 -0.10744555 -0.011105132 -0.10099958 0.0350743 -0.011493857
0.008064821 -0.04300291 -0.09857974 0.020259807 0.08920415 -0.08739669 -0.039947104 -0.07788437
-0.08551745 -0.05319019 0.08516684 -0.053007904 -0.06126207 0.038502634 -0.042186357 0.055026267
0.020588188 0.048838638 -0.0067298957 0.061499987 0.05825471 -0.011274575 0.10173854 -0.075749554
0.068462916 0.1402864 -0.005065811 -0.10657779 -0.011415547 0.1035753 -0.11660139 -0.026535582
0.037381765 -0.13616244 0.03147524 0.073509544 0.12926883 -0.036688328 0.054805297 -0.023804829
0.03862773 -0.059112865 -0.025687572 0.07941982 -0.09816943 -0.08182599 -0.078454055 0.092994146
0.09405185 -0.09899595 -0.09587839 0.054015785 0.011669231 -0.07470534 -0.13932306 -0.13764274
0.09384514 0.075495645 0.0653243 -0.019550892 -0.0048638037 0.13892277 0.0707022 -0.110674635
0.022559939 -0.0699806 -0.022157438 -0.13486052 -0.03851415 -0.0043297173 0.0877633 0.04197335
-0.015821302 -0.043486718 0.0499811 -0.1097057 0.06863982 0.036186397 0.029969057 -0.09104107
-0.05154589 0.04725934 -0.09094466 0.14311442 0.08612895 0.102250285 0.018339198 -0.067931384
0.001743354 0.0957533 0.0047702678 -0.0899701 -0.039594334 0.05182157 0.023905322 0.13303949
0.008658882 -0.12093241 -0.08239338 0.015942829 -0.0913449 -0.102548085 -0.1094727 0.038828257
0.060166307 0.095124006 -0.015776306 -0.14785542 -0.06750324 0.068492934 0.02419284 -0.06834109
0.029731143 -0.09121909 0.061121132 0.008229677 -0.050374854 -0.012623677 -0.0074008 0.029046597
0.074855685 -0.109933004 -0.0049299463 0.03723951 -0.068358995 0.13272114 -0.008188732 -0.06498854

lstm.weight_hh_l1 f4 [256, 64]
00000000: 5516 f93c a565 9f3d 746c 4b3c 5024 05be
00000010: 2975 d3bd 6ffb 80bc b9c7 0cbe 4bab e03d
00000020: 3272 c1bd 521e f53d 26fc f0bd 324f b0bb
00000030: a84f b4bb 0644 c9bd 306b af3b 30fd fabd
00000040: fa5e e13d 1389 8dbc e614 ddbd 68a0 d43c
00000050: 9ad5 b7bd 47f2 7f3c 1559 933d 0a7c 6ebd
00000060: c092 a5bd 5ef8 d8bc 6f82 bf3d bee3 393d
00000070: af8c b23d ae52 313d ef64 a5bc 572d f53d
00000080: ae83 68bd 4dd3 c63d 5a97 533c a4c2 773c
00000090: 48d2 053c b6cc bcbd ef01 dcbd 0c48 1f3d
000000a0: 325c a4bd 9007 87bd 8542 e33d e837 cc3d
000000b0: 98f9 9e3c 1700 07be 620a f53d 1040 cabb
000000c0: 66b3 c73d 84bd 883d 6d3c e83d db1b a2bd
000000d0: ec34 f93d 2b27 19bd 5696 ecbc e8c1 203d
000000e0: 4489 04bd d1f0 ec3d dd90 5d3d c39f c73d
000000f0: bb96 253d 68de e93c 5141 893d 53bb 4e3d
00000100: 950c cebc aaf5 163d c143 bd3d 86b0 753b
00000110: b653 50bc c672 efbc 311b 3ebc acd9 153b
00000120: f346 9e3d f73a 1bbc a0a5 e43d 2959 3bbd
00000130: aee2 093e 4455 aebd b063 d9bd 0c68 e23d
00000140: 6eb4 953d 9d3a c83d 2985 7c3d b6c9 a2bd
00000150: 84ae e6bd 37b0 d63d d883 8bbd e2a6 63bd
00000160: 8aa0 fbbc 8e21 9c3d f34e a63d 89f4 c6bd
00000170: 425a 393d f9ed efbd 281b 833d c577 74bd
00000180: 3349 a1bd 28d3 74bd f880 82bc 4109 34bd
00000190: 620c 803d 3050 e93d dd95 7ebc f25e 46bd
000001a0: a9ea 3ebc 6f41 72bd d8bd 7e3b f3aa b33d
000001b0: a3f0 a93d 9f7c 93bd 95ed 45bd 3e21 83bd
000001c0: 02f2 3b3d 7745 e83c 3916 ee3d 3b8b a93d
000001d0: da9d 04bd aaa0 f73b ad49 abbd fcb2 863c
000001e0: 648e 093d 1810 943d b315 07be d338 c93d
000001f0: aa23 7bbc 82eb 453d 7ef0 c93d 74c5 593c
00000200: 72ba d43d f7f9 29bd 7ed8 99bc 02ae 253c
00000210: ca52 c2bc 9a84 863d b732 80bd 6242 39bc
00000220: 70e1 cfbc 6bec 88bd 23dc debb d2d0 c1bd
00000230: 0225 093d 384b 82bd 1eca 04bc 2cbc adbd
00000240: 2c3f af3c 1e42 b6bc 732a 413c 0180 29bd
00000250: 081f 463d 7eac d2bb 6293 8fba ab23 dbbd
00000260: 462c cd3d 1a27 973a d5e2 c13d dbef 2d3c
00000270: ccf0 c03d 155c b03d 8275 8f3d 58b8 023e
00000280: 1fcb 88bd 36f9 bf3d 3e19 7abd b8ab c2bd
00000290: f422 023d 2ce4 98bd 11de 10bd fca2 be3d
000002a0: 320c c3bd bf17 4e3d 4c29 2fbc 9c13 e53d
000002b0: ae2a acbb 6185 2b3d a5e9 60bd d655 373d
000002c0: ef8b 42bd feeb 8dbc 1742 943d 2fa0 d4bc
000002d0: aa68 043e dc2c 103c f9c4 4e3d 307f 02be
000002e0: a970 0ebd 5cb6 353d fc05 b1bd a1e2 f93c
000002f0: 75ea 45bd 6fcb a5bd ae62 343d dd27 ab3d
00000300: f68f f03d 41a2 ea3d 4e5c d8bc abef 09be
00000310: cf0a 9cbd 960e 14bd 9e35 3bbd 75e0 85bd
00000320: 3060 08bd fabc 15bd 6501 8a3d be80 16be
00000330: aab6 58bd 049d a13d 1330 97bc cc06 c8bd
00000340: 4c38 c2bd 3637 9ebb 7813 b53d cce5 adbd
00000350: 9c91 443d 3ca6 c93c 92a1 aabd c3d7 0e3e
00000360: f02c 0d3d 908d df3b 67a8 2dbd 7a61 30bc
00000370: 637f 15be c0ef 41ba 350f 803d f6c7 383d
00000380: f6fc 983d 4941 62bd 85e3 083e 13f0 363d
00000390: 0078 d1bc f8d7 0b3e 06a5 f0bd 558d 9b3d
000003a0: 5784 bdbd ebcd a6bb 7fe0 c2bd d5b1 483d
000003b0: 365f 173d a462 423d 2f0c 77bd 3b60 953d
000003c0: 1c9b 2bbc 5dc7 c6bd d3d5 283d 54a1 77bd
000003d0: aa73 c5bd f745 ca3d 0d61 f1bd fe6a b3bc
000003e0: 8940 863d c24d 7b3c 3963 b93d 5ce6 ea3c
000003f0: 412c 333c e525 6ebc b528 c8bd d96e 3b3d
0.030406157 0.07783059 0.012415994 -0.13002133 -0.10325081 -0.015744893 -0.13748063 0.109701715
-0.09445609 0.11968674 -0.117668435 -0.0053805346 -0.00550266 -0.098274276 0.005353354 -0.12255323
0.110044435 -0.017277276 -0.10795002 0.025955394 -0.08976288 0.015621728 0.071947254 -0.05822376
-0.08084631 -0.026485618 0.0935105 0.045383207 0.087182395 0.04329174 -0.02018973 0.119715385
-0.056766205 0.09708271 0.012914503 0.01512209 0.008167811 -0.09218733 -0.10742556 0.03888707
-0.08025397 -0.06593239 0.11096672 0.09971601 0.019406125 -0.13183628 0.11964871 -0.0061721876
0.097510144 0.06676772 0.1133965 -0.07915469 0.12168297 -0.03739087 -0.02888028 0.039247423
-0.03235747 0.115693696 0.05409323 0.09747269 0.04042695 0.028548434 0.06701911 0.050471615
-0.025152484 0.036855377 0.09241439 0.003748925 -0.012715271 -0.029229533 -0.011603163 0.0022865338
0.07728376 -0.0094745075 0.11164403 -0.045739327 0.13465378 -0.08512357 -0.10614717 0.110550016
0.07309805 0.097768046 0.06165043 -0.079486296 -0.11263755 0.10482829 -0.068122566 -0.055579074
-0.0307162 0.076235875 0.08120527 -0.0971461 0.045252092 -0.117153116 0.06401664 -0.059684534
-0.0787529 -0.059771687 -0.015930638 -0.043954138 0.06252362 0.11392248 -0.01553866 -0.04843039
-0.011652627 -0.059144434 0.003887048 0.0877284 0.08297851 -0.07201504 -0.04832228 -0.06402825
0.045885094 0.028353436 0.116253324 0.08278509 -0.0323771 0.0075569944 -0.08363662 0.016442768
0.03358306 0.07229632 -0.13191871 0.098252915 -0.015328327 0.0483203 0.09860323 0.013291705
0.10387124 -0.04149815 -0.01877999 0.0101122875 -0.023721118 0.065682605 -0.06259673 -0.011307331
-0.025376052 -0.06685718 -0.0068011447 -0.094636574 0.03348256 -0.06362003 -0.008104829 -0.084831566
0.021392427 -0.022248324 0.011789906 -0.04138184 0.048369437 -0.006429254 -0.0010953958 -0.107001625
0.1001821 0.0011532039 0.09467093 0.010616268 0.09420928 0.08611313 0.07004835 0.12765634
-0.06679367 0.09373705 -0.06105923 -0.09505409 0.031771615 -0.07465395 -0.03536803 0.093084306
-0.095238104 0.050315615 -0.010690998 0.11185381 -0.0052541113 0.041875247 -0.05491032 0.044759594
-0.047496732 -0.017324444 0.07239168 -0.025955288 0.12930551 0.008799758 0.050480817 -0.1274383
-0.03477541 0.044363365 -0.086437196 0.030503573 -0.0483193 -0.080954425 0.04403942 0.08357213
0.11746208 0.11456729 -0.026411202 -0.13470332 -0.07619249 -0.036146723 -0.04570543 -0.065369524
-0.033294857 -0.036557175 0.06738547 -0.14697549 -0.052908577 0.078912765 -0.01845554 -0.097669214
-0.09483394 -0.004828359 0.08841604 -0.08491096 0.047990426 0.0246154 -0.08331598 0.13949494
0.034466684 0.0068222955 -0.04239693 -0.010765428 -0.14599375 -0.0007398091 0.062529005 0.045112573
0.074701235 -0.055238042 0.13368042 0.044662546 -0.025569916 0.13656604 -0.11750226 0.07595316
-0.092537574 -0.0050904653 -0.095154755 0.04899772 0.036956035 0.047457352 -0.060314354 0.07293745
-0.010473993 -0.09705994 0.041219544 -0.06045659 -0.09641202 0.09876626 -0.11786089 -0.021901604
0.06555278 0.015338363 0.09052128 0.028674297 0.010935844 -0.014535402 -0.09773389 0.04576001

lstm.bias_ih_l1 f4 [256]
00000000: c96e 2f3d d1e0 6ebd 4d7f f03d e12d 083e
00000010: 7aea 953c ef06 423d 823e 92bd f748 073d
00000020: cc06 c7bd 8f35 f6bc a43f 953d aa36 803d
00000030: 6baf 823b 0472 513d f862 0ebe 99a3 d83d
00000040: a275 cb3b 322c 2dbd de2c bbbd 738f a4bd
00000050: 6e4c 7fbd 90bc 0b3e 1777 65bd afb1 d13d
00000060: 3df4 063d 1b0c d53d 5547 a1bd 7658 dfbd
00000070: 4254 9ebd 5d46 813c 47df b43d 64b3 11bd
00000080: 7a0d 033e 4610 e8bc 0b48 053d 504d 00bd
00000090: 7b2b 4dbd 38ab 9e3d 56c6 3ebd 349e 1fbc
000000a0: a2e9 063e 7bfd 4abd f9ec 903d fd74 9c3d
000000b0: 24ac 353d e283 0b3e 1751 d8bd b2ef 833d
000000c0: a8d8 643d 2d8b 4dbd 96ac 0a3d bb54 213c
000000d0: 56da fc3d 9e8b 32bd 1f1e 813c cfe7 483d
000000e0: 221d 9abb 6702 cf3d 7634 073e b6ef d13d
000000f0: d097 a13c fb36 fa3d 1dc0 e83d 49de d8bd
00000100: 766c 82bd 21eb 8c3d bf82 88bc 1087 b83d
00000110: 0cac 183e 44a4 e93d 3df9 9dbc 93c6 f6bc
00000120: 324e 86bd 0020 8f3d 1116 90bb 81d6 af3a
00000130: b9e7 b3bd 7e11 733d 87bb ad3d ccae 22bc
00000140: 00ff 503d a39f 833c 31b5 d1bd 2463 1a3e
00000150: cc9a 163e 6600 9b3d 074e 12bc d918 573d
00000160: 46fd 21bd c2df df3d f770 50bc bc27 07be
00000170: a340 83bc 4f3f 97bc 760c 97bd 6289 41bd
00000180: 304f a23c 62de 133b 8a58 bbbd 5b54 533d
00000190: 3254 26bd 8057 a1bc 3f32 52bd 2782 123e
000001a0: 78a1 c93d 0a9b 863d 91a7 fb3d 803a 75bd
000001b0: 964e dd3d c0a1 b6bd 514c 923d 3b9f 703d
000001c0: 8cab 253d 0d84 a3bd 08e5 8a3d 536c 96bd
000001d0: ba17 c2bd bbf9 ce3d 4242 cf3c 562c 093d
000001e0: 9e29 5a3d 2e83 d6bd 4562 97bd 2c4e cbbc
000001f0: 485b fb3d ebf6 8fbd 9fe9 85bd 99c2 5cbd
00000200: 9641 5d3d e1bb c93c b081 843b 8eea eebd
00000210: d536 013e 8fc4 533d 46b6 b13d 71c8 543d
00000220: f3e0 fb3d 00c9 e93d 5771 11be 4046 c5bc
00000230: 6a46 0fbd 1eca dfbd 9e31 8e3b ec48 833d
00000240: 915c 653d be62 3cbc 609c c3bd 7317 bc3d
00000250: 368c 7b3d efe4 823b 6e62 a7bd 1198 f73d
00000260: 06dc ebbd f621 febd a289 b83c 0002 083c
00000270: 5212 203d d3fb 363d 9a78 ff3c 8877 0d3e
00000280: ad75 8a3d 6ec6 bdbd 043c c43d 01c7 073d
00000290: 6f60 0bbd da39 aebd 2acd bc3d 22f1 403d
000002a0: 671d 4c3d 5ce5 b5bd d7e6 913d ae6a d0bd
000002b0: bb14 84bc 008a 13be 0a00 62bd 9459 f8bd
000002c0: f260 143e 88d9 af3c 9f92 2cbd b7bb fd3d
000002d0: e9a2 48bd 21cb ef3d ab34 5bbd c27f 44bd
000002e0: 00ca 3abd 6689 b83d 3c2b 483d 6add 863d
000002f0: 3eeb 1a3d cc4d c43d 2cbb 963d ffbd 6bbd
00000300: 6c4f b2bd f28a c7bd 4362 013e ba16 dc3d
00000310: 56a0 ca3b e446 22bd 2002 eebc de12 1c3d
00000320: ef7f 913d 486c 92bd 43a4 513c b7f3 0abc
00000330: b4a7 cf3d bb37 233b 8a04 a0bd d405 03be
00000340: a40f c63d 13d5 b23d d9c1 3f3c e30e 113e
00000350: 943f b63d 2e18 28bd 5e40 bf3a 377b 913d
00000360: 0887 a63d 0433 2a3d 5ccc 673c 5df8 b23d
00000370: a309 063e 7530 b13d d25f 283d 3381 88bd
00000380: 3d59 a93c 20e1 4d3b 2c96 3b3d 129c 6cbd
00000390: 5d3f 933a dfa4 bdbd 6a13 1e3d 8f8f 0e3e
000003a0: 022e 893c eb61 c93d 2288 d23d 8c70 b73d
000003b0: a737 683d a312 93bd e3cd 6abb 37f5 943d
000003c0: 939d efbc 5ed5 263d f6d6 b73d ac31 143d
000003d0: 515c 843d e5b7 a6bd 41df 273d afa9 8a3d
000003e0: c160 8bbc 3020 ae3c 3722 fabc ff30 9fbd
000003f0: 184f cc3d 6aec 93bc 3882 d4bd 4b44 a93d
0.042830262 -0.05831987 0.11743031 0.13298751 0.018300284 0.047369894 -0.07140829 0.03302857
-0.09718093 -0.030054836 0.07287529 0.06260426 0.0039881966 0.051134124 -0.13904941 0.10578079
0.0062090913 -0.042278476 -0.09139417 -0.08035173 -0.06232875 0.1364615 -0.056021776 0.102389686
0.032947768 0.104026996 -0.07874934 -0.109055445 -0.07730915 0.015780622 0.08831649 -0.03557147
0.1279811 -0.028328072 0.03253941 -0.03132373 -0.050090294 0.07747501 -0.046575867 -0.009742308
0.13175061 -0.049558144 0.07076449 0.07639501 0.04435362 0.13624528 -0.10562342 0.06442203
0.055870682 -0.050181556 0.033855997 0.0098468615 0.12346332 -0.04359018 0.015761433 0.049049195
-0.00470318 0.1010788 0.13203606 0.10250799 0.01972571 0.12217518 0.11364768 -0.105892725
-0.063683435 0.06880785 -0.016663907 0.09010136 0.1490938 0.11408284 -0.019283885 -0.030123984
-0.06557883 0.069885254 -0.004397162 0.0013415368 -0.08784432 0.059342854 0.084830336 -0.00992937
0.051024437 0.016067332 -0.10239638 0.15076882 0.14707488 0.07568435 -0.008929736 0.05251393
-0.03954818 0.1093135 -0.012722245 -0.13198751 -0.016022032 -0.018462805 -0.073754236 -0.04725016
0.01981315 0.002256297 -0.09147747 0.05159412 -0.04060764 -0.019695044 -0.05131745 0.14307462
0.09845251 0.0657254 0.1228782 -0.059870243 0.10806005 -0.0891757 0.071434624 0.058745604
0.040446803 -0.07984171 0.067819655 -0.0734488 -0.09477182 0.10106226 0.025300149 0.033489548
0.053262345 -0.10474239 -0.0739179 -0.024817549 0.1227327 -0.07029518 -0.065387 -0.05389652
0.054017626 0.02462572 0.0040437803 -0.116658315 0.12618573 0.051701125 0.08677344 0.05194897
0.12298765 0.11415291 -0.14203392 -0.02408135 -0.03497926 -0.10927223 0.004339411 0.06410393
0.05599648 -0.011498151 -0.095513105 0.0918416 0.061413012 0.003994576 -0.08173071 0.12089551
-0.115165755 -0.12408821 0.022526566 0.008301258 0.03907997 0.044673752 0.031185437 0.13815129
0.06760726 -0.09266363 0.095817596 0.03314877 -0.034027513 -0.08507128 0.092188194 0.047104962
0.049832728 -0.088816375 0.07124107 -0.101765975 -0.016123166 -0.14408112 -0.05517582 -0.12126461
0.14490107 0.021466032 -0.042132016 0.123893194 -0.04898349 0.11708666 -0.053517025 -0.0479734
-0.0456028 0.09010582 0.048869357 0.065852 0.037822 0.09585151 0.07359919 -0.05755424
-0.08706555 -0.097432986 0.1263514 0.10746522 0.0061836643 -0.039618388 -0.029053748 0.03810393
0.071044795 -0.07149559 0.012795511 -0.008480958 0.10139409 0.0024905044 -0.07813366 -0.12795192
0.09670952 0.08732047 0.011703932 0.14165835 0.08898845 -0.041038685 0.0014591326 0.071035795
0.08131224 0.04155256 0.014147844 0.08738778 0.13089614 0.086518206 0.041107006 -0.06665268
0.020672435 0.0031414703 0.045797512 -0.057766028 0.0011234094 -0.09259962 0.038592733 0.13921951
0.016745571 0.098331295 0.102798715 0.089570135 0.0566937 -0.07181289 -0.0035828284 0.072733335
-0.029249942 0.040730827 0.089765474 0.036180183 0.064629205 -0.08140544 0.040984396 0.06770646
-0.01701391 0.021255583 -0.030533893 -0.07773017 0.099760234 -0.018057067 -0.103764 0.08264979

lstm.bias_hh_l1 f4 [256]
00000000: 9d91 313d b432 f9bd 8573 b2bd 421d 34bc
00000010: 224f 82bd 19d5 de3d 0c49 d1bc 113f cb3d
00000020: 5cb1 8ebd 9126 34bd f4a4 113e 67f9 b93c
00000030: 8cef d83d 480b 00bd 0a30 02be 18cb 60bd
00000040: ae66 fd3c 30aa e9bc 2579 6c3c 43db 183e
00000050: 8185 963d 6828 5fbd eabd 8b3d 3f07 98bd
00000060: 1d5b 0f3e d20b 1b3d c8f5 88ba 712d fd3c
00000070: 0c1b 9c3d b17a cd3d c5d8 dcbd df3d 2ebc
00000080: 52b2 243c 26be c73d 7711 c63d 3c59 c63d
00000090: 8c4a b83d 759f e3bc de44 ec3d 3f66 493d
000000a0: 1bce eebd 2c0e 25bc 4e03 23bd ad3f b93c
000000b0: 56e2 db3d 40b8 51ba 985d 433d 0361 67bd
000000c0: 52f7 913d ade1 e03c fa75 aabd e18d e93d
000000d0: 6359 573d 5b7d 163e c15a 933d b967 8e3c
000000e0: cf6e d23c 706c 4cbd eb1a f93d 46bb 3fbb
000000f0: b2de ae3d 7b8b 5d3d 66a7 093e 1e65 efbb
00000100: 9b2f 173d 483a 5cbd 5f42 8e3d ecbe 133e
00000110: 16a3 ed3d 9799 4abd 1afe 9c3d 736c a8bd
00000120: e1d0 95bc e666 b83d b04c 013e 85a7 3d3d
00000130: 459b 1b3e 5fb7 94bd b940 bcbd 8c08 933d
00000140: a833 cbbd 3d7d a9bd eb28 4abb fa96 ee3d
00000150: a0b8 f0bc 0236 1f3c edd8 883c 4446 2d3d
00000160: 3212 883d 297f 1a3e 6b9f 113d 55b6 94bb
00000170: 00d7 0d3e 4f20 673d bae6 d23d 18fd 9e3c
00000180: 7d92 463d f9bc 073e d526 173e 2840 f73c
00000190: f57d b23d 3b61 423d 8f68 d63c 5bee f83d
000001a0: fa2e efbd 94cf b7bd 9cbf 013e 3cbc 3dbd
000001b0: 804e eebd 73fa 1a3d 5251 86bd 01cd 42bc
000001c0: e0c8 e33d 47ec 87bc e09a 1ab7 43cd db3c
000001d0: 2d9d 9c3c e487 133e a23d bb3c d582 d93d
000001e0: e8d2 10bc f667 203b 7a9a 4bbd 21a2 85bd
000001f0: 7fba 753d f463 b13d 29c7 87bd 8bfe b13d
00000200: 038c b2bd a188 c53d 6bf2 5e3d 68e8 2e3d
00000210: 6d52 b43d b1a8 983d 811b 113d 97c9 55bd
00000220: 8ae6 173e d881 95bd 7739 c7bc eb76 753c
00000230: d278 d3bd e93f acbc dd1b 35bc 1bbd b73d
00000240: 880e 5fbd 5e55 0dbc 5416 e3bd 419c 073e
00000250: ccbe b4bd 1a1e 19be 52c7 cebc f77d a33d
00000260: 0e60 523a e8d7 f13c e1ec dbb9 24b2 2bbd
00000270: 6fc0 b0bd 79d8 ca3d f933 3ebb 64f4 6abd
00000280: 16f5 91bc f8a9 c7bd fc8a eb3c f286 c83d
00000290: 430b 1cbd da2f de3d b05f e0bd 2907 a4bd
000002a0: 1d5f 203d 573d 553d 0e7d b13d 9a26 c5bd
000002b0: 7f92 ddbc ede4 27bc 3937 5bbc 90e7 f9bd
000002c0: 99b6 3ebd 9f83 4d3d fed6 76bd fac6 cabb
000002d0: ad66 d9bd 6a3e 793a 61aa dcbd d95f 9e3d
000002e0: d5f2 ab3d 3430 fe3d 2194 043d 3402 09be
000002f0: 44a3 cabd d8bb 463d 5eb0 6cbd 9682 cbbd
00000300: bd81 a3bc c45a 29bd e71d 9abd f549 ec3c
00000310: bb72 63bd 9f14 dc3d 20d1 1abd 49c3 88bd
00000320: 57e4 3abc 0881 48bd 7c36 3a3d 135c ff3d
00000330: 6595 4cbd 970f d9bd 9311 c33d 4d3c 85bd
00000340: 1111 013e 9ad2 31bd cbe7 97bb f105 febc
00000350: 3100 053e d924 5c3d 5393 633d 6e42 463d
00000360: 76e1 64bd ca84 8a3c f4df d8bd 67a5 e7bd
00000370: ba2b e53c 77c1 bbbd 6ac3 263d 7703 a3bd
00000380: 8b14 e43c 8352 5f3d 0009 28bd 930d debd
00000390: bae4 38bd 4109 193d a621 c23c e0d0 0f3d
000003a0: 6343 ba3d 3e7c d4bc 5958 953d ef7b ff3c
000003b0: 9256 b0bc 5467 47bd bf9c d4bd a037 c5bb
000003c0: efa0 ad3c 7bf8 703d 8d3b b3bc ff77 053e
000003d0: 6e87 9b3d 4707 3fbd 090b 2a3d 6191 fcbd
000003e0: d2d0 b63d cfa5 cd3d 9a66 a1bd 6434 b73c
000003f0: fcfd bc3d db36 9c3d 4046 8fbd 596a b9bd
0.04335176 -0.12167874 -0.0871344 -0.010993304 -0.0636275 0.10880489 -0.025547527 0.09924138
-0.06967422 -0.043982092 0.14223081 0.022701932 0.10592565 -0.03126076 -0.12713638 -0.054881185
0.03093275 -0.028523535 0.01443318 0.14927392 0.073496826 -0.054481894 0.068233326 -0.07423257
0.139996 0.03785307 -0.0010449225 0.030905457 0.07622346 0.10033167 -0.10783533 -0.010634868
0.0100522805 0.09753065 0.096713 0.09684989 0.08998594 -0.027785996 0.11536573 0.049169775
-0.11660405 -0.01007418 -0.039798073 0.02261337 0.107365295 -0.00080001727 0.04769668 -0.056489002
0.07127251 0.02745136 -0.083232835 0.114040144 0.05257548 0.14696257 0.07195044 0.017383443
0.025687603 -0.0499081 0.12163337 -0.002925591 0.085385695 0.054088097 0.13442764 -0.0073057553
0.036910634 -0.05376652 0.06946253 0.144283 0.11603372 -0.04946288 0.076656535 -0.0822381
-0.018288078 0.09004001 0.1262691 0.046302337 0.1519595 -0.07261538 -0.09192032 0.071793646
-0.09921962 -0.082758404 -0.0030847143 0.1164989 -0.029384911 0.009717466 0.016705 0.04230334
0.066440955 0.1508757 0.035552423 -0.0045383372 0.13851547 0.056427296 0.10297914 0.019407794
0.048479546 0.13255681 0.14760907 0.03018196 0.08715431 0.047456007 0.026172904 0.12154838
-0.11678882 -0.08975139 0.1267075 -0.046322092 -0.116360664 0.037836503 -0.06558479 -0.011889697
0.11122298 -0.016592158 -9.215175e-06 0.026831275 0.019117916 0.14407307 0.022856537 0.10620657
-0.0088393465 0.0024476028 -0.049707867 -0.06525064 0.05999231 0.08661643 -0.06629784 0.08691128
-0.08718111 0.096452005 0.054430407 0.04270211 0.08804784 0.0745405 0.03542662 -0.052194204
0.14834037 -0.07300156 -0.024319394 0.014981966 -0.10325779 -0.021026568 -0.011054006 0.08971616
-0.054457217 -0.00862631 -0.11088243 0.132432 -0.08825454 -0.14952889 -0.025241528 0.0798301
0.00080251775 0.029521897 -0.00041947424 -0.041917935 -0.08630454 0.0990457 -0.0029022677 -0.057361975
-0.017817061 -0.09749216 0.028752796 0.09791364 -0.038096678 0.10848971 -0.10955751 -0.08009178
0.039153207 0.05206045 0.086664304 -0.09626503 -0.027047394 -0.010247451 -0.013379865 -0.1220237
-0.046560857 0.05017435 -0.060263626 -0.0061882706 -0.10615287 0.00095078966 -0.10774685 0.07733125
0.08395926 0.12411538 0.03236783 -0.13379747 -0.09894422 0.048518986 -0.057785384 -0.09937017
-0.019959325 -0.041346326 -0.07525235 0.02884386 -0.055529337 0.10746121 -0.037797093 -0.06677873
-0.0114069795 -0.04895118 0.045462117 0.12468734 -0.04994716 -0.10598677 0.095248364 -0.06505642
0.12604167 -0.043413736 -0.004635786 -0.031008692 0.12988354 0.05374608 0.05556042 0.048403196
-0.05587908 0.016909022 -0.10589591 -0.11310845 0.027974952 -0.0916776 0.040713705 -0.07959645
0.027841827 0.05452205 -0.041024208 -0.10842433 -0.045140006 0.03736234 0.023697685 0.035111308
0.09094884 -0.02593815 0.072922416 0.031187026 -0.021525655 -0.048682526 -0.103814594 -0.006018594
0.021194903 0.05883072 -0.021878982 0.13034056 0.075941905 -0.0466378 0.04151443 -0.12332416
0.08926548 0.10041391 -0.07880898 0.022363849 0.09228131 0.0762765 -0.06995821 -0.09053487
