api/data/models/XRP_TRY_1h_lstm.pth (torch, 211077 bytes, 10 tensors)

lstm.weight_ih_l0 f4 [256, 5]
000000 44 e0 da 3d 32 02 80 3d 6e 4c e3 3d 8b 51 6b bd
       0.106873065 0.06250419 0.11098562 -0.057450812
000010 a0 e9 e3 bb e2 eb ad 3d db 17 3a bd a1 bb 84 bd
       -0.0069553405 0.08492257 -0.045432907 -0.064811
000020 36 87 df 3d ea f6 a7 bc f2 f5 f0 3d 73 5c 21 3c
       0.10914461 -0.02050348 0.1176566 0.009848702
000030 fb 05 3e bd 69 6a 8b bd 97 ba cf bc 2c 5a 04 3e
       -0.046392422 -0.068074055 -0.025357528 0.12925023
000040 30 8f a2 bd 82 af 7f 3d 60 53 9b 3d 67 b2 c1 3c
       -0.07937467 0.062423237 0.07584262 0.02364464
000050 cf fd ae bd a5 6b 26 bd 02 62 7c 3d d2 2a dd 3d
       -0.08544504 -0.04063 0.061616905 0.10799183
000060 c8 35 04 3e 31 aa 89 bc e0 dd 4d 3d 8c 8f 98 3d
       0.12911141 -0.016804786 0.050260425 0.074492544
000070 4a 0b e4 bd 57 89 60 3d 31 b7 77 bd 45 bc 9a bd
       -0.11134966 0.054818477 -0.06047744 -0.07555441
000080 9e b9 91 3a 0b ff bd bd fd 07 52 3d 28 bc f0 3d
       0.001111794 -0.09277161 0.05127715 0.11754638
000090 57 52 8b 3d f0 1d 17 bd cf c8 22 3d 6a d9 91 bd
       0.068028145 -0.036893785 0.039742287 -0.071215466
0000a0 fa d6 b4 3c 7e 70 c7 ba 8f 01 a7 bd b4 28 c1 3d
       0.022075165 -0.001521602 -0.08154594 0.09431592
0000b0 6d 08 11 3e f5 46 d7 3d f7 88 bc 3d ee ec 4e bb
       0.1416337 0.10511581 0.092058115 -0.0031574327
0000c0 cb f6 9c bd 77 4c 08 3e ce 4b b0 bd db 06 b7 bc
       -0.076642595 0.13310419 -0.086082086 -0.022342136
0000d0 cb 76 e9 3d d6 7a 92 bd 66 70 4e bd c6 f2 d9 3d
       0.11399611 -0.07152335 -0.05040016 0.106420085
0000e0 fa 67 9a 3c ac 17 e7 3d c3 1d ca bc e8 cb 0e 3d
       0.018848408 0.11283812 -0.024672395 0.03486243
0000f0 1c ff ec 3d bb 60 a5 3d 83 4e b8 3d 34 e4 06 3e
       0.11572096 0.080750905 0.0899935 0.1317299
000100 13 67 96 bd 88 72 b6 3d 46 61 b4 3d 87 24 3a bd
       -0.073438786 0.08908564 0.08807616 -0.04544499
000110 f7 17 72 bc e8 55 ee 3d b1 be ba bc 6c fb c3 bc
       -0.0147762215 0.11637479 -0.022796007 -0.023923598
000120 3d f9 e9 3d 80 7a e8 3d b2 b2 aa 3c 1f 03 c9 bd
       0.114244916 0.1135149 0.020837162 -0.098150484
000130 a5 49 49 bd 18 ec 97 bb 60 d9 49 bd df 83 29 3d
       -0.0491425 -0.004636299 -0.04927957 0.041385528
000140 2a 63 71 3d 2e bc 77 3d 46 63 4f bd bf 2a 62 bd
       0.05893246 0.060482197 -0.050631784 -0.055216547
000150 9a d8 9a 3d 2b e5 b5 bb f3 be 95 3d 2a 77 49 3d
       0.07560845 -0.0055510006 0.07311811 0.04918591
000160 db a6 86 bd a3 98 6c 3c b2 5a d0 bd e6 14 b0 3d
       -0.06574794 0.014440688 -0.10173549 0.08597736
000170 d9 bb 89 bd d8 e9 c2 bc 96 44 78 bd 79 ef c4 3d
       -0.06725282 -0.023793146 -0.060612284 0.09615988
000180 54 0b e2 3d 77 59 01 3e d9 57 d6 3d 01 39 d2 3d
       0.11037317 0.12631784 0.10465974 0.10264779
000190 7d a1 f3 bd 7a 78 8f bd 72 5e 90 bd 24 61 29 3d
       -0.11896036 -0.07005401 -0.07049264 0.041352406
0001a0 e0 1e 5f bd 21 bf 0c bd f9 a1 8a 3d 9b a0 82 3d
       -0.054472804 -0.034361962 0.06769175 0.06378289
0001b0 92 97 ce bd a9 ad d0 bd 99 c2 08 3e e3 40 a5 bd
       -0.100875035 -0.10189373 0.13355483 -0.08069017
0001c0 bc b9 03 3e b3 ec c9 3d 0d 1c 16 3e 29 88 e1 3d
       0.12863821 0.098596 0.14659138 0.110122986
0001d0 9d 5b 0f 3e a0 82 13 3c b3 40 6c bd a7 54 ce bd
       0.13999791 0.009003311 -0.05767889 -0.1007474
0001e0 91 c3 f3 3d 4a a0 cf bc b0 5d 90 bd 9f e2 16 3e
       0.11902536 -0.025344986 -0.070491195 0.14734887
0001f0 a6 c3 13 3e 7e 47 d3 3d 29 ed b0 bc 54 a3 14 3e
       0.14430103 0.103163704 -0.021597462 0.1451543
000200 89 d1 ad bd bc 43 a7 bd eb 20 c5 39 63 5a 84 3d
       -0.08487231 -0.08167216 0.00037599294 0.064625524
000210 f9 03 9e bc c0 01 50 3d c5 f6 83 3d fb 3e f8 bc
       -0.019289004 0.05078292 0.06443552 -0.030303469
000220 ae da 68 bb 1b 70 34 3d f3 65 0d 3d 76 bd 85 bd
       -0.0035530734 0.044052225 0.034521054 -0.065302774
000230 09 4b b2 3c b7 93 4d bd be c8 11 bd 57 07 e9 3d
       0.021764295 -0.0501897 -0.035591833 0.11378353
000240 f3 49 fc bc 5d f2 98 bd 70 c0 c0 bc 0c 51 64 3c
       -0.03079698 -0.07468102 -0.023529261 0.013935339
000250 81 4d f3 3d f9 41 bc bd 53 ad 5b bd d8 39 81 bd
       0.11880017 -0.09192271 -0.05363209 -0.06309861
000260 4c 3c c7 bd 19 39 b6 bd 1f 9e 2e 3c 7f 32 58 bd
       -0.097282976 -0.08897609 0.010657816 -0.05278253
000270 5c fd b9 bd 09 00 d1 bd 5e 0b e0 3d 3f 53 41 3c
       -0.090815276 -0.10205085 0.10939668 0.011799633
000280 17 65 a8 3d cd 4d cd bc 6c e5 9e bd 5b 3f a9 3d
       0.08222406 -0.025061512 -0.077586025 0.08264037
000290 37 00 62 ba 8f 90 c6 3d 87 7c b0 bb c7 bc 7e 3d
       -0.0008621248 0.09695541 -0.0053859386 0.06219175
0002a0 ba d0 11 3e 10 12 e5 3d 20 6a a9 bd 11 e4 ad 3d
       0.14239779 0.11185086 -0.08272195 0.08490766
0002b0 30 aa 07 3e 05 2b c3 bc b2 7e dc bc 08 45 20 3d
       0.13248515 -0.023824224 -0.026915882 0.039128333
0002c0 0e ac 2a bc e5 02 25 bc 85 f2 65 bc ac 74 4f 3d
       -0.010416998 -0.010071491 -0.014034872 0.050648376
0002d0 8b 65 0d 3d 35 ee 17 3c b5 dd b0 3d ce 57 f8 3d
       0.034520667 0.009273102 0.08636037 0.121261224
0002e0 32 dc f3 3d 6d 93 81 bd 35 cd c9 bd d3 fa 0f 3e
       0.11907233 -0.06326947 -0.09853593 0.14060526
0002f0 b9 79 21 bd 84 00 5d bd 9b 48 b7 3d e3 6f ac 3d
       -0.039422724 -0.05395557 0.08949395 0.08419778
000300 5f e0 b5 bd 98 2b 3a 3d c9 fe f1 3d 7f 39 c8 bd
       -0.08880686 0.04545173 0.118161745 -0.097765915
000310 a1 98 bd 3d bf 8b f5 3d 47 67 e1 3d c7 72 bd 3d
       0.09257627 0.11989545 0.11006027 0.09250408
000320 47 03 b1 3d 12 14 3b 3d 19 e2 b8 3d 8d 4f 0c bd
       0.08643203 0.045673437 0.090275 -0.034255553
000330 d6 cc 85 bd 52 31 00 3d 5a b4 7e bc f4 54 9f bd
       -0.0653321 0.031297036 -0.015545929 -0.077798754
000340 af 8e d5 3d 7e 42 b7 bd 49 2e 21 bd 0b 67 2b 3d
       0.10427605 -0.08948229 -0.03935078 0.041846316
000350 d6 cb e2 3d f3 7d 0b 3e 0e cb ff 3b ac 90 af bd
       0.11074035 0.13622265 0.0078061884 -0.08572516
000360 44 86 2d bd 3c 64 24 bd 41 5b 8d bd 9a cd 8b bd
       -0.042364374 -0.040134653 -0.06902171 -0.06826325
000370 4a d1 b1 bd 06 8a ab 3d a9 1e 0e bd bf 14 d3 3c
       -0.08682497 0.08375935 -0.03469721 0.025766728
000380 34 9e 00 3a af 18 9f 3d a2 5f 01 3c e9 24 d7 bc
       0.00049063866 0.0776838 0.007896336 -0.026262717
000390 5c 71 e9 3d 63 31 2c 3d c9 d9 a6 bb f0 f2 c8 bd
       0.11398575 0.042039286 -0.00509188 -0.09811962
0003a0 3e 66 a5 bd c2 54 2c 3d f5 fb 67 bb 86 97 9e bd
       -0.08076142 0.04207302 -0.003539798 -0.077437446
0003b0 90 8d cb 3d 31 af 26 bc 4e 8e c4 3d e9 8a b5 bd
       0.0993911 -0.010173605 0.09597455 -0.08864386
0003c0 63 8f b4 3d aa af b1 bd 53 ed df bd 36 91 62 bc
       0.08816411 -0.086760834 -0.10933938 -0.013828566
0003d0 da 9c 0d 3c 82 38 6f bd d4 b4 0a 3d e6 17 22 bd
       0.008643353 -0.0584035 0.033863857 -0.039573573
0003e0 9f cb d7 3c c7 44 22 bc dc 3d 1d 3c ba 74 c7 bd
       0.026342211 -0.009904093 0.009597268 -0.09739061
0003f0 2c 1b ca 3d 35 e5 91 3d 5b e5 91 bc 25 7f 81 3d
       0.09868464 0.07123796 -0.01780956 0.06323079

lstm.weight_hh_l0 f4 [256, 64]
000000 a1 60 03 be 92 43 b4 bd d2 07 bc bd 4f d0 b6 bd
       -0.1282983 -0.088019505 -0.09181179 -0.089264505
000010 9d 13 0e be 1d 38 e6 3d 00 aa 86 3d 35 a2 97 3d
       -0.1387467 0.112411715 0.06575394 0.074039854
000020 f2 7c 9d 3b 9a 58 b3 3c 70 26 ee 3d 5e 2b 70 3d
       0.0048061544 0.021892834 0.11628425 0.05863511
000030 62 82 35 39 56 95 8b bd 3f d5 ad bc 65 00 9a bd
       0.00017310077 -0.06815593 -0.021219848 -0.075196065
000040 20 ca 83 3d 1f 1b 8a 3d 30 88 4b 3d e4 ab f0 bd
       0.06435037 0.06743454 0.049690425 -0.117515355
000050 59 fb 7e bd 61 aa b6 3d 2e 3e b8 3b cc e8 3b bd
       -0.062251423 0.08919216 0.005622647 -0.04587631
000060 60 d4 94 bd 79 8a 08 3d 09 31 b5 3c cb 51 78 3d
       -0.0726707 0.033335183 0.022118108 0.06062488
000070 19 0a a9 3c b8 15 b5 3c cc 06 01 3d 64 cb de 3d
       0.020634698 0.022105083 0.031500623 0.108786374
000080 41 73 b4 bc 66 c5 a2 bd 2c f1 e9 3c a6 ff 02 3e
       -0.022027614 -0.07947807 0.028557383 0.12792835
000090 5a 8b a5 3d 66 fe 87 3c 12 bd a4 bd 96 a0 a7 3d
       0.0808322 0.016600799 -0.08043875 0.08184926
0000a0 79 50 4a bd b8 55 ca bd b0 09 d6 3d 20 26 88 3d
       -0.04939315 -0.09879631 0.104510665 0.06647897
0000b0 6f e7 1e b9 31 b3 98 3d 2c ca 54 bd 44 d3 53 bd
       -0.0001515427 0.07456053 -0.05195062 -0.05171515
0000c0 1f ba 8f bd 8d 2a a2 bd 60 a3 9b bd 05 54 6a bd
       -0.07017922 -0.07918272 -0.07599521 -0.057209034
0000d0 ba db af bc 3e 79 5e bd 8b 1e 81 bd d9 99 6f 3d
       -0.021467078 -0.054314844 -0.06304654 0.05849633
0000e0 dc 4d a3 bc 45 35 c0 bd 4c e2 06 bd 04 83 46 3d
       -0.019934587 -0.0938516 -0.032930657 0.04846479
0000f0 35 35 aa bd 1f 02 2b bd 20 ba 3a bd f7 66 c2 bd
       -0.0831093 -0.04175007 -0.04558766 -0.09492295
000100 84 a4 6b 3d 13 d0 9a bd fd 81 f5 bd 52 d6 d2 bd
       0.05752994 -0.07559218 -0.11987684 -0.102947846
000110 19 49 97 3c 22 38 74 bd 09 9f ac 3d 53 cf 0e 3d
       0.018467473 -0.059623845 0.08428771 0.03486569
000120 ed a7 84 bb 19 bf df 3d bc 42 e9 3d fe fb 8a 3d
       -0.0040483386 0.10925121 0.11389682 0.06786345
000130 da f5 be bd b6 7a b8 3c d0 6a 76 bd e9 7d d9 bc
       -0.09324236 0.02251945 -0.060160458 -0.026549296
000140 5f 4a 8e bd cd e5 72 3d 67 79 cc 3d ab 57 a5 bd
       -0.06947779 0.059301186 0.09984093 -0.08073362
000150 93 fd d7 bd bf 68 b6 bd 5a 9e 94 3d a3 ac eb bd
       -0.10546412 -0.089066975 0.07256766 -0.11507537
000160 4b af 6a bd c6 a5 9a 3d 83 44 27 bd 2c ac 44 3d
       -0.05729608 0.0755115 -0.040836822 0.04801576
000170 49 14 a6 bd 9c e4 a9 3d 50 ee 6d bd b9 c1 80 bd
       -0.08109338 0.08295557 -0.0580886 -0.0628695
000180 2d 57 a7 bd dc 0a b8 3d 53 3c e3 3d af 93 39 bd
       -0.08170924 0.08986446 0.1109549 -0.045306858
000190 a6 01 0b 3d 2c 09 c6 bd ac b9 68 bd 65 cf fc bd
       0.03393712 -0.09669718 -0.056817695 -0.12344245
0001a0 95 7f 7f 3d 90 4a 77 3d 5a 61 e2 3d 2b 16 26 3b
       0.06237753 0.060373843 0.110537246 0.0025342803
0001b0 d2 48 c2 bc e5 e9 93 bd 59 8b f3 bd a5 4f ed 3d
       -0.023716364 -0.07222346 -0.11891813 0.115874566
0001c0 60 43 f3 3c d0 c7 b4 38 4f 9c 0d bd 97 a8 da 3c
       0.029695213 8.620287e-05 -0.034572896 0.026691718
0001d0 55 73 e4 bd 57 9d 6d 3c 97 84 c0 3c 6e 4c 47 3d
       -0.1115481 0.014502845 0.023500724 0.048656873
0001e0 d2 5d ff 3c c8 af b9 bd c2 be fa bd 4c c1 d0 3d
       0.031172667 -0.09066731 -0.122434154 0.101931185
0001f0 72 f3 ba 3b a8 3b cb bd 60 55 26 3c 24 09 b2 3d
       0.0057052905 -0.09923488 0.010152191 0.0869315
000200 d6 e9 0e bc 43 93 5e 3d 5a f6 0e 3d 7e eb 27 bd
       -0.008722743 0.05433966 0.034902908 -0.040996067
000210 33 e6 83 3d 6c cb b0 bd 77 3b 93 3d 64 28 1c 3d
       0.064403914 -0.0863255 0.071890764 0.038124457
000220 e7 b4 a9 3d ea b9 1c bd 91 f4 02 3e d7 ed bc 3d
       0.082864575 -0.03826324 0.12788607 0.09225052
000230 49 f0 06 3e 54 c7 12 3e 5d bf cd bd 94 9d 87 bd
       0.13177599 0.1433385 -0.10046265 -0.066218525
000240 ef 25 f3 bd 93 42 75 bd ba ce be bd e0 ff c6 bd
       -0.1187247 -0.059877943 -0.09316774 -0.09716773
000250 20 4f a9 3d 2c 66 27 bc f8 9d 60 3d d8 8e 80 bd
       0.08267045 -0.010217231 0.05483815 -0.06277245
000260 9d 4c 55 3c ff 86 c9 3d 01 88 17 bd 05 1a f9 bd
       0.013018754 0.098402016 -0.036994938 -0.12163166
000270 57 00 98 3d de 89 ed bd 44 29 b5 bd 40 22 85 bd
       0.0742194 -0.11598562 -0.088457614 -0.06500673
000280 f1 56 58 3d 42 38 98 3d 6f f0 da 3a 17 38 73 bd
       0.05281729 0.07432605 0.0016703735 -0.059379663
000290 c4 2f cb 3d 46 0d 02 be fd 0e ac bd 26 6a 2b 3d
       0.0992122 -0.12700376 -0.08401296 0.041849278
0002a0 a6 f5 a8 bd fb 59 b0 3d 0e 69 50 3c af 55 a7 3c
       -0.08249979 0.086109124 0.0127203595 0.0204266
0002b0 9d ae f2 3d ef 47 27 bc d8 16 68 bd 9e 7c eb 3d
       0.11849711 -0.010210021 -0.05666241 0.11498378
0002c0 02 2e ae 3d 8e b0 2b 3d c8 7c 3f 3c 9b ba 00 be
       0.08504869 0.041916423 0.011687465 -0.12571184
0002d0 97 71 e0 bd 31 e2 5c 3d 92 b2 f1 bd 9c 50 16 3d
       -0.109591655 0.05392665 -0.11801638 0.03669797
0002e0 e4 11 12 3d a7 ca ed 3d 71 f9 5b 3c fd 66 a6 3d
       0.035661593 0.116109185 0.013426171 0.08125112
0002f0 8a c0 bf bc 7d dc 73 bc 8d 35 4a 3d 15 bd 88 3d
       -0.02340724 -0.0148841115 0.049367476 0.066766895
000300 9a 9d ac bc c5 6f 25 3d 47 20 94 3d 3e ce fa bd
       -0.021071244 0.040389795 0.07232719 -0.12246369
000310 8e 6f 08 be d6 17 07 bc 2a e6 e7 3d f9 3d 8f bd
       -0.13323805 -0.008245429 0.11323197 -0.06994242
000320 97 51 7a bd ba af 9a bc 1c f6 bd bd 11 1f 9f 3b
       -0.061112966 -0.018882621 -0.09275457 0.0048559983
000330 09 c7 4e 3d 25 f7 f0 3d 34 98 61 3d 1a 78 8b bd
       0.050482783 0.11765889 0.055076793 -0.06810017
000340 8c 4c a6 3d a8 3f 49 bc 68 16 c5 bb 8d d7 e4 bd
       0.08120069 -0.012283243 -0.006014634 -0.111739255
000350 42 45 98 bd 71 dc 76 3d 74 24 e8 bd fb 39 d8 3d
       -0.07435085 0.060268823 -0.11335078 0.10557934
000360 70 84 23 bd 67 08 14 be 93 89 99 bd d6 3f 29 ba
       -0.039921224 -0.1445633 -0.07496943 -0.00064563507
000370 5b 30 af 3d 6f 54 9e bd 63 5f 93 3a 8f 41 61 3d
       0.08554145 -0.07730948 0.0011243637 0.054994162
000380 03 a5 22 bd ed 6b a7 3d b8 d3 2d bd cd b9 6c bd
       -0.03970815 0.08174882 -0.04243824 -0.05779438
000390 42 17 49 3d de 22 80 3c c7 8d d5 bc a0 ea e0 bd
       0.049094446 0.015641626 -0.026068581 -0.10982251
0003a0 98 8c be bd 43 17 8d 3d 38 27 08 be f8 02 bd bd
       -0.0930416 0.068892024 -0.13296211 -0.09229082
0003b0 c0 ad 0c 3e 65 1e af 3c 53 58 b5 3d 12 78 eb ba
       0.13738155 0.021376798 0.08854737 -0.0017964861
0003c0 2e 4f f6 bd bc ef 16 3d fa 88 7b 3d db a8 ad bd
       -0.12026821 0.036849722 0.061409928 -0.08479472
0003d0 a7 07 a3 3d 32 76 cf 3d 3f ac 42 bd 14 21 75 bd
       0.07960444 0.10129966 -0.047527548 -0.059846
0003e0 2e 63 51 3d 60 ff be bd a3 ee 91 bd 4c fd 12 bb
       0.051119976 -0.09326053 -0.071255945 -0.0022428809
0003f0 8b da de bd e4 f3 eb bd b3 c7 0c 3d 9f 8f 88 3c
       -0.108815275 -0.11521128 0.034370136 0.016670046

lstm.bias_ih_l0 f4 [256]
000000 8c 10 9e bb ef 6c 4b 3d 33 a7 e1 bc 61 f0 3f 3d
       -0.00482375 0.049664434 -0.027545547 0.046860103
000010 4d e9 fc 3c df a0 4e 3b 9c 29 c5 3d eb 5d 27 3b
       0.030872965 0.0031528992 0.09627077 0.0025538157
000020 7b 56 fa 3d 83 94 07 3e a7 6d 5e bd fa b4 de 3d
       0.12223526 0.13240246 -0.05430379 0.10874362
000030 71 c4 8a bd ba fb 99 3d b0 38 da 3d 46 03 15 3d
       -0.067757495 0.07518716 0.106553435 0.036380075
000040 d2 dc 15 3d f5 d8 96 3d c2 b9 4a bc 2d 55 46 bd
       0.036587544 0.073656 -0.01237339 -0.048421074
000050 9b f3 aa bd 77 7c ef bd 78 59 4b 38 3b 20 ce 3c
       -0.08347245 -0.11693662 4.8482296e-05 0.025161853
000060 10 f9 0d 3e 1a 14 8f 3d 44 e9 bc bd d0 76 0c bd
       0.13864541 0.06986256 -0.092241794 -0.034292996
000070 51 37 85 3d 60 2e d4 3d 49 25 fe 3d c0 af 8b bd
       0.065046914 0.10360408 0.12409455 -0.06820631
000080 6b 7d 98 3d 90 c3 85 bd 5b 45 a2 3d 45 13 ee 3d
       0.074457966 -0.06531441 0.07923385 0.11624769
000090 5e b7 aa bd 83 62 f3 3d 6a 41 6a bc b0 89 11 3e
       -0.08335756 0.11884024 -0.0142978225 0.1421268
0000a0 c3 16 0e bd 66 9b af bd d4 27 ff 3b c4 4d 93 bc
       -0.034689676 -0.08574562 0.0077867303 -0.017981417
0000b0 c4 04 28 3c 8f fb a9 bc 8e 1b 93 3d 55 d5 be bd
       0.010255042 -0.020749835 0.0718299 -0.093180336
0000c0 24 40 07 bd 9a 66 f8 3b 4e 69 40 bd 1e 9e 19 3d
       -0.033020154 0.0075805904 -0.046975426 0.037504308
0000d0 9f 20 58 bd 8d f7 02 bd 32 ca 06 bd ed dd ac bd
       -0.052765485 -0.031974364 -0.032907672 -0.084407665
0000e0 fc b9 be 3d 3a 8f 0a 3e 0e 4d db 3d 05 c8 9f 3c
       0.093128175 0.13531199 0.107080564 0.019504556
0000f0 41 1d 87 3a 4a 61 10 3d 74 2c 0d 3e 5b d0 b1 bc
       0.0010308401 0.035249032 0.13786489 -0.021705797
000100 ca dc 86 bc fe 19 a4 3d 6a 27 10 3e 81 2d d5 3d
       -0.016462702 0.0801277 0.14077535 0.1040907
000110 e8 0c ef 3d 36 b8 37 3b 91 f0 78 bd 7b 43 be bd
       0.116723835 0.0028033382 -0.060776297 -0.09290215
000120 f1 59 a2 bd b3 fa 9b bd 16 fd 8b 3d fd eb 14 3e
       -0.07927311 -0.076161765 0.06835382 0.14543147
000130 35 7e c9 bd ab 0e bc 3d 66 fc 3e 3d 75 22 8b bd
       -0.09838525 0.09182485 0.046627425 -0.067936815
000140 51 ec 95 bd 53 05 df bb 40 0c 49 bd b4 f1 07 3e
       -0.073204644 -0.0068060546 -0.049083948 0.13275796
000150 dc b8 67 bd 19 a3 c9 3d c8 b1 01 3e b3 13 0d 3e
       -0.05657278 0.098455615 0.12665474 0.13777046
000160 09 ca b6 bd 93 04 05 3e ee cb 5e bd cc ec 57 3b
       -0.08925254 0.12990026 -0.0543937 0.0032947538
000170 15 b0 3a 3d a6 b3 95 bd ac 1f a7 bd ce cb 99 3c
       0.04557808 -0.07309656 -0.08160338 0.01877394
000180 11 39 75 3d df 9b 67 3d 83 dc b7 3d ad af 87 3d
       0.059868876 0.056545135 0.08977606 0.06625304
000190 40 42 e1 bd c0 f5 75 3c d4 bb 12 bd f9 e8 eb 3d
       -0.10998964 0.015012205 -0.035823658 0.115190454
0001a0 cc db 19 3e 44 8e aa 3c ed 1a ff bc 12 58 57 3d
       0.15025252 0.02081979 -0.031140769 0.052574225
0001b0 dc a9 cc bc 8c a8 61 3d cd bf d2 3d 5b 5c a8 3d
       -0.024983339 0.05509238 0.10290489 0.082207404
0001c0 7d e0 d0 3d 64 7e 7c 3d db fc b3 bd c4 45 f7 3d
       0.10199068 0.061643973 -0.08788463 0.120738536
0001d0 03 00 9c bd 08 3f cc 3d cd ba 93 bd 5a ec 62 bb
       -0.0761719 0.0997296 -0.07213364 -0.003462574
0001e0 2b b5 94 bd 29 43 f7 3d 2d 7f 1c bd f4 ab 70 3d
       -0.072611175 0.12073357 -0.03820722 0.058757737
0001f0 f5 db 24 3d 30 a1 94 bd db f6 04 bd f7 07 a7 3d
       0.04024883 -0.072573066 -0.032461982 0.08155816
000200 8b 9b d7 bd 56 70 3f 3d 04 2c af bd de fe 4f bd
       -0.10527714 0.04673799 -0.08553317 -0.05078017
000210 dd 82 df bd 56 84 cc 3d 0e 27 e7 bc 34 b9 b0 3d
       -0.10913632 0.099861786 -0.028216865 0.08629075
000220 a6 b7 b9 bc de 9d 3f 3c e5 8b 0f 3e c9 bf 79 bc
       -0.022670578 0.011695353 0.1401821 -0.015243479
000230 f2 6b b5 bd 2d 9e 54 3d 8b 13 cc bd 2d cd 4e 3d
       -0.088584796 0.05190866 -0.09964665 0.05048864
000240 71 78 e1 bd 5b d0 41 bd ec d3 ff 3d 94 32 ef bd
       -0.110093005 -0.047317844 0.12491593 -0.11679569
000250 c4 eb 19 bc 6f 94 9a 3d ce 7c 09 be 69 e7 90 3d
       -0.00939459 0.07547843 -0.13426515 0.07075388
000260 0a 5f d1 bd 28 af 9f bd 63 12 93 3d b1 6c 1a be
       -0.102232054 -0.0779708 0.07181241 -0.15080525
000270 90 a1 47 bd 3a 6a bf bd 4d 1b dc 3d fa 69 09 3e
       -0.048738062 -0.09346433 0.10747395 0.13419333
000280 c4 76 e1 3d 7e 73 04 3e 98 f2 f2 bd 14 7a c7 3c
       0.11008981 0.12934682 -0.11862677 0.024350204
000290 d2 8a ef 3b 49 f9 19 bc cd d3 79 bd e3 f7 03 be
       0.00731025 -0.009397813 -0.060993005 -0.1288753
0002a0 b4 dd 6c bc f2 7a f7 bd 0b cf a2 3d a7 1f a2 bd
       -0.014457155 -0.12083997 0.079496466 -0.079161935
0002b0 53 5e 41 3b e9 f9 22 3d 62 2b 4e bd 36 a2 ba 3d
       0.0029505685 0.039789114 -0.05033434 0.091129705
0002c0 fa 45 38 bd 78 1f 8c 3d dc b8 ef bc b4 37 fb bc
       -0.04498861 0.0684194 -0.029262953 -0.03066621
0002d0 29 18 92 bd e3 41 a0 3d 08 07 c7 bd fb 53 ee bd
       -0.071335144 0.07825067 -0.09718138 -0.11637112
0002e0 9e 9f b5 bd 0f ac bc 3d b7 c7 fb bd 07 be 09 be
       -0.08868335 0.09212505 -0.12293952 -0.13451396
0002f0 13 b3 82 b9 0e e0 6f bd eb 08 20 3d e1 fe cd bc
       -0.00024928953 -0.058563285 0.039071005 -0.02514595
000300 0d 14 ed 3d a9 3f 00 3e 96 cb cd 3d 80 8c 82 bd
       0.1157609 0.12524284 0.100485966 -0.063744545
000310 3e 7b 5a 3d 56 9d 49 3c 97 f5 0c 3e a0 34 de 3d
       0.05334019 0.012305578 0.1376556 0.10849881
000320 ec 53 ba bd 98 f1 cf ba 45 9c de 3d e5 55 41 bc
       -0.09098038 -0.0015864847 0.1086965 -0.011800264
000330 8c df ea 3d 5f 4e 23 bd 4b ba f6 3d 83 67 cb 3d
       0.114684194 -0.039869662 0.12047251 0.09931853
000340 2d 70 0d 3d 1c e7 d7 3b 23 35 cd bd ea 15 88 3d
       0.034530807 0.0065888297 -0.10019901 0.06644805
000350 cc 64 c1 3d 54 3e 91 bd 07 c6 7d 3c a7 b4 08 3e
       0.094430536 -0.07091966 0.015489108 0.13350163
000360 68 05 a8 3d 44 db 0a bd cd a1 41 3d 1e c5 0b 3e
       0.08204156 -0.033900514 0.047273446 0.13649413
000370 ec 7a e4 3d 89 dc 67 bd e5 b9 ae 3c 58 f2 bc 3d
       0.11156258 -0.056606803 0.021328876 0.09225911
000380 04 89 99 bd 9a cc 66 bd 51 78 24 3c f8 32 93 bd
       -0.07496837 -0.056347467 0.010038451 -0.07187456
000390 4a f8 dd bd 75 6d a3 bd e5 9c 40 3c c8 a7 08 3d
       -0.10838373 -0.07979862 0.011756157 0.033363134
0003a0 db 37 e0 3d e9 c4 a9 bc cc 99 58 3d d6 d0 4a bc
       0.109481536 -0.020723777 0.052881047 -0.012378892
0003b0 c5 95 40 bc 6f 2c 71 3d db 8a d6 3d 06 f5 22 bd
       -0.011754458 0.058880266 0.10475703 -0.039784454
0003c0 5c a3 d0 3d 99 d5 84 bd 8e ed 7e bd 3a 39 b8 3d
       0.10187408 -0.06486053 -0.06223827 0.0899529
0003d0 7f 27 16 3e a6 32 a1 3d c7 67 be 3d 32 b9 63 bd
       0.14663504 0.078709885 0.09297138 -0.055596538
0003e0 7f 39 55 bd d3 94 ff bc 11 46 07 bb 80 e7 e2 3d
       -0.052056786 -0.031198895 -0.0020641128 0.11079311
0003f0 f5 87 b3 3d 7f c2 a1 3d 49 df 05 3e 6a 45 bc 3d
       0.08766166 0.07898425 0.13073458 0.09192927

lstm.bias_hh_l0 f4 [256]
000000 f0 bc ef 3d 0b 54 4d 3d 14 20 cc 3c dd d9 c0 bd
       0.11705959 0.050128978 0.02491764 -0.09416554
000010 64 c6 50 bd 75 8e 7f bd 90 26 d2 3d 2a 32 19 3e
       -0.05097045 -0.062391717 0.102612615 0.14960542
000020 1a 01 c8 3c b8 54 7d bd c6 bc 11 3e d2 3c e1 3d
       0.024414588 -0.061848372 0.14232168 0.10997929
000030 73 f8 35 bd 0b 1f 5c 3d 1c a2 8e bc fb dd 1b bd
       -0.044426393 0.053740542 -0.017411284 -0.038053494
000040 cd a4 56 bd bd 45 78 3d 52 50 b7 3d d2 20 05 3d
       -0.05240326 0.060613383 0.08950867 0.032502003
000050 1a ac 84 bd 07 92 b8 3d cc dd 17 3d 8f e1 95 bc
       -0.06478138 0.090122275 0.037076756 -0.018296031
000060 84 04 59 bb b8 4c 0c 3e 1c af a3 bd 2e 17 99 3d
       -0.0033114264 0.13701141 -0.07992384 0.07475124
000070 30 6d cf 3d 92 cc a6 bc 17 2e a6 bd 00 ce 1d 3c
       0.10128248 -0.020361219 -0.0811426 0.009631634
000080 e1 1f 71 bc 1d 03 3e 3d ac 30 46 3d 58 5a 9e 38
       -0.014717073 0.046389688 0.04838626 7.550855e-05
000090 20 03 eb 3d 8c ac 7b 3d ec 4d 86 bd 1c 87 74 3d
       0.114752054 0.06144385 -0.06557831 0.059699163
0000a0 30 9d 11 3e 94 f0 4d bd cd 3c 05 3e 22 f5 24 bc
       0.14220119 -0.05027826 0.13011475 -0.01006821
0000b0 a6 4b 19 3d 72 30 51 3d 4c bc 93 bd 59 fc 0e 3e
       0.03742566 0.05107159 -0.07213649 0.1396345
0000c0 af cf 3d 3c 41 9d c3 3c 89 c0 db 3c 94 43 84 3d
       0.01158516 0.023878695 0.026825206 0.06458202
0000d0 8c 47 6f bd aa f2 a4 3b 64 aa 83 3c 9c 28 9d 3d
       -0.05841784 0.0050338106 0.01607246 0.07673761
0000e0 73 e3 68 bb 76 1c 9e bd 02 7c bb bd 85 b9 98 3c
       -0.003553596 -0.07720272 -0.09154512 0.01864315
0000f0 64 56 e2 bc 34 4d be 3d f4 6b 44 3c 7f 1c 67 bd
       -0.027629085 0.09292069 0.011988629 -0.05642366
000100 2d de 89 bd df 4b dd 3c cb 4c 54 3d a5 04 e0 bc
       -0.0673183 0.027013717 0.051831048 -0.027345965
000110 69 af e8 bc 22 53 49 bc 31 ae 16 bd c9 6f a4 3d
       -0.028403955 -0.012287887 -0.036787216 0.08029134
000120 e5 e2 94 3d 95 19 bb 3d dc 25 2f bc d2 45 14 3e
       0.07269839 0.09135739 -0.010690179 0.1447976
000130 6f 48 c3 3d 1d 8f bb 3d 4c ec b4 3d 87 52 ba 3d
       0.095353 0.09158156 0.088341326 0.09097772
000140 2e cf 09 3d de f8 4f 3c 53 ee 7f bb b2 90 3a 3d
       0.033644848 0.012693612 -0.0039051964 0.04554815
000150 d2 e8 a2 bd f1 e8 b5 bb 1d 9d 8e bc 93 ff 8d bd
       -0.07954563 -0.0055514504 -0.017408902 -0.069335125
000160 99 c0 98 bd be 82 76 3c 02 7e 40 3d f0 a3 87 3d
       -0.0745861 0.01504582 0.04699517 0.066230655
000170 b6 2b c7 3c a3 96 91 3d bb 62 d5 bc ad ca 09 3e
       0.024312835 0.0710881 -0.026048055 0.13456221
000180 04 0b 10 3e c5 1c c0 3d dd 48 4a 3b 93 88 97 3b
       0.14066702 0.09380487 0.0030866184 0.004624435
000190 2b 24 af 3d 87 ae 2c bd ce a2 77 bd 57 fd ea 3d
       0.0855182 -0.04215863 -0.060457997 0.11474102
0001a0 0d a2 0d 3e 18 0d be 3d 5d 39 11 3d 5b 76 d5 3c
       0.13831349 0.09279841 0.035455097 0.026057413
0001b0 54 9b 63 bd 5f 3c f6 3d d3 6d cc bd 1f f1 b4 3d
       -0.055568054 0.120232336 -0.09981885 0.08835053
0001c0 ad 92 98 bd 14 15 b7 bd 5d fe 80 bd f4 0b d3 bd
       -0.07449851 -0.08939567 -0.06298516 -0.10305014
0001d0 55 28 8b bd f6 ab 99 3d a9 94 b3 bd d8 cc 06 3e
       -0.06794802 0.07503502 -0.08768589 0.13164079
0001e0 d3 bf 42 bd e9 4e 92 3b 33 4f d7 3c 29 24 43 3d
       -0.04754622 0.004464973 0.026282882 0.047641907
0001f0 51 ee 71 bd 0a dc bb 3d 4e 97 4c 3c 30 3f cb bb
       -0.059065167 0.091728285 0.012487246 -0.006202601
000200 a3 82 c3 bc f1 f7 61 bd d1 e9 a4 bd 47 7d 92 3d
       -0.023866003 -0.055168096 -0.080524094 0.07152801
000210 46 2d 76 bd e3 1a f0 3c 8e 26 0c 3e 68 45 9e bb
       -0.06010177 0.029309696 0.13686582 -0.004830051
000220 80 6e 39 3d be 68 d9 3c 68 fe 8e bd 8c 09 c4 bd
       0.045271397 0.026539203 -0.06982118 -0.095721334
000230 c2 c7 d0 3d a2 16 ae bd 15 8e d8 3c f3 93 b5 bc
       0.10194351 -0.085004106 0.026434937 -0.022165274
000240 33 a8 bf 3d eb a6 5f 3d 02 6b e1 bd 3c 18 d5 bd
       0.09358253 0.054602545 -0.11006738 -0.10405013
000250 29 fa d8 bd e6 9b 5c 3d 52 60 ea bd cb 46 9a 3d
       -0.10594589 0.053859614 -0.11444153 0.07533034
000260 19 5e 17 be cc 95 8f bc eb f9 a4 bd 42 47 03 be
       -0.14781989 -0.017527483 -0.080554806 -0.12820151
000270 62 c8 dc 3d 0c 98 97 3d f7 91 df 3d 51 0d 98 bd
       0.107804075 0.074020475 0.109165125 -0.07424415
000280 fa 4b 3c 3d 09 5f c1 3d a7 af 8a bd 20 57 4b 3d
       0.045970894 0.09441955 -0.06771784 0.049643636
000290 b0 3b 07 3e a0 e7 23 bd dc 11 ba 3d 26 03 0f be
       0.13206363 -0.040015817 0.09085438 -0.13966045
0002a0 0b 12 f0 3d 8c 4f f5 bd c3 d4 be bd 15 45 ef 3d
       0.117221914 -0.11978063 -0.09317925 0.11683098
0002b0 cb a4 8d 3c cf 60 8c bc ca 27 9f 3d ee d9 83 3d
       0.017290493 -0.017136006 0.07771261 0.06438051
0002c0 cc 8a 8d bd 94 f5 0d 3d c7 f1 1c 3d e0 50 a8 bd
       -0.06911239 0.03465803 0.038316514 -0.08218551
0002d0 19 e9 8f bd fa ab d7 3c 8a 02 ee bd 3f 03 0c bb
       -0.07026882 0.026327122 -0.11621578 -0.002136424
0002e0 39 cb 97 3d 57 c2 fd 3d 9c 22 4b bd 25 13 bf bd
       0.074118085 0.12390583 -0.049593553 -0.093298234
0002f0 a1 f5 e5 bd 2f b9 ef bc 51 f7 61 bd f8 99 da bc
       -0.112284906 -0.029263107 -0.0551675 -0.026684746
000300 5d 46 a7 bd 3a af 57 3d de 26 98 bd a0 ea 6b 3d
       -0.081677176 0.052657343 -0.07429288 0.057596803
000310 b0 b7 98 bd b4 ed 08 be cb 9c 07 3e 8c be bf bd
       -0.074569106 -0.13371927 0.13243406 -0.09362516
000320 0c f5 8f 3d 0f fc 01 3e b7 e5 fc 3d 4c df bd 3d
       0.07029161 0.12693809 0.12348502 0.09271106
000330 71 49 a3 bc 72 38 ab 3d 42 d9 89 3c a7 02 b2 bc
       -0.01993248 0.083603755 0.01682723 -0.02172978
000340 cb d3 0b bd 4a 87 3b bd 43 88 d7 3d a5 d1 8e bd
       -0.03413753 -0.04578332 0.10524037 -0.0697358
000350 9c 04 bc 3d 8c 29 61 bd 5f 86 26 3d 28 ac be 3b
       0.09180567 -0.054971263 0.04065549 0.0058188625
000360 56 cc bf 3d 02 76 0a 3e 05 a7 6f bd 4a 4b 09 3e
       0.09365146 0.13521579 -0.05850889 0.13407627
000370 c4 61 cc bd 41 39 0b 3c 6a ec 5a 3c 6d 63 0d 3e
       -0.09979585 0.008497537 0.01336203 0.13807459
000380 a4 05 a4 bd 24 dc 90 bd 5a 3b 64 3d d1 eb 8c 3d
       -0.08008888 -0.070732385 0.055720665 0.06880916
000390 de 57 fa bc fc 8a 17 3e 8a 14 7d 3d ca 66 95 3d
       -0.030559476 0.14799112 0.061787166 0.07294996
0003a0 45 96 b2 3d 36 d5 d9 3d 82 cf 0f 3a b1 66 61 3d
       0.08720068 0.1063637 0.0005485938 0.055029575
0003b0 50 43 ea bc e7 32 c8 3d 17 41 d3 3d 2f 14 83 bd
       -0.02859655 0.09775334 0.10315149 -0.06400334
0003c0 de f2 e4 bd da 5c bc bc 1d da c2 bd 13 ba cf bc
       -0.11179136 -0.022993494 -0.09514258 -0.025357282
0003d0 94 77 44 bd 2f 39 39 bc 43 ce 22 3d b7 3c ec 3d
       -0.0479656 -0.011305138 0.039747488 0.11535018
0003e0 37 9d e3 3d 2c 7b e7 3d 67 07 ad 3d 7f 4f 7c bd
       0.11113971 0.1130279 0.084486775 -0.06159925
0003f0 56 98 19 bd d7 dc 23 3d da 6a 4b 3d e9 d9 8b 3c
       -0.037498794 0.04000553 0.04966245 0.017071681

lstm.weight_ih_l1 f4 [256, 64]
000000 6e 73 8e 3d a6 83 d3 bd e7 68 88 bc d2 43 3d 3d
       0.0695561 -0.10327844 -0.016651584 0.046207257
000010 28 7e f8 bd 81 25 c3 ba ca 63 96 bb 60 2a 0e 3d
       -0.121334374 -0.0014888496 -0.0045895325 0.03470838
000020 11 dd 85 3d b1 be 72 3d c9 21 16 3d 1b 68 2a bd
       0.06536306 0.05926389 0.036653314 -0.04160319
000030 7e 67 b3 bd 91 69 8b 3d 31 30 f9 bc ae 91 d5 3c
       -0.08759974 0.068072446 -0.030418487 0.026070442
000040 ea 4a 10 be 09 6b 02 3d 28 40 9e bd 73 ee b5 3d
       -0.14091077 0.031840358 -0.077270806 0.08883371
000050 7f 26 51 bc d2 51 a8 3d e6 21 0f be a2 16 29 3c
       -0.012765526 0.08218731 -0.13977775 0.0103203375
000060 d6 cc a9 bb 5f 28 f8 bd ee 53 6c bd 8a 3b f9 3c
       -0.005181889 -0.12117075 -0.05769723 0.030423898
000070 6f 45 60 3d 7b d4 a4 3d 6c 71 04 3e 10 f4 06 3e
       0.054753717 0.0804834 0.12933892 0.1317904
000080 06 44 71 3c 79 18 ab bd 6a 8f 59 3d 29 2b a3 3d
       0.014725691 -0.08354277 0.053115286 0.079672165
000090 d0 64 7b bd 3d ca 9a 3d 50 85 ef 3d 51 eb 85 3d
       -0.06137544 0.07558105 0.11695349 0.06539024
0000a0 f3 08 82 bd ac c5 b6 3d 78 84 a8 3d 6a df bb 3d
       -0.06349363 0.08924422 0.082283914 0.09173472
0000b0 49 fe bb bd 6e aa 8e 3c c3 dd ef bd 50 e5 96 bd
       -0.091793604 0.017415252 -0.117122196 -0.07367957
0000c0 40 66 cc 3d 55 de fd 3d 2f 74 fc 3d 56 01 0c be
       0.0998044 0.12395922 0.12326848 -0.13672385
0000d0 43 5a cb 3d 60 d7 35 3d 3b 38 f1 bd bf 8d 6b 3d
       0.099293254 0.04439485 -0.11778303 0.057508226
0000e0 4d 25 f8 3d 15 32 e4 3d 2a 09 f7 bc 11 d5 5e ba
       0.121164896 0.11142365 -0.030155737 -0.00085003773
0000f0 43 9b 15 be 7a bf 17 be c6 ea 41 bd 76 86 6b bd
       -0.14610009 -0.14819136 -0.047343038 -0.05750128
000100 dd e5 84 3d c7 86 ce 3c 19 e7 f5 bd 54 70 a1 bd
       0.064891554 0.025210751 -0.12006969 -0.07882753
000110 9f 31 a1 3a c8 95 3c 3d 03 0e c9 bd ff c2 72 3d
       0.0012298113 0.04604128 -0.09817126 0.059267994
000120 da 9a 17 bd 22 5e 9f 3d 4a 50 b1 bd 14 f7 06 bd
       -0.037012912 0.07781626 -0.08657892 -0.032950476
000130 31 dd d9 3c 0f 44 97 bd f6 43 8b 3d a7 3a 9b 3d
       0.02659473 -0.07386028 0.06800072 0.075795464
000140 99 fc 40 bb 18 3e b3 3d bc 15 9d 3d 6a 23 05 bd
       -0.0029447435 0.08752078 0.07670161 -0.032504477
000150 0d 61 d3 bc c6 19 c5 bd e8 cf c4 3d ea a5 7e bd
       -0.025803113 -0.096240565 0.096099675 -0.062169947
000160 4f 7f ff bd c3 1c 48 3d 66 27 ab 3d 7f 10 40 bd
       -0.12475454 0.048855554 0.08357124 -0.046890732
000170 3c 95 bf 3a c0 03 23 bc af 9c 3e bd c5 ca 8a 3d
       0.0014616619 -0.009949625 -0.046536144 0.067769565
000180 f4 be 9c bd 37 23 9d bd e7 7f ed bd de 18 2a bd
       -0.07653609 -0.07672732 -0.11596661 -0.04152762
000190 71 8e ab 3d 55 27 8d bd 5e 75 4a ba a2 65 08 bd
       0.08376778 -0.068922676 -0.00077231776 -0.03330005
0001a0 ae b5 c8 bc 57 92 ac 3d 67 3c c9 bc 6c ce 8b bd
       -0.024500694 0.084263496 -0.024564935 -0.06826481
0001b0 ee 97 44 bd 00 c9 f9 3d 70 51 8f 3d 36 6a bc 3d
       -0.047996454 0.12196541 0.06997955 0.09199946
0001c0 88 cf 98 bc 5e 2f 80 bc 59 db ac bd 20 06 12 bc
       -0.018653646 -0.015647586 -0.08440275 -0.008912593
0001d0 2e 80 64 3d 01 28 36 ba dc e0 32 bd 2f 41 a5 3d
       0.055786304 -0.000694871 -0.043671474 0.080690734
0001e0 c3 f3 70 3b 69 6d c4 3d bb c5 86 3d 66 ce 20 bc
       0.0036766387 0.09591181 0.06580683 -0.009814834
0001f0 26 84 b3 bd a5 3b cb bd f8 53 3e 3d 36 b2 a2 3d
       -0.0876544 -0.09923486 0.046466798 0.07944147
000200 5d e7 fd 3d b2 0a d3 3d d2 86 a7 bd 5d 65 21 bd
       0.12397645 0.10304774 -0.08180012 -0.03940331
000210 e6 a3 0d 3e 59 c1 e5 bd 17 6e 9a 3d 15 83 86 3d
       0.13832054 -0.11218519 0.07540529 0.06567971
000220 77 54 15 be 4a e7 14 be ab cd 65 bb a1 37 96 bc
       -0.14583002 -0.14541355 -0.0035065215 -0.018337073
000230 6e 2a 3c bd 2e 45 e7 bc fa 44 ae 3c 7e ef 54 bd
       -0.0459389 -0.02823123 0.021273125 -0.05198621
000240 57 8f 2f 3d 8f b8 de 3c d4 88 3f 3d 6d db 96 bd
       0.04286131 0.027187614 0.04676135 -0.07366071
000250 db fa 5d 3c fc 22 b9 3c 38 fe 53 bd 8a da 9c 3c
       0.013548578 0.02259969 -0.051756114 0.019147176
000260 42 a2 9a 3d 78 36 b8 3c 93 8e df 3d 3e 6b 13 3e
       0.075504795 0.02248691 0.10915866 0.14396378
000270 60 f4 ab 3d 1e 4f bc 3b 8a 37 13 3c 4e a2 f3 bd
       0.0839622 0.005746736 0.0089854095 -0.118961915
000280 05 1a 3a bd 0e 4f 82 bc 83 8e 07 3e 47 8a b6 bb
       -0.04543497 -0.015906837 0.13237958 -0.005570683
000290 c2 0b 99 3d 36 dc e3 3d fc 03 ec bd 8c 32 85 bd
       0.07472946 0.11125986 -0.115241975 -0.06503782
0002a0 a2 67 d9 bd 1a fd bf bd e1 79 0d 3b df c6 5f bd
       -0.106154695 -0.09374447 0.0021587538 -0.054633018
0002b0 6d 26 a3 3c ed 46 0f bc 34 17 96 bd 4c bd da bd
       0.019915784 -0.008744937 -0.073286444 -0.10680637
0002c0 14 ba 49 3d 30 95 81 3d 9b 65 d6 bd 71 67 37 3d
       0.049249724 0.063272834 -0.104685985 0.044776384
0002d0 a2 21 ee 3c 28 1a 05 bd 0f 4a 47 bc ad b2 22 bd
       0.029068772 -0.032495648 -0.012163653 -0.03972118
0002e0 ef 19 7b bc 51 5d 23 3d f6 67 54 3b bc 6c b7 bc
       -0.015326007 0.039883915 0.0032410598 -0.022390716
0002f0 f4 d1 be 3d ec 56 12 3d 22 a8 cb bc 8e ac 2d 3d
       0.09317389 0.035727426 -0.024860445 0.04240089
000300 d5 39 05 3d e6 3f 0d 3d df 18 04 be 7c 09 dc bd
       0.032525856 0.034484766 -0.12900113 -0.107439965
000310 13 0f 98 3d 6c 0a a4 3c 0d 3e 3a 3d 99 ef b9 3d
       0.0742475 0.0200245 0.045469332 0.09078903
000320 20 16 01 3e ac bc b2 bd 4d d0 1a bd 74 48 49 bc
       0.12606096 -0.087273926 -0.037796307 -0.012285341
000330 d9 64 32 3d ed de ef 3d 59 67 da bd b5 05 cd 3d
       0.043553207 0.117124416 -0.10664243 0.10010854
000340 03 bf f4 bd a3 e3 92 bd 0b 0b 5f 3c 41 ad a4 3d
       -0.11950495 -0.071723245 0.013613473 0.08040858
000350 39 9c b0 bd 72 de ff 3d 8d c4 33 3d 72 c4 07 3d
       -0.08623547 0.124936 0.043888617 0.03314633
000360 ed a3 b2 bd de e5 c0 3c 21 00 77 3d 86 de 16 be
       -0.087226726 0.02354711 0.060302857 -0.14733323
000370 05 8f 87 bd 3b 52 53 bd 89 7e 03 3d 84 49 16 3e
       -0.06619076 -0.051592093 0.032103095 0.14676481
000380 07 30 25 3d ce 57 04 3d 44 ac 81 3d c0 3f 41 bd
       0.040329006 0.0323103 0.06331685 -0.047179937
000390 c9 bf 00 3e 35 e2 ea bd 89 25 19 3e 39 e8 b2 3d
       0.1257316 -0.11468927 0.14955725 0.08735699
0003a0 c6 89 b4 3d 7c 3b 91 bd 0a ec 27 3d a0 ce 80 3d
       0.08815341 -0.07091424 0.04099659 0.062894106
0003b0 e1 2f 1e 3c c1 90 ba bd 5a 17 07 be db e4 9f 3d
       0.00965497 -0.09109641 -0.13192502 0.078073226
0003c0 04 4c 5d bd 38 fd 8d 3d 72 a1 19 3d 18 74 3e bc
       -0.054027572 0.06933063 0.037507482 -0.011624359
0003d0 f9 10 62 3d 42 71 84 bd d2 f6 12 be e9 17 39 3d
       0.055191968 -0.06466915 -0.14351967 0.045188818
0003e0 6a 97 ad 3b 4c 04 27 bc 31 fc ee bb c7 06 99 bd
       0.005297591 -0.010193896 -0.007293247 -0.07471996
0003f0 31 7b 01 be a2 61 6f bd 94 ac 11 3d 6e d4 a8 3d
       -0.1264465 -0.05844272 0.035564974 0.08243643

lstm.weight_hh_l1 f4 [256, 64]
000000 14 40 b1 bd 59 38 b7 bc 37 6c ee 3c 73 86 4e bd
       -0.086548 -0.022365736 0.029104335 -0.05042119
000010 fb 03 46 3d 39 ca 02 3e c0 c4 5f 3d 03 02 da 3d
       0.04834364 0.12772454 0.054630995 0.10644915
000020 c5 c3 bb bd e0 ef 77 3c 6c 99 db bd e4 b2 5f 3b
       -0.091681994 0.015132874 -0.10722622 0.0034133727
000030 96 1b 54 bd 0e 71 da bd 01 f8 87 3d 87 76 9e 3b
       -0.05178412 -0.10666095 0.066391 0.004835907
000040 90 9d ab 3d 1f 41 a8 3d f2 c5 5c 3d 39 2a 9c bd
       0.08379662 0.08215546 0.053899713 -0.07625241
000050 16 da 40 bc f6 fd aa bc 48 6e 0a 3e b4 11 9c 3d
       -0.011770746 -0.020873051 0.13518631 0.07620564
000060 7b 1f da bd 87 6f 12 3c 86 ee 59 bc c7 b3 12 3e
       -0.10650536 0.008937723 -0.013301497 0.14326392
000070 d6 6a 2a bd f8 b1 e8 bb 19 04 7d 3d 2a d8 d6 bc
       -0.041605793 -0.0071012937 0.061771486 -0.026226122
000080 7f 25 7a 3d 12 df 7a 3d 52 99 1a bc 08 90 07 be
       0.061070915 0.061247893 -0.0094359685 -0.13238537
000090 06 0a 27 bd a6 b2 92 bd 91 45 a3 bd 2d 58 ca bd
       -0.040781043 -0.07162981 -0.07972253 -0.098800994
0000a0 4a 7b b4 bd b9 32 39 3c 69 23 8c 3d 0a 33 88 3d
       -0.08812578 0.011303597 0.068426915 0.0665036
0000b0 2a 03 84 3d b1 83 81 bc 30 51 90 3d 39 3c ff bd
       0.06445916 -0.015809866 0.07046735 -0.124626584
0000c0 cf 73 e8 bd 89 18 ba 3d 6b 33 6d bd 1c 0a a1 3d
       -0.11350214 0.09086711 -0.057910364 0.07863256
0000d0 28 a8 46 bd f1 ce 95 bd 51 72 ca 3d 72 4a c9 bd
       -0.04850021 -0.073148616 0.098850854 -0.098286524
0000e0 89 7f 03 3e 56 5e bc bc 8c 53 40 bd 3a 04 79 3d
       0.1284162 -0.022994202 -0.046954677 0.060795046
0000f0 13 5f f6 bd b0 e1 95 3d 66 53 91 bd 03 64 e1 3d
       -0.12029853 0.07318437 -0.07095985 0.11005404
000100 88 9a 27 bd 91 12 05 be c0 de dc bc af f6 bc 3c
       -0.040918857 -0.12995364 -0.026961684 0.023066847
000110 8f 24 84 3d 01 bd a8 3d 81 0f c1 bd 99 27 22 bd
       0.064522855 0.08239175 -0.09426785 -0.039588545
000120 8a 7b b9 3b ae d8 5b 3c 35 09 e4 bd dc 59 fd bc
       0.005660479 0.01341836 -0.111345686 -0.030926637
000130 22 5b 9a 3d 2a 9a fa bc a9 42 ad bd 18 3a 46 bd
       0.075369135 -0.03059109 -0.0845998 -0.048395246
000140 29 a4 86 bb 24 b8 ab bc 5d bb c8 3c de c1 e2 3c
       -0.004108925 -0.020961829 0.024503404 0.027680334
000150 76 ce 11 be ce 3a 34 3c 22 53 92 3d 78 04 02 bc
       -0.14238915 0.011000348 0.071447626 -0.007935636
000160 62 e1 8f bd b7 e7 fa 3d 2f b9 ba 3d 0c d2 d3 bb
       -0.0702541 0.12251227 0.09117352 -0.0064642485
000170 fa 6b 01 3e b6 ad be 3d 44 52 91 3d dc 01 00 3e
       0.12638846 0.093104765 0.07095769 0.1250071
000180 c5 57 18 be fd 27 70 3c 11 57 49 bd 7a 01 b3 3d
       -0.14877231 0.014657971 -0.0491553 0.08740516
000190 1b 0c c7 bd 91 e7 d2 bd ca 5c 00 3e 36 40 c4 bd
       -0.09719106 -0.10298074 0.12535396 -0.0958256
0001a0 32 a9 f8 3c 24 1c ed bd 65 76 8a 3d 61 71 66 3d
       0.030354116 -0.11577633 0.06760863 0.05626047
0001b0 5b 07 aa bd df be 92 bd ea 37 0d bd df b2 59 bd
       -0.08302184 -0.07165312 -0.034477152 -0.0531491
0001c0 33 99 bb bc 77 89 e4 bd 1f f8 a1 3d 3d 08 83 3c
       -0.0229002 -0.11159032 0.079086535 0.01599514
0001d0 cd 09 2b 3c d0 d4 74 bc 49 f3 59 3d 64 4a b1 bc
       0.010439348 -0.014943317 0.05321053 -0.021641918
0001e0 c0 9d 05 3e 6d 86 8b bd e4 03 93 bc d3 be 92 bd
       0.13048458 -0.06812749 -0.017946191 -0.07165303
0001f0 a6 b1 5c bd 3a 75 3d 3d 89 25 a5 bd 97 8d 9a bd
       -0.053880356 0.046254374 -0.080638 -0.07546537
000200 e9 ec cf 3d e3 07 c6 3d 8d 0b 9c bd 65 e3 cb bd
       0.10152609 0.09669473 -0.07619391 -0.099554814
000210 a1 60 72 3d 97 0a 01 be 1f 32 97 3d aa 65 eb 3a
       0.059174184 -0.12601696 0.07382607 0.0017959375
000220 10 bb 42 3d 4c 6f 8e 3d b9 01 0a 3e 8a 2a f2 bc
       0.047541678 0.06954822 0.1347722 -0.0295613
000230 cc b4 c1 bd b4 13 43 3d d3 9b bb bd d5 f8 0e bd
       -0.094583124 0.047626212 -0.091605805 -0.034905273
000240 a3 2f 05 bd 6d 50 f6 3d 4d b3 38 bd 22 88 b5 3b
       -0.032516133 0.12027059 -0.04509287 0.00553991
000250 f9 e9 a2 bd 97 07 b1 bd e2 75 d7 3b e4 f4 05 3e
       -0.07954783 -0.08644026 0.006575332 0.130817
000260 1a 15 18 bd 93 85 11 3d c6 5e 81 bc 13 1a 04 be
       -0.0371295 0.035527777 -0.015792262 -0.12900572
000270 21 e5 0c 3d 45 06 c6 3c 63 c0 56 bd 93 0d 6d bd
       0.0343982 0.024172911 -0.052429568 -0.057874274
000280 44 d1 b3 3d 4c cc 34 bc 64 78 14 3d 5b 2f 3f bb
       0.087801486 -0.011035036 0.036247626 -0.0029172513
000290 88 a4 4c 3d 30 39 26 bc c4 c3 a7 3c 8a 50 52 bd
       0.049961597 -0.0101454705 0.02047909 -0.05134634
0002a0 1f 06 78 3d 1c 57 cf bd 63 ab 96 3a 45 ba cb 3b
       0.060552713 -0.10124037 0.0011495169 0.0062172734
0002b0 13 a2 9b 3d 4b fc e9 3d 62 02 b9 3c 78 4e 53 39
       0.075992726 0.11425074 0.022584144 0.0002015176
0002c0 72 12 ed bc f4 fd 8c 3d 3d a4 16 bd fd a5 a3 bc
       -0.02893946 0.06884375 -0.036777724 -0.01997661
0002d0 81 f6 b3 3d 3a 1d 96 bd 2c 8c d5 3d 99 be ec bd
       0.08787251 -0.07329793 0.10427126 -0.11559791
0002e0 6c 43 08 be 20 10 3e 3d 4d bd 38 3d d4 fc 8a bd
       -0.1330697 0.046402097 0.045102406 -0.067865044
0002f0 0e c9 95 3d bc ce 8a bd 33 30 13 bd 43 85 8d bd
       0.07313739 -0.06777713 -0.03593464 -0.06910183
000300 a8 be 10 3e d3 96 c9 bd 85 c3 c9 3d 73 a8 0e 3d
       0.1413523 -0.098432206 0.098517455 0.034828614
000310 db a9 41 3d 07 97 d0 3d 3b cd 1f bd 57 f0 e5 3d
       0.047281127 0.10185056 -0.039014082 0.11227482
000320 ed 28 66 bb 12 1a 7e bd 43 f4 a4 3d 9c 37 d7 bd
       -0.0035119609 -0.06203658 0.08054402 -0.105086535
000330 34 13 04 3d cb f6 02 3e 5e ea 32 3c 39 73 d8 3d
       0.032244876 0.12789457 0.010920135 0.10568852
000340 d0 3a 0a bd 09 8a fd bd 50 dc 24 bc 9c 79 f0 3a
       -0.033747494 -0.12379844 -0.010062292 0.0018346789
000350 88 69 81 bd 58 d1 3a bd ef 5c 10 3e 09 f9 f1 bd
       -0.063189566 -0.045609802 0.14097951 -0.11815078
000360 7d 67 8c bd 63 96 9e 3c 6d 73 85 3b 73 d9 a3 bd
       -0.06855676 0.01935882 0.0040725977 -0.080004595
000370 6f 71 91 3d 85 bf a8 3d 74 dc 00 be 6d fe 67 3d
       0.07101714 0.082396545 -0.12584096 0.056639124
000380 3d 7c 2d 3d 71 45 cc bd 1e c4 84 bd 2e a6 01 3c
       0.04235481 -0.099741824 -0.06482719 0.0079131555
000390 58 e8 54 bd 5d 28 b8 bd 6a fb 29 3d a3 30 7a 3d
       -0.051979393 -0.08992074 0.041499533 0.06108154
0003a0 1a 4e db bc 5f b9 37 3d 0e 98 ac bc c5 01 b9 3c
       -0.02677064 0.044854518 -0.0210686 0.022583852
0003b0 9c b8 98 3d 62 f8 98 bd 6c af 80 bd ca 20 d5 bd
       0.074570864 -0.0746925 -0.06283459 -0.10406645
0003c0 7d 56 22 bd a0 bc 59 bb 6e 60 83 3b 7d bf c9 3d
       -0.039633263 -0.0033224002 0.004009298 0.098509766
0003d0 8c 3c 45 bd 4d b2 49 bd f9 1c 3d bd da 53 84 bc
       -0.048153445 -0.049242307 -0.04617021 -0.016153265
0003e0 e3 6d 9f 3d 8c 45 d0 bd bd 2e b0 3c 89 40 ea bd
       0.07784631 -0.10169515 0.021506662 -0.1143809
0003f0 b3 c4 41 3c 42 5a 2c 3d 48 f0 13 be 06 d3 d3 bb
       0.011826682 0.042078264 -0.14447129 -0.006464365

lstm.bias_ih_l1 f4 [256]
000000 1e 37 00 3d 5d d3 c5 3d e4 29 38 3d 87 23 08 bd
       0.031302564 0.09659455 0.044961825 -0.033237007
000010 2a ab 03 bb 31 9f e1 3d e2 55 a1 bc 8e 81 99 bd
       -0.0020091035 0.110166915 -0.019694272 -0.07495414
000020 b7 08 10 3d d6 d4 d7 3d 24 9d de 3d 3b e0 c2 bd
       0.03516456 0.10538642 0.10869816 -0.09515425
000030 9c 99 20 bd fd b4 f7 bc 84 2a a4 3d eb a8 a3 3d
       -0.039208993 -0.03023767 0.08015922 0.07991203
000040 05 9a f2 3c 02 7e a6 bd 09 05 ba 3d 3f ca 4c bd
       0.029614458 -0.08129503 0.09082992 -0.049997564
000050 b4 97 07 3e 5b 9b cf 3d 98 a6 30 3d 2d ca 02 3e
       0.13241464 0.101370536 0.043127626 0.12772436
000060 42 5b bd bd 52 40 d6 3d 19 7f 94 3d e0 17 7a bd
       -0.09245922 0.10461487 0.072508045 -0.061057925
000070 89 0a dd 3c fa 34 99 bd de af 9f bd 8b 41 46 bc
       0.026982563 -0.074808076 -0.07797216 -0.012100588
000080 fd 2a 87 bd 13 e4 ac bc ba 32 0a bd 29 54 80 3d
       -0.06599996 -0.021104848 -0.033739783 0.06266052
000090 3d 25 8c 3b de 12 38 3d 2d d5 4b bd 52 af 5b bd
       0.0042769 0.04493987 -0.049763847 -0.053633995
0000a0 ef 57 b2 bd 10 5f 76 3d 08 29 04 3e 34 6c 62 bd
       -0.08708178 0.060149252 0.12906277 -0.05527897
0000b0 d3 2e 31 3d 50 93 8b ba 00 34 8a 3c 49 6d 96 bc
       0.043257546 -0.0010648761 0.016870499 -0.018362658
0000c0 c5 b5 db 3d ae a1 66 3d 18 00 80 3d 86 f6 90 3d
       0.10728029 0.056306534 0.06250018 0.070782706
0000d0 61 76 94 bd 1b 0d a3 bd f8 6c 20 3d 76 ee a3 3d
       -0.072491415 -0.07961484 0.03916642 0.08004467
0000e0 b4 24 61 3c 52 ce 49 bd 5c 84 fe 3d e0 f6 00 3e
       0.013741661 -0.049269028 0.12427589 0.12594175
0000f0 54 61 54 3d b2 2c af bd 8f d3 d0 bd d8 50 c1 bd
       0.05185063 -0.08553447 -0.101966016 -0.09439248
000100 c6 1d f1 bc 72 28 9a 3d 45 a9 c3 3c 27 4b 0a bd
       -0.029433142 0.075272456 0.023884425 -0.033763077
000110 6d 60 10 bc 7c be 00 bc 95 9b 98 3d 14 20 63 3d
       -0.008812052 -0.007857915 0.0745155 0.055450514
000120 42 0a fa 3d e0 9e ae bd e4 58 8d 3c 2d 03 ca bd
       0.12208988 -0.08526397 0.0172543 -0.09863887
000130 ce c2 0d bc f3 ba 84 bc 38 11 aa bd 4e 2a 6b bd
       -0.008652402 -0.016202426 -0.083040655 -0.05741339
000140 65 f4 d4 3d 33 e7 11 3c 64 97 83 3d 9e 0d 8b bd
       0.10398177 0.00890522 0.0642536 -0.06789707
000150 54 eb 90 bd 89 4f b3 3c 82 44 b8 bd ab 50 bf 3d
       -0.07076135 0.021888511 -0.08997442 0.09341558
000160 73 bb cd 3d 07 80 45 3d 5e 58 22 3d 9a 9f a3 3d
       0.10045519 0.0482178 0.039635055 0.07989426
000170 47 af 7b bd 2c d6 b3 bd 6a bc ea 3c 93 4e b3 3d
       -0.061446454 -0.087810844 0.028654296 0.08755221
000180 62 68 8e bc 12 05 88 bd 89 0d c8 3d a9 1f 99 3d
       -0.017383758 -0.06641592 0.097682066 0.07476742
000190 50 e1 d3 3d 94 62 ce 3d ca 4a 45 bd be 50 a8 bd
       0.10345709 0.10077396 -0.048167028 -0.08218525
0001a0 2d 6d d3 3d c8 3b cc 3c 68 8b e7 3d 58 bc ff bc
       0.10323558 0.02493085 0.113058865 -0.031217739
0001b0 c7 fd ef bc c5 f6 19 3e 26 3b 72 3d 4d 96 8f bd
       -0.029295815 0.15035541 0.05913844 -0.070110895
0001c0 e5 14 91 3d 2b ae 73 3d 3e ff 19 3c 55 be f3 3d
       0.070840634 0.05949227 0.009399233 0.11901537
0001d0 a5 5e 4e bc 21 aa 80 bd 55 47 94 3b 8b a3 2b bd
       -0.012595807 -0.062824495 0.004525105 -0.041904014
0001e0 9e 09 a8 3d 90 f7 cd bd bd 55 8a bd 5d ee 88 3d
       0.08204959 -0.100569844 -0.067546345 0.06686089
0001f0 13 9c e5 bc 34 76 00 bd f3 4b 9a bd e6 01 da bd
       -0.028028524 -0.031362727 -0.075340174 -0.10644893
000200 31 12 82 3d bc 5d 82 3d 74 d5 c9 bd cc 47 0e 3e
       0.06351126 0.06365535 -0.09855166 0.13894576
000210 c1 84 22 bd b1 56 57 bd 6e 89 21 bd 85 bf af 3d
       -0.039677385 -0.05257291 -0.039437704 0.08581451
000220 6a a5 84 bd 0e dd 14 ba 22 55 e7 bc 98 bf 07 3d
       -0.06476863 -0.00056786917 -0.028238837 0.033141702
000230 75 e7 16 3e 10 5e 91 bd a9 31 09 3e cf bf 12 3e
       0.14736731 -0.07098019 0.1339785 0.14330982
000240 8f 28 19 bd 5c 19 bc bd 3b 6c a5 3d ba e8 ee bd
       -0.037392195 -0.091845244 0.08077284 -0.11665483
000250 32 60 c4 bd de 7f 92 3d e6 da 73 3d bc 03 22 bd
       -0.0958866 0.07153295 0.05953493 -0.039554343
000260 1b 09 02 be 6e e5 cb 3b 0c ce 62 3d 6c b9 24 3c
       -0.12698786 0.0062224185 0.055372283 0.010053974
000270 2a 82 d7 3c 85 99 47 bd c4 c1 d9 bd 9e 31 84 3d
       0.026307184 -0.048730392 -0.10632661 0.06454776
000280 0e 82 a1 bc 1a e0 62 b9 36 52 83 3d 16 84 ff bd
       -0.019715335 -0.00021636524 0.06412165 -0.12476365
000290 94 51 3f bc 7c 7d a5 bd f4 45 32 bd 47 01 0f be
       -0.011677165 -0.08080575 -0.043523744 -0.13965331
0002a0 39 f2 d3 bd 59 9d b7 bd ed 6a 93 3d c8 4d 71 bd
       -0.10348935 -0.089655586 0.07198129 -0.05891207
0002b0 9f 13 fb bc ba e3 0a be 8a 06 a1 3d 0e bc 4a 3d
       -0.030649005 -0.13563433 0.07862575 0.04949575
0002c0 1d cb cf bd ef 39 35 3d da dc c1 bc 68 e4 d5 bd
       -0.10146163 0.044244703 -0.02366488 -0.10443956
0002d0 99 8c 94 bd 79 ad d1 bd 4e 75 a7 bd 24 6a 8d 3c
       -0.072533794 -0.102381654 -0.08176671 0.017262526
0002e0 b6 73 d4 3c 3d a8 41 3b 4f c1 e7 3d 35 aa aa bb
       0.025934082 0.002954974 0.113161676 -0.0052082785
0002f0 d1 a2 0a 3c e2 30 ea 3c e7 04 77 bd 86 07 bf bd
       0.00846167 0.028587762 -0.06030741 -0.09327607
000300 16 04 c1 bd fd af 51 3d 1e ee fa bd 1d b1 c3 bd
       -0.094246075 0.051193226 -0.122524485 -0.09555266
000310 c2 65 01 3d e0 a8 0b 3e 4e 92 38 3d 05 f2 a9 bd
       0.031591184 0.1363864 0.045061402 -0.08298115
000320 87 e7 5f 3d 6d a5 85 3d 7e 7a 09 3e 1c db e3 bd
       0.05466416 0.06525693 0.13425633 -0.11125776
000330 35 25 a0 3d 00 bd 7f bd 6c bd 08 bd e4 8c 6c bd
       0.07819597 -0.062436104 -0.03338377 -0.05775155
000340 0b 67 f0 3c 90 97 9e 3c 0e db 40 ba c2 7c 01 3e
       0.02934601 0.01935938 -0.00073568604 0.12645248
000350 b7 c8 2d 3d 4e 92 d2 bb 0d b8 81 3d 64 66 09 3d
       0.042427745 -0.0064261323 0.06333933 0.033544913
000360 52 04 0c 3e 4e 81 83 3d a9 a1 e3 3d 17 3b 64 3d
       0.13673523 0.06421147 0.111148186 0.055720415
000370 40 de c1 3d 71 04 88 3c 55 f8 83 bb 46 0e 8c bd
       0.09466219 0.01660368 -0.004027406 -0.0683866
000380 a4 89 92 3d 06 86 03 3e 7f 2c 7e bd 7c ec c2 3d
       0.07155159 0.12844095 -0.062054154 0.09517762
000390 13 ad 37 bd 91 b8 b0 bd 63 d3 e8 bc ad 34 86 bd
       -0.04484279 -0.08628953 -0.02842111 -0.06553016
0003a0 68 b4 6f 3d 27 f6 b9 3c 81 6b ef bc 11 2e 48 3c
       0.05852166 0.022700382 -0.029226067 0.012218014
0003b0 0f 87 65 bd 94 78 dd 3d 47 a8 ca 3d 68 1b ac 3c
       -0.056037005 0.10814014 0.098953776 0.021009162
0003c0 5f 3b 96 3d 49 fa 05 3e a0 16 89 3d 45 1e c0 bb
       0.07335543 0.13083757 0.066937685 -0.0058629834
0003d0 ff 92 3d bd 29 3e b1 3c 49 71 9a bc d4 df 86 bd
       -0.046282765 0.021636086 -0.018852847 -0.065856606
0003e0 26 42 a9 3d b4 a1 c7 3d ee b1 c9 3c 5f 2a 00 3e
       0.0826457 0.09747639 0.024620976 0.12516163
0003f0 db ad 53 ba 0e 0f 7e bc 4b 7f 07 bd 5f 26 76 bc
       -0.0008074918 -0.015506519 -0.03308038 -0.015023797
