api/data/models/XRP_USDT_1h_lstm.pth (torch, 211349 bytes, 9 tensors)

lstm.weight_ih_l0 f4 [256, 6]
0.08435389 -0.15952572 0.13762453 -0.11195404 -0.09224217 0.003152844 0.06782646 -0.0796338
0.16377255 0.049825884 -0.04287256 0.017539442 -0.015862942 -0.020564698 -0.112899445 0.16513297
0.016064826 0.10467069 0.03340192 0.006483108 -0.0022077034 0.024857957 -0.09857474 0.059185028
-0.05896862 -0.1388841 0.12406388 -0.06652324 -0.017318701 -0.035555787 -0.046423513 0.09630557
0.048654176 -0.10073386 -0.033376407 -0.07558497 -0.0789916 -0.04263676 0.017250884 -0.057008475
0.06560538 0.12928018 -0.07406902 0.030862266 -0.08164988 0.069573626 -0.13050298 0.079022065
0.06494754 0.06447391 0.012382835 0.08886703 0.13898915 0.09634916 -0.1183731 -0.029540434
-0.03820347 -0.058564287 -0.035010036 -0.03631747 -0.06356297 -0.032938767 -0.016786473 -0.123497345
-0.05495804 -0.004691498 0.12565897 -0.052516438 -0.022185095 -0.054102477 0.059723873 -0.061137393
-0.082008 0.14009261 -0.1626894 -0.1022066 -0.058494132 0.092828214 0.03820974 -0.0307968
0.022718444 0.09214355 0.011974988 -0.033278164 0.10021529 0.1273949 0.018655632 0.18416601
0.12099789 0.19812912 0.13049367 0.09854366 0.1900261 0.15635589 -0.02073823 0.13588704
-0.12643178 0.11695124 0.047435872 0.02875737 -0.0022310552 0.14250658 0.013244853 -0.19395769
0.06573612 -0.008567219 0.083707824 -0.10465542 0.0025349515 -0.003577454 0.13096096 0.13764425
0.14647388 0.033743106 0.017300649 -0.00042438984 0.06878309 -0.09729218 -0.02951651 -0.038136702
0.116841495 -0.14948773 0.15888287 0.05138958 -0.04486457 0.00049062446 0.054643117 0.156646
-0.04524253 0.08160993 0.032650284 -0.014894403 0.12756917 -0.045194652 0.09617146 0.026913498
-0.11030844 0.13726342 0.028153751 -0.022397343 0.039091427 -0.07876076 0.048648328 -0.10076825
-0.020512458 0.079569764 -0.14320156 -0.037699003 -0.03968693 -0.016817957 0.019533755 -0.13864489
0.17705463 0.19960049 -0.0036493125 0.17550111 0.026809504 0.034932945 -0.015161607 -0.055821378
-0.04416189 0.05021256 0.074066386 0.16251425 -0.010074108 -0.016260853 0.058233716 -0.035787255
-0.024006391 0.050143782 0.00887464 0.123896845 -0.0038673708 0.15103371 -0.08262434 0.17992194
-0.09276627 -0.04317437 -0.07521238 0.07344348 -0.041371353 -0.11087718 0.1402358 0.085598536
0.097779356 -0.0039138272 0.1216114 -0.0908955 0.045365117 0.067097805 0.10645544 -0.090722725
-0.07835038 0.009767446 -0.014070099 0.0042622406 -0.044198908 0.0866021 0.10244527 0.016086766
-0.08430385 0.00044168602 0.035497088 0.1112033 -0.1314027 -0.023246536 -0.007746056 -0.08916087
0.081825115 0.061657213 0.14462757 -0.03407728 0.045148168 0.03932816 0.12917009 0.021489954
0.12253057 -0.07099548 -0.03379119 -0.021876795 -0.038912456 -0.017439103 -0.0067833383 -0.019047653
0.009776124 0.03264048 0.042346314 -0.0051353495 -0.092641994 0.076658964 0.01199644 0.048995387
0.0609089 0.1812606 0.04487104 -0.07573413 0.07474389 -0.07428108 -0.0065285824 -0.088652775
0.113795705 -0.043113124 -0.005842781 0.15513879 -0.026825793 0.15033504 0.13861698 -0.094167076
0.14071551 -0.098201774 0.13620059 0.07259016 -0.045055352 0.026925607 0.097278535 -0.01301007
00000000: bbc1 ac3d b65a 23be 72ed 0c3e 2948 e5bd
00000010: 76e9 bcbd f29f 4e3b 99e8 8a3d 0c17 a3bd
00000020: feb3 273e 3a16 4c3d 239b 2fbd e0ae 8f3c
00000030: 00f3 81bc 4c77 a8bc d337 e7bd 9e18 293e
00000040: 629a 833c 965d d63d 74d0 083d 4070 d43b
00000050: 1eaf 10bb eaa2 cb3c 8ee1 c9bd 006c 723d
00000060: 1489 71bd a237 0ebe 3415 fe3d 563d 88bd
00000070: f3df 8dbc f2a2 11bd 9526 3ebd db3b c53d
00000080: 9a49 473d 8e4d cebd b3b5 08bd 4bcc 9abd
00000090: 59c6 a1bd e2a3 2ebd ba51 8d3c b881 69bd
000000a0: 1d5c 863d 0662 043e 80b1 97bd ddd2 fc3c
000000b0: 0d38 a7bd 9e7c 8e3d 93a2 05be 52d6 a13d
000000c0: 3703 853d e60a 843d 60e1 4a3c ebff b53d
000000d0: 2c53 0e3e b552 c53d 996d f2bd c8fe f1bc
000000e0: 3e7b 1cbd 1be1 6fbd af66 0fbd a1c1 14bd
000000f0: 4d2d 82bd cdea 06bd c983 89bc 2dec fcbd
00000100: af1b 61bd 23bb 99bb bfac 003e 7a1b 57bd
00000110: 84bd b5bc 8f9a 5dbd 05a1 743d 346b 7abd
00000120: cff3 a7bd 7074 0f3e 0d98 26be b251 d1bd
00000130: 8b97 6fbd b81c be3d d181 1c3d 9249 fcbc
00000140: 081c ba3c c2b5 bc3d bd32 443c af4e 08bd
00000150: ad3d cd3d cf73 023e b2d3 983c 0496 3c3e
00000160: becd f73d 5ce2 4a3e 22a0 053e 42d1 c93d
00000170: 3496 423e c21b 203e 38e3 a9bc f925 0b3e
00000180: 5577 01be 2284 ef3d 1e4c 423d 9394 eb3c
00000190: e536 12bb 3fed 113e f100 593c d89c 46be
000001a0: a9a0 863d 855d 0cbc 026f ab3d 9555 d6bd
000001b0: 6e21 263b b873 6abb a11a 063e 9df2 0c3e
000001c0: 40fd 153e 3636 0a3d 17ba 8d3c a480 deb9
000001d0: 26de 8c3d 1f41 c7bd 9ccc f1bc 3b35 1cbd
000001e0: 984a ef3d 5013 19be 31b2 223e e17d 523d
000001f0: e9c3 37bd 409d 003a 76d1 5f3d cf67 203e
00000200: 3b50 39bd 1b23 a73d 4ebc 053d a707 74bc
00000210: 7ea1 023e 071e 39bd 8bf5 c43d b279 dc3c
00000220: 64e9 e1bd c88e 0c3e b2a2 e63c a27a b7bc
00000230: 551e 203d 524d a1bd 7843 473d 965f cebd
00000240: be09 a8bc 79f5 a23d 6ea3 12be 456a 1abd
00000250: c38e 22bd d0c5 89bc 4105 a03c edf8 0dbe
00000260: cf4d 353e 1264 4c3e 4e29 6fbb 90b6 333e
00000270: 9b9f db3c d915 0f3d 6468 78bc f5a4 64bd
00000280: 19e3 34bd afab 4d3d 1eb0 973d 236a 263e
00000290: df0d 25bc 7b35 85bc 7a86 6e3d a895 12bd
000002a0: 0da9 c4bc 9163 4d3d f066 113c a1bd fd3d
000002b0: b773 7dbb 95a8 1a3e f336 a9bd 753d 383e
000002c0: 3efc bdbd 9cd7 30bd f308 9abd 8969 963d
000002d0: 0275 29bd 9313 e3bd f999 0f3e 494e af3d
000002e0: 8b40 c83d 903f 80bb 660f f93d 6b27 babd
000002f0: c6d0 393d 936a 893d 4f05 da3d d6cc b9bd
00000300: 2a76 a0bd a307 203c 4686 66bc 44aa 8b3b
00000310: ea09 35bd 715c b13d d3ce d13d 65c8 833c
00000320: 7fa7 acbd 1892 e739 6565 113d 8ebe e33d
00000330: 6e8e 06be 856f bebc a1d2 fdbb f999 b6bd
00000340: ed93 a73d 468c 7c3d 4019 143e 9e94 0bbd
00000350: 49ed 383d 9116 213d 2a45 043e b30b b03c
00000360: 4ff1 fa3d 1466 91bd a168 0abd f736 b3bc
00000370: ab62 1fbd 73dc 8ebc c446 debb d309 9cbc
00000380: 092c 203c 06b2 053d 5473 2d3d 6f46 a8bb
00000390: 16bb bdbd 60ff 9c3d b78c 443c 63af 483d
000003a0: 9c7b 793d 619c 393e b2ca 373d 7f1a 9bbd
000003b0: 5313 993d ae20 98bd b8ed d5bb 968f b5bd
000003c0: b90d e93d 6397 30bd cd74 bfbb b4dc 1e3e
000003d0: c4c1 dbbc 6ef1 193e 9cf1 0d3e abda c0bd
000003e0: ba17 103e 031e c9bd 2b78 0b3e 26aa 943d
000003f0: f68b 38bd 1793 dc3c f839 c73d 3028 55bc

lstm.weight_hh_l0 f4 [256, 64]
0.07388012 0.041003633 -0.028705966 0.10670121 -0.027683498 0.009509917 -0.10851227 -0.058652382
0.03449231 0.07078731 -0.11498261 -0.026590073 0.054665174 -0.0128526995 0.017972847 -0.056897443
-0.08432784 -0.04933356 0.013635556 -0.15420344 0.024460739 0.059849106 -0.08711898 -0.06585762
0.046439264 -0.11017679 -0.10748272 -0.1001331 0.12135281 0.053754434 0.01836699 0.1373944
-0.013056194 0.038927764 0.027313452 0.00063346996 -0.058080066 -0.08698756 -0.06734181 0.082891926
-0.006377729 0.03001244 0.024799302 -0.10167128 0.021074843 0.095624276 -0.07407255 0.14647025
-0.010683101 -0.05193243 0.046118367 0.097176 -0.086517274 -0.06298215 -0.111368716 -0.065362215
0.087005824 0.10579553 -0.13085344 0.0904115 -0.015328646 -0.03130841 -0.028462777 -0.103313856
0.10525818 0.20381263 -0.04490018 0.032714758 0.013674141 0.075776674 0.14870442 0.06700443
0.0051626796 -0.08555127 -0.0016690628 0.014852198 0.18128188 -0.0643204 -0.08081322 0.0048373444
-0.0071248943 0.17172213 0.14301234 0.08821339 -0.058498636 -0.004743774 0.06314988 0.007845126
0.032270443 -0.06198399 -0.016001869 -0.07418912 0.124397226 0.047136903 -0.092869125 0.111550376
-0.057673953 0.14539139 0.07942464 0.12315735 0.004552583 0.09955759 -0.13988295 0.13156831
-0.11550581 -0.12616909 -0.16172677 -0.01912915 -0.08897614 -0.0049326536 0.035334174 0.053107575
-0.10703509 0.11520222 0.0021429677 0.11274074 0.15619177 0.06365014 -0.10793734 0.01562945
0.20150642 0.035873637 -0.059856016 0.07977165 -0.017111639 -0.04550434 -0.09108129 0.081477866
-0.05882316 -0.018477997 0.03612958 0.022046313 0.15273523 -0.0451257 0.14903663 0.16665219
-0.10906203 0.007877742 0.08598253 -0.019227995 0.04915123 -0.09442273 0.05097447 0.011243964
0.13922451 0.04841145 0.06608253 0.14962424 -0.098925486 0.15765673 -0.096891925 -0.102419436
0.15174189 0.0360693 0.08005434 -0.18439649 0.057164818 -0.12509769 -0.021796158 0.12162226
0.056898724 -0.0054767267 -0.0046444284 0.07793322 -0.0021480096 0.075991206 -0.047569513 0.09551284
-0.0271153 0.044766482 0.06819285 0.13826472 -0.036999404 0.18149164 -0.019613484 0.039964538
-0.04437285 0.0068557584 0.14127491 0.04973861 -0.030368816 0.14604701 -0.033479527 0.011286418
0.0950387 0.05759202 -0.11478424 0.11436625 0.052164454 -0.032234024 -0.11481646 0.09615087
-0.08063317 -0.09735368 0.0993991 -0.040714536 0.04831535 0.087985255 -0.076693475 0.11057526
-0.00014742973 -0.08319819 0.03700775 -0.015970267 0.0012194675 -0.030641017 0.050766367 0.1174769
0.07685608 0.09562136 0.09310299 0.043104086 -0.02950904 0.051698703 0.07348271 -0.1206867
0.06464903 -0.06402069 -0.025234506 -0.065199524 0.12214287 -0.008293301 -0.0038052115 0.09570605
-0.048817575 0.12829185 0.11594992 0.009418711 0.076456 0.10250289 -0.06762252 0.050201613
0.11474716 0.044549428 0.093514 -0.013676122 -0.089531325 0.10831547 0.06836125 -0.098878875
-0.06843588 0.085593045 0.06962296 -0.090923004 -0.06530144 -0.02395855 0.12035993 0.018601026
-0.002180636 0.11432992 -0.07891798 -0.1312649 0.027891595 -0.04463492 -0.014142061 -0.028974187
00000000: 764e 973d 6df3 273d c628 ebbc 2a86 da3d
00000010: 81c8 e2bc 7ccf 1b3c ae3b debd 7b3d 70bd
00000020: cf47 0d3d f0f8 903d 017c ebbd 6dd3 d9bc
00000030: 97e8 5f3d 2194 52bc cb3b 933c 4b0d 69bd
00000040: 13b4 acbd fd11 4abd ab67 5f3c 82e7 1dbe
00000050: e361 c83c 5624 753d 706b b2bd 5ce0 86bd
00000060: 1937 3e3d 5ea4 e1bd e61f dcbd 9512 cdbd
00000070: d287 f83d 9c2d 5c3d 5f76 963c 1eb1 0c3e
00000080: a6e9 55bc b872 1f3d 76c0 df3c 730f 263a
00000090: 5de5 6dbd 8926 b2bd 81ea 89bd 3ec3 a93d
000000a0: 45fc d0bb a6dc f53c e827 cb3c 0839 d0bd
000000b0: 26a5 ac3c a9d6 c33d 59b3 97bd 4cfc 153e
000000c0: 2c08 2fbc 1ab7 54bd 9de6 3c3d 3604 c73d
000000d0: f82f b1bd c9fc 80bd 4815 e4bd a0dc 85bd
000000e0: 1c30 b23d 54ab d83d 72fe 05be aa29 b93d
000000f0: 0025 7bbc 3f3d 00bd c52a e9bc 3796 d3bd
00000100: 9a91 d73d 42b4 503e 40e9 37bd e9ff 053d
00000110: 8109 603c cd30 9b3d f945 183e 9e39 893d
00000120: b22b a93b 8135 afbd 74c4 daba a256 733c
00000130: f5a1 393e 6aba 83bd 6781 a5bd 9682 9e3b
00000140: f277 e9bb edd7 2f3e d471 123e 39a9 b43d
00000150: 449c 6fbd a971 9bbb b954 813d d888 003c
00000160: 032e 043d ede2 7dbd 5a16 83bc 77f0 97bd
00000170: f9c3 fe3d a012 413d 2b32 bebd 8674 e43d
00000180: 863b 6cbd 7be1 143e 63a9 a23d ec39 fc3d
00000190: d62d 953b dae4 cb3d 7a3d 0fbe d8b9 063e
000001a0: 4f8e ecbd 7832 01be b49b 25be bcb4 9cbc
000001b0: 1f39 b6bd 19a2 a1bb 91ba 103d 5487 593d
000001c0: 3735 dbbd 24ef eb3d 0871 0c3b 9ee4 e63d
000001d0: bcf0 1f3e 015b 823d 410e ddbd 5509 803c
000001e0: b357 4e3e 3cf0 123d 952b 75bd 525f a33d
000001f0: b52d 8cbc c262 3abd d488 babd dedd a63d
00000200: 8ef0 70bd 2b5f 97bc 9cfc 133d 789a b43c
00000210: a066 1c3e bad5 38bd 0f9d 183e dfa6 2a3e
00000220: ea5b dfbd a511 013c 9c17 b03d 0784 9dbc
00000230: cd52 493d b460 c1bd 9bca 503d 9a38 383c
00000240: df90 0e3e 164b 463d 4756 873d 1937 193e
00000250: 7299 cabd c470 213e 466f c6bd 48c1 d1bd
00000260: 3a62 1b3e 67bd 133d 88f3 a33d 6fd2 3cbe
00000270: a825 6a3d 9c19 00be db8d b2bc 1715 f93d
00000280: a30e 693d 1d76 b3bb 4a30 98bb 749b 9f3d
00000290: 9fc5 0cbb 47a1 9b3d 40d8 42bd 3c9c c33d
000002a0: e820 debc 0f5d 373d b1a8 8b3d 4495 0d3e
000002b0: b08c 17bd f2d8 393e 75ac a0bc dbb1 233d
000002c0: 4ec0 35bd 45a6 e03b 5faa 103e b6ba 4b3d
000002d0: 06c8 f8bc 598d 153e d421 09bd abea 383c
000002e0: a6a3 c23d 9ce5 6b3d 0014 ebbd da38 ea3d
000002f0: 65aa 553d d307 04bd e424 ebbd bfea c43d
00000300: 0123 a5bd 5e61 c7bd c191 cb3d 49c4 26bd
00000310: 51e6 453d 9d31 b43d 7811 9dbd 4875 e23d
00000320: 5e97 1ab9 d063 aabd 7095 173d 14d4 82bc
00000330: 8ad6 9f3a df02 fbbc 65f0 4f3d bb97 f03d
00000340: b866 9d3d 22d5 c33d c8ac be3d e98d 303d
00000350: f1bc f1bc 05c2 533d 1a7e 963d 972a f7bd
00000360: b666 843d 481d 83bd 98b8 cebc 5487 85bd
00000370: 0b26 fa3d a0e0 07bc db60 79bb 8901 c43d
00000380: f0f4 47bd f05e 033e 2777 ed3d f050 1a3c
00000390: f794 9c3d 09ed d13d ad7d 8abd 35a0 4d3d
000003a0: 8f00 eb3d 7679 363d 4584 bf3d d011 60bc
000003b0: 335c b7bd 80d4 dd3d fc00 8c3d 0281 cabd
000003c0: 1c28 8cbd 684b af3d 7c96 8e3d d735 babd
000003d0: c3bc 85bd b944 c4bc 447f f63d 2e61 983c
000003e0: 00e9 0ebb ce25 ea3d c09f a1bd 4e6a 06be
000003f0: ea7c e43c 1bd3 36bd 1ab4 67bc 465b edbc

lstm.bias_ih_l0 f4 [256]
-0.034529146 0.029690545 0.14577878 0.048459195 -0.035504434 -0.08372193 0.0042920248 -0.0024680956
0.034771618 -0.016949829 -0.10620173 -0.09023792 0.12139741 0.047432397 0.10615157 0.10106748
0.08819305 -0.059191585 -0.07329298 0.0764742 0.11584497 0.10019842 0.017370868 0.014428428
0.12814207 0.106837004 -0.095902964 0.019084109 0.05208751 0.09714749 0.1615474 0.1064707
-0.054335468 -0.067685075 0.055696916 0.021548716 -0.054857243 0.03319788 0.06937896 0.03461223
0.07323808 -0.0114173135 0.020818347 -0.03160787 0.067556396 0.09794576 -0.07745165 0.0700177
0.09734901 0.1602051 0.08173307 0.09114913 0.13976355 0.0052837473 -0.07674172 -0.008448889
-0.096459426 0.023302816 -0.0014780154 0.09217228 -0.052691996 0.008841095 -0.04306988 0.048392326
0.039197918 -0.053632665 0.094153166 -0.051679984 0.09982797 -0.06549956 -0.08653302 -0.028350558
-0.097556464 0.020864224 0.018687757 0.030567912 0.1456396 -0.04833386 -0.08858761 0.07832399
-0.04369132 -0.10741847 -0.03523608 -0.098209806 -0.040763635 -0.0085988315 0.100312546 -0.0031503947
-0.01099108 0.05257643 0.019803716 -0.058840703 0.034607977 -0.03717858 -0.02013446 -0.08249505
-0.043305103 -0.093431726 0.028551212 0.06957387 -0.098417625 -0.06001749 0.08098559 -0.066996895
0.08036417 0.073357694 -0.029851856 0.007386793 -0.013050482 0.093458965 -0.055807035 0.12789024
0.053057943 0.011667189 0.039528176 0.08975728 -0.06807547 0.03217103 -0.027919954 -0.051402282
0.0796688 -0.049136255 0.10265587 0.09876221 0.03881297 0.10408261 0.078287676 0.066526465
0.11138434 0.024537258 -0.0686904 0.040306263 -0.0576547 0.087486096 0.05425443 0.13025722
-0.096012615 0.03354137 -0.021927841 0.12883979 0.013899803 -0.012424735 0.04420241 0.041095495
0.09678992 0.05566408 0.014659756 -0.05932175 0.038819723 0.019879753 0.053286005 -0.08027556
0.084453195 0.028034654 -0.10124146 -0.06801462 0.13018857 -0.055512384 0.10531579 0.04039166
0.0015842655 0.110663906 0.10050809 -0.08303747 -0.01744376 0.11670643 0.12178586 -0.0053239544
0.06207402 -0.040035356 -0.04562227 -0.024147144 -0.03185844 0.038641915 -0.08561673 0.017124297
0.085989 0.027903736 0.07933 0.05184397 -0.099270955 0.093938276 -0.05392231 0.046134606
-0.04742568 -0.10342433 -0.10882148 -0.07238927 0.10020001 0.10892704 -0.040183667 0.019006576
0.0939292 0.11061895 0.16451573 0.08186667 0.14850509 0.09533368 -0.013500862 0.029083678
0.024830215 -0.053145222 -0.023415143 -0.06546735 0.13255914 -0.058086075 0.07846548 0.17736055
0.04498981 -0.0610002 0.017838772 -0.012232863 -0.009702442 -0.044116538 0.07973352 0.015760725
-0.07096724 0.17236808 -0.03731498 0.11972472 0.15667565 0.10012808 -0.06007232 0.11254612
0.004092944 -0.042774916 -0.0046230187 0.11935986 -0.08239114 -0.035561286 0.067177646 -0.101758935
0.14443912 0.10600709 -0.04812903 0.09071615 0.093269445 0.13406514 0.044942252 0.16434923
0.0830802 0.13995065 -0.020907836 0.10053061 -0.051559534 -0.06600125 -0.1328954 -0.025562638
0.08602613 -0.015195576 -0.05998145 -0.059413377 0.031689156 0.03806114 0.11970124 0.12416436
00000000: 6f6e 0dbd 9639 f33c 0847 153e 267d 463d
00000010: 196d 11bd 6776 abbd 1da4 8c3b c6bf 21bb
00000020: af6c 0e3d 5eda 8abc 4b80 d9bd a9ce b8bd
00000030: 359f f83d 7948 423d ff65 d93d 78fc ce3d
00000040: 8f9e b43d e072 72bd a11a 96bd 819e 9c3d
00000050: 2140 ed3d d434 cd3d 5a4d 8e3c 3765 6c3c
00000060: ad37 033e 5ccd da3d c668 c4bd 4756 9c3c
00000070: b659 553d 43f5 c63d ae6c 253e 4f0d da3d
00000080: de8e 5ebd 799e 8abd 7322 643d ef86 b03c
00000090: fdb1 60bd 80fa 073d 8e16 8e3d 8ec5 0d3d
000000a0: d9fd 953d af0f 3bbc 3d8b aa3c 4177 01bd
000000b0: 025b 8a3d c997 c83d f89e 9ebd 7165 8f3d
000000c0: eb5e c73d ce0c 243e ab63 a73d 65ac ba3d
000000d0: 2d1e 0f3e 4923 ad3b c32a 9dbd 356d 0abc
000000e0: 858c c5bd 8ce5 be3c f8b9 c1ba d2c4 bc3d
000000f0: 90d3 57bd 3dda 103c 0b6a 30bd 0837 463d
00000100: ff8d 203d edad 5bbd 60d3 c03d 64ae 53bd
00000110: 9b72 cc3d a224 86bd 3938 b1bd 6e3f e8bc
00000120: afcb c7bd 73eb aa3c 1117 993c 8f69 fa3c
00000130: 8c22 153e baf9 45bd 6c6d b5bd 5468 a03d
00000140: abf5 32bd 37fe dbbd b553 10bd 3922 c9bd
00000150: c5f7 26bd 1de2 0cbc aa70 cd3d da76 4ebb
00000160: ee13 34bc 625a 573d 673b a23c f302 71bd
00000170: 18c1 0d3d 9148 18bd 06f1 a4bc 2af3 a8bd
00000180: b160 31bd 2259 bfbd 3be4 e93c bf7c 8e3d
00000190: 2e8f c9bd e6d4 75bd c6db a53d ab35 89bd
000001a0: f895 a43d 8f3c 963d e18b f4bc e90c f23b
000001b0: b0d1 55bc 6a67 bf3d eb95 64bd a9f5 023e
000001c0: 4953 593d bd27 3f3c 4ce8 213d aad2 b73d
000001d0: 276b 8bbd c5c5 033d 63b8 e4bc 338b 52bd
000001e0: 6529 a33d 1943 49bd 3e3d d23d d743 ca3d
000001f0: 59fa 1e3d 4329 d53d 4a55 a03d 073f 883d
00000200: 791d e43d 5c02 c93c 8dad 8cbd 2e18 253d
00000210: 5627 6cbd e92b b33d e539 5e3d 2662 053e
00000220: 43a2 c4bd ad62 093d 04a2 b3bc 94ee 033e
00000230: 00bc 633c 1e91 4bbc 960d 353d c053 283d
00000240: cb39 c63d 0500 643d 792f 703c 5dfb 72bd
00000250: 6e01 1f3d ddda a23c 6d42 5a3d 8367 a4bd
00000260: ccf5 ac3d eea8 e53c af57 cfbd 404b 8bbd
00000270: 2750 053e f460 63bd ceaf d73d ba71 253d
00000280: 21a7 cf3a c2a3 e23d 2fd7 cd3d 8d0f aabd
00000290: 37e6 8ebc c803 ef3d dd6a f93d 9174 aebb
000002a0: 5441 7e3d 1dfc 23bd 6bde 3abd 3bd0 c5bc
000002b0: ff7d 02bd fc46 1e3d d357 afbd 4148 8c3c
000002c0: 001b b03d 6096 e43c c477 a23d 585a 543d
000002d0: 924e cbbd b662 c03d a4dd 5cbd a4f7 3c3d
000002e0: 6e41 42bd 23d0 d3bd ccdd debd d340 94bd
000002f0: aa35 cd3d 2415 df3d a197 24bd aeb3 9b3c
00000300: f45d c03d 308c e23d d076 283e b6a9 a73d
00000310: b811 183e 4e3e c33d b832 5dbc e540 ee3c
00000320: bc68 cb3c ceae 59bd 1dd1 bfbc bf13 86bd
00000330: 95bd 073e aaeb 6dbd 82b2 a03d 019e 353e
00000340: 3c47 383d 59db 79bd 9e22 923c 596c 48bc
00000350: fef6 1ebc 8bb3 34bd 544b a33d a31c 813c
00000360: 4657 91bd 4281 303e 98d7 18bd 3c32 f53d
00000370: 956f 203e f30f cd3d 650e 76bd 957e e63d
00000380: 1a1e 863b c034 2fbd b17c 97bb f172 f43d
00000390: b0bc a8bd b6a8 11bd 6f94 893d fd66 d0bd
000003a0: d9e7 133e 3f1a d93d f222 45bd 64c9 b93d
000003b0: 0d04 bf3d 5f48 093e 5e15 383d 2a4b 283e
000003c0: f425 aa3d 394f 0f3e e946 abbc fee2 cd3d
000003d0: 1730 53bd aa2b 87bd bb15 08be bd68 d1bc
000003e0: 782e b03d ddf6 78bc 1caf 75bd 715b 73bd
000003f0: 7dcc 013d ffe5 1b3d ec25 f53d e249 fe3d

lstm.bias_hh_l0 f4 [256]
-0.02625689 0.16501737 -0.05023474 -0.00050678215 0.09409535 0.11622032 0.042683396 -0.09396554
0.11722479 0.07806486 0.025045004 0.11845776 -0.10640188 -0.080063984 0.175143 0.088065416
0.10429649 0.105632335 -0.01571258 0.046726234 0.007992385 -0.06386754 0.065569855 0.06806719
0.049652282 0.15063432 0.01264992 0.00087544345 -0.026671758 -0.015683584 0.08937151 0.03656102
0.07081139 0.105122186 -0.075301915 0.011077223 -0.05100346 0.10193844 0.10978152 0.13219826
0.012223115 0.04929281 0.17081298 0.13573594 -0.06832585 -0.037259027 -0.020037798 0.01754
-0.022659581 -0.015044005 -0.028155848 -0.07231764 -0.046039045 0.16172838 0.005480083 0.16208024
0.015517659 -0.08815418 -0.04506121 0.106656805 0.09051637 -0.06597112 -0.033860516 -0.0414579
-0.038722366 0.14241657 0.11453779 0.016098917 -0.081910186 -0.06774076 -0.10166361 0.059915725
0.033660546 -0.096687436 0.10741255 0.11931457 0.11195053 0.0821195 0.027736122 0.035688344
0.07200104 -0.010489945 0.05565415 0.012708789 0.0949439 0.008123344 -0.07649197 0.0015939117
0.0032509717 -0.03916198 0.06281064 -0.08851661 -0.04103024 0.115600504 -0.048129797 0.09344302
0.058302652 0.008206177 0.061074726 0.13996473 0.017751757 0.10179219 -0.011901028 -0.020117732
-0.14292045 0.045795817 0.13498208 -0.0056531965 0.083240226 0.07600318 -0.019699162 0.1058973
-0.06694424 -0.05736184 0.03371085 0.033510692 0.09222249 0.05753805 -0.085449025 -0.02746005
-0.035839256 0.018728375 -0.053978037 0.0037464625 -0.0049984283 -0.047295794 -0.038574923 -0.000992112
-0.016439492 -0.07391025 -0.06079317 0.02070823 0.031435955 -0.11377149 0.083583474 0.08793279
0.02318278 -0.107491195 0.08280902 0.09900614 0.1486211 -0.0058997893 -0.0057125688 0.06961123
0.03804397 0.09903217 -0.02017156 -0.05605415 0.021492945 0.059510298 0.07332916 -0.014023604
-0.013754819 -0.11110588 -0.0811251 0.02044147 -0.03239275 -0.048511565 -0.081763074 0.058120154
0.04844206 0.11112128 0.03497652 0.04231821 -0.013638928 0.09567033 -0.077477194 0.03947993
-0.088571735 -0.054046247 0.05747557 -0.027397444 -0.10573754 0.015403436 0.054715127 -0.034956988
-0.10347158 -0.049932603 0.001066642 0.13513269 0.02626837 -0.03560547 -0.1163719 -0.009918248
0.11270744 0.13513483 -0.0030009788 0.032757934 -0.112266034 -0.11647129 -0.0857135 -0.060766622
0.02939892 0.13565108 -0.020009903 0.035481796 -0.020086005 0.12492898 0.02220126 -0.010766153
0.13046892 0.009705811 -0.066383734 0.06104166 -0.024800455 0.016248938 0.12859212 -0.05930087
-0.033573482 -0.067413874 0.10627331 0.15195897 0.1073171 -0.029592823 -0.035924405 0.005573767
-0.04437842 0.18802822 0.07911692 0.11162943 0.04463561 -0.07213533 0.049034998 -0.09663566
-0.04606968 0.0642687 0.049864408 0.17195144 0.07613019 -0.0016338665 0.0020922006 -0.035295665
0.13325655 -0.056024477 0.0882238 -0.06680338 0.054652832 0.076272346 0.10099915 0.15124792
0.08369742 0.05781838 0.055848893 0.114305705 0.052817512 0.07337892 -0.103099726 0.014375052
0.13109224 0.006898099 0.05112516 -0.061562736 0.10918723 0.16930282 -0.021840548 0.0856348
00000000: b018 d7bc 50fa 283e f1c2 4dbd 93d9 04ba
00000010: 10b5 c03d eb04 ee3d c9d4 2e3d 0171 c0bd
00000020: 8d13 f03d 78e0 9f3d 2e2b cd3c fb99 f23d
00000030: 3be9 d9bd 96f8 a3bd b058 333e a45b b43d
00000040: 6699 d53d c455 d83d abb7 80bc 0264 3f3d
00000050: 7ef2 023c fccc 82bd 7d49 863d d066 8b3d
00000060: 3160 4b3d e23f 1a3e 9c41 4f3c 047e 653a
00000070: bb7e dabc dc7a 80bc 6908 b73d 02c1 153d
00000080: 9005 913d 4d4a d73d e437 9abd 3e7d 353c
00000090: 01e9 50bd 1ac5 d03d 22d5 e03d fb5e 073e
000000a0: 7643 483c 42e7 493d 99e9 2e3e 5dfe 0a3e
000000b0: 6cee 8bbd ec9c 18bd 4f26 a4bc 0cb0 8f3c
000000c0: 96a0 b9bc 217b 76bc 18a7 e6bc 451b 94bd
000000d0: 7093 3cbd 209c 253e 4592 b33b 5df8 253e
000000e0: c73d 7e3c 2e8a b4bd 1a92 38bd e26e da3d
000000f0: a660 b93d de1b 87bd 53b1 0abd c2cf 29bd
00000100: 589b 1ebd a6d5 113e ca92 ea3d e0e1 833c
00000110: 87c0 a7bd abbb 8abd 0335 d0bd 316a 753d
00000120: a4df 093d 1004 c6bd 1cfb db3d 335b f43d
00000130: 5246 e53d 452e a83d dd36 e33c f12d 123d
00000140: 4875 933d 05de 2bbc 9bf5 633d 8638 503c
00000150: f371 c23d c617 053c d2a7 9cbd cdea d03a
00000160: 410e 553b 5068 20bd dda2 803d 3248 b5bd
00000170: 530f 28bd f5bf ec3d c023 45bd 0e5f bf3d
00000180: c3ce 6e3d 3373 063c 7e29 7a3d ea52 0f3e
00000190: 226c 913c 6c78 d03d 88fc 42bc f1cd a4bc
000001a0: bd59 12be 6594 3b3d be38 0a3e 733e b9bb
000001b0: da79 aa3d 8ea7 9b3d 2360 a1bc afe0 d83d
000001c0: 101a 89bd 40f4 6abd 6314 0a3d 8242 093d
000001d0: 25df bc3d 05ad 6b3d e6ff aebd e6f3 e0bc
000001e0: 2fcc 12bd 406c 993c 1318 5dbd 3687 753b
000001f0: dbc9 a3bb 3cb9 41bd bd00 1ebd c109 82ba
00000200: 1dac 86bc 425e 97bd 4202 79bd 4ea4 a93c
00000210: fdc2 003d 0701 e9bd d02d ab3d 1b16 b43d
00000220: d0e9 bd3c 5824 dcbd c797 a93d bbc3 ca3d
00000230: 2130 183e 0553 c1bb 8030 bbbb 5590 8e3d
00000240: fed3 1b3d 61d1 ca3d d43e a5bc 0999 65bd
00000250: f911 b03c 12c1 733d 992d 963d 42c3 65bc
00000260: e45b 61bc 7b8b e3bd eb24 a6bd df74 a73c
00000270: 43ae 04bd 10b4 46bd 6673 a7bd 660f 6e3d
00000280: 2e6b 463d 8e93 e33d 8a43 0f3d dc55 2d3d
00000290: cf75 5fbc ceee c33d 5dac 9ebd b5b5 213d
000002a0: 1965 b5bd 995f 5dbd 816b 6b3d 9b70 e0bc
000002b0: ec8c d8bd b15e 7c3c f81c 603d 0f2f 0fbd
000002c0: e8e8 d3bd 2186 4cbd 91ce 8b3a 3960 0a3e
000002d0: c430 d73c 0bd7 11bd 6454 eebd 2680 22bc
000002e0: 29d3 e63d c960 0a3e 12ac 44bb 2f2d 063d
000002f0: bceb e5bd 8088 eebd 8f8a afbd 6ce6 78bd
00000300: 01d6 f03c 1ee8 0a3e cfeb a3bc 5c55 113d
00000310: 688b a4bc c4da ff3d 6bdf b53c 8564 30bc
00000320: a599 053e 1f05 1f3c 32f4 87bd d206 7a3d
00000330: 532a cbbc 7e1c 853c a7ad 033e 78e5 72bd
00000340: 5984 09bd 4910 8abd d2a5 d93d 229b 1b3e
00000350: 11c9 db3d a66c f2bc 7825 13bd 25a4 b63b
00000360: 25c6 35bd 788a 403e 0d08 a23d f89d e43d
00000370: d4d3 363d b0bb 93bd ecd8 483d ebe8 c5bd
00000380: 90b3 3cbd 4f9f 833d 9f3e 4c3d 0a14 303e
00000390: 25ea 9b3d 7627 d6ba 4d1d 093b 3092 10bd
000003a0: 6874 083e ec79 65bd aeae b43d 36d0 88bd
000003b0: a6db 5f3d ad34 9c3d a4d8 ce3d bce0 1a3e
000003c0: 8e69 ab3d f7d2 6c3d cfc1 643d 1c19 ea3d
000003d0: 2d57 583d b047 963d f325 d3bd 5785 6b3c
000003e0: 0b3d 063e 7309 e23b 9e68 513d 3529 7cbd
000003f0: 8e9d df3d b85d 2d3e f3ea b2bc 4c61 af3d

lstm.weight_ih_l1 f4 [256, 64]
-0.001852051 -0.18417667 0.025621539 0.12375396 -0.106873214 -0.07129878 -0.08053669 0.041263536
0.15198542 -0.09668922 -0.050667796 -0.019565664 0.09988089 0.019120196 0.036804043 0.12942065
0.07463204 -0.05204918 -0.0009781516 -0.07353396 0.10551991 0.119356655 -0.004349912 0.08688243
0.13677639 0.16550356 0.07505215 -0.104109794 0.1485746 0.07320376 -0.05403723 -0.06850673
0.050628796 -0.08066515 0.15862551 -0.052598592 -0.07526372 0.0017211267 0.16114473 -0.042209137
-0.020659478 -0.06955514 0.06857304 -0.11541317 0.022379713 -0.027886935 -0.1080749 0.15484698
-0.08330403 0.13218156 0.04898 0.026374377 0.040571 -0.03054774 0.01952785 0.026666353
0.06730989 0.072880946 -0.0145287225 0.08739531 -0.09349597 0.0013957468 -0.0035122277 -0.07671918
-0.07445783 0.08602333 -0.02603602 0.043525346 0.0017598136 0.09200439 0.057292026 0.01785471
-0.07860051 0.121458516 -0.08218898 0.101274066 0.1010711 0.0020493625 -0.03241195 -0.08832873
0.041967243 0.05273542 0.022941476 -0.056321286 -0.07690277 0.07314708 0.05633802 0.08109269
0.0137959635 0.059867095 0.09187315 0.09536608 -0.09158552 -0.012529998 -0.07671654 0.06481671
-0.022277849 0.016577708 -0.051742285 -0.08075272 0.08016916 -0.058718838 -0.003951279 -0.05037131
0.0986513 -0.058852457 0.119480066 0.03329867 0.11401843 0.1306353 0.040432636 0.030553745
0.024362814 0.010724774 0.025808524 -0.024715401 0.09039365 -0.11585012 -0.11071614 -0.13176998
0.06295154 0.085673764 0.057239708 0.121504724 0.039035276 0.078604415 -0.07570764 0.080469415
-0.11337619 0.021106107 0.030474989 0.14269473 -0.09361125 -0.097921275 0.122790046 -0.037183307
0.11738963 -0.0059643695 -0.05812373 0.026398692 0.10305544 -0.0067301504 0.09860413 -0.044548843
0.03785913 -0.089970686 -0.08056476 0.01535618 0.010772917 -0.1031366 -0.0035687662 -0.097761
-0.012673481 0.113125965 -0.04739661 0.0028495437 0.06940253 -0.101572484 -0.036638997 0.018535981
-0.08204086 0.05151573 0.03878073 -0.1309733 -0.05496128 0.14179245 0.18176523 0.099680796
-0.0602883 -0.08077775 0.16263713 -0.10277974 0.07283768 -0.00048813657 0.0852292 0.0936161
0.004307323 -0.054865934 0.032482725 -0.021686101 0.074899234 -0.03402935 -0.03291674 0.05981619
-0.05721656 0.027953507 -0.026855595 -0.09177359 -0.0016240922 -0.00842323 -0.035483412 0.027803645
0.14271514 0.12527461 0.0059845555 -0.08063877 -0.058234725 -0.07911068 -0.12359976 -0.10842823
-0.027014991 0.10027355 -0.031191716 0.069289826 0.009133521 0.036206197 -0.058522668 -0.08983382
-0.09855128 0.07512555 0.024506778 0.0588269 -0.1402924 -0.104466096 -0.04011135 -0.042040758
0.08911954 0.06885102 -0.079083234 0.058854274 -0.119531125 0.0029892428 -0.051863156 0.06966301
-0.008533953 0.08584865 -0.1331367 0.07628873 -0.07574747 0.00016704762 -0.15597601 -0.07024924
0.06603933 0.095538326 0.04086606 -0.04323817 -0.022116426 0.051828638 0.09930665 0.11411816
0.08429792 0.019291123 -0.066008545 -0.0851681 -0.08240559 0.06903434 -0.06534337 -0.090846956
-0.08552901 -0.079862826 -0.07573697 -0.09221761 -0.013092594 0.088813424 -0.026433846 -0.012582652
00000000: 85c0 f2ba cf98 3cbe 43e4 d13c b772 fd3d
00000010: 58e0 dabd 1805 92bd 6cf0 a4bd f403 293d
00000020: 11a2 1b3e ff04 c6bd 0989 4fbd 2c48 a0bc
00000030: 5a8e cc3d f5a1 9c3c d6bf 163d d986 043e
00000040: afd8 983d 8531 55bd 5235 80ba f998 96bd
00000050: d31a d83d 4371 f43d b589 8ebb 6aef b13d
00000060: 1c0f 0c3e c479 293e f1b4 993d 8437 d5bd
00000070: f123 183e daeb 953d 2456 5dbd 424d 8cbd
00000080: 2460 4f3d c533 a5bd ba6e 223e 9f71 57bd
00000090: dd23 9abd 6e97 e13a 2003 253e 7de3 2cbd
000000a0: 113e a9bc ed72 8ebd 0670 8c3d bd5d ecbd
000000b0: a955 b73c 2473 e4bc 6056 ddbd 3590 1e3e
000000c0: 4e9b aabd 9a5a 073e 419f 483d 140f d83c
000000d0: c72d 263d 413f fabc dff8 9f3c 6573 da3c
000000e0: c5d9 893d 9b42 953d e109 6ebc 50fc b23d
000000f0: d17a bfbd 7ef1 b63a 672d 66bb f21e 9dbd
00000100: 597d 98bd 002d b03d 7e49 d5bc a247 323d
00000110: 8ca9 e63a cc6c bc3d 0bab 6a3d 0a44 923c
00000120: 4ef9 a0bd 3ebf f83d b252 a8bd c768 cf3d
00000130: 5dfe ce3d 994e 063b 65c2 04bd b1e5 b4bd
00000140: d8e5 2b3d 1901 583d c3ef bb3c 26b1 66bd
00000150: 337f 9dbd 23ce 953d b2c2 663d ed13 a63d
00000160: 7708 623c 3337 753d fd27 bc3d 4b4f c33d
00000170: 3091 bbbd 9f4a 4dbc 901d 9dbd a0be 843d
00000180: 0980 b6bc f9cd 873c b8ef 53bd af61 a5bd
00000190: bb2f a43d 2a83 70bd bb79 81bb 2652 4ebd
000001a0: b109 ca3d 460f 71bd f7b1 f43d 3064 083d
000001b0: 7f82 e93d 43c5 053e b19c 253d d94b fa3c
000001c0: 8694 c73c f6b6 2f3c 666c d33c f477 cabc
000001d0: 4e20 b93d d442 edbd 25bf e2bd b6ee 06be
000001e0: bdec 803d ba75 af3d 2f74 6a3d 78d7 f83d
000001f0: 74e3 1f3d 5afb a03d 9b0c 9bbd 26cd a43d
00000200: c731 e8bd b7e6 ac3c afa6 f93c 911e 123e
00000210: 41b7 bfbd f38a c8bd 5979 fb3d 864d 18bd
00000220: f969 f03d c270 c3bb 2613 6ebd 1242 d83c
00000230: bb0e d33d 9888 dcbb f6f0 c93d d978 36bd
00000240: 2d12 1b3d 8d42 b8bd 23ff a4bd 7d98 7b3c
00000250: e480 303c 4839 d3bd f6e1 69bb eb36 c8bd
00000260: 6fa4 4fbc 96ae e73d f322 42bd 69bf 3a3b
00000270: ea22 8e3d 3c05 d0bd c612 16bd c5d8 973c
00000280: 0a05 a8bd 2802 533d 8bd8 1e3d dd1d 06be
00000290: 141f 61bd 0a32 113e aa20 3a3e 7225 cc3d
000002a0: ddf0 76bd ce6e a5bd 598a 263e 2f7e d2bd
000002b0: ec2b 953d 95ec ffb9 a68c ae3d ccb9 bf3d
000002c0: 7224 8d3b 1abb 60bd 9b0c 053d 0da7 b1bc
000002d0: c564 993d 5c62 0bbd b4d3 06bd d201 753d
000002e0: e95b 6abd c1fe e43c 4400 dcbc cbf3 bbbd
000002f0: 7edf d4ba 9601 0abc 0e57 11bd 78c4 e33c
00000300: eb23 123e fd47 003e 171a c43b f025 a5bd
00000310: 8987 6ebd c804 a2bd df21 fdbd 9f0f debd
00000320: 8b4e ddbc 385c cd3d c585 ffbc d3e7 8d3d
00000330: c3a4 153c f34c 143d 77b5 6fbd cbfa b7bd
00000340: 41d5 c9bd 6ddb 993d 70c2 c83c 7af4 703d
00000350: d0a8 0fbe 52f2 d5bd cd4b 24bd ee32 2cbd
00000360: 4e84 b63d c301 8d3d 64f6 a1bd 2e11 713d
00000370: bccc f4bd 2ce7 433b 766e 54bd 7bab 8e3d
00000380: fed1 0bbc 6bd1 af3d fd54 08be 443d 9c3d
00000390: 7d21 9bbd 8129 2f39 2db8 1fbe d5de 8fbd
000003a0: a13f 873d 99a9 c33d 2b63 273d 821a 31bd
000003b0: 822d b5bc 444a 543d 4961 cb3d c8b6 e93d
000003c0: 63a4 ac3d 6b08 9e3c 7d2f 87bd 9d6c aebd
000003d0: 43c4 a8bd e061 8d3d bfd2 85bd f80d babd
000003e0: d529 afbd 1f8f a3bd fc1b 9bbd 96dc bcbd
000003f0: 5282 56bc d0e3 b53d cb8b d8bc 7827 4ebc

lstm.weight_hh_l1 f4 [256, 64]
0.059092376 0.06075872 0.06951093 0.08737242 0.056799628 0.10256083 -0.032950524 0.045079894
-0.05709809 -0.041681956 0.0063610245 -0.018551614 0.07587707 0.055803377 -0.1704562 0.16282748
-0.08136991 0.090688854 -0.12874512 0.08450896 0.076241046 0.032769974 0.14308254 0.056421407
0.011613084 -0.14012457 0.012144065 -0.12443298 -0.051242065 0.020431098 0.08938676 -0.14644757
-0.02759568 0.05448326 -0.029436791 -0.11384211 0.09571039 -0.03896268 0.0028537654 -0.09465043
-0.0006329222 0.0035332225 0.110397555 0.04455469 -0.010197724 0.004947944 0.045137636 0.008359816
-0.0937269 0.04393882 -0.11283953 0.023976117 0.108732015 0.14797874 0.08930251 0.0009846084
0.07425384 0.017165232 0.008809325 0.047045406 0.05269741 -0.060520627 0.08328773 -0.087632455
0.08700149 0.072594084 -0.08986513 0.096336946 -0.10782762 0.04386016 0.015120668 -0.01665858
-0.08282829 -0.025978252 0.05851383 -0.030595269 -0.112689815 -0.016384242 -0.06653821 -0.041139558
-0.03820139 0.0409336 -0.12549292 -0.069250315 0.016937966 -0.12015471 0.073087186 -0.044183437
-0.03898554 -0.08269516 -0.09057451 -0.01019046 -0.00083951873 -0.044394586 -0.123170555 0.027273808
0.1114556 0.033791304 0.07818158 0.029808272 0.13735318 -0.010598394 0.082693785 0.081204504
0.054209106 -0.10398379 -0.050870564 -0.053826217 -0.080715075 -0.03765167 -0.07137769 -0.16018708
0.001032231 -0.057259858 -0.110193565 -0.06509858 -0.013885147 0.115959875 -0.012327798 -0.05987079
0.033832993 0.07083638 0.09180799 0.08764104 -0.08909503 -0.010102508 0.029885672 0.10990604
0.0083709285 -0.055911005 -0.036864508 0.13312683 -0.12589405 0.08268718 -0.16139244 -0.017428974
0.1288655 -0.093274996 0.09166282 0.027355155 -0.05745571 -0.068358384 -0.0073464783 0.14047292
0.027760006 -0.04910052 -0.15768601 -0.0070235576 0.023537273 -0.07014074 0.0117725395 -0.1695919
0.08237048 -0.10950135 -0.13679233 -0.13238412 -0.07523581 -0.057628278 0.07070321 -0.097893685
0.08852411 0.032566518 0.011135478 0.09399153 -0.041429326 -0.05934745 0.09388948 -0.011863914
-0.14163892 0.08825679 0.11860775 -0.05307366 0.015688509 -0.044311028 0.12851235 0.015216103
-0.09596479 0.03230965 -0.069618315 0.050723962 -0.034129325 -0.029058712 -0.034198117 -0.00091156224
-0.11812893 0.13548474 0.09721467 -0.13673267 -0.030494388 0.03293957 -0.039574005 0.009688587
-0.074515834 0.057747412 -0.12634163 -0.13957773 0.04938701 -0.11407424 0.047950935 0.1360245
-0.055890575 -0.06452289 -0.031437084 0.029632546 -0.07862879 -0.054576803 0.076963484 0.14155151
-0.053594433 -0.10241186 -0.06920609 -0.050278716 -0.022547036 -0.046779346 0.09255739 -0.122030474
0.12831987 0.078679 -0.090574294 0.06791657 0.06665461 0.07343699 -0.0111477915 0.0049338406
-0.00044347314 -0.091930814 -0.05563405 0.08020874 0.0048214896 -0.042064972 -0.038527142 0.123861
0.07740098 -0.007411935 -0.00022396797 0.09678108 -0.09717326 0.057882577 -0.08470378 0.08743738
0.095252246 0.11317246 0.031338662 0.13922457 0.014397538 0.019220263 -0.03787384 0.10180863
0.021646988 0.0032618751 -0.07310641 0.066745505 -0.072244875 -0.005293252 0.0742286 -0.05175462
00000000: d90a 723d 23de 783d bf5b 8e3d 50f0 b23d
00000010: baa6 683d 6a0b d23d 21f7 06bd b2a5 383d
00000020: b0df 69bd b3ba 2abd 2470 d03b 8ef9 97bc
00000030: 7065 9b3d 1592 643d 128c 2ebe 3fbc 263e
00000040: 44a5 a6bd 14bb b93d c3d5 03be 0913 ad3d
00000050: 4424 9c3d cf39 063d 3b84 123e 221a 673d
00000060: ce44 3e3c d17c 0fbe e7f7 463c b8d6 febd
00000070: 33e3 51bd 1e5f a73c 6810 b73d 5af6 15be
00000080: 5610 e2bc d729 5f3d 6d25 f1bc 0d26 e9bd
00000090: cf03 c43d 5597 1fbd 3d06 3b3b 16d8 c1bd
000000a0: b1ea 25ba a38d 673b 1d18 e23d fb7e 363d
000000b0: 5b14 27bc 5d22 a23b 3ee2 383d 9cf7 083c
000000c0: e4f3 bfbd 31f9 333d 6918 e7bd 9069 c43c
000000d0: e4ae de3d bd87 173e 3ce4 b63d fa0d 813a
000000e0: 6612 983d 1a9e 8c3c fd54 103c afb2 403d
000000f0: 3dd9 573d 7ae4 77bd c292 aa3d a578 b3bd
00000100: d62d b23d 35ac 943d 360b b8bd 4e4c c53d
00000110: bad4 dcbd b6a6 333d aebc 773c 9377 88bc
00000120: e1a1 a9bd 58d0 d4bc 33ac 6f3d eea2 fabc
00000130: ebc9 e6bd 3f38 86bc 2f45 88bd f481 28bd
00000140: 1079 1cbd fea9 273d 3781 00be 1cd3 8dbd
00000150: 7dc1 8a3c ac13 f6bd bcae 953d b1f9 34bd
00000160: 4daf 1fbd 145c a9bd 217f b9bd e3f5 26bc
00000170: 2613 5cba 19d7 35bd d840 fcbd 526d df3c
00000180: d542 e43d c068 0a3d aa1d a03d 7a30 f43c
00000190: 50a6 0c3e e3a4 2dbc 5c5b a93d 8c4e a63d
000001a0: 5e0a 5e3d 74f5 d4bd a75d 50bd e178 5cbd
000001b0: f24d a5bd a338 1abd 772e 92bd 1508 24be
000001c0: ed4b 873a 5089 6abd 2aad e1bd 6852 85bd
000001d0: 877e 63bc 5f7c ed3d 88fa 49bc 133b 75bd
000001e0: 7794 0a3d aa12 913d d405 bc3d 257d b33d
000001f0: 7577 b6bd fd84 25bc ccd2 f43c 6b16 e13d
00000200: 3826 093c f002 65bd 3dff 16bd 6652 083e
00000210: 5fea 00be e557 a93d 0f44 25be 35c7 8ebc
00000220: 51f5 033e f606 bfbd b7b9 bb3d eb17 e03c
00000230: ae56 6bbd 7bff 8bbd baba f0bb 22d8 0f3e
00000240: f468 e33c a01d 49bd 7178 21be df25 e6bb
00000250: 3dd1 c03c f3a5 8fbd 9ce1 403c 80a9 2dbe
00000260: dbb1 a83d 3e42 e0bd 4a13 0cbe b48f 07be
00000270: 3b15 9abd a10b 6cbd d8cc 903d 7c7c c8bd
00000280: 214c b53d 7864 053d 9471 363c a27e c03d
00000290: ccb1 29bd 5016 73bd 2149 c03d dd60 42bc
000002a0: cb09 11be fabf b43d 9fe8 f23d c463 59bd
000002b0: 3085 803c 7b7f 35bd be98 033e f64c 793c
000002c0: 3089 c4bd 2057 043d 0c94 8ebd eec3 4f3d
000002d0: 31cb 0bbd 890c eebc 5313 0cbd e8f5 6eba
000002e0: 95ed f1bd 83bc 0a3e 7c18 c73d a603 0cbe
000002f0: 5ecf f9bc a4eb 063d 5a18 22bd e1bc 1e3c
00000300: c29b 98bd 8d88 6c3d b35f 01be 77ed 0ebe
00000310: 094a 4a3d c19f e9bd 3368 443d 024a 0b3e
00000320: 84ed 64bd 9424 84bd 2cc4 00bd f4bf f23c
00000330: 2208 a1bd ed8b 5fbd 089f 9d3d e1f2 103e
00000340: d685 5bbd 4fbd d1bd ecbb 8dbd 0ef1 4dbd
00000350: 90b4 b8bc b39b 3fbd bb8e bd3d 1deb f9bd
00000360: 4966 033e 7522 a13d 047f b9bd d817 8b3d
00000370: 3682 883d 2266 963d 3aa5 36bc 0eac a13b
00000380: f581 e8b9 3946 bcbd 88e0 63bd 7b44 a43d
00000390: 96fd 9d3b 524c 2cbd a3ce 1dbd d6aa fd3d
000003a0: 6884 9e3d d1df f2bb f2d8 6ab9 2935 c63d
000003b0: c602 c7bd 4816 6d3d 2d79 adbd 5e12 b33d
000003c0: 9c13 c33d f6c6 e73d f85c 003d e390 0e3e
000003d0: a7e3 6b3c d073 9d3c 9a21 1bbd 0b81 d03d
000003e0: 0655 b13c 2fc5 553b d0b8 95bd deb1 883d
000003f0: 1ff5 93bd 0473 adbb 2a05 983d a7fc 53bd

lstm.bias_ih_l1 f4 [256]
0.009151188 -0.10458236 0.09538574 -0.055041358 -0.0827718 0.14931403 0.030328667 0.09537337
0.0040180334 -0.049136497 0.07247044 0.0054687774 -0.065273486 0.03089664 0.15821159 0.11040146
0.09842414 0.090994805 0.13000625 -0.06615469 0.091176115 0.12887591 -0.059036195 -0.05577869
0.09078794 -0.05124398 0.049348816 0.05252895 -0.032509822 -0.00611785 0.04951318 0.109326996
0.14551276 -0.10785977 0.036948625 -0.025552578 -0.050514977 0.109170295 -0.1030857 0.02093085
0.1578205 -0.10222894 -0.11345122 0.030765425 0.021648975 0.047072835 -0.06163906 0.1053057
0.009388492 -0.025965877 0.09122434 0.04018112 0.11032822 0.14012882 0.06322955 0.092271976
0.06444932 0.13696119 0.039080016 0.04648322 0.010302497 0.04439005 -0.06546633 0.024248831
-0.027965799 -0.06788234 0.0716476 -0.095224574 0.09472011 0.067350045 0.06328864 0.03591924
0.08975593 0.0050071497 -0.0056759976 -0.06495016 -0.010226316 -0.07018526 0.066579744 0.09773061
0.037311453 -0.039909024 -0.042817283 0.037418444 0.056429386 0.068510026 0.0981607 -0.09959176
-0.04571385 0.07526159 0.020325916 -0.07553389 0.07368295 -0.07888255 -0.077665515 -0.049676605
0.12255622 0.010360125 0.094802946 0.0819153 -0.032722652 -0.10400748 0.006523457 -0.055001516
-0.019656006 0.01112832 0.06610957 -0.021486131 0.051798467 -0.098829806 0.044456676 -0.05976809
0.047107298 0.06723643 0.05336404 0.12222372 0.101404935 -0.071164355 0.101216726 -0.05079689
-0.05300736 0.05695603 -0.019570021 -0.11988396 -0.11767255 0.13291432 0.13057193 -0.087140165
0.042124346 0.019842453 -0.091304466 0.06932513 -0.10845292 0.005468799 -0.083244205 -0.068617366
0.08252332 -0.08172474 -0.0026878559 -0.031106925 -0.0351176 -0.13071103 -0.109844655 0.076526776
-0.08640122 -0.008032705 0.08700661 0.037913952 0.06256486 -0.063671716 -0.033857178 -0.09777536
0.10391149 -0.04479388 -0.018643314 -0.0900586 0.09104805 0.13014033 0.030403307 -0.08897947
-0.062309865 0.06685804 0.12030091 0.020799821 0.10270529 0.099069215 0.088681474 -0.018800426
-0.09155269 -0.083780386 0.10064252 0.04270551 0.0073756985 0.096717246 0.10303979 0.053612676
-0.09852892 0.08767536 -0.0960308 0.10868841 -0.08246979 -0.08676922 0.10873482 -0.119174086
-0.11639794 0.06179013 -0.07083727 -0.08865402 0.086739816 0.0016185056 0.02290106 -0.045491736
-0.015781458 -0.03923969 -0.07241028 -0.08736292 0.038321048 0.10357012 -0.04398298 0.1428958
0.05250011 0.12091964 0.11791464 0.029595505 -0.06038976 0.05561338 -0.024952825 -0.056842152
0.1090363 0.13765958 0.16151004 -0.022147596 0.062488303 -0.09220488 0.109875314 0.12058767
0.108268164 -0.06775128 0.10688907 -0.03943022 -0.017501626 -0.06772042 0.033570267 -0.050527427
0.07642071 -0.12013849 0.063720405 -0.100690484 0.0768529 0.015293945 0.11531558 -0.095607854
0.07871469 0.022816172 0.09579775 0.051325083 0.1882788 0.087814525 -0.09382347 0.020294145
-0.08181411 -0.009884285 -0.032675274 -0.010648996 0.13857038 0.11213533 -0.10462508 -0.01209512
0.074442275 0.11927804 0.13476555 0.043747287 0.003180285 0.05916014 0.13850853 -0.05734501
00000000: ddee 153c 472f d6bd 9959 c33d 0c73 61bd
00000010: 4384 a9bd c7e5 183e d373 f83c 1d53 c33d
00000020: b5a9 833b 5a43 49bd 626b 943d 6e33 b33b
00000030: 1bae 85bd f31a fd3c 3802 223e 291a e23d
00000040: 9892 c93d 7c5b ba3d 5c20 053e 1c7c 87bd
00000050: 8bba ba3d 0cf8 033e f0cf 71bd 3278 64bd
00000060: 07ef b93d 35e5 51bd fc21 4a3d 9928 573d
00000070: 0529 05bd 3f78 c8bb 55ce 4a3d d5e6 df3d
00000080: 4c01 153e 95e5 dcbd 7157 173d a453 d1bc
00000090: cbe8 4ebd ad94 df3d 981e d3bd 2d77 ab3c
000000a0: b29b 213e 685d d1bd 1d59 e8bd c607 fc3c
000000b0: 3159 b13c 72cf 403d 3d79 7cbd 84aa d73d
000000c0: 31d2 193c 64b6 d4bc d4d3 ba3d f594 243d
000000d0: c3f3 e13d ee7d 0f3e 7f7e 813d 17f9 bc3d
000000e0: 01fe 833d 8e3f 0c3e 5e12 203d 3065 3e3d
000000f0: cecb 283c 57d2 353d 3613 86bd 7ca5 c63c
00000100: 8818 e5bc e505 8bbd fabb 923d 1a05 c3bd
00000110: 9efc c13d d2ee 893d 799d 813d 0e20 133d
00000120: f5d1 b73d 0413 a43b b8fd b9bb 9704 85bd
00000130: 478c 27bc 4abd 8fbd f65a 883d fc26 c83d
00000140: e5d3 183d a577 23bd 2d61 2fbd 1544 193d
00000150: 8022 673d fc4e 8c3d 7a08 c93d c4f6 cbbd
00000160: 723e 3bbd c022 9a3d 8982 a63c 83b1 9abd
00000170: 16e7 963d 2d8d a1bd 190f 9fbd b279 4bbd
00000180: c1fe fa3d 84bd 293c 0c28 c23d 35c3 a73d
00000190: 3008 06bd e001 d5bd b9c2 d53b 4549 61bd
000001a0: a205 a1bc 8f53 363c 7464 873d af03 b0bc
000001b0: a12a 543d 4867 cabd 3418 363d 62cf 74bd
000001c0: 95f3 403d 41b3 893d 4094 5a3d 6e50 fa3d
000001d0: 64ad cf3d 9ebe 91bd b74a cf3d 6610 50bd
000001e0: 3f1e 59bd ba4a 693d 4f51 a0bc b985 f5bd
000001f0: 4efe f0bd b11a 083e a6b4 053e 8b76 b2bd
00000200: 948a 2c3d a48c a23c d6fd babd 55fa 8d3d
00000210: 911c debd 9c33 b33b f07b aabd 4387 8cbd
00000220: fd01 a93d 4d5f a7bd bd26 30bb f3d3 febc
00000230: 79d7 0fbd 1dd9 05be 3cf6 e0bd 12ba 9c3d
00000240: 1ff3 b0bd 9b9b 03bc 8630 b23d a94b 1b3d
00000250: 0122 803d 5166 82bd d3ad 0abd 733e c8bd
00000260: 8ccf d43d ca79 37bd ddb9 98bc a570 b8bd
00000270: 6677 ba3d 8243 053e 5b10 f93c de3a b6bd
00000280: a138 7fbd deec 883d 5360 f63d 6364 aa3c
00000290: 2757 d23d cde4 ca3d a29e b53d 5a03 9abc
000002a0: fa7f bbbd 0d95 abbd aa1d ce3d f9eb 2e3d
000002b0: d8af f13b b113 c63d 8706 d33d f798 5b3d
000002c0: 88c9 c9bd 248f b33d ccab c4bd 0798 de3d
000002d0: ece5 a8bd 10b4 b1bd 5cb0 de3d 8b11 f4bd
000002e0: 0b62 eebd a617 7d3d 2113 91bd 3d90 b5bd
000002f0: a5a4 b13d 0924 d43a 019b bb3c 8b55 3abd
00000300: 1e48 81bc ccb9 20bd d74b 94bd 55eb b2bd
00000310: 88f6 1c3d 921c d43d 7f27 34bd 4753 123e
00000320: 5b0a 573d b7a4 f73d 3b7d f13d 4672 f23c
00000330: 415b 77bd dbca 633d de69 ccbc 51d3 68bd
00000340: 6c4e df3d a2f6 0c3e e362 253e e06e b5bc
00000350: bcf3 7f3d ead5 bcbd 4f06 e13d abf6 f63d
00000360: b3bb dd3d 2fc1 8abd a8e8 da3d 9581 21bd
00000370: 925f 8fbc 01b1 8abd fa80 093d d9f5 4ebd
00000380: 7682 9c3d 2b0b f6bd d87f 823d d036 cebd
00000390: 0e65 9d3d 7493 7a3c 932a ec3d 0dce c3bd
000003a0: 2b35 a13d fbe8 ba3c 9c31 c43d 403a 523d
000003b0: 28cc 403e 1ad8 b33d 8526 c0bd e83f a63c
000003c0: 288e a7bd b2f1 21bc 82d6 05bd 2079 2ebc
000003d0: 65e5 0d3e 35a7 e53d ad45 d6bd 9c2a 46bc
000003e0: 3175 983d 0c48 f43d fbff 093e 5b30 333d
000003f0: 546c 503b e751 723d 2ed5 0d3e 9ae2 6abd

lstm.bias_hh_l1 f4 [256]
0.09648173 -0.081229664 0.02123753 -0.05306149 -0.008410021 0.13888508 -0.079044074 0.098565556
-0.048180036 0.112319976 -0.05932929 0.14069948 0.036472958 -0.052912343 -0.05118364 -0.08317871
-0.009451739 0.13716322 0.028039444 0.127596 0.068758726 0.12811783 -0.07935099 0.14804673
0.07205046 -0.06928993 0.119866066 0.029776372 0.09425513 0.04817463 0.13337217 -0.019334612
0.040030047 -0.10759132 0.10480102 0.08632089 0.08172015 0.060332928 0.06712559 0.02909092
-0.011892663 -0.060248986 0.06616316 -0.068792924 0.007619506 0.15506442 -0.0747939 0.07316087
0.032072008 0.0787869 -0.04059061 0.07440237 -0.079662316 -0.05108013 -0.060885895 0.036798816
0.13069525 -0.067189954 0.14671324 0.07988214 -0.04681966 -0.04289714 0.111658536 -0.04459856
0.05621421 0.11479477 -0.10044566 0.027029779 0.052065525 0.11655863 0.12958789 -0.07966296
-0.065066576 -0.07045043 0.0917036 -0.06664095 -0.0011959479 -0.07373676 0.1369185 0.10188413
0.059250407 -0.030230582 0.0032525952 0.040732715 0.11697732 -0.018560091 0.029580005 0.009565405
0.0834507 0.06703882 -0.12136427 -0.09617265 0.11371131 0.017242534 -0.01726796 -0.025140626
0.029065311 -0.062412333 -0.08545585 -0.10548674 0.111440115 -0.054568578 -0.011755739 0.037460245
-0.025539331 -0.06613044 -0.06784548 0.027705606 0.08338179 -0.07962492 0.023945052 0.08451326
-0.03163345 0.124692306 0.005859235 0.11521949 0.03638463 0.072705135 0.0064593283 -0.009398884
0.08001092 0.04872862 -0.068861015 0.00026327363 -0.0837677 -0.10166377 0.026856592 0.0942521
0.05444829 -0.1327698 -0.031193672 0.07441983 0.04469865 -0.032998778 0.01855171 0.0018974778
0.058722593 -0.11514812 0.09231726 -0.114455864 -0.062312067 -0.073130295 -0.06141229 0.05424492
-0.118260644 -0.016167676 -0.09887026 0.022731649 -0.08885086 -0.12871966 0.057279203 0.09137156
0.051424958 -0.050735988 0.019374581 -0.0046866173 0.09677495 -0.09958576 -0.11648282 0.023874028
0.1312874 -0.094171405 -0.101346456 -0.070326395 0.032837998 -0.10383203 0.12149109 0.009800633
-0.056067117 0.070409335 0.04574934 0.11568937 0.037559174 -0.069573544 -0.035479646 -0.096381605
-0.013972156 0.049381 0.005179197 0.09371977 0.09840043 0.11675805 -0.11225 -0.11052362
-0.08227842 0.01614886 0.118440144 -0.035353776 -0.014887733 -0.11251811 -0.008412291 -0.116887465
-0.002231498 0.028406698 -0.059085447 0.10823568 -0.026515907 -0.089933425 0.071860105 0.02288931
-0.06514616 0.067023076 0.046707135 -6.170353e-05 -0.024756834 0.060901295 0.09421807 0.0043208315
0.13085629 0.10654158 -0.050815165 0.06674181 -0.039738346 0.07851897 -0.089823835 0.04628739
0.014664743 0.024545353 0.004767843 -0.03382275 0.06397547 -0.07579728 0.12650381 -0.009053101
-0.07487542 0.0847277 0.03614886 -0.022755882 -0.10934046 0.017467974 0.00071430905 -0.055807695
0.11172152 -0.095977284 0.09121525 0.07246763 0.16467716 -0.0019455231 0.015736794 0.034141034
0.1311462 0.1276622 0.0351229 0.087409385 0.067454465 0.006674464 0.119648494 0.076757245
-0.06642421 -0.018699152 0.06389735 0.08034297 -0.11562332 0.029644143 -0.06317265 -0.11125782
00000000: 3798 c53d bd5b a6bd 54fa ad3c 0157 59bd
00000010: 2fca 09bc e437 0e3e dce1 a1bd bddc c93d
00000020: 6e58 45bd 0408 e63d 4503 73bd 8613 103e
00000030: ab64 153d 9dba 58bd f0a5 51bd 9959 aabd
00000040: 77db 1abc 8474 0c3e fab2 e53c 87a8 023e
00000050: 60d1 8c3d 5231 033e c682 a2bd 9099 173e
00000060: 318f 933d e1e7 8dbd 577c f53d 94ed f33c
00000070: d508 c13d c352 453d b792 083e 9f63 9ebc
00000080: 8cf6 233d d758 dcbd eba1 d63d 02c9 b03d
00000090: e55c a73d a91f 773d 2479 893d 1550 ee3c
000000a0: 72d9 42bc a4c7 76bd 8d80 873d 4ee3 8cbd
000000b0: 0dad f93b 35c9 1e3e 8b2d 99bd 5ed5 953d
000000c0: f05d 033d 075b a13d 5742 26bd 4560 983d
000000d0: ff25 a3bd 6639 51bd 7d63 79bd 5bba 163d
000000e0: fad4 053e e39a 89bd ff3b 163e 3f99 a33d
000000f0: f9c5 3fbd e9b4 2fbd 3bad e43d fbac 36bd
00000100: df40 663d 8519 eb3d 74b6 cdbd 8e6d dd3c
00000110: a942 553d 4ab6 ee3d b0b2 043e 5526 a3bd
00000120: a041 85bd 5148 90bd 19cf bb3d 0d7b 88bd
00000130: 5ac1 9cba 4c03 97bd 5d34 0c3e a0a8 d03d
00000140: 8eb0 723d 20a6 f7bc 7e29 553b 59d7 263d
00000150: ce91 ef3d 550b 98bc c451 f23c 37b8 1c3c
00000160: 33e8 aa3d a64b 893d d58d f8bd 2bf6 c4bd
00000170: 7ae1 e83d 3740 8d3c 8975 8dbc b7f3 cdbc
00000180: 601a ee3c 13a4 7fbd 7a03 afbd 6f09 d8bd
00000190: b73a e43d 4d83 5fbd 259b 40bc ea6f 193d
000001a0: dc37 d1bc 656f 87bd 92f2 8abd def6 e23c
000001b0: 12c4 aa3d 6412 a3bd 6a28 c43c 4a15 ad3d
000001c0: 1492 01bd ae5e ff3d d3fe bf3b 32f8 eb3d
000001d0: 0d08 153d 6ee6 943d c6a8 d33b c7fd 19bc
000001e0: c4dc a33d a997 473d 0107 8dbd fd07 8a39
000001f0: 668e abbd 1835 d0bd 5b02 dc3c 3f07 c13d
00000200: 2c05 5f3d cef4 07be df89 ffbc 6d69 983d
00000210: ee15 373d ba29 07bd c1f9 973c cab4 f83a
00000220: 1a87 703d c7d2 ebbd d510 bd3d d667 eabd
00000230: f03a 7fbd 56c5 95bd 748b 7bbd ec2f 5e3d
00000240: a332 f2bd 1372 84bc 7e7c cabd b937 ba3c
00000250: 71f7 b5bd 16cf 03be 999d 6a3d 0321 bb3d
00000260: faa2 523d 8ad0 4fbd 71b7 9e3c 3292 99bb
00000270: f231 c63d 9ef3 cbbd 8b8e eebd 7793 c33c
00000280: 3470 063e f0dc c0bd bb8e cfbd 4907 90bd
00000290: 2381 063d e3a5 d4bd 52d0 f83d d692 203c
000002a0: a2a6 65bd c532 903d a963 3b3d 8cee ec3d
000002b0: a6d7 193d 937c 8ebd 1b53 11bd b863 c5bd
000002c0: 78eb 64bc bb43 4a3d 41b6 a93b 27f0 bf3d
000002d0: 2a86 c93d d81e ef3d 54e3 e5bd 355a e2bd
000002e0: 9781 a8bd 9d4a 843c bf90 f23d 1fcf 10bd
000002f0: aeeb 73bc e56f e6bd b5d3 09bc b262 efbd
00000300: 533e 12bb 2ab5 e83c 9503 72bd abaa dd3d
00000310: e337 d9bc 042f b8bd 642b 933d 5d82 bb3c
00000320: 5a6b 85bd 6543 893d fb4f 3f3d d566 81b8
00000330: d8ce cabc a373 793d 67f5 c03d c395 8d3b
00000340: 31ff 053e 7932 da3d 9023 50bd eeaf 883d
00000350: adc4 22bd 8ece a03d 8ff5 b7bd d997 3d3d
00000360: 6444 703c 5613 c93c 913b 9c3b b989 0abd
00000370: 9205 833d 9b3b 9bbd 378a 013e 7553 14bc
00000380: 4958 99bd b785 ad3d d410 143d 8b6a babc
00000390: e4ed dfbd ff18 8f3c 7840 3b3a 9c96 64bd
000003a0: 41ce e43d bd8f c4bd 10cf ba3d e969 943d
000003b0: 21a1 283e ec00 ffba 73ea 803c 78d7 0b3d
000003c0: 304b 063e e1b9 023e 08dd 0f3d b103 b33d
000003d0: 9125 8a3d 76b5 da3b 450a f53d e732 9d3d
000003e0: 6b09 88bd f72e 99bc 9ddc 823d db8a a43d
000003f0: ebcb ecbd 46d8 f23c aa60 81bd 24db e3bd
